DQN - Pendulum/data/Apprentice 8.pt (torch, 39996 bytes, 8 tensors)

input_layer.weight f4 [64, 3]
-0.49555176 -0.6772915 0.25434104 0.48288906 -0.41164565 -0.13922317 0.4333159 -0.82801604
0.045929816 0.20078686 -0.5745799 -0.113001175 -0.46050754 -0.36990494 -0.047871 0.591446
-0.30023375 -0.12830257 -0.8524235 -0.0042189225 0.04713988 0.51542646 0.18823652 0.1241065
0.7588745 0.48979115 0.26744995 -0.26196355 -0.14250961 -0.02745186 0.17241478 0.016232558
-0.07492256 -0.4428698 -0.37858018 0.13330051 0.30570793 0.73893934 -0.039515343 0.404471
-0.103942975 -0.15178294 0.41611958 0.67163956 -0.04881873 0.18165652 -0.35993794 0.0089275995
0.34183604 0.6306109 -0.016167684 0.28448573 0.6355796 0.036661893 0.5935135 -0.5275565
0.07189533 -0.5618442 -0.049638275 0.3081974 0.24970202 0.8328684 0.28699082 0.123494275
-0.6289619 0.012291039 0.09349678 0.831836 0.07015913 0.0011280398 0.39765415 0.008175427
0.46973807 -0.7546456 -0.087119505 -0.54409516 -0.29817304 -0.20467909 -0.4669572 0.34311783
0.011486386 -0.41838515 0.2573627 0.17000356 0.49985713 0.08293673 0.036935262 -0.4520843
0.65618145 0.28295135 -0.19511485 -0.7832602 -0.034890253 -0.17484519 -0.73945314 -0.1299404
-0.6467968 0.53901404 0.07385715 -0.61842126 0.37311375 0.09295309 0.45137614 0.43630773
0.15439075 0.2618996 -1.2030505 0.057151135 -0.22323404 0.31497705 0.0039969273 -0.028128525
-1.0720382 -0.02283995 -0.22761996 0.5815069 0.08519337 -0.21995121 0.3831487 0.112947226
0.29828548 -0.36479628 -0.25107768 0.4119769 0.67147464 -0.17415212 -0.71984977 0.0023268564
0.14900425 0.6623281 -0.5303653 -0.24831194 -0.058096267 -0.934222 0.28781775 -0.04220469
-0.9291492 -0.09156564 -0.2181075 -0.36245766 -0.085988365 -0.06210599 -0.093685575 -0.14869544
-0.29812747 -0.55622387 0.117462404 -0.4907123 0.19516832 0.18175358 -0.11870035 -1.1041899
-0.09952279 0.034729593 -0.1316998 0.00034422224 0.21854478 0.27780882 0.17327455 -0.3408088
-0.18760943 -0.12163642 0.13597582 -0.05553293 -0.1998727 -0.021682642 0.98269147 0.19838576
0.21445248 0.14769214 0.060940865 0.16554461 -0.4510555 0.08979519 0.1825295 -0.23104064
0.08853527 -0.44879043 0.2812721 0.09893 0.39036077 -0.48690596 -0.06501359 -0.23460853
0.7280746 0.098078534 0.63296753 0.5486555 -0.089517154 0.18075933 0.27215257 -0.042313766
00000000: f6b8 fdbe fa62 2dbf fd38 823e 3c3d f73e
00000010: 38c3 d2be 8590 0ebe 95db dd3e dcf8 53bf
00000020: e720 3c3d 129b 4d3e ab17 13bf 296d e7bd
00000030: a5c7 ebbe 2e64 bdbe 6214 44bd 0169 173f
00000040: 3db8 99be c061 03be 6d38 5abf e33e 8abb
00000050: bf15 413d fdf2 033f 13c1 403e 8c2b fe3d
00000060: 9945 423f e8c5 fa3e 33ef 883e 1620 86be
00000070: 0aee 11be b9e2 e0bc 808d 303e 24fa 843c
00000080: 0071 99bd d5bf e2be 43d5 c1be ee7f 083e
00000090: c085 9c3e 212b 3d3f d7da 21bd d316 cf3e
000000a0: 0ee0 d4bd fd6c 1bbe a00d d53e 92f0 2b3f
000000b0: 26f6 47bd 2b04 3a3e c949 b8be 1145 123c
000000c0: 2205 af3e b76f 213f 1772 84bc 1da8 913e
000000d0: 58b5 223f c82a 163d 80f0 173f f10d 07bf
000000e0: dc3d 933d 06d5 0fbf 8151 4bbd 0dcc 9d3e
000000f0: e3b1 7f3e dd36 553f 76f0 923e 91ea fc3d
00000100: a603 21bf 5b60 493c 3d7b bf3d 34f3 543f
00000110: 97af 8f3d bcda 933a 5399 cb3e 3af2 053c
00000120: 8281 f03e 7430 41bf b66b b2bd d249 0bbf
00000130: 23aa 98be 6597 51be 0415 efbe 24ad af3e
00000140: 6531 3c3c 9436 d6be 0bc5 833e 6a15 2e3e
00000150: 46ed ff3e bbda a93d 6e49 173d 9877 e7be
00000160: 82fb 273f 00df 903e 30cc 47be be83 48bf
00000170: 15e9 0ebd 9e0a 33be cd4c 3dbf 190f 05be
00000180: 7a94 25bf d3fc 093f 6b42 973d db50 1ebf
00000190: c408 bf3e 315e be3d c61a e73e ba63 df3e
000001a0: 9c18 1e3e b417 863e 8ffd 99bf 4f17 6a3d
000001b0: 7797 64be ac44 a13e a8f8 823b cb6d e6bc
000001c0: 8c38 89bf d91a bbbc 3515 69be a3dd 143f
000001d0: dd79 ae3d e43a 61be 112c c43e e050 e73d
000001e0: e0b8 983e 94c6 babe 418d 80be a3ee d23e
000001f0: c3e5 2b3f ef54 32be 1348 38bf 2c7e 183b
00000200: 9294 183e 568e 293f 05c6 07bf 7c45 7ebe
00000210: 5af6 6dbd 2c29 6fbf d95c 933e d3de 2cbd
00000220: b9dc 6dbf c486 bbbd 9357 5fbe 0d94 b9be
00000230: ab1a b0bd da62 7ebd 39de bfbd 9e43 18be
00000240: 2aa4 98be b064 0ebf 2190 f03d a53e fbbe
00000250: 34da 473e 9c1d 3a3e 2b19 f3bd 1856 8dbf
00000260: 9bd2 cbbd 9e40 0e3d 50dc 06be ba78 b439
00000270: 34ca 5f3e f53c 8e3e e26e 313e 7e7e aebe
00000280: b01c 40be 841c f9bd 3f3d 0b3e 7f76 63bd
00000290: 6eab 4cbe cc9f b1bc ab91 7b3f a325 4b3e
000002a0: 6e99 5b3e 9c3c 173e 219d 793d 8784 293e
000002b0: bff0 e6be 8ae6 b73d 03e9 3a3e eb95 6cbe
000002c0: fb51 b53d dcc7 e5be e602 903e d09b ca3d
000002d0: 5edd c73e bd4b f9be d825 85bd 383d 70be
000002e0: 1963 3a3f 66dd c83d 290a 223f b074 0c3f
000002f0: c554 b7bd f918 393e 9557 8b3e 3351 2dbd

input_layer.bias f4 [64]
-0.5857559 -0.34253556 -0.31787854 0.09473344 0.08132025 -0.310099 0.06475348 -0.79840416
-0.6423981 -0.16023238 0.08153576 -0.30155134 -0.014770937 -0.66221684 -0.09755052 -0.20811857
-0.12297322 -0.2892993 -0.24149343 -0.95360935 -0.7434106 -0.122108676 -0.37002784 0.028296646
0.07084041 -0.31828114 0.38450056 -0.3553925 -0.32989866 -0.34847906 -0.15458573 -0.3581582
0.095697366 0.114639916 -0.2800447 -0.3968878 0.23633584 -0.17806073 -0.14021812 0.15874639
-1.1590229 -0.88523126 0.01403553 -0.89394623 -1.011582 -0.25800017 -0.08739036 -0.60362935
-0.36891803 -0.30907628 -0.6140996 -0.1439885 -0.713744 -0.27678558 -0.9952999 -0.2878221
0.0659673 -0.36245498 0.11035716 -0.1612935 -0.3688489 0.19898362 -0.21004553 -0.28948286
00000000: 19f4 15bf d260 afbe fac0 a2be 9b03 c23d
00000010: 3b8b a63d 4cc5 9ebe 799d 843d 3764 4cbf
00000020: 3474 24bf f513 24be 38fc a63d f064 9abe
00000030: cd01 72bc 0b87 29bf 91c8 c7bd 091d 55be
00000040: 62d9 fbbd 0a1f 94be 0e4a 77be be1f 74bf
00000050: 2850 3ebf 1d14 fabd 4a74 bdbe 5ece e73c
00000060: c714 913d bff5 a2be 42dd c43e 01f6 b5be
00000070: 7ae8 a8be d96b b2be b94b 1ebe 8360 b7be
00000080: fbfc c33d 55c8 ea3d 0562 8fbe e134 cbbe
00000090: 0602 723e 8d55 36be 5795 0fbe 6a8e 223e
000000a0: dd5a 94bf 849e 62bf 48f5 653c a9d9 64bf
000000b0: 857b 81bf 9918 84be b8f9 b2bd 7487 1abf
000000c0: d3e2 bcbe 3f3f 9ebe a235 1dbf b971 13be
000000d0: edb7 36bf d7b6 8dbe f9cb 7ebf 6b5d 93be
000000e0: dd19 873d b393 b9be ef02 e23d 202a 25be
000000f0: c3d9 bcbe 5dc2 4b3e 2d16 57be 1937 94be

hidden_layer_1.weight f4 [64, 64]
0.06336516 0.07255701 -0.12738976 -0.039324805 0.009008012 -0.08357018 0.01921707 0.051585827
0.021020958 0.033328768 -0.033450473 0.057176214 0.12031096 -0.0073474543 -0.09429343 0.04517732
-0.072742164 -0.07778143 0.025669435 0.051736206 -0.13478835 0.06862815 -0.12619956 -0.1241669
0.10749361 0.06760736 -0.019441083 0.011802157 -0.02477109 -0.099355444 -0.075907625 -0.04351048
-0.021548938 0.03357941 -0.11865948 0.11058052 -0.030846523 -0.033460002 -0.036615096 -0.08046679
0.018968882 -0.01802013 0.0041757426 -0.09902236 -0.092541 -0.14822492 -0.15374133 -0.07148254
0.06011816 0.037784148 -0.008310622 -0.0946209 0.00296673 0.09263426 -0.036372248 0.007467102
0.105987005 -0.024562672 -0.09028079 0.033905018 -0.08474069 0.022629507 -0.08354923 0.121186845
-0.15561728 -0.0363607 -0.10703047 -0.13956934 -0.11614008 -0.06741865 0.048240196 -0.12020188
-0.015310344 0.055242732 -0.121662155 -0.033508267 -0.047845494 -0.032997847 0.0335358 0.042151168
0.0020338257 -0.11416936 0.04688992 -0.010562329 -0.0987497 0.0798774 -0.026585326 -0.0048588295
-0.08040705 -0.11598153 -0.04570426 0.03292669 0.0026160728 -0.03493645 -0.047442026 0.079701446
-0.03814327 -0.08800368 0.076686166 0.04893897 -0.06395064 0.021943375 0.027387738 -0.04385615
-0.018917203 -0.10584319 -0.055642962 0.08022029 0.006531406 0.044549536 -0.08970556 -0.075913355
-0.15423715 -0.12350711 0.055857826 0.02783449 0.01402111 -0.048501518 -0.073920995 -0.009443441
-0.1510854 -0.15121053 -0.027657466 0.08476482 0.017124947 -0.12120525 -0.08242897 0.048835468
-0.17563821 0.09787818 -0.16472323 -0.043364424 -0.15337613 -0.0029665558 -0.13185188 -0.25318778
-0.099053405 -0.1315096 -0.11686266 -0.05886744 -0.16936608 0.11494922 0.028438486 -0.48448104
-0.1418397 0.13731739 -0.3583579 -0.2066297 0.026891265 -0.6864309 0.09431814 -0.40478978
-0.11495776 0.069523044 -0.44025868 0.057534914 -0.14415362 -0.16493088 -1.0335205 0.04954923
-0.1950186 -0.14461197 0.02985542 -0.24705884 -0.15654664 -1.2176174 -0.0053497413 -0.021580974
0.23512317 0.011381475 -0.13920087 0.087436356 -0.23518595 -0.06264279 0.105262 0.17557009
-0.0043507973 -0.12120788 -0.6353932 -0.2619271 -0.02392253 0.02350961 0.34096715 -0.0105116945
-0.039547857 -0.17639689 -0.11988419 -0.005039783 0.099968165 0.033842277 0.045692828 0.010412993
-0.07120502 0.04000081 -0.17754613 -0.043780502 -0.09159004 -0.058855508 -0.28181073 0.00826171
-0.08630684 -0.17364326 -0.06689807 -0.116551235 0.010775104 0.044659525 -0.051626835 -0.089099385
-0.1132467 0.07021633 -0.060720373 -0.0388695 0.017508626 -0.03203685 0.06881563 -0.029745469
-0.10984493 0.012205419 -0.06110333 -0.12066299 -0.08397893 -0.0015094429 -0.12647796 -0.05153584
-0.1638543 -0.018328054 -0.09070949 -0.015993407 -0.023568923 -0.16928111 -0.14088018 -0.23035376
-0.017569093 0.12648886 -0.10690317 -0.09445959 -0.12347421 0.05125948 7.20982e-05 0.09883499
0.13567545 0.058863014 0.10754087 0.06719026 -0.08553605 0.06904319 -0.048721373 0.085914545
-0.11517102 -0.05721028 -0.065509185 -0.037040945 0.02901464 -0.01792875 -0.16218945 0.01829188
00000000: 98c5 813d c598 943d 7672 02be 0c13 21bd
00000010: 5796 133c d826 abbd 1e6d 9d3c a94b 533d
00000020: 2534 ac3c bf83 083d 5d03 09bd 9b31 6a3d
00000030: 9865 f63d eac2 f0bb ea1c c1bd da0b 393d
00000040: d8f9 94bd df4b 9fbd b548 d23c 58e9 533d
00000050: f505 0abe ea8c 8c3d 753a 01be 374b febd
00000060: 9c25 dc3d ba75 8a3d e842 9fbc d65d 413c
00000070: beec cabc de7a cbbd 7575 9bbd 0c38 32bd
00000080: 6687 b0bc 908a 093d be03 f3bd 0a78 e23d
00000090: d9b1 fcbc 5b0d 09bd b6f9 15bd c6cb a4bd
000000a0: a164 9b3c f49e 93bc abd4 883b 3ccc cabd
000000b0: 2386 bdbd 46c8 17be 5e6e 1dbe 7065 92bd
000000c0: 763e 763d 8dc3 1a3d 4629 08bc 9ac8 c1bd
000000d0: 786d 423b 08b7 bd3d 11fb 14bd 97ae f43b
000000e0: b70f d93d a837 c9bc 23e5 b8bd fddf 0a3d
000000f0: 878c adbd 8461 b93c dc1b abbd cf30 f83d
00000100: 235a 1fbe f5ee 14bd cb32 dbbd 44eb 0ebe
00000110: dada edbd ca12 8abd 8397 453d 672c f6bd
00000120: 3dd8 7abc 3446 623d 022a f9bd f73f 09bd
00000130: a3f9 43bd c028 07bd d65c 093d b4a6 2c3d
00000140: ef49 053b a0d1 e9bd a50f 403d 9e0d 2dbc
00000150: 483d cabd c396 a33d 78c9 d9bc d136 9fbb
00000160: 74ac a4bd b987 edbd 6434 3bbd 23de 063d
00000170: 6b72 2b3b 8619 0fbd 9252 42bd 833a a33d
00000180: 1e3c 1cbd 463b b4bd a30d 9d3d 3b74 483d
00000190: 8ef8 82bd 98c2 b33c 405c e03c 82a2 33bd
000001a0: 40f8 9abc 50c4 d8bd e0e9 63bd 894a a43d
000001b0: 6805 d63b 9379 363d 8cb7 b7bd 7678 9bbd
000001c0: 58f0 1dbe 4cf1 fcbd 2dcb 643d 2805 e43c
000001d0: ccb8 653c 87a9 46bd e463 97bd aab8 1abc
000001e0: 22b6 1abe efd6 1abe e991 e2bc 2e99 ad3d
000001f0: 9e49 8c3c 753a f8bd 85d0 a8bd b307 483d
00000200: 81da 33be 5b74 c83d 35ad 28be e59e 31bd
00000210: a20e 1dbe 8c6a 42bb 2e04 07be d4a1 81be
00000220: 83dc cabd 74aa 06be b155 efbd fc1e 71bd
00000230: 4d6e 2dbe 7f6a eb3d d4f7 e83c e60d f8be
00000240: 6d3e 11be ee9c 0c3e b07a b7be bc96 53be
00000250: 124b dc3c efb9 2fbf de29 c13d 9b40 cfbe
00000260: f96e ebbd 1962 8e3d 9669 e1be bba9 6b3d
00000270: 029d 13be a4e3 28be 664a 84bf 22f4 4a3d
00000280: f5b2 47be 2915 14be 5b93 f43c fefc 7cbe
00000290: c34d 20be e3da 9bbf e24c afbb 95ca b0bc
000002a0: 21c4 703e 5e79 3a3c ac8a 0ebe d511 b33d
000002b0: 96d4 70be dd4a 80bd 9a93 d73d a5c8 333e
000002c0: 2291 8ebb d63b f8bd 21a9 22bf 4f1b 86be
000002d0: 2ef9 c3bc 3a97 c03c 3f93 ae3e 3e39 2cbc
000002e0: effc 21bd 63a1 34be d885 f5bd c424 a5bb
000002f0: 1cbc cc3d 339e 0a3d 6728 3b3d 429b 2a3c
00000300: f0d3 91bd e4d7 233d a7ce 35be 2f53 33bd
00000310: 8f93 bbbd 7912 71bd 7f49 90be 205c 073c
00000320: a4c1 b0bd 8acf 31be db01 89bd 6ab2 eebd
00000330: 108a 303c e8ec 363d a976 53bd bd79 b6bd
00000340: e3ed e7bd 94cd 8f3d edb5 78bd a035 1fbd
00000350: 406e 8f3c 1239 03bd 36ef 8c3d c5ac f3bc
00000360: 61f6 e0bd 3df9 473c 7c47 7abd 281e f7bd
00000370: 25fd abbd 80d8 c5ba 7083 01be 3f17 53bd
00000380: 6cc9 27be b724 96bc e6c5 b9bd 9b04 83bc
00000390: 9d13 c1bc 0758 2dbe e542 10be dbe1 6bbe
000003a0: 0fed 8fbc 4c86 013e 0df0 dabd 0874 c1bd
000003b0: 0ce0 fcbd 76f5 513d 6d33 9738 006a ca3d
000003c0: 81ee 0a3e 581a 713d 633e dc3d 0c9b 893d
000003d0: 862d afbd 8466 8d3d 1090 47bd f7f3 af3d
000003e0: c9de ebbd 5455 6abd ae29 86bd 3fb8 17bd
000003f0: 1cb0 ed3c 50df 92bc fe14 26be dad8 953c

hidden_layer_1.bias f4 [64]
-0.14121947 -0.0116234915 -0.09458473 -0.0038822503 -0.044891275 -0.19512634 0.09444533 0.013004593
0.008104496 0.14056899 0.13492337 -0.14122659 0.00056787167 -0.04391001 0.17033891 0.12920296
0.07431 0.025765989 0.20718034 0.08615584 -0.016629407 0.2137847 -0.10646962 -0.06946002
0.3714357 0.09652549 -0.10011948 0.117244534 0.010740722 0.0074427687 -0.10477753 0.058935344
-0.13118215 0.034745295 0.17791608 0.0377266 -0.08236997 0.16327901 -0.020937996 0.1087189
-0.13133939 -0.18389343 0.13196483 0.0004857916 0.0995364 0.14733668 -0.039838325 -0.13275826
-0.12710476 -0.13023292 0.13641314 0.27899635 -0.020877525 0.16281025 0.29478332 0.03584826
-0.15702322 -0.36289656 -0.16573498 0.07668887 0.034354594 0.0053027705 -0.13399625 -0.18718939
00000000: d69b 10be 7570 3ebc a4b5 c1bd 5a6d 7ebb
00000010: eadf 37bd 33cf 47be 8e6c c13d 3711 553c
00000020: b8c8 043c 51f1 0f3e 5a29 0a3e b49d 10be
00000030: 39dd 143a fcda 33bd 536d 2e3e c84d 043e
00000040: d72f 983d 3213 d33c 1527 543e 7972 b03d
00000050: 653a 88bc 60ea 5a3e be0c dabd 0e41 8ebd
00000060: d22c be3e 28af c53d 710b cdbd e71d f03d
00000070: daf9 2f3c 78e2 f33b 9a95 d6bd 3066 713d
00000080: 9d54 06be 1551 0e3d a22f 363e 3587 1a3d
00000090: 96b1 a8bd 9d32 273e 2986 abbc 04a8 de3d
000000a0: d57d 06be 8f4e 3cbe ca21 073e d8b1 fe39
000000b0: bdd9 cb3d 6ddf 163e 832d 23bd c8f1 07be
000000c0: c027 02be c75b 05be e3af 0b3e 9cd8 8e3e
000000d0: 5807 abbc bbb7 263e d7ed 963e a0d5 123d
000000e0: b2ca 20be 94cd b9be 6eb6 29be 0e0f 9d3d
000000f0: 67b7 0c3d ddc2 ad3b 5036 09be 93ae 3fbe

hidden_layer_2.weight f4 [64, 64]
0.07212261 0.07042429 -0.12548003 0.055400476 -0.12236564 -0.12909637 0.066024184 0.059957594
0.012872522 -0.1553268 -0.11372625 0.023720179 -0.14878157 -0.044926316 -0.015684221 -0.016396407
0.009211576 0.03378376 -0.017429294 -0.08752245 -0.11465381 -0.14234798 -0.1004332 -0.15276961
0.010986321 0.064142995 -0.16690838 -0.11766728 -0.07944948 -0.0884455 -0.09299095 -0.23111822
0.11064628 -0.0813371 -0.13682838 -0.06277932 0.014267038 -0.040501602 -0.10419338 -0.08768893
-0.14691482 -0.021824297 0.05232856 0.041411586 0.008305522 -0.12487643 -0.05333678 -0.10474536
0.10760917 -0.10260544 -0.11389125 -0.012385674 0.02535417 -0.19299941 -0.039349683 0.04021439
0.08210903 0.005367162 -0.02942945 0.019322893 -0.06802558 -0.08611761 -0.047247466 -0.24204886
0.06878921 -0.062791094 -0.0714231 -0.07278184 -0.03758983 -0.047626246 -0.34489176 -0.09969868
-0.006378712 0.01553072 -0.08668159 -0.08151474 -0.41847113 0.09407169 -0.051795095 -0.11886835
0.015783174 0.0037237615 -0.1268167 0.071141414 -0.17355728 0.016937422 0.016525134 -0.28016078
-0.20513979 0.124022186 -0.07494244 -0.07147521 -0.0071726074 -0.052041024 0.09515491 0.21153077
0.015838107 -0.1429326 -0.12722403 0.059618518 0.00800225 -0.07783635 -0.06498823 -0.2860373
0.17825153 0.043785103 -0.03400685 0.0980504 0.05782223 -0.1955171 -0.04485373 -0.10709478
0.16386846 0.09102127 -0.091104135 -0.40976626 0.04545482 -0.2044733 -0.09141948 -0.025966248
0.024019154 -0.2142449 -0.04388024 -0.047254447 -0.35444584 -0.23412743 0.020329889 -0.09027479
0.053299285 0.057294145 -0.019027192 -0.07503235 0.058974087 -0.49973124 -0.7805028 -0.11172729
0.09472368 -0.17408912 0.17298463 -0.028786588 -0.53382015 -0.0030310755 0.07953548 -0.110306606
-0.12781651 0.040337145 -0.29945967 -0.11500286 0.0079968525 -0.031556915 0.09352901 -0.20050919
-0.042590246 -0.22630791 -0.15929902 0.18393652 0.002953635 -0.07611455 0.047628175 0.089627944
0.06735356 0.10654372 0.18040583 0.15463121 0.048090905 0.004598938 0.14074044 -0.26345453
-0.23346683 0.021185294 -0.0026552547 -0.09520682 0.17019872 0.023339774 -0.025138909 -0.1309333
-0.13418978 -0.12764111 0.13549097 0.09038965 0.11614225 -0.11994494 0.0037307662 -0.028953329
-0.44739792 -0.54525083 0.056103453 -0.1957174 -0.13676153 -0.40826988 0.051999982 -0.28975084
0.012736484 -0.01622364 0.049719714 0.1204232 0.07155901 0.0043792482 -0.20116436 -0.42603162
-0.09284724 0.027110606 -0.13117906 -0.10911093 -0.10932628 -0.33971953 0.30443814 -0.40385777
-0.11128959 -0.08208366 -0.2288531 -0.027847331 -0.11681327 -0.37397814 0.023914129 -0.21278545
-0.29533866 -0.018024119 -0.5684397 -0.06479409 -0.007913739 -0.16150765 -0.1150146 -0.17894664
0.008752033 -0.102864526 -0.701801 -0.044799164 -0.10296044 0.01386597 0.08367255 -0.54091907
0.10623369 0.0077461386 0.09096345 0.016659949 -0.008515251 -0.41292003 -0.11103861 0.06323204
0.09591265 -0.06289656 0.08653522 -0.25239268 -0.03992848 0.10699209 -0.043639608 -0.008821681
-0.06251559 -0.071113154 -0.021862656 0.025680523 -0.51309663 -0.17308365 0.09280358 -0.0843979
00000000: 05b5 933d 9c3a 903d d67d 00be 9ceb 623d
00000010: d69a fabd d731 04be b037 873d 1896 753d
00000020: 45e7 523c fd0d 1fbe 4fe9 e8bd d250 c23c
00000030: 325a 18be a804 38bd 327c 80bc c251 86bc
00000040: 26ec 163c d760 0a3d e1c7 8ebc f83e b3bd
00000050: 9ecf eabd abc3 11be ecaf cdbd a36f 1cbe
00000060: f8ff 333c 675d 833d 08ea 2abe 8bfb f0bd
00000070: 69b6 a2bd ea22 b5bd 0a72 bebd 41aa 6cbe
00000080: 849a e23d 1194 a6bd bd1c 0cbe 7292 80bd
00000090: 4bc0 693c 02e5 25bd 5763 d5bd 4196 b3bd
000000a0: d770 16be dec8 b2bc 7956 563d 329f 293d
000000b0: e213 083c 37bf ffbd ab77 5abd bc84 d6bd
000000c0: 3262 dc3d cd22 d2bd d13f e9bd 48ed 4abc
000000d0: 8cb3 cf3c a3a1 45be 222d 21bd d8b7 243d
000000e0: c728 a83d 05df af3b 0816 f1bc 0b4b 9e3c
000000f0: ff50 8bbd 6e5e b0bd 8f86 41bd a8db 77be
00000100: 5be1 8c3d 9e98 80bd 4646 92bd a50e 95bd
00000110: cbf7 19bd bd13 43bd a795 b0be d22e ccbd
00000120: 8404 d1bb 9074 7e3c 1e86 b1bd 33f1 a6bd
00000130: d941 d6be a9a8 c03d 1827 54bd 4071 f3bd
00000140: b74b 813c 5a0a 743b 3ddc 01be 97b2 913d
00000150: 00b9 31be 59c0 8a3c b85f 873c 3c71 8fbe
00000160: 2a10 52be 58ff fd3d 6c7b 99bd 9861 92bd
00000170: 3108 ebbb f828 55bd 94e0 c23d 869b 583e
00000180: ebbe 813c ec5c 12be 0447 02be 8c32 743d
00000190: df1b 033c aa68 9fbd 8d18 85bd 7b73 92be
000001a0: 9287 363e 0258 333d c44a 0bbd a6ce c83d
000001b0: 01d7 6c3d a235 48be 8bb8 37bd 8254 dbbd
000001c0: 22cd 273e 5c69 ba3d ce94 babd e2cc d1be
000001d0: d52e 3a3d 7361 51be 233a bbbd 2bb7 d4bc
000001e0: d1c3 c43c 0463 5bbe c4bb 33bd e18d 41bd
000001f0: ed79 b5be 1abf 6fbe de8a a63c fde1 b8bd
00000200: 5a50 5a3d 44ad 6a3d eade 9bbc 90aa 99bd
00000210: d08e 713d c6dc ffbe 08cf 47bf 47d1 e4bd
00000220: 7dfe c13d 6b44 32be e222 313e dad1 ebbc
00000230: 70a8 08bf 02a5 46bb 7fe3 a23d 6ee8 e1bd
00000240: 55e2 02be 9038 253d c752 99be 9f86 ebbd
00000250: 3b05 033c d341 01bd 238c bf3d 4852 4dbe
00000260: 1c73 2ebd 43bd 67be 481f 23be db59 3c3e
00000270: c691 413b f2e1 9bbd c315 433d db8e b73d
00000280: aaf0 893d 9833 da3d 4ebc 383e a557 1e3e
00000290: f8fa 443d b0b2 963b 431e 103e 83e3 86be
000002a0: ee11 6fbe c88c ad3c c803 2ebb cbfb c2bd
000002b0: 9348 2e3e 0e33 bf3c 1df0 cdbc 6113 06be
000002c0: 0c69 09be 5ab4 02be 25be 0a3e 351e b93d
000002d0: fddb ed3d b1a5 f5bd df7f 743b 882f edbc
000002e0: 5711 e5be 8f95 0bbf bccc 653d 246a 48be
000002f0: 370b 0cbe c008 d1be effd 543d 395a 94be
00000300: b0ac 503c 70e7 84bc e6a6 4b3d 70a0 f63d
00000310: 888d 923d cc7f 8f3b 08fe 4dbe d120 dabe
00000320: b226 bebd 1017 de3c ce53 06be 8d75 dfbd
00000330: 75e6 dfbd b8ef adbe 51df 9b3e 72c6 cebe
00000340: cceb e3bd 7a1b a8bd 7858 6abe 1620 e4bc
00000350: cc3b efbd 107a bfbe 90e7 c33c 6ee4 59be
00000360: a136 97be 51a7 93bc 4485 11bf c4b2 84bd
00000370: a1a8 01bc 4362 25be c68c ebbd ca3d 37be
00000380: b064 0f3c a3aa d2bd 3ba9 33bf 547f 37bd
00000390: ecdc d2bd 182e 633c 845c ab3d ac79 0abf
000003a0: 0d91 d93d 52d3 fd3b 0c4b ba3d 727a 883c
000003b0: 8d83 0bbc 416a d3be 3668 e3bd cd7f 813d
000003c0: da6d c43d e9cf 80bd 6139 b13d 9d39 81be
000003d0: 0c8c 23bd ab1e db3d 72bf 32bd d088 10bc
000003e0: 2c08 80bd c6a3 91bd 5019 b3bc f65f d23c
000003f0: 4d5a 03bf d73c 31be ce0f be3d ced8 acbd

hidden_layer_2.bias f4 [64]
-0.04498652 -0.023830594 0.014364264 -0.01211209 -0.07889465 0.16440459 -0.013265204 -0.009729275
0.03573227 -0.1385719 -0.086151704 -0.17873727 -0.14211516 0.23175704 -0.22879891 -0.19273646
-0.10929262 -0.09198767 0.07005604 -0.030097088 -0.04057912 -0.20344394 -0.112633325 -0.1476497
-0.13071623 -0.22747053 -0.05864919 -0.101385646 -0.1431055 -0.09766894 -0.1654659 -0.21140741
-0.18444185 -0.12094403 -0.07065016 0.28433776 0.060245 -0.14479889 -0.07639775 0.17610838
-0.070298806 -0.079627335 -0.14452086 0.0079489695 -0.0073530236 -0.14378963 0.029775131 0.27279457
-0.10585093 -0.026103266 0.029273678 -0.15356453 -0.14795066 -0.24684879 -0.16889553 -0.08313652
0.19635339 -0.051135104 -0.06925641 -0.12739323 0.18393013 -0.1932672 -0.06147681 0.02281575
00000000: c943 38bd 6138 c3bc 1758 6b3c ca71 46bc
00000010: 8593 a1bd ad59 283e 4c56 59bc 8967 1fbc
00000020: 005c 123d cbe5 0dbe 4e70 b0bd e706 37be
00000030: a386 11be b851 6d3e 434a 6abe b55c 45be
00000040: cfd4 dfbd 0864 bcbd 8b79 8f3d 2b8e f6bc
00000050: 4b36 26bd 9c53 50be 4dac e6bd 7c31 17be
00000060: 7ada 05be 09ee 68be 223a 70bd 47a3 cfbd
00000070: 408a 12be a706 c8bd e56f 29be 2f7b 58be
00000080: 53de 3cbe 81b1 f7bd 08b1 90bd b894 913e
00000090: 76c3 763d 2946 14be 6c76 9cbd c155 343e
000000a0: d2f8 8fbd a813 a3bd 47fd 13be 653c 023c
000000b0: a2f1 f0bb 973d 13be faea f33c bbab 8b3e
000000c0: 5fc8 d8bd 84d6 d5bc 5acf ef3c 0540 1dbe
000000d0: 6180 17be eec5 7cbe f3f2 2cbe 7b43 aabd
000000e0: dd10 493e 0b73 51bd 4ed6 8dbd 5f73 02be
000000f0: 2e58 3c3e d6e7 45be 1ccf 7bbd 19e8 ba3c

output_layer.weight f4 [9, 64]
0.06723758 0.028544582 -0.021633806 0.0031352781 0.0059526674 0.1052126 0.018382536 0.013148368
-0.09113689 0.08130279 0.029162768 0.0016819084 0.107168525 0.14908558 0.011198825 -0.07219387
0.12423262 -0.082562864 -0.023839869 -0.036030438 4.2144522e-05 -0.002785066 0.033771556 0.017235342
-0.017517012 0.17796546 -0.018424498 0.013528783 -0.0134799965 -0.088246964 0.08338852 0.031688746
-0.055798434 0.07950664 -0.067271724 0.052984472 -0.04842494 -0.060339924 0.048571605 0.11416247
0.07427541 0.074277826 0.06377133 0.054696184 -0.10892163 0.06264996 0.0972636 0.1546613
-0.09911227 -0.04360162 0.07761765 0.08952763 -0.110675305 0.009062182 0.08698233 -0.07316209
-0.002408364 -0.75537926 -0.01163509 0.10235027 0.098045655 0.021731304 -0.01858173 0.09243977
-0.015445625 0.023171555 0.026339404 -0.3272294 0.029259237 0.09567019 0.007463135 0.0032126624
-0.12573871 0.0067571285 -0.04758629 -0.052500807 0.003949714 0.11710699 0.009751448 -0.02780256
0.054587316 -0.039435342 0.022253256 0.06986936 0.00047778952 0.013171327 0.13369802 -0.0011802064
0.10060805 0.13498968 -0.18017706 -0.0030834908 0.014264411 0.075600006 0.003983896 0.021052526
-0.05612265 0.051837936 0.021509245 0.094272465 -0.0148359835 0.07026074 -0.033899527 0.16543446
0.090814695 0.07533433 0.07698692 0.08789054 -0.047713105 -0.13424769 0.11598868 0.17352584
0.010144177 -0.0175291 0.0067637074 -0.12638006 0.049101934 -0.30640554 -0.0060572503 0.034985553
0.019486463 -0.08683427 -0.0106274765 0.03366863 0.065353155 -0.008584436 0.12741208 0.073509574
-0.02502122 0.036354635 -0.08048074 0.0044725914 -0.08817333 0.05679174 0.0049030012 0.006761547
-0.016595427 0.057084955 0.058302853 -0.069408126 0.016303584 0.12158869 -0.023364972 -0.17561606
-0.1446816 -0.034664214 0.019822573 -0.019600619 -0.02209842 0.038042735 0.11905744 0.10824993
0.03345684 0.11766116 -0.02734558 -0.013694076 0.14964537 0.06130128 0.09835714 -0.04985545
0.039182067 0.1479834 -0.07187778 0.10339113 0.025704429 -0.012957632 0.007861959 0.13199909
0.05011108 0.07053661 0.10879038 0.09844273 -0.06029863 0.04758814 0.11748369 0.14213805
-0.016668288 -0.062110875 0.13341464 0.009143812 0.09008534 0.0054021515 -0.063873366 0.05393023
0.017344125 -0.041434687 0.020265905 0.021586856 0.103158906 -0.00093486084 -0.11319057 0.09952887
0.052257758 0.06839659 -0.08242317 0.071514845 -0.025005402 0.047138408 0.08806684 0.019608667
-0.010305045 -0.029738339 0.078110486 0.0061621745 0.057381786 0.1366382 -0.008148607 0.025668753
0.012905884 -0.0715285 0.030820629 -0.22563489 -0.058593184 0.0013715718 -0.10768344 0.05107169
0.012753662 0.117411405 -0.031491816 0.0618066 0.019983323 0.049386352 0.035066236 0.0377147
-0.031668566 0.10907735 0.004722863 0.05999584 0.0436611 -0.039093155 -0.16172273 0.13016392
0.021407519 -0.01663131 0.09001923 0.061640356 -0.014908305 -0.10235176 0.038883615 0.15230604
-0.098678015 0.0023784821 0.062217843 -0.14194416 -0.05960901 -0.00837737 0.016877532 0.052742083
0.073894754 -0.030685378 0.01162624 0.055936195 0.11377877 0.08313717 -0.07114721 0.085400864
00000000: dbb3 893d 54d6 e93c 6139 b1bc 3d79 4d3b
00000010: 980e c33b b479 d73d f996 963c 416c 573c
00000020: faa5 babd 1482 a63d c2e6 ee3c 7b73 dc3a
00000030: 2c7b db3d e4a9 183e 477b 373c 61da 93bd
00000040: ac6d fe3d b816 a9bd d44b c3bc a794 13bd
00000050: 56c4 3038 a785 36bb 0b54 0a3d 2231 8d3c
00000060: d67f 8fbc 943c 363e f9ee 96bc d4a7 5d3c
00000070: 34db 5cbc d3ba b4bd 9ac7 aa3d 0fcc 013d
00000080: e68c 64bd 61d4 a23d c2c5 89bd 3f06 593d
00000090: 3b59 46bd ff26 77bd 05f3 463d 03ce e93d
000000a0: b51d 983d f91e 983d 8b9a 823d 1b09 603d
000000b0: 4e12 dfbd 9f4e 803d 2332 c73d 885f 1e3e
000000c0: 60fb cabd 9d97 32bd 01f6 9e3d 435a b73d
000000d0: bca9 e2bd 8c79 143c cb23 b23d 01d6 95bd
000000e0: a5d5 1dbb 8960 41bf 1ba1 3ebc 059d d13d
000000f0: 29cc c83d d905 b23c b638 98bc 1051 bd3d
00000100: a60f 7dbc 46d2 bd3c bcc5 d73c 9d8a a7be
00000110: 11b1 ef3c bcee c33d 508d f43b 888b 523b
00000120: a6c1 00be e76a dd3b d7e9 42bd 160b 57bd
00000130: 9a6c 813b cad5 ef3d 8ac4 1f3c 32c2 e3bc
00000140: f396 5f3d f486 21bd 764c b63c ab17 8f3d
00000150: d37f fa39 8dcc 573c 22e8 083e 28b1 9aba
00000160: 980b ce3d bc3a 0a3e 5680 38be 6414 4abb
00000170: 47b5 693c 2dd4 9a3d 588b 823b 5976 ac3c
00000180: dde0 65bd 0454 543d 2834 b03c ec11 c13d
00000190: a012 73bc dde4 8f3d 3bda 0abd a767 293e
000001a0: 0efd b93d e348 9a3d 51ab 9d3d f5ff b33d
000001b0: d16e 43bd 3a78 09be 798b ed3d c2b0 313e
000001c0: c333 263c 3099 8fbc 17a2 dd3b c669 01be
000001d0: 1c1f 493d 30e1 9cbe e67b c6bb 034d 0f3d
000001e0: 13a2 9f3c 2ad6 b1bd de1e 2ebc 1ee8 093d
000001f0: e0d7 853d bca5 0cbc 5078 023e 308c 963d
00000200: 4df9 ccbc 99e8 143d 16d3 a4bd d18e 923b
00000210: 3894 b4bd 759e 683d 5ba9 a03b f88f dd3b
00000220: 22f3 87bc ead1 693d f9ce 6e3d d925 8ebd
00000230: 188f 853c 7e03 f93d e667 bfbc b2d4 33be
00000240: 6a27 14be 10fc 0dbd f362 a23c 7a91 a0bc
00000250: bf07 b5bc b3d2 1b3d 63d4 f33d 24b2 dd3d
00000260: 0a0a 093d 56f8 f03d d603 e0bc 1e5d 60bc
00000270: a33c 193e 0d17 7b3d 786f c93d 3a35 4cbd
00000280: 607d 203d f688 173e a834 93bd bbbe d33d
00000290: 1892 d23c 3f4c 54bc 72cf 003c c52a 073e
000002a0: 4741 4d3d 8075 903d 7ecd de3d 589c c93d
000002b0: b2fb 76bd c8eb 423d 4a9b f03d a38c 113e
000002c0: ef8b 88bc f967 7ebd d99d 083e edcf 153c
000002d0: aa7e b83d 8804 b13b 0ad0 82bd f2e5 5c3d
000002e0: 4415 8e3c 6bb7 29bd af04 a63c ebd6 b03c
000002f0: fa44 d33d 7311 75ba 75d0 e7bd cbd5 cb3d
00000300: 3b0c 563d 8313 8c3d 7bcd a8bd 6076 923d
00000310: 21d8 ccbc 3414 413d 635c b43d 5ba2 a03c
00000320: 7ed6 28bc d19d f3bc 64f8 9f3d 11ec c93b
00000330: 2a09 6b3d e2ea 0b3e bc81 05bc 4747 d23c
00000340: 3373 533c 897d 92bd 8b7b fc3c d50c 67be
00000350: 68ff 6fbd 50c6 b33a 2389 dcbd 8c30 513d
00000360: bcf4 503c 6475 f03d 90fd 00bd eb28 7d3d
00000370: 11b4 a33c 5849 4a3d 9da1 0f3d bb7a 1a3d
00000380: e6b6 01bd f263 df3d 3fc2 9a3b 33be 753d
00000390: fbd5 323d 2520 20bd a59a 25be b149 053e
000003a0: d25e af3c 633e 88bc 015c b83d 997a 7c3d
000003b0: f741 74bc cd9d d1bd 6d44 1f3d 1df6 1b3e
000003c0: b317 cabd 4fe0 1b3b 23d8 7e3d cf59 11be
000003d0: 9428 74bd 3d41 09bc c042 8a3c 1508 583d
000003e0: 2256 973d e75f fbbc fc7b 3e3c 5a1d 653d
000003f0: d804 e93d d243 aa3d a1b5 91bd a6e6 ae3d

output_layer.bias f4 [9]
0.21705891 0.20762612 0.21265665 0.2115947 0.20567778 0.20532934 0.20716915 0.20279785
0.20306352
00000000: b144 5e3e f19b 543e aac2 593e 48ac 583e
00000010: 329d 523e db41 523e 2624 543e 3daa 4f3e
00000020: e2ef 4f3e
