DQN - Pendulum/data/Apprentice 10.pt (torch, 40008 bytes, 8 tensors)

input_layer.weight f4 [64, 3]
00000000: c20e 12be cc9a 903e 890b 39be e24d c2be
00000010: 728f 3fbf 33bc 42be 2fd1 e73e c649 df3e
00000020: 8365 7e3d b2bc b9be 6be2 49bf 8499 37be
00000030: e78f f13e 28e9 343f f571 203e 5160 6fbe
00000040: 2e09 cd3e daa8 7c3e 79b6 6d3f 5ffb cebe
00000050: ddd5 aabd 119c 3dbf 2087 40bf d49b 38be
00000060: 2866 b1bd ff61 97be 93ec 633e c65c e5be
00000070: efdd 5cbf 6d10 cdbd 9649 033f fa13 e63e
00000080: ee64 5bbe 1c5a 1dbf e406 0d3e bb4f d63c
00000090: df20 99be c4fe 363e e609 703e 9949 243f
000000a0: 72eb 35bf 977b 3cbe 4301 ed3d 614d d33d
000000b0: e962 42be d1a9 a8be 1ad0 11bf 6737 debd
000000c0: 57d1 c23e 3bc4 ad3e 183f 84be 51ab b63d
000000d0: 5f36 bcbe 411d 253e cf6d ec3e 3ac3 86bd
000000e0: 50d2 bebd f993 73bf 4761 0cbe dbbe 413c
000000f0: 2927 4b3e 9221 083f 69a2 b83d 3c4b 31bf
00000100: f51a d23e c1c1 cfbd 785a 063e 27da 873d
00000110: ae36 8dbd 1fd7 c5be ede6 5abe 6c54 debd
00000120: 1c0e 31bf ad76 44be 01df 96bc f80d 6dbe
00000130: 38b6 60bf 5f53 c23d a6d2 963e 0087 0ebe
00000140: fa93 4f3d eaf7 c8be ef0f 253f f4b8 f93d
00000150: 9493 29bf 54f3 fcbc 6096 a4bd edb0 1dbf
00000160: 88b2 ef3e 4d14 ff3c 7f2b 7a3e 3e18 aa3e
00000170: 84be 96be e0c8 05bf 2014 373f fe1b 0a3e
00000180: 22dc fbbe ac77 f13e 2e18 953d 102d ebbd
00000190: afdb 03bf d8c3 823c d1aa 17bf d018 c6be
000001a0: c11c e4bd e7a2 06bf 8d0c d6be 99f7 cabd
000001b0: 2194 44bd 7ec6 813f 0777 823e 0de4 76bf
000001c0: e300 eb3e 956b 4abe 98fe bbbe 8e4a 27be
000001d0: 50b7 ccbd 56dd 2c3f 38e1 43be 4855 e2bd
000001e0: a688 31be df2e a93d 0fee 3ebe 9e0e 65bc
000001f0: 0f79 40be 958a e3b5 a50b cbbe c2df 8fbe
00000200: 485a 3cbe 49c8 41bf c827 cbbd 3474 9e3d
00000210: 66e2 ad3e daf5 953e 23ec 6c3d 3679 ca3e
00000220: 1d25 453e eb2c e3bd 3a24 333d 34a0 433f
00000230: 897e 3b3e eb53 adbd 30f4 e33d e5a7 1cbc
00000240: 581f 453f d1a3 c4bd ace1 cbbd a450 56bc
00000250: f776 973d 1809 76ba 8d91 043f f288 433e
00000260: b156 7d3e 21a2 f6be 47b4 a5bd d62b 3e3e
00000270: cc23 89be d61c 4dbc 2027 003e aa8a 013f
00000280: 54bc c6bd 7e7e 353e 715f 75bd bd03 cdbe
00000290: fa3d cf3d 2112 6c3e d79a c3be 0181 aabc
000002a0: cd43 48bf bc36 48be be3b 5cbe af34 14bf
000002b0: 7101 673f 5453 523e 9ab3 6abe c5d6 013f
000002c0: 6145 7d3d 81b9 89be d52e 243f 2da4 9a3c
000002d0: 09d3 24be efa7 23be 60c0 033c 7156 65be
000002e0: 44f8 10bf 2e00 1bbe 6863 d2be 731b 3a3f
000002f0: 3b75 b13d 6dc8 373f 3b1d a13a ca50 08be
-0.14263442 0.282431 -0.18070807 -0.37950045 -0.74828255 -0.19017105 0.45276782 0.43610972
0.062108528 -0.36276776 -0.7886111 -0.17929655 0.471801 0.7066827 0.15668471 -0.23376586
0.40046066 0.24673787 0.92856556 -0.40426156 -0.083415724 -0.74066263 -0.75206184 -0.18028194
-0.08662063 -0.29566953 0.22258215 -0.44797343 -0.86276144 -0.100128986 0.5128416 0.44937116
-0.2142522 -0.6146562 0.1377216 0.026161065 -0.2990789 0.17870623 0.23441276 0.641748
-0.71062386 -0.18406521 0.11572506 0.10317493 -0.18983044 -0.3294206 -0.5695816 -0.10850411
0.3805034 0.33938774 -0.25829387 0.08919395 -0.36760232 0.1612444 0.46177527 -0.06580205
-0.09317458 -0.95147663 -0.13708983 0.011825289 0.19839157 0.53176224 0.09015352 -0.69255424
0.41036192 -0.101443775 0.13120449 0.06633406 -0.06895195 -0.38640687 -0.21377154 -0.10855946
-0.69162154 -0.19185896 -0.018416883 -0.2314986 -0.87778044 0.09488558 0.29457587 -0.13918686
0.05067823 -0.39251643 0.6447744 0.1219348 -0.6624081 -0.030877747 -0.08036494 -0.6159809
0.46815896 0.03113761 0.24430655 0.3322162 -0.29442227 -0.52259636 0.71515083 0.1348724
-0.49191386 0.47161615 0.072800025 -0.11483204 -0.51507086 0.015962526 -0.5924502 -0.38690805
-0.11138297 -0.5259232 -0.4180645 -0.09910507 -0.04799283 1.01387 0.25481436 -0.9644173
0.45899114 -0.19767602 -0.36717677 -0.16337034 -0.099959016 0.6752523 -0.19128883 -0.11051422
-0.17337283 0.08260893 -0.186455 -0.013980536 -0.1879618 -1.6953151e-06 -0.39657322 -0.281004
-0.18393815 -0.75696236 -0.09919697 0.07737008 0.3396179 0.29289132 0.057842385 0.39545602
0.19252439 -0.11092552 0.04373572 0.76416326 0.18309988 -0.08463272 0.111305594 -0.009561514
0.7700095 -0.09601558 -0.09955153 -0.01308075 0.073957376 -0.00093855103 0.5178459 0.19095209
0.24740101 -0.4817057 -0.08091026 0.1857141 -0.26785123 -0.012519082 0.12514925 0.5060221
-0.097038895 0.17724034 -0.059905473 -0.40041915 0.10119243 0.2305379 -0.3820407 -0.020813467
-0.78228456 -0.1955213 -0.21507165 -0.5789289 0.90236574 0.205396 -0.22920075 0.5071834
0.061833743 -0.2689934 0.6413396 0.018877113 -0.16096129 -0.1598203 0.008041471 -0.22396256
-0.56628823 -0.15136787 -0.41091466 0.72698134 0.08664938 0.717902 0.0012292037 -0.13312069

input_layer.bias f4 [64]
00000000: 03e8 5fbf 695e 8abe 536e 663d dd80 d53d
00000010: c9db a1be f902 26bf 4d50 e2be 4ac5 4e3e
00000020: eb41 51bf bb08 df3e 9a61 5cbf 6e8c 39be
00000030: fc5f 4bbf 09bd 07bd 6259 4abf e02f 773e
00000040: d399 d7be b741 a13d c60c b3be 2e4c 35bb
00000050: 7dbb 6e3d 0a93 a53d 3b9c 123b 4473 d03e
00000060: 9322 e8be d766 01bf 5232 22be 4d22 c23c
00000070: 7142 22be 5f62 c13d 1c65 94bf 82ce a43e
00000080: 1fd6 d4be d8e8 59be c102 27be aba1 ce3e
00000090: 8d2e ddbe 2233 b0be 1cdf be3e 8867 40be
000000a0: 5762 4dbf 6eb6 43be fc4f febe 1146 873e
000000b0: 8fb2 e1bd 7d62 5b3e be41 a6be fc2e 7fbe
000000c0: 0ff7 d6be 585d ddbd 6133 3fbf 9cbb 27be
000000d0: fb23 88be e956 d7be d50d 87be 2426 933d
000000e0: b878 1ebf c470 5c3e 756a 8fbe 42b8 a43e
000000f0: 7ad9 853d b946 fdbe ec71 873e 905c 463e
-0.87463397 -0.27025154 0.056257557 0.10424969 -0.31612995 -0.64848286 -0.4420189 0.20192447
-0.8174121 0.43561348 -0.8608643 -0.18119976 -0.79443336 -0.033139262 -0.7904264 0.24139357
-0.42109546 0.07873862 -0.34970683 -0.0027663815 0.05828427 0.08084686 0.0022370953 0.4071294
-0.45338878 -0.50547546 -0.15839508 0.023697997 -0.15845658 0.09442591 -1.1593356 0.32188803
-0.4156961 -0.21280229 -0.16309644 0.40357718 -0.43199578 -0.3441401 0.37279594 -0.18789494
-0.8022818 -0.1911256 -0.49670398 0.26420644 -0.110203855 0.21424289 -0.32472032 -0.24920267
-0.41985366 -0.108088195 -0.74687773 -0.16380161 -0.2658995 -0.42058495 -0.2637774 0.07185009
-0.6190295 0.21527392 -0.28010908 0.32171828 0.06535621 -0.4946802 0.26454103 0.19371247

hidden_layer_1.weight f4 [64, 64]
00000000: dc13 ac3d 2e99 86bd 808f 143c e4c1 ca3b
00000010: 1ed7 fcbd 15a9 7ebd 78f1 ccbc 21db 533d
00000020: b4f2 5ebd 1f3d aebd e0b8 403c efd0 3f3b
00000030: cd86 0abd 67df 03be 08ef c8bd 415e b83b
00000040: eeba b4bd ab41 e9bd 305f f33c ee4a 553d
00000050: dd90 46bc f9a0 84bd 809f 1cbd 2bca f93c
00000060: be87 55bd 0954 3bbd fb5c bdbd 00b4 153c
00000070: 30b1 1cbc 6018 ffbd e4f8 fbbd b126 80bd
00000080: b72c 12be 721f 9bbd a0c9 b1bc 8068 83bd
00000090: be3d eebd 7880 ce3d e355 76bd 84f4 e13d
000000a0: f89f bf3c 1ff4 f9bd ccc3 a7bd 4275 9d3b
000000b0: 0905 083c 006d 7ebd db82 dfbd 50fa e13d
000000c0: ecd7 4fbd b466 efbd 3873 d6bd 6059 bdbc
000000d0: a6dc b73d 12d1 833d 3f26 7b3d 368d 233d
000000e0: a08c bb3c a31a 1abd ee97 923d 8f8a 84bd
000000f0: 9392 a13d e024 8ebb ca03 d63d 04bc cdbd
00000100: c93d 2dbd d2df 06bf 71af e0bd 87f0 1bbf
00000110: 0640 d6be 9cc9 93be 32a4 eb3e edd1 3ebf
00000120: 5399 823d 9933 b43e 5650 a03d b917 60bd
00000130: 65cd 69be c960 f13e 45f8 d1be 28ab 0f3d
00000140: b054 9e3e 2ad7 253e 002e ff3c 63dd 3e3e
00000150: 74a2 7bbd 3116 143d e23a a6bd ad1d 70be
00000160: 7a45 25be 1818 cd3d 87f1 ae3d d707 99bd
00000170: 850b 9bbe 0b1c 673e dd54 863c 4d71 0cbe
00000180: 1d5c 55be 1aad 993d f9a4 30bf 1506 083e
00000190: a64d 2bbf 76b8 8fbe e536 bebe e3d2 2abe
000001a0: 0714 9cbe c427 6e3d 9c03 bdbd 7a2e 823d
000001b0: 7daf 7d3c 2301 d9be 4268 0abf f802 033d
000001c0: f656 0bbe 6bbd f43c 7e3d 18be 533e b83d
000001d0: 4810 eb3d 10e8 26bd fa3c f23d b9a6 653e
000001e0: f339 ccbc 457e db3c 4826 30bd 3dcf c0be
000001f0: 14ee 6e3d f9ef bbbd 7639 09be 88a1 e0bd
00000200: f068 8ebc 9d96 013d 222e 9bbe 8be4 163d
00000210: d57d cf3d 4ccd b7bd 151c 2c3e 614e 783d
00000220: 4f02 9bbd b5e3 babd f91f 16be 9ae7 f5bb
00000230: b143 8dbc 38f3 9c3d 0c4d 753d a2f8 acbd
00000240: d2a9 3b3d 1b2b 16be 90a5 5b3d bd66 63be
00000250: 6bb4 133e 1309 49be 7c22 59bd 1126 4b3d
00000260: 6f84 b33c 6888 bc3c dabb 0bbf a5d8 88bd
00000270: 3449 333d de9a bfbd b161 b53a e21c 053e
00000280: 86c3 3a3d 41cc f7bd 61db 25bd ae05 d33d
00000290: b084 86bd b492 573d dbbf a33d 1760 9ebd
000002a0: 8604 63be ae0e 56bb 0534 6f3c a306 91be
000002b0: d610 2c3e 08da cabd c5be 7e3d 5523 913d
000002c0: be5a e4bc 656f 843c 6083 35bd c13a e93c
000002d0: ab97 30be 942a bdbd 5c3a 96bd b1fc 45bf
000002e0: 5465 23be 27db 7dbc f640 31be 5e0a 04be
000002f0: d3d2 59bd 12a3 37bd dafd 173e 3b09 a5bc
00000300: 4345 debb ab09 e13c 6d84 90bd 205f d2bd
00000310: 5b7d 2dbe b1c4 1ebe 23fd bdbd fa3c f2bd
00000320: b8dc e3bc a4ab 08bd f64e f2bd 171e a5bd
00000330: 5402 803d d832 edbc d7da 12bd c66f b23d
00000340: fcd8 a13c aa61 c0bc bee6 473d 07d2 febd
00000350: 307c dd3c beac bfbd ffd2 cc3c e67f b83d
00000360: a3a7 383d 5c03 373c bbbc b2bc 620f 16be
00000370: 96ed c8bb 5729 a1bc 9357 ab3d 925f c23c
00000380: e47f f03b 5c4a 8f3c 2823 3a3d f8e5 c1bd
00000390: b941 bdbd 7f05 0fbd 3ca6 e53b 3565 94bd
000003a0: fb36 d8bd 0e5c 04be f346 fcbd c8c3 d9bc
000003b0: 346e 23be 0193 b53d e757 efbd 1580 1ebc
000003c0: 3203 60be 2c73 4d3d ce29 143d 9e07 113d
000003d0: 45bd 673d 754f 363d c957 dbbc 0ea0 13be
000003e0: b0ea 143b 4790 ccbd ccbc 4cbb cc79 53bd
000003f0: 7e58 a1bc 56df 97bc 8079 06be 44ac 953d
0.084022254 -0.065721855 0.009067416 0.0061876643 -0.12345718 -0.062172968 -0.025017485 0.05172265
-0.05443068 -0.08507752 0.011762828 0.0029268821 -0.033819962 -0.1287819 -0.098112166 0.0056264703
-0.088247165 -0.11389478 0.029708475 0.05207341 -0.012119499 -0.064760156 -0.03823805 0.030491909
-0.052131407 -0.04573444 -0.0924625 0.009137154 -0.009563729 -0.12455821 -0.123033315 -0.0625738
-0.1427487 -0.07574357 -0.021702588 -0.06416416 -0.1163287 0.10083097 -0.0601405 0.11032966
0.023391709 -0.122047655 -0.08191642 0.004805238 0.008301982 -0.06211567 -0.109136306 0.110340714
-0.05074303 -0.11689511 -0.10471195 -0.023113906 0.08977632 0.06436361 0.06131577 0.03992959
0.022894204 -0.03762306 0.071578845 -0.064717405 0.07889285 -0.004337892 0.104499415 -0.10045627
-0.04229525 -0.5268527 -0.10970963 -0.6091389 -0.4184572 -0.28864753 0.4602371 -0.7453907
0.063769005 0.35195616 0.07827823 -0.054710124 -0.22832258 0.47144154 -0.41009727 0.035075337
0.30923986 0.1619536 0.031149864 0.1863914 -0.061434224 0.036153976 -0.081167 -0.2344882
-0.16139784 0.10014361 0.085421614 -0.074721985 -0.30282226 0.22569291 0.016397888 -0.13715096
-0.2083592 0.0750372 -0.6900173 0.1328357 -0.6691536 -0.2807042 -0.37151256 -0.1668201
-0.3048403 0.058143392 -0.09229204 0.06356521 0.015483734 -0.4238368 -0.54065335 0.031985253
-0.13607392 0.029875478 -0.14867207 0.089962624 0.11477715 -0.040748656 0.118280366 0.22426881
-0.024929976 0.026793608 -0.043005258 -0.3765811 0.058332518 -0.091766305 -0.13400826 -0.1096831
-0.017384022 0.031637777 -0.30308634 0.03683905 0.101314224 -0.08974704 0.16807587 0.060621623
-0.075688 -0.09125463 -0.14660634 -0.0075044157 -0.017244192 0.07663578 0.05988793 -0.084458604
0.04581625 -0.14664881 0.05362469 -0.2220716 0.14424293 -0.19632368 -0.053011402 0.04959685
0.021913735 0.023014262 -0.54583514 -0.06681947 0.043770984 -0.093557104 0.0013838318 0.12999299
0.045596622 -0.12099505 -0.04049242 0.10303818 -0.06568277 0.05263014 0.07995578 -0.077331714
-0.22169694 -0.0032662558 0.014599805 -0.28325376 0.16803297 -0.099048674 0.06219365 0.07086817
-0.0278753 0.016166398 -0.044314742 0.028470399 -0.17245357 -0.09236637 -0.0733535 -0.773387
-0.15956622 -0.0154941445 -0.17309937 -0.1289458 -0.053179573 -0.04483325 0.1484293 -0.020146003
-0.006783159 0.02747043 -0.07056508 -0.1027205 -0.1694235 -0.1550472 -0.092767976 -0.118280366
-0.027815208 -0.033366814 -0.11831467 -0.0806238 0.06250444 -0.028954908 -0.035853233 0.08712725
0.019756787 -0.02348407 0.048804037 -0.12442403 0.027036756 -0.0935912 0.025002955 0.0900877
0.045081746 0.0111702345 -0.02181851 -0.14654306 -0.006131838 -0.019673033 0.08366313 0.023727212
0.0073394645 0.017491512 0.045443684 -0.09467691 -0.09241051 -0.03491735 0.007008342 -0.07245866
-0.10557362 -0.12925741 -0.1231822 -0.026582614 -0.15960008 0.088659294 -0.11686688 -0.009674092
-0.21876219 0.050158665 0.03617268 0.035407655 0.056576986 0.04450937 -0.026775258 -0.14416525
0.0022722892 -0.09988456 -0.0031240461 -0.051629826 -0.019695517 -0.018539112 -0.13132286 0.07308248

hidden_layer_1.bias f4 [64]
00000000: 2aac 2fbd c8af 343e 9c2d 08be 31ef 173d
00000010: 6675 0f3d 6645 d73d ec4b 5fbc 7c63 0fbe
00000020: f46a 86bc a98d 4dbd b4b5 21be 1d2d 36be
00000030: ebd7 143e 7966 d6bc 880f 3dbe 4930 e8bd
00000040: 3b88 60bd d4e4 e43d 56d2 e2bd c298 b83d
00000050: 54d3 2cbe 5377 e9bd 7b0c 29be 9c8c e03c
00000060: 59b6 243e c4f3 97bc 585a 0f3c 760a 62bd
00000070: 5c96 053e d6f1 b23c 23df b6bd 3f38 5fbe
00000080: abe7 bcbd f75e f2bd 1f3e 2d3d 1cd6 913d
00000090: 4d7e 763d 3cf7 6ebe d543 a8bd 3988 61be
000000a0: a593 0dbe ed31 1e3e 4da5 a23e 3bc1 383d
000000b0: eb93 1f3e 573e fcbd 0c1d 1cbd 9135 a8bc
000000c0: 39c3 683d 3161 183e 7532 0b3e 3d88 c7bd
000000d0: 069f ebbd 3a01 0cbe fd2d b83d 28f8 0fbe
000000e0: 1d9e fdbd dd43 753d 0d60 183e ca36 a43c
000000f0: deb0 78bd d7f1 c53c 8aad c33d b165 0b3d
-0.042888798 0.1764518 -0.13298649 0.037093345 0.03502407 0.105112836 -0.013628941 -0.14002794
-0.016408421 -0.050183926 -0.1579197 -0.17790647 0.14535491 -0.02617191 -0.18462956 -0.11337335
-0.05481742 0.11176458 -0.11075275 0.09013511 -0.1687749 -0.113997124 -0.16508667 0.027410798
0.16085185 -0.018548854 0.008749567 -0.055185758 0.13045639 0.021843832 -0.08929279 -0.217988
-0.09223875 -0.11834519 0.04229557 0.07120916 0.060179044 -0.233365 -0.08216063 -0.22024621
-0.13825853 0.15448733 0.3176674 0.045106154 0.1558377 -0.12316578 -0.03811364 -0.020533355
0.056826804 0.14880826 0.13593467 -0.09742782 -0.11504941 -0.13672343 0.089931466 -0.14059508
-0.12383673 0.059879173 0.1488039 0.020045657 -0.06071555 0.02416317 0.09554584 0.034032527

hidden_layer_2.weight f4 [64, 64]
00000000: 80d0 1e3c 2bfc d03d c923 f63a 823d 26bd
00000010: a7e8 f8bc b161 073d d712 8ebd 7e3f ffbd
00000020: ccbd 14bd 2022 08be 1fb6 fcbd 5ebb 6a3d
00000030: c41c debb 9e4e f4bd 18b7 eabc 65ad 17bd
00000040: 283f dfbd 69f3 af3d 4026 3c3b c94e e2bc
00000050: 9f34 64bc 3972 753d e86e 8dbb cdd9 e53c
00000060: dc50 cf3d 07c8 e43d d07f 073d 51cf 6fbd
00000070: 8ccb c6bd 2e0d 643d e413 d13d ac2f 7aba
00000080: df45 e6bd bd43 9ebd b16c e0bd 1ef9 563d
00000090: d6fd fb3c e22d 06be a661 ddbd 7ac3 683c
000000a0: 80e7 e53a a567 a8bd c1a5 b0bd 9f36 e5bd
000000b0: 39d6 80bc a754 6fbd f3fd b53d 535d ccbd
000000c0: 2c28 01bd 44c1 e3bc 79fc 05be ec49 853d
000000d0: 957c d8bd 84b8 643c 0bf1 b83d 0a76 c73d
000000e0: d9b6 e1bd 2e0e bebd aa80 0c3d 60fa 353d
000000f0: ae76 c8ba 5a71 a3bd f4d6 863d 4084 433d
00000100: cc55 c83d eaf7 dabd b6a1 99bd 6401 f7bd
00000110: 2e9e 06be b137 033d 304b ad3d 70d0 3d3c
00000120: 02a7 b9bd 4c89 9d3c 8629 c6bd 9394 cabd
00000130: 7c7a e83d f427 dfbd f0d4 44bc 927f 963d
00000140: e891 173d 623f 8f3d 46d4 e2bd 1982 d1bd
00000150: 800d 773c 70f2 1e3c 18b5 e03c 8e15 9a3d
00000160: d0b4 1d3d 3447 3f3d 9ed3 99bd 84ce 05bd
00000170: 218a 9bbd d047 3f3c 6c78 bebd 20c1 73bd
00000180: e060 ea3d ef2e b0bd 552d 54bd 7039 d6bd
00000190: 1c97 34bd 1694 ebbd 3c8a 3dbd de78 cabd
000001a0: 1ce5 ee3d 346e ddbd 53f0 333d 0575 8bbd
000001b0: f0b6 2e3d ec6b 32bd b2ef 89bd bc82 8ebd
000001c0: 1861 b63d 88c4 d43b 40de 013c 9807 dc3c
000001d0: d805 67bd beb8 aabd 3c0e 05bd 30e0 d33d
000001e0: e8b5 8d3c e8c3 ec3c 329c f3bd 92e1 e6bd
000001f0: c02a 4bbd 90f0 47bd 9079 573c da3c af3d
00000200: 9435 a1bd a751 72be 7701 463d 4a4c 21bd
00000210: 13fd 2f3c 0145 9cbe 577f 7a3d 6866 a23c
00000220: 1610 a7be 0a1f 48bd 181d 4dbd f12a b63c
00000230: 4859 99bd 051e 50be 8e17 afbe 5019 6dbc
00000240: 6dd2 9dbc 5761 a53d be34 b7bd 1ab9 8b3d
00000250: 483f 523d a889 d3bc 836d e8bd 80eb b7bc
00000260: aa98 d13c 60dc df3c cac7 583d 7a2e 68bd
00000270: b284 e2be e0d3 31be e3b8 453d 1f25 d83d
00000280: 0a51 ca3d 29bf e0bd 82f9 e9bd e34d b8bb
00000290: d421 06bf 2f42 783e 1a93 dfbc 2725 033b
000002a0: 4ce4 03bd 3cd1 323d 4bb0 08be 0aef 893d
000002b0: be64 2dbd 1fe2 883d e405 893d 5af0 02bd
000002c0: 0369 d73c f0cd 833c 1994 2abe a245 b7bc
000002d0: 7f4a 75bd bbc1 b7bd 5edb c2bd ef30 a1bd
000002e0: 7fe9 89be e24d 883d 531b c5be c836 51bd
000002f0: 5ce0 823d 5f5b c9be 6c3d af3d de57 35bb
00000300: cc94 b9bd 614b bdbd 1a39 14bd d1df 04be
00000310: 32a5 9ebd 832b 35bd a00e 8cbc 1413 ea3d
00000320: d291 82bd 055e 93bd acb3 48bd 9b5c 09be
00000330: 084c 92bc 28a0 533d 003b 373a 802f b93d
00000340: 0f6f a23d 5f12 e23d d089 c9bd 51ef ee3c
00000350: 94b7 9fbd 18cc 293d fea3 eabd a4ea 0dbd
00000360: c74b 5bbd c270 ec3d fcf5 6cbd 5730 d4bd
00000370: b443 743d bcb6 15bd 5c93 f3bd 1164 823d
00000380: ef13 913d 8032 fa3c ca94 cdbd 027a 59bb
00000390: e68a 28bc 65ad a6bd c7f5 d53d 10b1 dfbd
000003a0: d0c2 14bd 448c 11bd 33ef 253d dfdd 8e3d
000003b0: 2bcd be3d c1ad 9fbd 485c 233d d0e0 dabc
000003c0: 82d5 13bd 2965 d5bd 88fc 8ebc 52d0 603c
000003d0: 5a19 2cbd 6463 b1bd 58df aabc 9d9a c9bd
000003e0: ba40 d83d 7c18 a1bd 212e 89bd c0fb 593b
000003f0: 08b3 a23d b0d3 d93b 0a18 a1bc ce44 b1bc
0.009693265 0.10204347 0.0018778975 -0.040586002 -0.030384375 0.03305215 -0.06937187 -0.12463282
-0.036313817 -0.13294268 -0.12339424 0.057307594 -0.0067783315 -0.119290575 -0.028651759 -0.037030596
-0.10900718 0.08591349 0.0028709322 -0.027625458 -0.0139285615 0.059923384 -0.0043161996 0.028057957
0.101228446 0.11170965 0.033080876 -0.05854732 -0.09706792 0.05567663 0.10208872 -0.0009543847
-0.112437956 -0.07727764 -0.10958231 0.05248367 0.030760687 -0.1310344 -0.108096406 0.0142067615
0.0017540306 -0.082228936 -0.08625365 -0.11192059 -0.01572715 -0.05843034 0.088863276 -0.09978738
-0.03153245 -0.027802117 -0.13084592 0.0650824 -0.10570637 0.013960008 0.0903035 0.09739311
-0.110212035 -0.09280048 0.03430239 0.04442823 -0.0015294158 -0.079806045 0.06583968 0.047733545
0.097819895 -0.10691817 -0.07501547 -0.12060812 -0.13146278 0.032035533 0.084616065 0.01158534
-0.09065057 0.019230507 -0.09675889 -0.098916195 0.11351487 -0.10896292 -0.012013659 0.07348551
0.03700438 0.06994511 -0.11075644 -0.10229892 0.015078902 0.009701356 0.027430102 0.075236425
0.038502514 0.046698764 -0.07511066 -0.03266765 -0.075947054 0.011674836 -0.093003124 -0.05951035
0.11444259 -0.08602702 -0.051801044 -0.10460174 -0.04408942 -0.115028545 -0.04627441 -0.09886335
0.11664793 -0.10812035 0.043930363 -0.06809429 0.04265493 -0.043559954 -0.067351714 -0.06958529
0.08905238 0.006493155 0.007926524 0.02685909 -0.056402057 -0.08336018 -0.032484278 0.10345495
0.017298654 0.02890201 -0.11895026 -0.11273493 -0.049601316 -0.048813403 0.013151541 0.085565284
-0.07871547 -0.2366396 0.04834124 -0.039379396 0.01074149 -0.30521396 0.061156597 0.019824222
-0.3262946 -0.048857726 -0.050076574 0.022237273 -0.07487732 -0.20323952 -0.34197658 -0.014471367
-0.019265378 0.08075207 -0.08945607 0.06822415 0.05132988 -0.025822476 -0.11349013 -0.022451162
0.025585491 0.027326763 0.05292491 -0.05668495 -0.44241863 -0.1736598 0.048272025 0.10553955
0.09878738 -0.10973961 -0.11424543 -0.005624519 -0.5239537 0.24243997 -0.027291823 0.0020011158
-0.032200143 0.043656573 -0.133485 0.06735046 -0.042332403 0.06683754 0.06690577 -0.0319675
0.02629519 0.01608941 -0.16658057 -0.02237207 -0.059885498 -0.08972498 -0.09514497 -0.078706615
-0.26935956 0.0665548 -0.3849741 -0.051077634 0.063904494 -0.39327523 0.08556637 -0.002767078
-0.09061584 -0.09242893 -0.03618727 -0.12976004 -0.07746352 -0.04423095 -0.017096817 0.1142942
-0.06375469 -0.07195667 -0.048999473 -0.13414232 -0.01785852 0.05166641 0.00069896877 0.09042263
0.07931339 0.1103866 -0.09840739 0.02916685 -0.077986866 0.041454405 -0.1145706 -0.0346476
-0.053539064 0.11544944 -0.057851776 -0.103607826 0.05963488 -0.036551222 -0.11893341 0.063667424
0.0708388 0.030541658 -0.10038145 -0.0033184295 -0.010287022 -0.08138541 0.10447269 -0.10922444
-0.0363186 -0.03553416 0.04051132 0.06975912 0.093164764 -0.07796813 0.039882928 -0.026718527
-0.03609229 -0.104196854 -0.0174544 0.013721542 -0.042016365 -0.086615354 -0.020858452 -0.09843943
0.105592206 -0.07865998 -0.066982515 0.0033261627 0.07944304 0.0066475496 -0.019664783 -0.021639254

hidden_layer_2.bias f4 [64]
00000000: d8b8 46be 3b74 92bd ed5e 82bd afe9 12be
00000010: 9fb1 23be e6cc f2bc cfb9 733c c618 7abd
00000020: 2cd2 c2bd 9eac 65be 8fb5 bb3d ee31 94bc
00000030: e1b1 4ebe e8a6 99bd 3999 36be e876 0c3c
00000040: bb2c 763c ccf0 a03e 48b3 46bc deb6 f4bd
00000050: 43f8 24be fe72 88be ded4 0ebc 2f75 c03d
00000060: f3a9 293e 9d74 7bbe 08d0 c6bd 1cb7 e63b
00000070: bdef abbd c158 063e df66 753d b958 a93d
00000080: 8a58 9abc c5c2 893e e92e 94bc 22cc e1bd
00000090: a1a5 143e f897 693e 3802 573e 8ef5 b13e
000000a0: 48d7 8fbd d500 23be 5bb5 6d3d 9c4a 063e
000000b0: 97cb 54be 994c 1fbe e186 533c a051 6d3e
000000c0: c0a6 d4bc 856e 293b d699 99be c1d7 91bc
000000d0: 3e2b d6bd b945 223d b44e 85bc 3d64 2c3e
000000e0: 5a61 2e3e 5e7a ce3d f6de 3f3e 960a 28be
000000f0: dd6b f33d fe8e 59be e120 a33e 5aeb 3dbe
-0.1940645 -0.071510755 -0.06365762 -0.14346956 -0.15985726 -0.029638719 0.014875843 -0.061058782
-0.09512743 -0.2242913 0.09165489 -0.018090215 -0.20185043 -0.07502538 -0.17831887 0.008573271
0.015025313 0.31433713 -0.012127705 -0.11948942 -0.1611033 -0.26650232 -0.008717744 0.09397351
0.16568737 -0.24556203 -0.097076476 0.0070408713 -0.08395336 0.13119794 0.05991256 0.08268876
-0.018841047 0.2690641 -0.018088775 -0.11025263 0.14516307 0.22811878 0.2099694 0.34757656
-0.070234835 -0.15918286 0.058034282 0.13114399 -0.20780788 -0.15556563 0.012910576 0.23175669
-0.025958419 0.0025853228 -0.3000018 -0.017803075 -0.104574665 0.039617274 -0.01627288 0.16835113
0.17029324 0.100819334 0.18737397 -0.16410288 0.11885808 -0.21245953 0.31861022 -0.18546811

output_layer.weight f4 [9, 64]
00000000: 6aa5 bfbb c0b4 5f3b e691 2d3d 8860 983d
00000010: 7932 d13d 4aae 7ebc 9855 583e 7812 413d
00000020: f0a1 6cbd 0176 cb3d ead1 d83c a473 73bd
00000030: 6660 30bd f135 68be a9b6 ce3d e6aa dd3d
00000040: d3e4 dbbd 8528 1c3e f1a2 36bd 76dd 993b
00000050: 1263 e5bd 7b01 5dbd e5d9 813d a128 00bd
00000060: 2f62 c33d 2390 193c ffc3 3f3c 6ae6 d13d
00000070: 7449 a9bd 153f 0f3b dae0 4c3d 3e35 41be
00000080: 81cd 34bd 094b 1c3e 6907 b73c 7a87 0ebe
00000090: 954a ebbd 7c02 973d 44a3 c03d 6afd 093e
000000a0: 0484 363d dddc 0ebd 98a2 383e 764b b0bd
000000b0: 9e85 ccbc eb0f 003d 3a76 bb3c 0975 e73d
000000c0: ea86 8d3d 93cf e0bb e640 12bd 4eb2 7e3d
000000d0: 32c1 d13b 0a9a 0e3e ed30 35bc 7a53 a23d
000000e0: 28cd e6bd 9065 8c3e 9e98 953c cb31 0e3e
000000f0: 94f0 21be d1a5 26bc 6477 123e 98f2 2ebc
00000100: 398a b3bd b441 e93d a174 643d 9b8a 24bd
00000110: b0e7 223d 890a 423c e2cf f43d 8d5d d0bb
00000120: 873e 1d3c 08d1 443c a69a 053c b8f6 28bd
00000130: 5233 743d 3b68 5fbe 8ab9 35bc 9ab0 ff3d
00000140: 78d1 79bd 3f42 133e f4b4 bdbc bd64 553d
00000150: 5ccb 2b3d 8569 c4bc 623c f8bc 8441 743d
00000160: 1bc7 033e 6b31 953d 5a3d 18bc 369f 9e3d
00000170: dedb d5bd 727f 783d 9dda 1a3d 9fef a83d
00000180: 5ceb cebc a16c 283e 0089 df3b 03cb 4cbe
00000190: 3553 bdbd f574 b53d 42ab a53d 678d 3f3e
000001a0: 89f4 f53d 432d 1f3d 4638 073e ec91 55bc
000001b0: 109c 5cbc de59 92bd 9e2e bd3b da01 f03d
000001c0: be09 943d cd80 9c3c 1891 1abc 6355 e93c
000001d0: fd3e 093e 931f 1d3e 3860 b1bc b8b8 833d
000001e0: 6c63 edbd 21fc fa3d 495a 3bbd c90e eb3d
000001f0: 1e90 65bc dcc0 88bd 6c24 d73d 0cac 46bc
00000200: f00b d13d 00b6 72bb 3ce8 093d f1f8 823c
00000210: ca13 583e 6277 e03b b262 943d 86ff a3bc
00000220: 2517 d93b 1a44 833c 5785 cc3d 1d7a 3a3c
00000230: 8585 513b 9098 d6bd f5c6 33bd df8a ba3d
00000240: 0dee e6bd 14e5 ef3d 77b1 75bc 9e41 db3c
00000250: b231 ee3d ad59 eebc 0833 a33c 7d38 233d
00000260: 3901 c13c 0907 da3d dd39 0ebe 5fc8 fe3d
00000270: 7609 943c ada2 183e ebfc b53d cb55 0abe
00000280: ff9f 523c 46a7 f23d da94 b5bc 2b9f eebd
00000290: 4426 96bd 305d f53d d5d6 2b3e 9d7a a83d
000002a0: 8ca1 80bb 0310 80bd ddd0 183d 0b79 1e3d
000002b0: bca2 563d c8a0 ad3d df1f c2bd 7d11 103e
000002c0: 59e2 883d 66e7 82bd 53ca afbd 5c81 203e
000002d0: 35ee 96bd 2ade 943d b085 6abc ca64 b23d
000002e0: 5449 1fbe 516b a93d 5924 ec3c e3f5 fc3d
000002f0: 4136 92bd 9b84 2b3d aa81 513e e521 ad3a
00000300: 6bb0 debd e81d e13d 4ce5 c43c 2b2a 92bc
00000310: f2b9 cabd f04d 203d 52b5 603d 2a11 b83d
00000320: bbc7 583d f695 5bbc 6138 303d 26d8 afbb
00000330: 1afa 703d 51ba cbbd 074f 02bd c30e 1b3e
00000340: 82b2 983d 50a1 1d3e 41c5 f5bd 73b8 c43d
00000350: be86 e53a fdbd 95bc e53a 2c3d 3e98 90bd
00000360: 4bba 6a3d 4617 7bbd e5ee 4cbd b586 76be
00000370: c082 143b 7b3b 273e f6cf cabd 5df2 28be
00000380: 9017 bf3e a35e 0c3e bdf4 73bc e444 19be
00000390: ce19 76bd 2250 f73d f978 b63d b899 ea3d
000003a0: af96 85bd a4a1 60bd a725 f33d b8d6 26bd
000003b0: a86b 58bd 4503 943d ffdf 99bd 29aa d73d
000003c0: 783b 153e eb26 51bd b869 08be de60 bf3d
000003d0: bac1 a63d ea6f c13d f350 fa3e 91c0 f03d
000003e0: 3a59 1bbe b4e6 2e3d 9174 8fbc 9363 8a3d
000003f0: 85e7 683d 8d8f 42bd f775 313e b753 103c
-0.0058485763 0.0034134835 0.042375468 0.07440287 0.10214705 -0.015544483 0.21126401 0.047136754
-0.057771623 0.09934617 0.026467282 -0.059436455 -0.043060683 -0.22676827 0.100934334 0.10823612
-0.10737004 0.15249832 -0.044588987 0.0046955897 -0.11200537 -0.05395649 0.06340388 -0.031288747
0.095402114 0.009372744 0.011704444 0.10249026 -0.08265963 0.0021857668 0.050019123 -0.18867967
-0.044141296 0.15262999 0.0223424 -0.13918868 -0.11488835 0.07373521 0.094061404 0.13475576
0.044559494 -0.0348786 0.18030775 -0.08608143 -0.024966057 0.03126518 0.022883523 0.113016196
0.069104984 -0.0068606823 -0.035706423 0.062181763 0.0064012045 0.13925949 -0.011059028 0.07926078
-0.11269599 0.27421236 0.01826125 0.13886182 -0.1581443 -0.01017137 0.14303356 -0.010677956
-0.08766598 0.11389485 0.05577529 -0.040171247 0.039771736 0.011843332 0.11953713 -0.0063588084
0.009597427 0.012012728 0.008154547 -0.041250914 0.059619255 -0.21817105 -0.011091599 0.12484856
-0.06099078 0.1438074 -0.023157574 0.052098025 0.041941985 -0.023976097 -0.03030223 0.059632793
0.12868921 0.07284816 -0.009291971 0.07745211 -0.10442327 0.060668416 0.037806142 0.08248829
-0.025258712 0.16447689 0.0068217516 -0.19999318 -0.09244386 0.088601984 0.080893055 0.18706284
0.12009532 0.038861524 0.1320506 -0.013035279 -0.013464943 -0.07146047 0.0057733795 0.11719103
0.07228421 0.019104386 -0.009434007 0.028483098 0.13402934 0.15344076 -0.021652326 0.06431717
-0.11591229 0.12255121 -0.0457404 0.114774294 -0.014011411 -0.0667741 0.10504994 -0.01212598
0.10207355 -0.003703475 0.03366874 0.015987845 0.21101299 0.006850169 0.07245387 -0.020019304
0.0066250735 0.016023684 0.0998637 0.011381653 0.0031970453 -0.10478318 -0.043890912 0.09108519
-0.11275873 0.11713615 -0.014995924 0.026764687 0.116305724 -0.029095495 0.019921795 0.039848793
0.023560153 0.10645873 -0.1388926 0.124405615 0.018070918 0.14905806 0.08886131 -0.1350929
0.012855529 0.11848311 -0.022165705 -0.11651453 -0.07331517 0.11980665 0.1678117 0.082265116
-0.003925508 -0.06253054 0.037308563 0.038689654 0.05240129 0.08477932 -0.09478735 0.14069171
0.066837974 -0.06391792 -0.08583512 0.15674347 -0.07369653 0.07268937 -0.0143141 0.0871063
-0.15555316 0.08272422 0.028825926 0.12351587 -0.07139254 0.04187451 0.20459619 0.0013208954
-0.10873493 0.10992032 0.024035119 -0.017842373 -0.098987475 0.039136827 0.05486042 0.08987649
0.052924853 -0.013402453 0.043022517 -0.005366343 0.058832265 -0.099476464 -0.031813648 0.1514235
0.07455923 0.15393567 -0.12000514 0.096054934 0.001751147 -0.01827907 0.042048354 -0.07060288
0.05730657 -0.061301492 -0.050032515 -0.24074824 0.002266094 0.16331284 -0.09902947 -0.16498704
0.37322664 0.13707976 -0.014889893 -0.14967686 -0.060083203 0.12075831 0.089097925 0.11455101
-0.06522881 -0.054841653 0.11872416 -0.040732116 -0.052837044 0.07227186 -0.07513427 0.10530502
0.14573467 -0.051062506 -0.13321579 0.09344648 0.08142419 0.09445174 0.48889884 0.11755479
-0.15170756 0.042700484 -0.017511638 0.067572735 0.05686142 -0.047500182 0.17330156 0.008809022

output_layer.bias f4 [9]
00000000: 80eb 723e c9e5 673e 6b77 773e b496 6d3e
00000010: 1353 693e 7d3c 6e3e 0679 643e c67e 753e
00000020: bb57 703e
0.23722649 0.2264625 0.24166648 0.2320202 0.22785597 0.23265262 0.22311792 0.23974141
0.23470967
