DQN - Pendulum/data/Apprentice 4.pt (torch, 39996 bytes, 8 tensors)

input_layer.weight f4 [64, 3]
000000 27 75 a3 bd 84 82 a2 3f 9f 3f f9 3d 94 80 05 bf
       -0.079813294 1.269608 0.12170338 -0.5214932
000010 c5 47 25 be d5 d4 24 be 79 82 3d be a8 08 5c 3f
       -0.16140659 -0.16096814 -0.18506803 0.8595071
000020 c4 ab 28 be f1 0e 90 3e b4 53 d2 be 5b e9 85 bd
       -0.16471773 0.281364 -0.41079485 -0.0653865
000030 00 1f 35 3e 7e 04 ad 3e 81 e1 4b 3e a5 ba 71 be
       0.17687607 0.3379249 0.19910242 -0.23606355
000040 42 de 7a 3f ea e4 59 3e 1f 4c 00 3f 23 46 a7 bd
       0.9799539 0.2127873 0.5011615 -0.081676744
000050 53 8b 26 be 31 b7 c4 3e d1 78 cc be f6 2f 3e bc
       -0.16264085 0.38421014 -0.39935926 -0.0116081145
000060 2e 2b 29 3e 60 6e 82 3f 94 60 85 3e 71 fa c1 be
       0.16520378 1.0189934 0.26050246 -0.37886384
000070 b2 85 70 be 51 9d c1 3d 9e ae 5d be f9 c0 41 bf
       -0.234885 0.09453834 -0.21648642 -0.7568508
000080 ba 47 2c 3e 4a 0c 36 3f ad 22 a0 be 14 40 59 be
       0.16824237 0.711125 -0.31276456 -0.2121585
000090 e8 8f 3a 3b 1a 58 1b 3f 55 4c 75 3e ef 59 b1 bd
       0.0028467122 0.6068131 0.239549 -0.086597316
0000a0 a7 a6 26 bf af 34 1b 3e f6 05 39 bd 11 c6 66 bf
       -0.6509804 0.15156816 -0.0451717 -0.90145975
0000b0 6c 1e b5 bd 72 d2 8e 3e d0 6c 03 3f 22 c3 3c be
       -0.08843693 0.27894932 0.5133791 -0.18433812
0000c0 9d ee 17 bf 67 91 0c 3f c8 b5 b6 3d a1 69 4a be
       -0.5934847 0.54909366 0.08921391 -0.19766857
0000d0 f7 18 e1 3e d5 8f 91 3d 8b 49 92 be 89 b1 53 bf
       0.4396436 0.07107512 -0.28571734 -0.8269277
0000e0 ea 3b c6 3d 28 ba 84 bd db 6c 28 bf d8 96 f7 bd
       0.096793965 -0.06480819 -0.657911 -0.12089318
0000f0 4c 52 e8 3e 48 a0 81 be 84 5a 1b 3e b7 c1 81 3e
       0.45375288 -0.25317597 0.15171248 0.25343105
000100 26 04 13 3f 72 9e 2e 3d 48 23 c6 3d cb 2b eb be
       0.57428205 0.042631574 0.09674698 -0.4593185
000110 21 d1 1b 3e 80 cc b9 be 6a d5 9d 3e 52 1f 68 be
       0.15216495 -0.36288834 0.30826885 -0.22668198
000120 8e d1 73 bf 14 74 cb be 8e 77 44 be a9 86 0b 3f
       -0.9524163 -0.39736998 -0.19186231 0.5450235
000130 d4 14 88 be 50 78 30 be 47 53 15 be f1 8e 0f bf
       -0.2657839 -0.17233396 -0.14582549 -0.56077486
000140 d7 92 a6 bd f8 77 5b 3f 8d c8 8c be 60 36 cb bb
       -0.08133476 0.8572993 -0.27496758 -0.0062015504
000150 e9 fc 15 3f 95 de 07 bf 26 9a 65 be 56 9b 5e bf
       0.58589035 -0.5307401 -0.22422084 -0.86955774
000160 52 5d 87 3e c7 76 a5 be 31 bd 19 3e b4 74 2f bf
       0.26438385 -0.32317182 0.15013577 -0.6853745
000170 2b 74 24 be 13 fb 30 3f 94 8d 0b 3f c2 42 17 3d
       -0.1605994 0.6913311 0.54512906 0.0369289
000180 66 5d 18 bf 4a 0d f2 3e 5d 0d 85 3e eb 8c a5 be
       -0.59517515 0.47275764 0.25986758 -0.32334074
000190 72 d3 47 3f 27 fd f1 3d 41 5e 09 3f 05 6a 26 3f
       0.78057015 0.11815863 0.53659445 0.6500552
0001a0 99 35 01 be 05 52 00 be fc 99 64 bf 4c a7 00 be
       -0.12618102 -0.12531288 -0.8929746 -0.12563819
0001b0 d8 24 42 3e 72 03 60 bf 27 fe fc 3c 75 a9 a7 3d
       0.18959367 -0.8750526 0.030882908 0.08186618
0001c0 df 7f 07 be c8 38 17 be f1 2a 10 3f 8d 6b bd 3e
       -0.13232373 -0.14767754 0.56315523 0.36996117
0001d0 eb 89 55 be 9a c6 f4 3d a3 e1 d9 3c 1e 56 0a 3e
       -0.20853393 0.11951943 0.02659685 0.13509414
0001e0 0a 73 12 bf 42 64 cc be bb 30 b5 bd 8d c3 bf 3e
       -0.57206786 -0.3992024 -0.08847185 0.3745388
0001f0 41 1d 02 bf d3 c7 0f be 0b 09 75 3c 38 75 35 bf
       -0.5082589 -0.1404107 0.014955769 -0.70881987
000200 36 a0 5f 3d f7 a6 8a be 69 d1 4d be fc 48 60 be
       0.05459615 -0.2708051 -0.20099415 -0.21902841
000210 d8 a6 ad be e6 07 43 3f f8 c5 19 3e 8c f7 df 3e
       -0.33916354 0.7618393 0.15016925 0.4374355
000220 1b 89 ce bd b7 d7 34 be 7b 38 d3 3e 30 c2 61 3e
       -0.100847445 -0.17660414 0.4125403 0.22046733
000230 de 20 89 3d 76 8c 44 3f 19 46 f9 3e 76 5b 1d bd
       0.06695722 0.76776826 0.48686293 -0.038417302
000240 b8 fc 32 3e d2 fb 84 3e 5d 1c 39 3e e0 24 c0 3e
       0.17479217 0.25973374 0.18077226 0.37528133
000250 c5 aa 34 3d b8 35 5d bb 05 6b 60 3e 95 7b c7 3e
       0.04410817 -0.0033753943 0.21915825 0.38961473
000260 0f 1b d7 3c 1c f4 61 bf 48 d7 c9 be eb 28 0e 3d
       0.02625802 -0.88263106 -0.3942206 0.03470699
000270 c7 ee da bd 39 05 8a 3e 65 42 6a 3e a1 f1 1d 3f
       -0.106900744 0.2695711 0.2287689 0.6169682
000280 f4 ab 1e 3f 05 3b 1e be be d3 f5 3b a1 17 f2 3e
       0.6198113 -0.15452202 0.0075020483 0.47283652
000290 38 f9 3d 3e 5a d8 2d 3f a3 dd ec 3e 4f 3e 86 3e
       0.185521 0.6790825 0.46262845 0.26219413
0002a0 1c cf 13 bf 85 41 4f 3f 7d a5 fe 3d 65 91 40 3e
       -0.577379 0.8095935 0.12433908 0.18805464
0002b0 1f 4e 21 3f d1 7e 8f bd 68 25 ed bd fb 37 ac be
       0.6300983 -0.0700661 -0.115794 -0.3363646
0002c0 7f de 03 3e 78 b9 e2 be 67 61 70 bf 4e 43 a1 be
       0.12877844 -0.44282126 -0.93898624 -0.31496662
0002d0 0a 98 c9 3e 78 ee 06 3f 4a 43 31 3e 2a 91 44 bf
       0.3937381 0.52707624 0.17310825 -0.76784
0002e0 7e 58 79 be 0b 2d 45 be a4 01 9a be 26 aa 33 be
       -0.24350163 -0.19255464 -0.30079377 -0.17545375
0002f0 bb 2c 04 bd 4d 7b 10 be b2 e5 00 3e fd f6 ec 3d
       -0.03226922 -0.14109536 0.12587622 0.11570547

input_layer.bias f4 [64]
000000 b8 22 4a be d8 5f 14 be 20 56 f4 3e 1c 2f 08 be
       -0.19739807 -0.14489686 0.47721958 -0.13299221
000010 3a 1a 81 bf 76 aa fb be 78 b6 5c be a8 8c 7c be
       -1.0086129 -0.4915349 -0.21553981 -0.24663031
000020 0d 2b 0f bf 2e 2c 9b be 8e 15 2f bf 04 ad 24 bf
       -0.55925065 -0.30307144 -0.68392265 -0.643265
000030 38 4b 11 bf 5b ab 32 bf 1a fe c7 3e d5 51 fc be
       -0.567554 -0.6979272 0.39061052 -0.49281183
000040 80 63 6d 3d 55 ec 1b bd ae d3 51 be 15 40 3d 3d
       0.05795622 -0.03806718 -0.20490906 0.04620369
000050 7c dd 9a 3e c6 7e 6c be 99 36 5e bf d0 06 57 bf
       0.30247104 -0.23095235 -0.8680206 -0.8399477
000060 d6 f6 f1 3e 02 80 00 bf bf 8c fa bc ca 59 c8 be
       0.47258633 -0.50195324 -0.030584691 -0.39131004
000070 00 ff 43 bf be bc 2e bf 15 37 6c be ee 63 29 bf
       -0.76560974 -0.6825675 -0.23067887 -0.66168106
000080 d0 ec 1d bf 31 e3 63 3d c2 4d 2f 3e 87 fb 82 bd
       -0.6168947 0.05563659 0.17119506 -0.06395631
000090 e7 26 d5 be 16 8a 1f bf dd 58 9a 3e e4 70 1d bf
       -0.41631243 -0.6232008 0.30145922 -0.6150038
0000a0 b2 23 09 3e e5 ef ad be ee 44 d5 be 03 6c 59 bd
       0.13392523 -0.33972088 -0.41654152 -0.053081524
0000b0 cd 85 36 be 8c 4b 28 bf 9b 55 8c bd 77 78 2e bf
       -0.17824478 -0.65740275 -0.068522654 -0.68152565
0000c0 28 96 34 bf d2 d9 cd be 95 15 6d bd 39 8b f8 3d
       -0.7054162 -0.40205246 -0.05788191 0.121359296
0000d0 d5 08 5f bf 17 39 bf 3e 3c 10 41 bf 05 95 22 bf
       -0.8712285 0.37348244 -0.75415397 -0.63508636
0000e0 1a 58 ea 3d 45 41 fd be 11 06 2d bf 4e ae bb be
       0.11442585 -0.4946386 -0.6758738 -0.3665642
0000f0 a5 97 11 bf 05 fd da bc 2e 0d 05 bb 78 35 d4 be
       -0.56872016 -0.026731977 -0.0020302045 -0.41447043

hidden_layer_1.weight f4 [64, 64]
000000 83 dc b8 bf c3 82 f8 be 5e a6 18 3d c2 6d e7 3c
       -1.4442295 -0.48537263 0.037268035 0.028250579
000010 25 58 4c be 60 60 50 bd 62 60 02 3e 31 b1 14 bf
       -0.199555 -0.05087316 0.1273208 -0.5808287
000020 ad 08 5c bf ac ac af bd 73 45 9c bc b5 6d 99 3d
       -0.8595074 -0.085778564 -0.019076085 0.07491628
000030 f7 42 b5 ba 1c fd 77 bd 94 69 ab bc 93 54 04 bc
       -0.0013829161 -0.06054412 -0.020924367 -0.008076805
000040 da cb 7b 3d 37 7d 98 be f8 d6 07 3d fc b5 5a be
       0.061473705 -0.2978303 0.033163995 -0.21358484
000050 59 2b 1d bf 80 b8 17 3e a7 5d c3 3c ad 75 6d bf
       -0.6139427 0.14816475 0.023848368 -0.92757684
000060 ac 0d f1 be 30 f3 27 3d 3e 96 51 be 94 df 23 3f
       -0.47080743 0.041003406 -0.20467469 0.6401303
000070 d0 26 0b be 5c 6c 71 bf be ae ad be de f5 45 3e
       -0.13589025 -0.9430597 -0.3392238 0.19332072
000080 d8 c5 9f 3d 22 0a e3 bf 0d 3f 12 3e 1b 5f 47 bf
       0.078014076 -1.7737467 0.14281864 -0.77879494
000090 3f 5f 8c be ed 23 85 bf 15 4f 24 3d a1 36 fd bd
       -0.27416417 -1.0401589 0.04011448 -0.12363935
0000a0 37 d4 a8 be b2 0c 92 be 74 66 41 bd 87 e4 db bd
       -0.32974407 -0.2852531 -0.047216848 -0.107369475
0000b0 20 89 1c be 9f 16 09 be 09 40 e2 3e 02 73 da 3e
       -0.15286684 -0.13387536 0.4418948 0.4266587
0000c0 ec 9e 56 3d 7a 9a f8 3d 7e 0e a6 3e 8e 8a a2 be
       0.052397653 0.12138839 0.32432932 -0.31746334
0000d0 69 1c f3 bd 0e 88 f4 3d 86 8a 52 be 30 83 1c bf
       -0.11870653 0.11940013 -0.20560655 -0.61137676
0000e0 bd 2d 17 bf 43 63 0e bd 1b fd c9 3c f7 4e f6 be
       -0.59054166 -0.034762632 0.024656823 -0.4810712
0000f0 99 7c 36 bf 41 17 cb be 57 da 89 bd 9f 02 65 be
       -0.7128387 -0.3966618 -0.06731098 -0.22364281
000100 23 3b 74 bd e0 52 f2 bc 92 0f 44 3f 8d d0 bb 3c
       -0.05962671 -0.029580534 0.7658626 0.022926593
000110 e3 10 06 bf 26 96 7d 3c 29 b0 fa be ff 8f d2 3d
       -0.5236952 0.015477693 -0.48962525 0.10281371
000120 7c d0 89 3d 09 00 ba bd 88 71 4f bd c8 fa a8 3e
       0.06729218 -0.09082038 -0.05064538 0.3300383
000130 54 2f 38 bd 9b 2e 03 be 80 a5 97 bd e9 64 3f bf
       -0.04496701 -0.12810747 -0.074046135 -0.7476335
000140 bf 92 c8 3d 4b 31 e9 bc ab 53 a2 be c4 f8 d6 be
       0.097936146 -0.028465888 -0.3170446 -0.41986668
000150 8a 26 c5 bd 53 cc fb 3d cb 29 57 bc 2f df 86 bf
       -0.09626491 0.12294831 -0.013132523 -1.053686
000160 9d 6c e4 be 2d 8d 2d bc a5 0d 3b be 73 4e 84 3e
       -0.44614115 -0.010592741 -0.18266924 0.25841102
000170 b1 26 e5 bd 13 85 83 bd 06 cb 90 bd 05 6d cc 3e
       -0.111890204 -0.06421866 -0.07069974 0.39926925
000180 c6 37 73 bd b0 42 7b 3d 74 90 14 3f 59 17 fd be
       -0.05937936 0.061342895 0.5803292 -0.49431875
000190 3c b0 1b be d0 8e cd 3c c9 db 34 bf c6 b0 b1 be
       -0.15203947 0.025092512 -0.70647866 -0.3470518
0001a0 29 2f b9 be 76 45 80 bd e9 ed 06 3c f7 ba 06 be
       -0.36168793 -0.062632486 0.008235433 -0.13157259
0001b0 40 d1 0f 3e 3d be 14 bc 33 9b b5 bd 4b 72 78 bf
       0.14044666 -0.0090785595 -0.088674925 -0.970494
0001c0 26 c8 04 be 4a 1a ea bc b9 cd 90 3d 01 a3 bd 3c
       -0.12966976 -0.028576989 0.070704885 0.023149015
0001d0 ca 61 51 be b6 3e d1 bd 28 62 30 bd 3f 6f 9f bc
       -0.2044746 -0.10217039 -0.04306236 -0.019462226
0001e0 9c a2 87 bd 14 c1 33 bf 76 ec 85 be 6b 95 97 be
       -0.06622812 -0.7021649 -0.26156968 -0.29606184
0001f0 ac 4d 8e bd fd b4 12 be f3 3b d4 bd 16 e0 97 3c
       -0.069484085 -0.14326854 -0.10362997 0.01853947
000200 a5 54 28 bd 20 72 05 3c 00 d8 32 3b 88 43 5e 3d
       -0.04109635 0.008144885 0.002728939 0.05426362
000210 9c 67 c0 3d 02 d1 c4 3d 16 ba 87 bd 46 1b 00 ba
       0.09394762 0.096101776 -0.0662729 -0.00048868766
000220 59 84 94 3d e9 bf 8a 3d 27 84 e2 3b 50 24 d2 bd
       0.07251806 0.06774885 0.0069127264 -0.10260832
000230 0c c3 6d bd af 12 e6 bd 0a dd e5 bd fc 4c 1a bd
       -0.05804734 -0.11234032 -0.112238005 -0.037671074
000240 5a 99 ff bd 6d 47 88 3d ba 45 5e bd 00 c0 2e 3b
       -0.12480421 0.066542484 -0.054265715 0.0026664734
000250 f7 7b 90 bd b2 f3 cd bd 95 03 32 3d 64 9a 33 3d
       -0.070548944 -0.10056247 0.043460447 0.04384841
000260 3c 8d 11 3d 80 13 f6 ba e0 7b 53 bd 68 cc 90 3d
       0.035535082 -0.0018774122 -0.05163181 0.070702374
000270 48 c6 7d bd 60 e8 ef 3c c2 6a 89 3d f7 f3 39 3d
       -0.061956674 0.02928561 0.067098156 0.04539868
000280 6c 07 d5 bc b7 dc b0 bd 12 a4 9c bd 00 5e d3 3a
       -0.026004516 -0.08635848 -0.076484814 0.0016126037
000290 93 cc a5 3d bc 26 e6 bd 24 af f6 bd ed 78 bd 3d
       0.0809566 -0.11237857 -0.12045124 0.092515804
0002a0 b6 05 d2 3d 9e 32 a2 bd 85 a7 ad 3d 48 70 f4 bc
       0.102549955 -0.07919811 0.084792174 -0.029838696
0002b0 d3 f4 d3 3d 6e c0 df bd 18 a9 4a 3d a6 44 e7 3d
       0.10349431 -0.10925375 0.049477667 0.112923905
0002c0 5b 64 81 3c cc d7 1b 3d df 38 31 bd 7b 39 cc bd
       0.015794924 0.038047597 -0.043267127 -0.09971901
0002d0 51 70 7a 3d be 50 a2 3d eb a2 ce bd c9 0e d0 bd
       0.06114227 0.079255566 -0.10089668 -0.1015907
0002e0 3b 79 10 bc 20 a7 f7 3d 54 00 66 bc 98 4a f3 3c
       -0.008817966 0.120924234 -0.014038164 0.029698655
0002f0 5b 50 65 3c c2 ed 9b bd 38 2f 04 bd 1b f1 1e 3d
       0.013996209 -0.07613708 -0.032271594 0.038804155
000300 80 a3 42 bd 0c 27 40 3d 78 06 98 bd 36 8f d6 bd
       -0.047519207 0.046912238 -0.07423109 -0.10476534
000310 00 04 a5 bd 53 27 07 bb a4 c7 8d 3d 4f db 7b bc
       -0.080574036 -0.0020622804 0.06922844 -0.015372111
000320 47 17 ca bd 3e 60 b2 bb bf 23 e4 3c 70 8d b2 3d
       -0.09867721 -0.005443602 0.027849076 0.08718383
000330 44 3b 61 3d 16 3a 5e 3d 98 c9 b9 bd b0 fc 15 bc
       0.05498816 0.054254614 -0.09071654 -0.009154484
000340 c6 77 85 bd 50 bf b1 3c bc ca 59 3d 00 ee 39 3a
       -0.065169856 0.02169767 0.05317186 0.00070926547
000350 8f ca 0b be 13 bb b4 bc 12 27 bb 3d 6c a4 ed 3d
       -0.13651489 -0.02206186 0.091383114 0.116036266
000360 de f3 ca bd 70 ea cc bc f0 79 48 3c 61 07 c7 3d
       -0.09909795 -0.025014132 0.012236103 0.09718204
000370 ac 45 9f bd 00 b8 22 3c 18 59 60 3d 20 25 7c 3c
       -0.07776961 0.009931564 0.054772466 0.015389711
000380 c5 c5 be 3d 11 01 0d be 00 88 a1 39 18 ca 97 bc
       0.09315065 -0.13769938 0.0003080964 -0.018528983
000390 7a 1c 00 3d b2 da b0 bd 70 63 ed bc bf fd 35 3d
       0.031277157 -0.08635463 -0.02897808 0.044431444
0003a0 54 e2 ff bd 0c cf f4 bd 09 b9 12 bc 90 1e 66 bd
       -0.124943405 -0.119535536 -0.008955249 -0.05618149
0003b0 0d b3 01 be 94 b9 92 3d ef 7f c4 3d 5e 7e 9d bd
       -0.12665959 0.071643025 0.09594714 -0.07690118
0003c0 c8 38 0b bd c0 db 54 bd 66 bc a4 bc ac 39 b9 bd
       -0.033989698 -0.051967382 -0.020109367 -0.09044203
0003d0 39 87 00 be fa 60 8f bd 29 dd e6 bd 8b 6a 27 bd
       -0.12551583 -0.07000919 -0.11272652 -0.04087309
0003e0 bc 55 9b bc 1a b3 93 3d a6 50 50 3c 38 a8 2b bd
       -0.01896178 0.07211895 0.012714541 -0.041908473
0003f0 1f e2 5e 3b 48 a0 d0 bd b8 07 58 3d 2e 50 06 bd
       0.003400929 -0.10186821 0.052741736 -0.03279131

hidden_layer_1.bias f4 [64]
000000 59 cd 58 3c 5a c6 c5 bd 15 a3 2d bc 37 b8 0d be
       0.013232552 -0.09656973 -0.010597964 -0.13839804
000010 18 73 b3 bd 71 71 ca 3d 7f 56 8a 3e 27 72 ea bd
       -0.08762187 0.098849185 0.27019116 -0.11447554
000020 92 d4 a2 3d 9e 99 a1 bd d5 a7 9f bb 94 09 7e bd
       0.07950701 -0.07890628 -0.004872302 -0.062020853
000030 37 9b 53 bd 07 a2 47 3e 6e 5e 2a bd 3a 76 fa bd
       -0.051661696 0.19495402 -0.04159396 -0.12229581
000040 d2 ca c0 bc 02 44 dc 3d b1 c4 08 3d ce 4e fe 3c
       -0.023534212 0.10755159 0.033390705 0.031043436
000050 d3 02 b3 3e 1f 04 9d 3d ee 59 c7 3c 7e e1 e7 3d
       0.34963092 0.07666802 0.024334874 0.11322306
000060 c0 26 a8 bd 1f 1f 7d 3e 3f c6 ec bb 7c 59 b1 3d
       -0.08210516 0.24718903 -0.007225781 0.08659646
000070 ab 91 ee 3d 09 4a 6f 3d 00 07 40 3e 87 ed 1d 3e
       0.11648878 0.058420215 0.1875267 0.1542264
000080 90 e9 af bc ee f4 4d bc 3a 79 3e bd 0f 4e d1 bc
       -0.021473676 -0.012570603 -0.04650233 -0.025549917
000090 9d 83 1b 3c 91 89 f8 3c 24 b1 99 bd 3c bc 23 be
       0.009491828 0.030339034 -0.0750449 -0.15989774
0000a0 52 da 57 3d 94 31 69 3d 76 d6 6c 3e c1 cb 3c 3e
       0.05269844 0.056932047 0.23128685 0.18437101
0000b0 9a c8 b8 bb 3e c1 87 3d a5 2c 87 3d 5b 4a 49 3d
       -0.005639148 0.06628655 0.06600312 0.049143177
0000c0 17 4c af bd 10 45 57 be 24 49 c8 3d 68 c3 6f be
       -0.08559435 -0.21022439 0.097795755 -0.23414385
0000d0 13 f2 d3 bd f8 4c 7b bd 37 01 c5 bd b9 19 0c be
       -0.10348906 -0.0613527 -0.09619372 -0.13681687
0000e0 ea d2 fc bd f8 ce d6 bd a1 3a c1 bc 0a 98 60 3e
       -0.12344916 -0.10488695 -0.023587527 0.21932998
0000f0 d6 8b 6c 3c 90 32 95 3e d8 5e 63 bd 16 b7 39 3e
       0.014437636 0.2914014 -0.055510372 0.18136248

hidden_layer_2.weight f4 [64, 64]
000000 40 bc 2b be b4 0b 44 bf 90 a5 fc bd c8 aa c5 bd
       -0.1677103 -0.7658036 -0.12336266 -0.096517146
000010 78 db e8 bd be 42 1d be bb 31 42 bf 80 49 d9 3b
       -0.11369985 -0.15357491 -0.7585713 0.0066310763
000020 3f ee a5 bb f0 cb c7 bd a3 8f b4 3d 7c 9c df bd
       -0.0050638015 -0.09755695 0.08816459 -0.10918519
000030 3a 6b d4 be c3 f4 e5 be b4 5d fa bd db 8e 82 be
       -0.41488057 -0.449133 -0.12224904 -0.25499615
000040 42 db a7 bd ce b3 02 bf 32 4b 90 bd bb 58 aa bd
       -0.08196117 -0.5105561 -0.07045592 -0.08317705
000050 50 43 12 3e 3f 6a 95 3c 41 5a 0f be 58 39 d6 bd
       0.1428349 0.018239139 -0.13999273 -0.10460156
000060 54 2d 19 bd ca 3f 09 bf 70 80 a2 bd 8f 1d ac 3e
       -0.037396744 -0.5361296 -0.07934654 0.336163
000070 17 1e 73 bd d9 38 3a bd c4 c8 84 bd 04 61 e5 bd
       -0.059354868 -0.04546437 -0.064836055 -0.11200145
000080 70 ff 30 bd 2f 26 9c bd 7b 73 89 bd c1 8d 76 3c
       -0.043212354 -0.076244704 -0.06711479 0.015048445
000090 60 27 31 bd 01 a4 46 bd 69 a2 cc bd bc c9 9b 3d
       -0.04325044 -0.04849625 -0.09991915 0.07606837
0000a0 28 9e b8 3d d7 a8 a8 bc 90 32 9f be 7b 1a bc 3d
       0.09014541 -0.020588322 -0.31093264 0.09184738
0000b0 da 55 95 bc 05 fe d3 bc 68 62 2d be 8f 77 0d be
       -0.018229414 -0.025877962 -0.1693207 -0.13815139
0000c0 09 28 ae 3d 8d 88 e5 bd 0e f2 34 bf 1f 65 d8 be
       0.0850373 -0.112076856 -0.70681846 -0.4226465
0000d0 77 65 05 bf a5 6e eb be f7 c9 e4 be 2c aa aa 3c
       -0.5210795 -0.45982853 -0.44685337 0.020833097
0000e0 b9 55 ad bd 05 92 92 3c 96 b8 a9 bd 83 e2 56 3e
       -0.08463616 0.017891893 -0.0828716 0.20984845
0000f0 bd eb 03 be 06 b9 39 3e 74 1a 5d bd c5 48 2e bf
       -0.12882896 0.18136987 -0.053980306 -0.6807979
000100 8f cd bd bc 1e 7c 21 be 00 54 98 bb 20 69 20 bd
       -0.023169307 -0.15770003 -0.0046486855 -0.039162755
000110 86 8b 26 be 76 6e 19 3e 16 1a 56 be 51 3d 72 3d
       -0.16264161 0.14983544 -0.20908388 0.059140507
000120 91 69 c9 be cf 2e de 3d 3b f5 28 3d 29 b7 fe bc
       -0.39338353 0.10848772 0.041249495 -0.031093197
000130 3f e6 82 bf 5d cf 3f bd 2c 8d 9b be 8d ff 03 bb
       -1.0226516 -0.046828616 -0.30381143 -0.0020141334
000140 e9 b7 8a bf f1 bc ef 3d 77 26 4f bf 6c 5e 73 bc
       -1.0837375 0.117059596 -0.8091807 -0.014854055
000150 d7 77 92 bf 95 f0 94 ba af e5 39 3d 74 88 85 be
       -1.1442822 -0.0011363203 0.04538506 -0.26080668
000160 20 7f dd bd cd 97 0d 3e 15 b5 fb be 1b a1 72 bc
       -0.10815263 0.13827439 -0.49161592 -0.014808918
000170 f4 a3 41 be 9a f3 4f 3d 97 00 44 bf 79 4a 1c bd
       -0.189102 0.050769426 -0.765634 -0.03815696
000180 4a c2 d3 bd 28 57 c3 3d cd 46 92 bd cc 2a 96 bd
       -0.10339792 0.09538108 -0.071424104 -0.073323816
000190 79 0d 00 be 71 a4 00 bd d1 a1 84 3c db 2d d8 bd
       -0.1250514 -0.031406824 0.016190441 -0.10555621
0001a0 b6 df 25 3d b7 22 8f be 56 65 dd be 59 48 a2 3e
       0.04049655 -0.27956173 -0.43241376 0.31695822
0001b0 6c bc c1 be 8b b2 c8 3d e4 ec a2 bd 83 4a d7 3c
       -0.37839067 0.09799679 -0.079553396 0.026280647
0001c0 a0 20 bb bb 6b 76 90 bd 96 bd c0 bd c5 42 bd bc
       -0.0057106763 -0.070538364 -0.09411161 -0.023103127
0001d0 b2 93 90 bd e8 f4 45 bd 23 0f 0b 3e 79 04 04 bd
       -0.07059421 -0.048329264 0.13579993 -0.032230828
0001e0 ad ee 4f bd d4 6b 18 3d 58 eb 70 be 06 41 94 be
       -0.05076473 0.037212208 -0.23527277 -0.2895586
0001f0 15 6b 51 be a2 d1 66 be fa 46 d4 3d 81 56 28 be
       -0.20451005 -0.22540906 0.103651 -0.16439249
000200 89 f7 7d be 05 da 7c bc dc b3 d1 bd e5 47 cc 3d
       -0.24801458 -0.015432839 -0.102393836 0.0997465
000210 33 91 28 3b 1c f7 10 be 1c e0 e3 bd 03 12 02 3e
       0.002572131 -0.14156765 -0.1112673 0.12702183
000220 29 38 31 3d b3 aa c4 3d 92 22 51 bd 7d 66 8e bd
       0.04326645 0.09602871 -0.05105836 -0.06953142
000230 21 fb 54 bc e3 a4 dd bd 33 ef f0 3d c8 58 bb 3b
       -0.012999327 -0.10822465 0.11764374 0.0057173707
000240 44 ce 99 3d 8d 77 26 be 20 35 07 be 96 6d a8 3d
       0.07510045 -0.16256543 -0.1320386 0.08224027
000250 08 3c cd bc 76 23 64 3d 24 52 96 bd 37 73 07 be
       -0.02505304 0.05569788 -0.07339886 -0.13227545
000260 e0 12 aa bd 26 9a 6b bd d9 47 09 be b6 24 a4 3d
       -0.08304381 -0.057520054 -0.13406314 0.080148146
000270 de 5a 85 be 76 f4 bb bd fd d6 66 3e 29 c5 33 be
       -0.2604589 -0.091774866 0.22542949 -0.1755568
000280 50 8f 09 bd 5c f7 19 3d 1d f1 a6 3d c0 fc 97 bb
       -0.03358394 0.037589416 0.081514575 -0.0046382844
000290 94 6e c6 bc 7c 45 72 3d ae a4 cb bd d6 c6 8b bd
       -0.02422265 0.059148297 -0.099435195 -0.06825034
0002a0 ca 36 35 3d 1d 50 ed 3d 7f c0 2c 3d 44 84 21 3e
       0.044241704 0.11587546 0.042175766 0.15773112
0002b0 a3 37 28 3d 89 28 b5 bd 57 fa d5 bd af 60 c3 bd
       0.041068684 -0.08845622 -0.10448139 -0.09539925
0002c0 f9 5a ee 3d 47 7f bf bc 2b 65 52 bd 57 c1 62 3d
       0.116384454 -0.02337612 -0.051366013 0.055360164
0002d0 a9 a7 cd bd c9 10 af bd 62 13 27 be ee 9f c0 bd
       -0.10041744 -0.085481234 -0.16315988 -0.09405504
0002e0 ff 02 e0 3c e2 73 4b 3e b9 84 99 bc d0 91 6b 3d
       0.027345179 0.19868425 -0.018740045 0.057512105
0002f0 7b 33 25 3d 72 a4 ad 3d 20 01 df bd 5a e1 64 bd
       0.0403323 0.08478631 -0.108888865 -0.055878974
000300 d0 3a 1f 3d db 44 99 bd 46 9f 88 3d a8 e4 2b bd
       0.038874447 -0.07483836 0.06671004 -0.04196611
000310 06 ca ea bc 9e 51 6e bf 55 62 3e bd 2c 3f ed 3c
       -0.028660785 -0.9309329 -0.046480495 0.028960787
000320 87 16 e6 3c bd aa 21 3d cc ef 9f 3c 0f 88 e3 bc
       0.028086914 0.03946947 0.019523524 -0.027774839
000330 ea 25 46 3e 8e 37 9d be 57 1d 31 3d 59 26 c8 3e
       0.193504 -0.30706447 0.04324087 0.39091757
000340 11 3b 73 be ef 7d 90 bc 1d e6 4b bf 8d ef b9 bd
       -0.23753001 -0.017638175 -0.79648 -0.09078894
000350 62 b8 96 bf 8d c2 bc bd 9e 13 d3 3c c8 a9 03 be
       -1.1775019 -0.09216795 0.02576619 -0.12857735
000360 3a 2a ae bc eb 4d 6d be 6d 36 f4 3c 39 4f 9b be
       -0.02126037 -0.23174255 0.029811108 -0.3033388
000370 7f 71 35 3d d6 e9 90 3e 64 36 f8 bd 11 f1 af 3d
       0.04429769 0.28303403 -0.12119749 0.08590902
000380 99 22 d5 3d a8 54 01 3e 3d 60 b4 bd 90 61 a5 3d
       0.104069896 0.1262995 -0.088074185 0.08075249
000390 d7 fe db 3d 0c a8 06 be 86 56 47 bd 68 fd d8 bc
       0.10741966 -0.13150042 -0.0486665 -0.026488021
0003a0 1e 04 22 bc 59 96 9b be 78 b7 0f be b1 1c bb be
       -0.009888677 -0.30388144 -0.14034832 -0.36545327
0003b0 9f bb b4 bc 5f f1 1e 3d 7c 6b 62 bc d7 43 c9 bd
       -0.022062121 0.03880441 -0.013819572 -0.098273925
0003c0 40 2a 71 3c fe dc 18 3e 3a 95 bf bd f2 ce 5c 3d
       0.014719546 0.14928052 -0.093546346 0.053908296
0003d0 59 bb 88 3e 33 b4 a8 bc 68 3c 99 3e 72 01 79 bd
       0.26705435 -0.020593738 0.299289 -0.060792394
0003e0 f7 83 cd bd 91 65 00 bc 47 19 72 be 0d 84 9e be
       -0.10034936 -0.007836715 -0.23642455 -0.30960122
0003f0 ca 07 5d be 9e 4a c7 be 7c 62 86 3d cf 71 0f bd
       -0.21585003 -0.38924116 0.06561753 -0.035020646

hidden_layer_2.bias f4 [64]
000000 b8 ce 3c 3c 82 01 77 3d 34 03 37 3e 9b 87 f6 bd
       0.011523895 0.060304172 0.17872316 -0.120375834
000010 55 d1 cd bd 89 38 1c be c3 4a b7 bd 87 68 26 3e
       -0.100496925 -0.15255941 -0.089498065 0.16250812
000020 4d 1e 76 bd d3 6f 48 3e 00 83 02 3e 23 fd e4 bd
       -0.06008749 0.19573908 0.12745285 -0.111810945
000030 df 3d 18 3e 05 e8 16 3e 41 a3 c5 bd d6 d7 c8 3e
       0.14867352 0.14736946 -0.09650279 0.3922717
000040 fc 01 2b be cc 86 e6 bd ee 5c d7 3e 17 20 cc 3d
       -0.16699976 -0.11256179 0.42063087 0.09967058
000050 5b 45 4c 3c a4 d8 41 be 01 48 1b 3c 83 d6 b4 3e
       0.0124677075 -0.18930298 0.009477616 0.3531991
000060 10 8c bc bd ca b2 a9 bd e0 1e 5d bb a6 ce b2 3d
       -0.09206402 -0.082860544 -0.0033740327 0.08730821
000070 8f 04 b6 3e ca 11 1e 3e 47 2d 16 3e ec 90 b2 bd
       0.35550353 0.15436473 0.1466571 -0.08719048
000080 be 6d 63 3e 0c 3e ce bd 39 ea 01 3f 23 8e 3b be
       0.22209832 -0.10070428 0.5074802 -0.1831594
000090 0b 10 ac 3c 23 db 0f 3e 41 58 b6 3d 6d 9e fe bd
       0.021003744 0.14048438 0.08903552 -0.12432561
0000a0 3a 86 ca bd ff 4e 03 be e2 e9 fa 3d 25 fb 77 3d
       -0.09888883 -0.12823103 0.12251641 0.060542244
0000b0 fd d7 cc bc 21 15 05 3e 33 bb bc 3e f1 1f 82 3e
       -0.025005335 0.12996341 0.36861572 0.25414994
0000c0 06 2a 97 bc d3 8f e5 3d 3b 36 8e 3e 24 b5 8c be
       -0.018452656 0.11209073 0.2777575 -0.2748195
0000d0 44 66 71 bc 2d 9c ab bd 79 95 a0 3e 9a 0a 10 be
       -0.014733855 -0.083793975 0.3136404 -0.14066544
0000e0 9b 0c 38 bc 3a 29 36 be e8 7d e5 bd 5e c3 f1 3e
       -0.011233474 -0.17789164 -0.11205655 0.47219366
0000f0 ca 0b ee bd 23 56 08 3d 81 bc de 3e e3 ac 82 be
       -0.11623342 0.03328527 0.43503192 -0.25522527

output_layer.weight f4 [9, 64]
000000 2e 61 8e be 21 e3 20 bf ce 0c a7 3c 08 f4 8f be
       -0.27808517 -0.6284657 0.020391848 -0.2811587
000010 3d 07 5d bd 11 3e 2c 3d 60 97 74 3d c9 fa 37 3c
       -0.05396198 0.04205138 0.059714675 0.011229225
000020 8f 16 df 3c fa ae 37 3c 42 e4 8e 3c f2 26 85 3d
       0.027232436 0.011211151 0.017442826 0.06501569
000030 79 f4 cb 3d d9 07 0b 3e 24 4e 9c bd 26 4a 43 3e
       0.09958739 0.13577212 -0.07632092 0.19071254
000040 90 ed 9a bd 30 bf 1a 3c 98 bc 40 3e bb b5 46 be
       -0.07564843 0.009444997 0.18821943 -0.19405262
000050 07 7a 23 3d 32 ff 17 3e f1 2c 20 3e 53 83 29 3e
       0.039911296 0.14843443 0.15642144 0.16554002
000060 cf 73 de bd 25 be 5b bd e9 5c d5 3d 8e 57 b8 be
       -0.108619325 -0.053648133 0.10418112 -0.360043
000070 20 5b ce 3d 5d 8b c9 3d 46 c8 85 3d e9 18 6a 3d
       0.100759745 0.098410346 0.0653234 0.057152662
000080 e3 62 35 3e f2 f4 9b 3d c5 ef 3b 3e 06 93 77 bb
       0.17713504 0.07615079 0.18353184 -0.0037776842
000090 c2 8a 25 3d 26 44 8b 3c 56 13 0e be 44 38 c3 bd
       0.040415533 0.01700027 -0.13874564 -0.09532216
0000a0 f6 90 6f 3d 70 7b fb 3c 6a d2 ff 3d 68 eb ec bd
       0.058487855 0.030698508 0.12491305 -0.11568338
0000b0 23 35 6e bd ce fc 13 3e 98 cc 06 3e e6 86 28 3e
       -0.058156144 0.14451906 0.13163984 0.1645771
0000c0 df ea 61 3e ce bc 06 bf f1 a1 a1 bc a3 67 9a bd
       0.22062252 -0.52631843 -0.01973054 -0.075392984
0000d0 3e ae ec 3d 1f 3b c8 bc d3 f5 71 3d 95 27 88 3d
       0.115566716 -0.024442254 0.059072327 0.06648175
0000e0 0b 3c 1d be 33 ec cb bd da 56 32 3d ea 24 4f 3e
       -0.15354936 -0.09957161 0.04353986 0.20228925
0000f0 66 4e cf 3d fb c5 1c 3d 76 c0 1d 3e a9 65 1f be
       0.10122375 0.038274746 0.1540545 -0.15566124
000100 3a 12 a6 be 79 49 06 3c 02 92 42 3c 7f 6b 5a bf
       -0.3243578 0.008196228 0.011875631 -0.85320276
000110 20 f0 2f 3d 33 ed 86 3d 41 e9 5b be d6 98 e1 3d
       0.04295361 0.06588211 -0.21475698 0.11015479
000120 99 6f 5d 3d 54 84 03 bc 57 01 3b 3d e7 85 8f bd
       0.054061506 -0.008027155 0.045655575 -0.07007962
000130 31 51 16 3e df 2d cb 3d d6 f4 f8 ba 35 4b f8 3d
       0.1467941 0.099208586 -0.0018993865 0.121237196
000140 f8 76 84 3c a0 80 04 bd 73 10 39 3e d0 40 05 be
       0.01617001 -0.03234923 0.18072681 -0.13013005
000150 45 ec 0a be c3 0a e9 be 1f 2b fc 3d 32 47 50 3e
       -0.13566692 -0.45516023 0.12312912 0.20339659
000160 0f bb ac bd 15 91 4a bd 8a ca 48 3d 21 af e6 bd
       -0.08434116 -0.049454767 0.04902128 -0.11263872
000170 c7 be 9b 3d 86 49 32 3e 99 21 6b 3d d9 ab 4f bd
       0.07604747 0.1741086 0.057405088 -0.050700996
000180 4d fb 41 3e 5f 35 06 bf 34 0f 71 3e b7 e5 c4 bd
       0.1894352 -0.5242519 0.23540956 -0.09614127
000190 35 41 da 3b cb 62 b9 bd d4 fe 11 be 7a 28 be 3c
       0.0066606053 -0.090520464 -0.14257365 0.02321266
0001a0 5c a4 48 3b 50 e1 8c 3c 68 5a f5 3d a3 02 c5 bd
       0.0030615544 0.017197281 0.11980134 -0.096196435
0001b0 9e fb c6 3d c0 c7 d1 3d 21 62 35 3e 1e fe d6 3d
       0.09715961 0.102431774 0.17713214 0.10497688
0001c0 33 34 05 bf 58 3b 52 3e b6 d8 be 3d 8e ff 1d 3e
       -0.52032775 0.2053045 0.09318678 0.15429518
0001d0 bd a5 73 3c 48 9b 0c 3e 0c 11 94 3d d7 a1 ea 3d
       0.014871058 0.1373111 0.07229814 0.1145665
0001e0 39 50 c1 3c cd e4 99 3c f1 f4 08 3d fd 9d 4c 3e
       0.023597823 0.018785859 0.03343672 0.19982143
0001f0 f7 07 1c 3d 96 ce b7 3d 78 bf 1b 3e 95 9c 49 be
       0.038093533 0.0897495 0.15209758 -0.19688638
000200 d9 74 77 be 31 3a 08 3d bb 57 9a 3d 81 af b5 3d
       -0.24165668 0.03325862 0.075362645 0.08871365
000210 c0 9e 8b 3b f8 0b 10 3d 43 7e 13 bd 58 7f 9f 3d
       0.004260868 0.035167664 -0.036009084 0.07787961
000220 8c a0 c9 3c 81 ae 67 bd de 45 53 3e a8 8b 9a bc
       0.024612688 -0.056562904 0.20632121 -0.018865421
000230 89 bc 0d 3e 28 b6 10 3e 18 84 98 3d 1e fa f8 3d
       0.13841452 0.14131987 0.0744707 0.12157081
000240 db 82 3a 3d be dd aa bc 71 5b 38 3e a7 f3 40 be
       0.04553495 -0.020857688 0.18003632 -0.18842946
000250 8f 19 1d 3b 09 29 ac be 49 7a 75 3d fa 00 32 3e
       0.0023971533 -0.33625057 0.059931073 0.17383185
000260 7d d8 03 bd ee cf 90 3d 65 55 b6 3d e3 e8 ac bd
       -0.03218888 0.070709094 0.089030065 -0.08442857
000270 cf bb 10 3e 32 3c 08 3e 62 4d 39 3d 20 55 07 3d
       0.14134143 0.13304213 0.045239814 0.033040166
000280 77 39 37 3e ec 7d 67 3d 04 08 46 3e 11 eb 5f 3d
       0.17893015 0.056516573 0.19338995 0.054667536
000290 3e cc a9 3d f8 b9 a5 3c 92 4a 19 be 17 93 2a bd
       0.08290909 0.020230278 -0.14969853 -0.041644182
0002a0 89 d6 ed 3d a8 12 dd 3d 67 f5 d9 3d 8d 1d 4a bd
       0.11613185 0.10794574 0.1064251 -0.049344588
0002b0 dd eb a0 bd 97 86 30 3e 81 f9 1f 3e ba 8a 00 3e
       -0.07857487 0.17238842 0.15622522 0.1255292
0002c0 72 60 74 3e be 1e d8 3d b6 ec bc 3c 86 21 4a bd
       0.23864916 0.105527386 0.023062091 -0.049348377
0002d0 e1 32 ba bc ce 5c e3 bd 1d 45 e3 3d ee 05 65 3d
       -0.02272934 -0.111016855 0.11097167 0.055913858
0002e0 8c ad 59 3d 83 43 88 bc 7b 82 b6 3d dc b5 40 3e
       0.053144023 -0.016633755 0.08911606 0.18819374
0002f0 60 80 a6 3d 14 70 0c 3e ed f6 09 3e 85 23 0c be
       0.08129954 0.1371463 0.13473101 -0.13685425
000300 13 6c 41 be 90 97 db 3d 03 1a 43 3d 8f 12 06 3e
       -0.18888883 0.10722268 0.04763223 0.13093017
000310 8e 71 6e 3c 08 d2 1c 3e 1c 05 44 bc 16 1d 1f 3e
       0.014553441 0.15314496 -0.011964109 0.15538439
000320 58 ec 04 3e a3 ab 86 bd 1b d1 2f 3d e3 8d f6 bd
       0.12980783 -0.06575706 0.042924028 -0.120387815
000330 b0 5b f2 3d 0e a7 0d 3e 68 ca b8 3d 59 71 0b 3e
       0.11833894 0.13833258 0.09022981 0.13617457
000340 19 24 95 bc 42 fe e3 3b 8d ef 40 3e e1 cf b9 be
       -0.01820569 0.0069578 0.18841381 -0.36291412
000350 0d 18 ba bd ec 87 80 bc 05 7e 23 3d 6e fb 2d 3e
       -0.090866186 -0.015689813 0.039915103 0.16990444
000360 11 b5 35 3d 7d 49 d0 3c ca 1c fb 3d 78 7a 12 3e
       0.04436213 0.025425667 0.122613505 0.1430453
000370 b7 34 1c 3e 4e a9 ad 3d f2 0e a3 3d e6 66 8d bd
       0.15254484 0.08479558 0.07961835 -0.06904392
000380 9c 94 02 3e a4 e1 90 bd bc 8a 3c 3e ea cc 25 bd
       0.12752002 -0.070742875 0.18412298 -0.040478624
000390 b0 9d 4b 3d 05 f0 bf 3d 3e 49 b5 bd 02 6a e3 bd
       0.04971093 0.09371952 -0.088518605 -0.11104204
0003a0 96 ee a0 3c f2 33 00 3d a7 56 83 3d 68 41 aa bd
       0.019645017 0.03129954 0.06413012 -0.083132565
0003b0 f0 54 bb 3d eb eb 10 3e e3 71 32 3e 15 2f 1c 3e
       0.0914706 0.14152496 0.17426257 0.15252335
0003c0 1d 72 a5 bc 2f be 18 be 0d 9d e1 3c 24 20 0e 3e
       -0.020196015 -0.149163 0.027540708 0.13879448
0003d0 4a 0f 09 3d f5 df 80 bd 65 69 d5 3d fc 6d 08 be
       0.033461846 -0.062927164 0.10420493 -0.13323206
0003e0 5b b5 91 bb bc 10 3f 3d ee 62 63 bd 3f 98 e3 3d
       -0.004446668 0.04664682 -0.05551427 0.11113023
0003f0 ea 0e df 3d b8 04 79 be b6 6a 52 3e 24 a7 51 3d
       0.108915165 -0.24318206 0.2054852 0.05118479

output_layer.bias f4 [9]
000000 cd 8f b0 3e 7c e1 a4 3e 09 58 a9 3e f4 c6 ad 3e
       0.3448471 0.3220328 0.33074978 0.33940852
000010 9a 9f ad 3e 8b 4a a4 3e 04 3c a6 3e 99 c2 c2 3e
       0.3391083 0.32088122 0.32467663 0.3803909
000020 52 aa c4 3e
       0.38411194
