DQN - Pendulum/data/Apprentice 3.pt (torch, 39996 bytes, 8 tensors)

input_layer.weight f4 [64, 3]
0	0xbdec7168	-0.11545068
1	0x3f4e2869	0.8053041
2	0x3e0e2aa0	0.13883448
3	0xbe5d47c3	-0.21609406
4	0x3daa87f2	0.08326711
5	0x3c7dd56b	0.015492777
6	0xbe822f0d	-0.25426522
7	0x3e0ca79f	0.13735817
8	0xbe203684	-0.15645796
9	0x3f264bdc	0.649595
10	0xbe9b5578	-0.30338645
11	0xbea38b93	-0.31942424
12	0x3e6efc38	0.23338401
13	0x3ef72717	0.4827201
14	0xbe625ef4	-0.22106534
15	0x3d1b5ccc	0.037930295
16	0x3f71d94c	0.94472194
17	0x3e2b48ee	0.16727039
18	0x3f338451	0.70123774
19	0x3d45c3b4	0.04828234
20	0xbc5314f6	-0.012883415
21	0xbce6890c	-0.02814152
22	0xbf3160a8	-0.6928811
23	0xbe059797	-0.13046108
24	0xbec4a5e1	-0.38407806
25	0x3ed02276	0.40651292
26	0xbeb4afb6	-0.35290307
27	0x3e051507	0.12996303
28	0xbf57daa0	-0.8431797
29	0xbe080d10	-0.13286233
30	0xbdc577ef	-0.09642016
31	0xbf132cef	-0.5749044
32	0x3da6e1cf	0.08148538
33	0x3f0a8fde	0.54125774
34	0x3f426899	0.75940853
35	0xbed2e991	-0.41193822
36	0x3ec60887	0.3867838
37	0x3f21eab9	0.63248783
38	0x3df683ba	0.120368436
39	0x3f2dc8f9	0.67884785
40	0x3cab1c1c	0.020887427
41	0x3dc59b20	0.09648728
42	0x3e351817	0.17684971
43	0xbf18ed60	-0.59737206
44	0xbde978b2	-0.11399974
45	0xbf8f9e8f	-1.1220263
46	0x3e529a38	0.20566642
47	0xbd84de7c	-0.06487748
48	0x3d90673f	0.07050943
49	0xbf325a9f	-0.69669527
50	0x3e45ad94	0.19304496
51	0xbe72a386	-0.23695192
52	0xbed2784f	-0.41107413
53	0xbe002ee7	-0.12517892
54	0xbea88ef8	-0.32921576
55	0x3f800a06	1.0003059
56	0x3e1d4916	0.15359911
57	0x3c1ae159	0.009453141
58	0xbf260727	-0.64854664
59	0x3e6a80dc	0.22900718
60	0xbeb6159b	-0.3556336
61	0xbe92024d	-0.2851738
62	0xbdea68b0	-0.11445749
63	0x3e9fe78c	0.31231344
64	0x3e087351	0.1332524
65	0xbe88da5b	-0.26729092
66	0x3b7cdf91	0.0038585404
67	0x3d6b0983	0.057382118
68	0xbe8bbcd2	-0.27292496
69	0xbeee1789	-0.4650233
70	0x3eaedf25	0.3415462
71	0x3e61fdc4	0.2206946
72	0xbe48a49d	-0.19594045
73	0x3f0416e3	0.5159742
74	0xbdbc9bb7	-0.09209388
75	0x3eab850e	0.3349995
76	0xbeaff8b4	-0.34369433
77	0xbde7ee89	-0.11324794
78	0x3ee10582	0.43949515
79	0xbe005af2	-0.12534693
80	0xbd44e144	-0.048066393
81	0x3eff5a05	0.49873367
82	0x3f22cbf0	0.63592434
83	0xbceb5509	-0.028727071
84	0x3eec6e03	0.46177682
85	0xbed69aa6	-0.41914862
86	0xbedf865a	-0.4365719
87	0x3f11f614	0.5701611
88	0xbf40b424	-0.7527487
89	0x3dd5f89b	0.10447808
90	0xbf198057	-0.59961456
91	0xbe3fa793	-0.18716268
92	0xbddf8d75	-0.10915653
93	0xbf7fe251	-0.99954706
94	0xbdd2e1b3	-0.10296955
95	0x3d9981e7	0.0749548
96	0xbe890972	-0.2676502
97	0x3f2866c9	0.6578184
98	0x3def26a9	0.11677296
99	0xbf246730	-0.6421995
100	0xbf05a151	-0.52199274
101	0x3c6eb0c3	0.01456851
102	0x3ecada03	0.39619455
103	0x3f365e6f	0.71237844
104	0x3e664248	0.22486222
105	0xbecff5ea	-0.40617305
106	0xbdc59eed	-0.09649453
107	0xbdb14388	-0.08655459
108	0xbe8f6eac	-0.28014123
109	0x3dff956e	0.12479673
110	0xbe6ccdf4	-0.2312544
111	0x3ea85758	0.32879138
112	0xbe187c05	-0.1489106
113	0x3ed85b8a	0.4225734
114	0xbec8fee0	-0.39256954
115	0x3f707b9d	0.9393862
116	0x3e85a3c5	0.2610151
117	0xbef0528e	-0.46937984
118	0xbf299916	-0.66249216
119	0xbe164eda	-0.14678517
120	0x3cad2ea7	0.02114041
121	0x3ebef537	0.3729646
122	0xbd4d8676	-0.05017706
123	0x3e9154b9	0.2838495
124	0x3ea7db2c	0.32784402
125	0x3dbcc66f	0.09217536
126	0xbf30bef7	-0.6904139
127	0x3f11fba7	0.57024616
128	0x3e672217	0.22571598
129	0x3f0e645b	0.5562188
130	0x3f1abaaa	0.60441077
131	0x3e3bf44c	0.1835491
132	0xbd6b77f6	-0.05748745
133	0xbe546268	-0.20740664
134	0xbd6bafc0	-0.057540655
135	0xbe93bf1a	-0.28856736
136	0x3ec5a632	0.3860336
137	0xbe46a3ed	-0.1939847
138	0xbc74dbc9	-0.014944979
139	0xbe5cbe1b	-0.21556894
140	0xbca19828	-0.019725874
141	0xbe83a54e	-0.25712055
142	0x3f163727	0.58677906
143	0x3dcb4024	0.09924343
144	0xbec65a78	-0.38740897
145	0x3eb18d99	0.34678343
146	0xbe2da38c	-0.1695692
147	0xbe983b59	-0.2973278
148	0xbebcbec2	-0.36864287
149	0x3e396200	0.1810379
150	0x3f4ca2e6	0.79936063
151	0x3f24b85b	0.64343804
152	0x3e324d63	0.17412333
153	0x3e723453	0.23652773
154	0x3dee6681	0.11640645
155	0x3d1dd578	0.038533658
156	0x3ef850ff	0.48499295
157	0x3cebe9c2	0.028797988
158	0x3e995584	0.29948056
159	0x3f1324af	0.5747785
160	0xbe5c0c21	-0.21489002
161	0xbe562b43	-0.2091494
162	0x3e49f66f	0.19722913
163	0x3eab83a5	0.33498874
164	0x3d632c07	0.05546191
165	0xbf1cfbd6	-0.6132177
166	0xbe36f7cb	-0.17867963
167	0xbeac2142	-0.33619124
168	0xbe0f5266	-0.13996276
169	0xbb768c14	-0.0037620114
170	0x3b9bd97f	0.004756152
171	0x3e129a7c	0.14316744
172	0xbef412dc	-0.4767064
173	0x3e33bdb5	0.17552836
174	0x3d417443	0.047230016
175	0x3f069420	0.5256977
176	0xbe4418d2	-0.19150093
177	0x3e41219e	0.1886048
178	0x3e75682d	0.23965521
179	0x3e4c6752	0.19961289
180	0xbea1a0b8	-0.3156793
181	0x3efd2a07	0.49446127
182	0x3de63e99	0.11242408
183	0xbe6d2108	-0.23157132
184	0xbf37ef9c	-0.7184999
185	0xbe40423c	-0.18775266
186	0x3eb7c7a6	0.35894507
187	0x3f47c9fd	0.78042585
188	0xbdddb86f	-0.108261935
189	0x3e855f6e	0.2604937
190	0x3f2715ca	0.6526762
191	0x3e00976e	0.12557766

input_layer.bias f4 [64]
0	0x3e18dc81	0.14927866
1	0x3c45c7a9	0.0120715285
2	0xbf2419fe	-0.6410216
3	0xbf77907a	-0.9670483
4	0xbf5f19b7	-0.8714861
5	0xbda8140c	-0.08206949
6	0xbe32459b	-0.17409365
7	0xbdccbb25	-0.099966325
8	0xbf3da56a	-0.74080527
9	0xbdfef9b1	-0.124499686
10	0x3dd57faa	0.104247406
11	0x3ee89ed1	0.45433667
12	0x3eac0389	0.33596447
13	0x3d327968	0.043572813
14	0x3d6373ff	0.055530544
15	0xbea7a7eb	-0.327453
16	0xbe59d8b0	-0.21274066
17	0x3ebe2a2b	0.37141547
18	0x3df579bb	0.11986109
19	0xbdaf709e	-0.08566402
20	0x3eee9d40	0.46604347
21	0xbf8cbc1f	-1.099491
22	0xbf82338b	-1.017198
23	0xbf21aba6	-0.6315254
24	0xbe203f29	-0.15649094
25	0xbe431675	-0.19051535
26	0xbdaaa1a3	-0.08331611
27	0x3d4f7a81	0.05065394
28	0x3e36f1b8	0.17865646
29	0x3e81e5fc	0.25370777
30	0x3d89fe4b	0.06737956
31	0xbde06cac	-0.109582275
32	0xbdbe5682	-0.09293844
33	0x3dc30880	0.095231056
34	0xbe93bbf8	-0.28854346
35	0xbee5b71e	-0.4486627
36	0xbee2c927	-0.44294092
37	0xbf85bf9d	-1.0449101
38	0xbe9cda8d	-0.3063549
39	0xbd1d6fef	-0.038436826
40	0xbe035442	-0.1282511
41	0x3e9bb7be	0.30413622
42	0xbebdd60d	-0.3707737
43	0xbe3d7b99	-0.1850418
44	0xbedb7c8f	-0.42868468
45	0xbe7fc97c	-0.24979204
46	0xbefc2550	-0.49247217
47	0x3ea018df	0.31268975
48	0x3eb478c3	0.35248384
49	0xbf18957b	-0.5960309
50	0xbde58692	-0.11207308
51	0xbf0afa26	-0.54287946
52	0xbebff5f9	-0.3749235
53	0xbf4a2d81	-0.78975683
54	0xbdf08305	-0.1174374
55	0xbf1c6ec2	-0.61106503
56	0xbe0c5371	-0.13703705
57	0x3e862992	0.2620359
58	0xbf13a6b4	-0.57676244
59	0xbf6f9a11	-0.9359446
60	0x3e85194a	0.25995857
61	0xbf193615	-0.5984815
62	0xbf0378fd	-0.5135649
63	0xbd6bb545	-0.05754592

hidden_layer_1.weight f4 [64, 64]
0	0xbf2e500e	-0.68090904
1	0x3da511ce	0.080600366
2	0xbe823b1f	-0.2543573
3	0x3c063d9b	0.008193399
4	0x3c4731b5	0.012157847
5	0xbce2d544	-0.027689584
6	0x3de1380e	0.1099702
7	0xbe4254fd	-0.18977733
8	0xbe1b7e79	-0.15184964
9	0xbdb18306	-0.08667569
10	0x3d28df7c	0.041228756
11	0x3de8579a	0.11344834
12	0xbadf6740	-0.0017044321
13	0x3df41002	0.11917116
14	0x3c8c37de	0.017116483
15	0x3e236d20	0.15959597
16	0xbd8b0537	-0.06788104
17	0x3d4971fa	0.049180962
18	0xbf3149ea	-0.6925341
19	0x3e7f0b21	0.24906589
20	0xbd81b6de	-0.06333707
21	0xbe42f434	-0.19038469
22	0xbe5438eb	-0.20724837
23	0xbdb4198c	-0.08793935
24	0x3d5846a1	0.052801732
25	0xbb7b6e96	-0.0038365475
26	0xbde61923	-0.11235263
27	0xbd75848c	-0.05994086
28	0x3d3fbd98	0.04681167
29	0x3e91faaf	0.2851157
30	0xbe09c639	-0.13454522
31	0xbf11499a	-0.5675293
32	0xbed4e10a	-0.4157794
33	0xbd755dd9	-0.059903953
34	0xbf54f4b4	-0.8318589
35	0xbd8f6f88	-0.07003695
36	0xbe54a29d	-0.20765157
37	0xbebb481b	-0.3657845
38	0xbee9f543	-0.45694932
39	0xbdcc1489	-0.09964854
40	0x3d57d132	0.05268974
41	0xbd2009af	-0.039071735
42	0xbe19a340	-0.15003681
43	0xbf0ac1d8	-0.5420203
44	0xbc826efa	-0.015922058
45	0xbd9fe6f0	-0.0780772
46	0xbda2f708	-0.07957274
47	0xbee7214e	-0.45142597
48	0x3d72bc2b	0.059261482
49	0x3cde7617	0.027155919
50	0xbcea11e5	-0.028572986
51	0x3dac55e6	0.08414821
52	0xbe236e76	-0.15960106
53	0xbdae0faf	-0.08499085
54	0xbf0c87a6	-0.54894483
55	0xbdefc6e2	-0.11707856
56	0x3c6644de	0.014054505
57	0x3d1fcc9d	0.039013494
58	0xbd89f026	-0.06735258
59	0x3dd3fe16	0.103511974
60	0xbec777c6	-0.38958567
61	0xbd041cb5	-0.03225394
62	0xbd90ec27	-0.070762925
63	0xbf8f7906	-1.1208808
64	0xbe0f01da	-0.1396555
65	0x3e32817f	0.17432211
66	0xbf2c9aaf	-0.6742353
67	0xbd723ca3	-0.05913986
68	0xbc5f70b8	-0.013637714
69	0xbd0b1740	-0.03395772
70	0x3d839847	0.06425529
71	0x3d876459	0.06610937
72	0xbdca3eaf	-0.09875237
73	0xbe97216d	-0.2951769
74	0xbd343a9e	-0.044001214
75	0xbe483d9a	-0.19554749
76	0xbe08fd3e	-0.13377854
77	0xbe8e6d5b	-0.27817807
78	0xbe502685	-0.20327194
79	0x3e15c75c	0.14626831
80	0xbdb2b70b	-0.08726319
81	0xbe06d547	-0.13167296
82	0xbcc8ab22	-0.024495665
83	0x3db84a65	0.08998565
84	0x3da51379	0.08060355
85	0xbd5c278e	-0.05374866
86	0xbea9ef03	-0.33190164
87	0xbf64f097	-0.8942961
88	0xbe9b4010	-0.30322313
89	0x3eb7dcb2	0.35910565
90	0xbbffabb3	-0.0078024506
91	0xbecbdf16	-0.3981864
92	0xbb87f3c7	-0.0041489336
93	0xbe366739	-0.17812814
94	0x3c64889e	0.013948588
95	0x3e8a727c	0.2704047
96	0xbccf5b6a	-0.025312144
97	0x3e7e0ddd	0.24809976
98	0xbf46e3cd	-0.77691346
99	0x3ddd481b	0.10804769
100	0xbc19cf5b	-0.009387816
101	0xbe36bbf5	-0.17845137
102	0x3e1198ba	0.14218417
103	0xbc815e65	-0.015792081
104	0xbec774d7	-0.3895633
105	0xbd6b0b45	-0.057383794
106	0x3e823c4e	0.25436634
107	0xbf07edd3	-0.53097266
108	0xbc6ca70e	-0.014444126
109	0xbd90eac4	-0.07076028
110	0xbb49ba40	-0.003078118
111	0xbde9c57d	-0.11414621
112	0x3d48dd41	0.04903913
113	0x3e716eac	0.23577374
114	0xbe97dcb5	-0.29660574
115	0xbd2866a0	-0.041113496
116	0xbdaebf05	-0.08532528
117	0x3d354f63	0.044265162
118	0xbe5c0ed8	-0.21490037
119	0xbd4147ff	-0.0471878
120	0x3e19ebe0	0.15031385
121	0xbd1c5fce	-0.038177304
122	0xbc83cefd	-0.01608991
123	0x3cf5ed5b	0.030020406
124	0x3e2c53bc	0.16828817
125	0x3daa28e4	0.083085805
126	0x3d32275e	0.043494575
127	0xbedfb43b	-0.43692192
128	0xbe1c908d	-0.15289517
129	0xbc8653b0	-0.016397327
130	0x3db9f476	0.0907983
131	0xbe3c3433	-0.18379287
132	0xbe8cc1cd	-0.27491608
133	0xbeb2651b	-0.34842762
134	0x3ec05dc1	0.3757153
135	0xbf27b974	-0.65517354
136	0xbe5b8dc2	-0.21440795
137	0xbf695f3d	-0.9116095
138	0x3d4ed12d	0.050492454
139	0x3e34c5fe	0.17653653
140	0xbc9cc443	-0.019136554
141	0x3dc2966c	0.09501347
142	0xbea68d2c	-0.3252958
143	0x3d8021e4	0.06256464
144	0xbba4697a	-0.0050174566
145	0xbed0f196	-0.40809315
146	0xbf198b75	-0.5997842
147	0x3b551b5d	0.003251753
148	0xbeda6488	-0.42654824
149	0xbe1079fe	-0.14109036
150	0xbd6c9d7a	-0.05776737
151	0xbed74e44	-0.420519
152	0x3ea701d7	0.3261859
153	0xbf2caefe	-0.67454517
154	0x3e0ca17f	0.13733481
155	0x3de9c3b4	0.114142805
156	0xbe7be572	-0.24599245
157	0x3d5206da	0.051276065
158	0x3d7de430	0.061985195
159	0xbd8768e8	-0.06611806
160	0xbe468422	-0.19386342
161	0xbdc41000	-0.09573364
162	0x3c9758dc	0.018474989
163	0xbde37e9f	-0.111081354
164	0xbeba343e	-0.36367983
165	0xbb01ee63	-0.0019825927
166	0xbe7cdea2	-0.24694303
167	0xbde04caf	-0.10952126
168	0x3e8594ce	0.2609009
169	0x3d97efe7	0.074188046
170	0xbeae1a3e	-0.34004396
171	0x3e75e8d6	0.24014601
172	0x3d9406e1	0.072278745
173	0xbe8df323	-0.2772456
174	0x3da25ad2	0.07927479
175	0xbdf83bf2	-0.12120809
176	0x3ec0d7fc	0.37664783
177	0xbd8715f7	-0.06595986
178	0x3e73fef8	0.23827732
179	0xbd84d522	-0.06485964
180	0xbda26a70	-0.079304576
181	0xbba41d40	-0.0050083697
182	0xbc1bfbf6	-0.009520521
183	0xbe174948	-0.14774048
184	0xbc00709c	-0.007839348
185	0x3dbe6dbd	0.09298275
186	0xbe9a3a5a	-0.30122644
187	0xbe3bee16	-0.18352541
188	0xbe00da7d	-0.12583347
189	0xbda04978	-0.07826513
190	0x3eaa4f39	0.33263567
191	0xbce31b3a	-0.027722944
192	0x3df21466	0.11820297
193	0xbcb19d8c	-0.02168157
194	0xbdd35a69	-0.10319979
195	0x3d48aac3	0.048990976
196	0xbd554b60	-0.052073836
197	0xbaea5403	-0.0017877821
198	0x3bd30e61	0.006440923
199	0x3ca30938	0.019901857
200	0xbdecacf8	-0.11556429
201	0xbe86c99a	-0.26325685
202	0x3d4f3efb	0.050597172
203	0xbe22c0f9	-0.15893926
204	0x3decfc08	0.11571509
205	0xbd9c1d20	-0.07622743
206	0xbd6e0a1e	-0.058115117
207	0x3e3172bc	0.17328924
208	0xbdf9099e	-0.121600375
209	0xbf2ea516	-0.6822065
210	0x3e04b917	0.12961231
211	0xbdad5970	-0.084643245
212	0x3e91d854	0.28485358
213	0xbd72df82	-0.059295185
214	0x3d3d7d70	0.046262205
215	0xbdb6a471	-0.089180835
216	0x3dd31624	0.10306957
217	0xbc37e212	-0.011223333
218	0xbb9884c6	-0.0046544997
219	0xbd2b5aca	-0.04183463
220	0x3d499864	0.049217597
221	0xbe9670dd	-0.29382983
222	0xbeeb3c44	-0.45944417
223	0x3d8e280a	0.069412306
224	0x3db25b96	0.08708875
225	0x3e110569	0.1416222
226	0x3d749fd2	0.05972273
227	0xbd1fe988	-0.039041072
228	0x3d5e4207	0.054262187
229	0xbe0c9d74	-0.13731939
230	0x3dfd25be	0.123607144
231	0x3e63504b	0.22198598
232	0xbe4e6dc7	-0.20159064
233	0x3db08195	0.08618466
234	0x3e46e070	0.19421554
235	0xbe04f5b4	-0.12984353
236	0x3d1a973f	0.037741896
237	0x3e1306d0	0.14358068
238	0x3d61f188	0.055161983
239	0x3d01320a	0.03154186
240	0xbf3a2723	-0.7271597
241	0xbdf2985f	-0.11845469
242	0xbf5f6fb6	-0.8727983
243	0xbc7a171d	-0.0152643
244	0xbd1ebc6b	-0.038753908
245	0xbdc5e7fa	-0.09663387
246	0xbd17b3b7	-0.037036624
247	0x3d348081	0.044067863
248	0xbb575e49	-0.0032862595
249	0xbca23f6c	-0.019805633
250	0xbdde24f6	-0.108468935
251	0xbf87aa44	-1.0598836
252	0x3e60c96a	0.21951833
253	0x3dce6490	0.100777745
254	0xbe9da051	-0.30786374
255	0x3d9e2f3d	0.07723854

hidden_layer_1.bias f4 [64]
0	0x3d4557e1	0.04817951
1	0x3db1a810	0.086746335
2	0x3e26d9b2	0.16293982
3	0x3d0ed0e5	0.034867186
4	0xbd81778b	-0.06321629
5	0xbcd74aed	-0.026280845
6	0xbe0d4631	-0.13796307
7	0x3d9259b9	0.071460195
8	0x3da1c9ff	0.07899856
9	0xbd1dcd9f	-0.038526174
10	0xbddd4902	-0.10804941
11	0xbdad7290	-0.08469117
12	0x3e56a0c4	0.20959765
13	0x3c203302	0.009777786
14	0x3d28e82f	0.041237053
15	0x3e44310d	0.19159336
16	0xbcb771b0	-0.022393078
17	0x3e24896d	0.16068049
18	0xbc668358	-0.014069401
19	0x3dccd1b1	0.10000933
20	0xbc90337c	-0.017602675
21	0xbbd11cbc	-0.006381599
22	0x3d4950f4	0.04914947
23	0x3d90f5ea	0.070781544
24	0x3e1b0610	0.15139031
25	0xbda604fa	-0.08106418
26	0xbdb02e5b	-0.086025916
27	0x3dc4dda1	0.09612585
28	0x3e33acb6	0.17546353
29	0xbdc0e9d4	-0.09419599
30	0xbdef7fa3	-0.11694267
31	0xbe24b998	-0.16086423
32	0x3dba797f	0.09105205
33	0xbdf965d9	-0.12177629
34	0xbd0d5b69	-0.034511004
35	0x3e659c64	0.2242294
36	0x3e23f5b6	0.160117
37	0xbd5c6388	-0.053805858
38	0xbd7df804	-0.062004104
39	0xbd135cb3	-0.035977077
40	0x3e0a27eb	0.1349179
41	0x3d0a3080	0.03373766
42	0x3db6abcf	0.08919489
43	0x3d6e6c80	0.058208942
44	0xbdad3a14	-0.08458343
45	0x3da46675	0.08027355
46	0x3e4e446c	0.20143288
47	0x3d2bdd40	0.041959047
48	0xbd5e5640	-0.054281473
49	0xbe18d48a	-0.14924827
50	0x3e39e3d2	0.18153313
51	0x3c4338b4	0.011915375
52	0x3e86627a	0.26247007
53	0xbde10856	-0.10987918
54	0xbcb2f460	-0.021845043
55	0xbc8348f1	-0.016025992
56	0xbe02ad2e	-0.12761375
57	0xbba1d0b4	-0.0049382094
58	0x3d2d5cdc	0.042324886
59	0x3e87aba2	0.26498133
60	0x3d254912	0.04035289
61	0x3de5728a	0.11203487
62	0xbdaa5f3f	-0.08318948
63	0x3b1fc298	0.0024377462

hidden_layer_2.weight f4 [64, 64]
0	0xbef4d19c	-0.4781617
1	0xbf078f71	-0.5295325
2	0x3e29f64e	0.16597864
3	0xbe08ed67	-0.13371812
4	0xbcf25c4b	-0.029585024
5	0xbdb41961	-0.08793903
6	0xbbc86a2f	-0.0061161737
7	0x3d82fea9	0.06396229
8	0x3e0e3101	0.13885881
9	0xbd5352ac	-0.051592514
10	0xbdbc2cd7	-0.0918824
11	0xbbd88309	-0.0066074175
12	0xbeddc38f	-0.43313262
13	0xbda654dc	-0.081216544
14	0x3e106b6a	0.14103475
15	0x3d0a9ada	0.033839084
16	0x3df3f324	0.1191161
17	0x3dc2275e	0.09480165
18	0x3e063166	0.13104782
19	0xbcc6f93a	-0.024288762
20	0xbdb1fc76	-0.08690731
21	0xbde00400	-0.10938263
22	0xbd39723b	-0.045274954
23	0x3cb84578	0.022494063
24	0x3c98c713	0.018649613
25	0x3ce3f72d	0.027827824
26	0x3defa5dc	0.11701557
27	0xbd609882	-0.054832943
28	0xbfa6b98f	-1.3025378
29	0xbc40f613	-0.011777419
30	0x3df66d6a	0.12032588
31	0x3e0bac44	0.13639933
32	0x3c0f056d	0.008729321
33	0x3da8deff	0.08245658
34	0x3de245d7	0.11048477
35	0xbe4c08b1	-0.1992519
36	0x3e3cfc19	0.18455543
37	0x3d422af4	0.047404245
38	0xbd8055e1	-0.0626638
39	0x3ddee7c0	0.108840466
40	0x3d722839	0.05912039
41	0x3e911d2b	0.28342566
42	0x3e03970f	0.12850593
43	0x3d4f9749	0.050681386
44	0xbd264673	-0.04059453
45	0x3e1c446b	0.15260474
46	0x3e21b006	0.15789804
47	0xbd4c1bfb	-0.04983137
48	0x3bd99820	0.006640449
49	0x3d9a89d0	0.07545817
50	0x3dc37fd9	0.095458694
51	0xbf28c92a	-0.6593195
52	0x3e229f46	0.1588107
53	0xbd0d5ca4	-0.034512177
54	0x3b697593	0.0035623058
55	0xbe1ddf25	-0.15417154
56	0x3cbfc212	0.02340797
57	0xbf9078f3	-1.1286911
58	0xbd95b704	-0.07310298
59	0xbddb413a	-0.107058
60	0x3d714130	0.05890006
61	0xbf3779c4	-0.71670175
62	0xbe23a722	-0.15981725
63	0x3ccefbca	0.025266547
64	0xbd322fe0	-0.04350269
65	0x3de7a7c2	0.11311294
66	0xbe68bd6b	-0.22728507
67	0x3d8c25bd	0.068431355
68	0xbd46a1b4	-0.048494056
69	0xbd1463de	-0.036228053
70	0xbc6c2538	-0.0144131705
71	0xbe08afb0	-0.1334827
72	0xbdfe6d5f	-0.12423205
73	0x3d8fd8fa	0.07023807
74	0xbe81aa78	-0.2532537
75	0xbe356bfe	-0.17716977
76	0x3edd172e	0.43181747
77	0xbd28360a	-0.04106716
78	0x3db5b805	0.088729896
79	0xbe8cceb9	-0.27501467
80	0xbc88f608	-0.01671888
81	0x3d48b62c	0.049001858
82	0xbd0cdb39	-0.034388755
83	0x3c9f51d1	0.019448193
84	0x3db8505b	0.089997016
85	0xbc0d4ea2	-0.008624705
86	0x3deca804	0.11555484
87	0x3c0cc1b0	0.008591101
88	0xbdabb815	-0.0838472
89	0x3c80e782	0.015735392
90	0xbcc88bf0	-0.02448079
91	0x3e9c08b4	0.3047539
92	0x3dde9d9d	0.10869906
93	0xbcd6b803	-0.02621079
94	0x3da25dac	0.07928023
95	0xbdea3476	-0.114357874
96	0x3e08676b	0.13320701
97	0x3dd2d4b8	0.10294479
98	0x3c123b46	0.008925265
99	0x3e62034b	0.22071569
100	0xbe37aeda	-0.17937794
101	0xbebf16cd	-0.37322083
102	0x3e0b3324	0.13593727
103	0xbcbbdd37	-0.022932632
104	0x3de5e7a6	0.11225824
105	0x3ed3660d	0.41288796
106	0x3d737c2d	0.059444595
107	0xbe2bca81	-0.16776468
108	0x3e17fb69	0.14841999
109	0x3e916ba2	0.2840243
110	0x3c434c8e	0.0119201075
111	0xbd8b1513	-0.06791129
112	0xbe9b3023	-0.30310163
113	0xbe46d032	-0.19415358
114	0xbf1a4080	-0.6025467
115	0x3cd17801	0.025569918
116	0x3da317b8	0.07963508
117	0xbd8fb5a4	-0.07017067
118	0x3dcc1569	0.09965021
119	0x3d33db69	0.043910418
120	0x3e4fc95f	0.2029166
121	0xbe774426	-0.2414709
122	0x3da72ca4	0.081628114
123	0xbd2331ef	-0.039842542
124	0xbefcd0e9	-0.49378136
125	0xbd5016f8	-0.050803155
126	0x3c360fdb	0.011112179
127	0x3df21592	0.118205205
128	0x3da7164b	0.08158549
129	0xbd1327e4	-0.035926715
130	0xbedc9775	-0.43084303
131	0xbde971d4	-0.11398664
132	0xbdeb8e52	-0.11501755
133	0xbdf4cc18	-0.1195299
134	0xbd7ab34c	-0.061206147
135	0x3bb5562e	0.005533955
136	0xbdcefbc0	-0.10106611
137	0x3dec358e	0.11533652
138	0x3dc0754c	0.093973726
139	0xbdb406b7	-0.08790343
140	0x3ebb3bb1	0.36568978
141	0xbd2dd485	-0.042439003
142	0x3e0b3b40	0.13596821
143	0x3e03c483	0.12867932
144	0x3cf4fd28	0.02990587
145	0xbe321352	-0.17390183
146	0x3d8f3623	0.06992748
147	0xbdae544d	-0.08512173
148	0x3d1fb667	0.03899231
149	0x3dc6792e	0.09691082
150	0x3d7d7b54	0.061885193
151	0x3dff261c	0.12458441
152	0xbdcea697	-0.10090368
153	0x3deccfc4	0.11563066
154	0xbdbc6bd0	-0.09200251
155	0x3cf56bd9	0.029958652
156	0x3e0e8c10	0.13920617
157	0x3d27cbd0	0.040965855
158	0xbdd0b0ac	-0.101899475
159	0xbdd6c408	-0.10486609
160	0x3de597de	0.11210607
161	0xbd9c812c	-0.07641825
162	0x3dcef796	0.10105817
163	0xbc020a9f	-0.007937103
164	0xbe302ac4	-0.17203814
165	0xbd35c8fc	-0.044381127
166	0xbcff0dca	-0.031134505
167	0x3df1fa09	0.118152685
168	0x3d451de0	0.048124194
169	0x3e989088	0.2979777
170	0xbdc2451f	-0.0948584
171	0xba6d93b7	-0.0009062844
172	0xbded14e5	-0.11576251
173	0xbe375d37	-0.17906652
174	0x3c8437c0	0.016139865
175	0x3be1101b	0.006868375
176	0xbeadee7e	-0.33971018
177	0xbe12a7e5	-0.14321859
178	0xbe848366	-0.258815
179	0x3d98bd41	0.07457972
180	0x3da90f7d	0.08254907
181	0x3e0331ae	0.1281192
182	0x3e09110f	0.13385414
183	0x3d930b5e	0.071799025
184	0xbd1eda1e	-0.03878223
185	0xbd939254	-0.07205644
186	0xbd47ce44	-0.048780695
187	0xbd9c2b06	-0.076253936
188	0xbf397429	-0.7244287
189	0x3e63e569	0.22255482
190	0xbd9cb8d1	-0.076524384
191	0x3db7600b	0.089538656
192	0xbe709488	-0.2349416
193	0x3d8f3083	0.06991675
194	0x3d679a51	0.056543652
195	0xbc9ab9bf	-0.018887399
196	0xbd55cee3	-0.052199256
197	0x3d9cdc3d	0.076591946
198	0x3da86f10	0.082243085
199	0x3d0d3752	0.034476586
200	0xbe3a1bb8	-0.18174636
201	0xbe39c5db	-0.18141882
202	0x3dc3642c	0.09540591
203	0x3cf106a5	0.029422114
204	0xbbd388a3	-0.0064554974
205	0x3d2f6775	0.042823274
206	0x3c82151a	0.015879203
207	0xbda9e991	-0.082965024
208	0x3d75aae0	0.059977412
209	0xbd833d03	-0.064081214
210	0xbd3dbd3a	-0.04632304
211	0x3dc840fd	0.097780205
212	0xbd7e37d6	-0.062064968
213	0xbd8f8f2d	-0.070097305
214	0xbcdbc670	-0.02682802
215	0xbdb114b8	-0.0864653
216	0xbd16d024	-0.036819592
217	0xbd4d349d	-0.050099004
218	0x3ddfe9ac	0.10933241
219	0xbe33f98b	-0.17575662
220	0xbc89fc3d	-0.01684391
221	0x3d60f000	0.05491638
222	0x3db302da	0.08740778
223	0x3df400ec	0.11914238
224	0xbdde97e4	-0.108688146
225	0xbdd6e36a	-0.104925945
226	0xbdade592	-0.08491053
227	0xbc7b309d	-0.0153314145
228	0xba9b07cf	-0.0011827889
229	0xbde6d3fa	-0.112709
230	0x3cbee8de	0.0233044
231	0x3d32fc2c	0.04369752
232	0x3b91f4a5	0.0044542127
233	0xbd703d6b	-0.058652323
234	0xbdf46b1d	-0.11934493
235	0xbe460abd	-0.19340034
236	0xbb0cc700	-0.0021480918
237	0xbc5457f9	-0.012960427
238	0xbd75bdb1	-0.059995357
239	0x3c146b13	0.009058732
240	0xbd6e8ace	-0.058237843
241	0xbd9cd35f	-0.07657503
242	0x3d0d09ee	0.034433298
243	0x3d79fc6e	0.06103175
244	0x3c97242a	0.018449862
245	0xbd312c4f	-0.043255147
246	0x3db42262	0.087956205
247	0xbdd9f293	-0.106419705
248	0x3d800128	0.062502205
249	0xbe43aa3e	-0.19107911
250	0x3d2098e0	0.039208293
251	0xbc53e9ab	-0.012934129
252	0x3cc20760	0.023685157
253	0xbccd89a4	-0.025090046
254	0xbd5a77ea	-0.053337015
255	0x3d8fca1a	0.0702097

hidden_layer_2.bias f4 [64]
0	0x3d9d9b60	0.07695651
1	0xbcb73463	-0.022363847
2	0x3d997baa	0.0749429
3	0xbdb6793d	-0.08909843
4	0xbd9f6c50	-0.07784331
5	0x3e80ff5f	0.25194833
6	0xbcc22f08	-0.023704067
7	0x3e733f88	0.23754704
8	0x3ca54cfd	0.020178312
9	0x3dfa4e8b	0.12222012
10	0x3e80185e	0.2501859
11	0xbddb2b88	-0.10701662
12	0x3e253401	0.16133119
13	0xbe1d92d9	-0.15388049
14	0xbbf579db	-0.007491333
15	0xbe319aae	-0.17344162
16	0xbe0fc543	-0.14040093
17	0x3e288122	0.1645551
18	0xbd736738	-0.05942461
19	0x3b889c6e	0.0041690385
20	0x3e39d9e0	0.18149519
21	0xbe16b066	-0.14715728
22	0xbe18c484	-0.14918715
23	0xbdf1bbba	-0.11803384
24	0xbe09d6b0	-0.13460803
25	0xbdb2cd24	-0.08730534
26	0x3e17bf10	0.14818978
27	0xbe25d682	-0.1619511
28	0x3e8dbb29	0.27681854
29	0x3e009faa	0.12560907
30	0xbd2ee2ee	-0.042696886
31	0x3e158df4	0.14604932
32	0x3ce1e2c7	0.027573956
33	0x3e12b9b9	0.1432866
34	0xbd6129be	-0.05497145
35	0xbdfb4241	-0.12268496
36	0xbdc6234a	-0.096746996
37	0x3e8f230c	0.27956426
38	0x3eb7d9db	0.35908398
39	0xbd95cac5	-0.07314066
40	0xbdd0cfc7	-0.101958804
41	0xbe1ff343	-0.1562014
42	0xbd842a67	-0.064534
43	0xbd916c70	-0.07100761
44	0xbded4386	-0.11585145
45	0xbcb1c763	-0.02170152
46	0x3d17c223	0.037050378
47	0xbdeaee48	-0.1147123
48	0xbe287bbf	-0.16453455
49	0xbd571e8c	-0.052519366
50	0xbe0476e0	-0.12935972
51	0x3d9852a5	0.07437638
52	0x3e44a6ef	0.19204305
53	0x3e7657d5	0.24056943
54	0x3e56076c	0.20901269
55	0xbe0597b2	-0.13046148
56	0xbd309d60	-0.043118834
57	0xbd82c7ee	-0.0638579
58	0xbdff3516	-0.12461297
59	0xbe35979a	-0.17733613
60	0xbbe81f25	-0.007083791
61	0xbdf9c825	-0.12196378
62	0x3cd6d4c4	0.026224501
63	0x3e8a01a6	0.26954383

output_layer.weight f4 [9, 64]
0	0x3e0d7768	0.13815081
1	0x3da23597	0.07920378
2	0x3dfdd4e0	0.12394118
3	0xbccf6ecf	-0.025321392
4	0x3c8bc4b8	0.017061576
5	0x3e1f9285	0.15583237
6	0xbdad761b	-0.084697925
7	0x3de76369	0.11298258
8	0xbcf7d00c	-0.030250572
9	0x3d876dc1	0.06612731
10	0x3d7a4066	0.06109657
11	0xbf270292	-0.65238297
12	0x3c9aaae4	0.018880315
13	0x3c741004	0.014896397
14	0xbaaf5bd9	-0.0013378813
15	0x3e982082	0.29712301
16	0xbdeb5bd2	-0.11492123
17	0x3d61ea1b	0.0551549
18	0x3df519d8	0.1196782
19	0x3d3186af	0.043341335
20	0x3e067032	0.13128737
21	0xbd8a74c6	-0.06760554
22	0xbd7318a9	-0.05934969
23	0xbdcde12c	-0.10052714
24	0x3d3180e7	0.04333582
25	0xbdb7d5b7	-0.0897631
26	0x3d822d7f	0.06356334
27	0xbd810fa1	-0.06301809
28	0x3dbc6d39	0.0920052
29	0x3de4ee15	0.11178223
30	0x3d768e24	0.06019415
31	0xbd79e099	-0.06100521
32	0x3e3288d8	0.17435014
33	0xbe1f75e6	-0.15572318
34	0xbcfad994	-0.030621327
35	0xbe603e99	-0.21898879
36	0x3dcbbc84	0.09948066
37	0x3e1a3a63	0.15061335
38	0x3d97e3f4	0.074165255
39	0x3d1f0951	0.038827244
40	0x3bbe5e54	0.0058095846
41	0x3b9a1480	0.004702151
42	0xbe186f0d	-0.14886113
43	0xbb8099d2	-0.003924587
44	0x3c83be18	0.016081855
45	0x3ae1d0d0	0.0017228369
46	0xbdb3ead1	-0.08785022
47	0xbcea1400	-0.02857399
48	0xbdd7eb3c	-0.10542914
49	0x3d8994ab	0.06717809
50	0x3d9a53fc	0.0753555
51	0x3c7475c2	0.014920654
52	0x3d22d450	0.03975326
53	0x3e45608a	0.19275108
54	0x3e0672ec	0.13129777
55	0x3da8a3fc	0.082344025
56	0xbd7e165e	-0.06203305
57	0xbd978018	-0.07397479
58	0xbbb6ac54	-0.0055747423
59	0x3cc23d2d	0.023710812
60	0x3df93fb7	0.12170356
61	0xbcd3ffd6	-0.025878828
62	0x3e119aa0	0.14219141
63	0x3e08cf8e	0.13360426
64	0x3e14f8d6	0.14548048
65	0x3df763d0	0.120795846
66	0x3d31a658	0.04337153
67	0x3b26cdae	0.0025452184
68	0x3d8bc116	0.068239376
69	0x3dc22afb	0.09480854
70	0xbd44affe	-0.0480194
71	0x3d9d6971	0.07686127
72	0xbc0d40e6	-0.00862143
73	0x3d570725	0.052497048
74	0x3d62073a	0.055182673
75	0x3e026d28	0.12736952
76	0x3d809634	0.06278649
77	0x3ddcb919	0.10777492
78	0xbd24acf2	-0.040203996
79	0xbc84c977	-0.016209347
80	0x3dfc1ef0	0.12310588
81	0x3d6fdc11	0.05855948
82	0xbcbf34ee	-0.023340669
83	0xbce79abc	-0.028272025
84	0x3e0b0167	0.13574754
85	0xbcd43ec1	-0.02590883
86	0x39dccb82	0.00042113295
87	0xbc2d4bf9	-0.010577195
88	0xbcc47cc8	-0.023985282
89	0xbd7b3a52	-0.061334915
90	0x3d975874	0.07389918
91	0x3d6f102a	0.058365025
92	0x3e0ff09a	0.14056626
93	0x3e0b85fe	0.13625333
94	0xbdb51bdd	-0.08843205
95	0x3dd7684a	0.105179384
96	0x3b4c1b95	0.003114437
97	0xbdf49e14	-0.119442135
98	0xbd8a286f	-0.06745993
99	0xbd47fb67	-0.04882374
100	0xbc518b67	-0.012789584
101	0x3e18cde6	0.14922294
102	0x3e0253af	0.12727235
103	0x3da352b5	0.079747595
104	0xbd6c0159	-0.057618473
105	0x3d874e14	0.06606689
106	0xbdcdf529	-0.10056526
107	0xbc212e60	-0.009837717
108	0xbd99e328	-0.0751403
109	0xbe2dece2	-0.16984895
110	0x3d9c4f33	0.076322936
111	0xbd6054c8	-0.054768354
112	0xbd0e1c06	-0.034694694
113	0xbdb5ead4	-0.088826805
114	0xbd3de7b8	-0.046363562
115	0x3dc2f839	0.09520001
116	0x3da1032c	0.07861933
117	0x3de9f201	0.11423112
118	0x3e022ca0	0.12712336
119	0xbcff03c6	-0.031129729
120	0xbddc0e36	-0.10744898
121	0xbdcdb785	-0.10044769
122	0x3da3fe89	0.08007533
123	0x3c598103	0.013275388
124	0x3d94e561	0.07270313
125	0xbd80b9a9	-0.06285412
126	0x3dfa4930	0.12220991
127	0x3deb85ea	0.115001515
128	0x3e15ab14	0.14616042
129	0x3daf1168	0.08548242
130	0x3dc7895b	0.09742995
131	0x3d377070	0.044784963
132	0xbd1c5088	-0.038162738
133	0x3ddd7bf2	0.10814656
134	0x3d242afe	0.040080063
135	0x3dddc72d	0.108290054
136	0xbd923adf	-0.07140135
137	0x3d374f87	0.044753578
138	0x3e03f9e5	0.12888296
139	0x3e2f10b6	0.17096218
140	0x3daa9f69	0.08331186
141	0xbd6a15bd	-0.057149637
142	0xbc81108e	-0.015754964
143	0x3df01eb5	0.11724607
144	0xbd0c2adc	-0.03422056
145	0x3d3ac2b4	0.04559584
146	0xbc227281	-0.009914995
147	0x3dff16e1	0.12455536
148	0x3e146af5	0.14493926
149	0x3e069b13	0.13145094
150	0xbd4de098	-0.050263017
151	0xbccd70e8	-0.025078252
152	0x3d936789	0.07197482
153	0xbdd47395	-0.10373608
154	0x3d193a86	0.037409328
155	0xbd289329	-0.041155968
156	0x3e0b3581	0.13594629
157	0x3d9cde58	0.07659596
158	0x3d28f1fe	0.041246407
159	0xbe0ed250	-0.13947415
160	0x3e446800	0.19180298
161	0xbe38e1b6	-0.18054852
162	0xbd95a4a5	-0.07306794
163	0xbd63c5ff	-0.055608746
164	0x3c5de75a	0.013543928
165	0x3e30f5f7	0.17281328
166	0x3dfce3b0	0.123481154
167	0x3d4fdc98	0.050747484
168	0x3d4e178b	0.05031542
169	0xbcac68cd	-0.021046067
170	0xbe21b39c	-0.15791172
171	0x3d3d225c	0.046175346
172	0x3db846c8	0.089978755
173	0xbe19aec3	-0.15008073
174	0x3e05cfc5	0.13067539
175	0x3d9592bc	0.07303378
176	0xbb207b74	-0.0024487646
177	0xbdb44e9c	-0.08804056
178	0xbd9d1dac	-0.07671675
179	0x3dd82928	0.10554725
180	0x3d4fcbe4	0.050731555
181	0x3ddb3a2a	0.10704453
182	0x3d913409	0.07090003
183	0xbc99a65a	-0.01875608
184	0xbe64c9de	-0.22342631
185	0x3db428ec	0.08796868
186	0x3d6fad8d	0.05851512
187	0x3d728ac8	0.059214383
188	0xbccacd6d	-0.024756158
189	0x3d0d7b8f	0.034541663
190	0xbefa3cf7	-0.48874637
191	0x3e13c85a	0.14431897
192	0x3d599a40	0.05312562
193	0x3e8a893b	0.27057824
194	0x3d2aebd9	0.041728828
195	0x3d3dfdd7	0.04638466
196	0xbdbe3ff4	-0.09289542
197	0x3e3e199b	0.18564455
198	0xbceb85ec	-0.028750382
199	0x3cc73a51	0.0243198
200	0xbc1dea08	-0.009638317
201	0x3de053dd	0.10953496
202	0x3e2a5823	0.16635184
203	0x3e03160e	0.12801382
204	0xbe70f351	-0.23530318
205	0xbd68b808	-0.05681613
206	0xbd1cb57c	-0.038259014
207	0x3ecb7a32	0.39741665
208	0xbd46922e	-0.04847925
209	0x3d414cd0	0.047192395
210	0x3d8d2481	0.06891728
211	0x3b12d377	0.0022403875
212	0x3dc50034	0.09619179
213	0xbd82cfa1	-0.06387258
214	0x3dd2dc7d	0.10295961
215	0x3d82cda8	0.06386882
216	0xbdc7eb60	-0.09761691
217	0xbdcaa379	-0.09894461
218	0x3daf2163	0.0855129
219	0x3cf9a762	0.030475322
220	0x3dfbfc32	0.12303962
221	0x3dcc160f	0.09965145
222	0x3b060492	0.0020449501
223	0xbd4aad9f	-0.049481984
224	0x3e5cb8fd	0.21554942
225	0xbe0ac4fa	-0.13551703
226	0xbd28aaa1	-0.04117835
227	0xbd917686	-0.07102685
228	0xbd4a8e92	-0.049452372
229	0x3e51c538	0.20485389
230	0x3dfbfdfd	0.12304304
231	0xbd02fd52	-0.031979866
232	0x3d8006f1	0.06251324
233	0xbda9ad4e	-0.08285008
234	0xbe01714a	-0.12640873
235	0xbd92be75	-0.07165233
236	0x3ce06d58	0.02739589
237	0xbe065528	-0.13118422
238	0xbd5229d8	-0.051309437
239	0x3d35d059	0.04438815
240	0xbd82c12e	-0.06384502
241	0x3c87c133	0.016571617
242	0x3d3fb66a	0.046804823
243	0xbdb53ea0	-0.088498354
244	0xbd41acc6	-0.04728391
245	0x3e5f4c16	0.21806368
246	0x3e1016a9	0.14071144
247	0x3c4bb9c1	0.012434424
248	0xbd60ff51	-0.05493099
249	0x3db7485e	0.0894935
250	0x3d706394	0.058688715
251	0xbda73353	-0.08164086
252	0xbc39e619	-0.011346363
253	0xbcb6b92b	-0.022305092
254	0x3e47097a	0.19437209
255	0x3dde0533	0.108408354

output_layer.bias f4 [9]
0	0x3e34d3b0	0.17658877
1	0x3e429281	0.190012
2	0x3e2fd80d	0.1717226
3	0x3e16b9ab	0.14719264
4	0x3e56a9df	0.20963238
5	0x3e74ec98	0.23918378
6	0x3e47156f	0.1944177
7	0x3e709527	0.23494397
8	0x3e8823c2	0.2658978
