DQN - Pendulum/data/Apprentice 9.pt (torch, 39996 bytes, 8 tensors)

input_layer.weight f4 [64, 3]
0	0xbea05171	-0.31312135
1	0x3f83a25e	1.0283926
2	0x3e6b446e	0.22975323
3	0x3ed45520	0.41471195
4	0x3ec2ff64	0.38085473
5	0x3dc70442	0.09717609
6	0xbd8ea43b	-0.06964918
7	0x3ec91304	0.3927232
8	0xbd191e3c	-0.03738235
9	0xbf1966a9	-0.5992227
10	0x3c3a5021	0.011371643
11	0xbd97fd33	-0.07421341
12	0xbef4deea	-0.4782632
13	0xbf1dfcd3	-0.61713904
14	0xbe8341a5	-0.2563602
15	0xbee45631	-0.4459701
16	0x3e221622	0.15828755
17	0xbc534824	-0.012895618
18	0xbd8a1b6a	-0.0674351
19	0x3f331059	0.6994682
20	0x3d09b778	0.033622235
21	0x3e9e617d	0.30933753
22	0xbf55cc3e	-0.83514774
23	0xbdc0be9a	-0.09411354
24	0x3e200e59	0.15630473
25	0x3cf37701	0.029719831
26	0xbc07b01e	-0.008281736
27	0xbe91fd32	-0.28513485
28	0xbe99266d	-0.2991213
29	0x3dfadef1	0.12249554
30	0x3d90d793	0.070723675
31	0x3dd256e2	0.10270478
32	0xba89ec56	-0.0010522704
33	0x3e80f5fc	0.2518767
34	0xbea4857a	-0.32133085
35	0xbbd84394	-0.006599853
36	0x3efbf2e7	0.49208757
37	0x3f5ddacf	0.86662
38	0x3e7e4f0f	0.24834846
39	0x3f2e39e9	0.68057114
40	0x3eba7f55	0.36425272
41	0x3c8b44de	0.017000612
42	0x3d2afd79	0.041745637
43	0xbf299b07	-0.6625218
44	0xbda1bb06	-0.07897
45	0xbf1b3f33	-0.6064331
46	0xbe22657d	-0.15859027
47	0x3cecb2bd	0.028893823
48	0xbf01a121	-0.5063649
49	0xbecd4ce9	-0.4009774
50	0xbe0d8ec7	-0.13823996
51	0x3f109cd5	0.56489307
52	0xbf1acf89	-0.60472924
53	0xbe38b25a	-0.18036786
54	0x3f05bfe7	0.52245945
55	0xbed29017	-0.41125557
56	0xbe008a53	-0.12552767
57	0xbf221787	-0.6331715
58	0xbea10c1d	-0.31454554
59	0xbe536725	-0.20644815
60	0x3ea78dab	0.32725272
61	0x3cb0bab4	0.021573402
62	0x3e317aa5	0.17331941
63	0x3da4bd59	0.08043928
64	0x3eb468f7	0.35236332
65	0xbdf2eae3	-0.11861207
66	0xbf2769a8	-0.65395594
67	0xbea26a72	-0.31721836
68	0xbde6b27b	-0.11264511
69	0xbccac718	-0.024753138
70	0xbf0c77fb	-0.54870576
71	0xbe173789	-0.14767279
72	0xbf39741a	-0.7244278
73	0x3f0b7259	0.54471356
74	0x3db8b57d	0.09018991
75	0x3e2f1c3a	0.17100611
76	0x3f331b9e	0.69964015
77	0x3e82ef3c	0.25573146
78	0xbf1bf5ec	-0.6092212
79	0x3f0502a5	0.5195716
80	0x3d7b9f00	0.06143093
81	0xbf4076a2	-0.7518102
82	0x3f2d7efe	0.677719
83	0x3e81de04	0.25364697
84	0x3e25362e	0.16133949
85	0x3ebd5a2e	0.36982864
86	0xbd9ff7ce	-0.07810937
87	0x3f397b13	0.7245342
88	0x3f0c4554	0.54793286
89	0x3e574bed	0.21025057
90	0x3c4d1450	0.01251705
91	0xbd8710c3	-0.06594994
92	0xbcd2802b	-0.02569588
93	0xbf7149d7	-0.94253296
94	0x3e83ad20	0.2571802
95	0xbe7e2c1f	-0.24821518
96	0x3e88e148	0.26734376
97	0x3f0805d3	0.5313389
98	0x3e695143	0.22784905
99	0xbf781cdf	-0.96919054
100	0xbda9a079	-0.08282561
101	0xbe58aeb9	-0.21160401
102	0x3f0dbae4	0.553633
103	0xbe8dfa51	-0.2773004
104	0xbdccf1e3	-0.10007074
105	0x3e1eeeb2	0.15520743
106	0xbe82479e	-0.25445265
107	0x3dcfe7dd	0.10151646
108	0x3eb9f7b1	0.36321786
109	0x3e6840ea	0.22681013
110	0xbca73293	-0.020409858
111	0xbf38fd52	-0.72261536
112	0x3dace850	0.084427476
113	0x3da5a0f4	0.0808734
114	0x3e686773	0.22695713
115	0xbd441225	-0.047868866
116	0xbccabc3c	-0.02474796
117	0xbeb74f04	-0.35802472
118	0xbf30bfc8	-0.69042635
119	0x3dbf597c	0.0934324
120	0x3e559199	0.20856322
121	0xbf49fbe5	-0.78899986
122	0xbe388298	-0.18018568
123	0xbced7c23	-0.028989857
124	0x3e4ba958	0.19888818
125	0xbbc9d8d9	-0.0061598835
126	0x3cc7534e	0.024331715
127	0x3f0b253f	0.5435371
128	0x3e4103e4	0.1884914
129	0xbf434e74	-0.76291585
130	0x3e99af9e	0.30016798
131	0xbe1330e6	-0.14374122
132	0xbee04804	-0.43804944
133	0xbe3629f2	-0.17789438
134	0xbd24d82e	-0.040245228
135	0xbf23a2c7	-0.63920254
136	0xbdb9dd1a	-0.09075375
137	0xbe9b07e9	-0.30279472
138	0xbf608023	-0.8769552
139	0x3e93acc7	0.28842756
140	0x3dcb977e	0.09941004
141	0x3dcd5dcb	0.10027655
142	0x3f2c985b	0.67419976
143	0x3e094738	0.13406074
144	0xbf0ff692	-0.5623561
145	0xbd7b7b8c	-0.06139712
146	0xbe357ab8	-0.17722595
147	0xbcfe5508	-0.031046405
148	0x3e49b96e	0.19699642
149	0xbdff0e7f	-0.12453937
150	0x3f40b2a2	0.7527257
151	0xbca49a8a	-0.020093221
152	0x3e113783	0.14181332
153	0x3e96eb68	0.29476476
154	0x3df59b6d	0.11992536
155	0xbe2d185e	-0.16903827
156	0x3f367f77	0.71288246
157	0xbe443ba2	-0.19163373
158	0xbdff8889	-0.12477214
159	0xbf039cf5	-0.5141137
160	0xbf2345f4	-0.63778615
161	0x3b9ec6b8	0.0048454665
162	0xbee7a626	-0.4524395
163	0xbdab848e	-0.08374892
164	0x3dd4c892	0.10389818
165	0x3e653b9d	0.22386022
166	0x3d2263ce	0.039645962
167	0xbe31534a	-0.17316929
168	0xbbe65a6c	-0.007029822
169	0xbc864546	-0.016390454
170	0xbd9ed978	-0.077563226
171	0xbf074c68	-0.5285096
172	0x3ef39e73	0.47581825
173	0xbe165e98	-0.14684522
174	0x3ec06851	0.37579587
175	0xbf111732	-0.5667602
176	0xbeb75785	-0.3580896
177	0x3f2bd119	0.6711593
178	0xbf154eff	-0.58323663
179	0xbe9b2086	-0.3029825
180	0xbf0f3cef	-0.5595235
181	0xbc9d45b7	-0.019198282
182	0xbe498970	-0.19681334
183	0xbed64c66	-0.41855162
184	0x3e69a5d6	0.22817168
185	0xbe01bbba	-0.12669268
186	0xbe627299	-0.22114028
187	0xbd8ca427	-0.06867247
188	0xbe2b1db2	-0.16710547
189	0x3d879096	0.066193745
190	0x3e2af5e9	0.1669537
191	0x3e515a82	0.20444682

input_layer.bias f4 [64]
0	0xbdaa78ba	-0.08323808
1	0xbe1eec8f	-0.15519927
2	0xbe489917	-0.19589649
3	0xbe4f1b1a	-0.20225182
4	0xbe0efdac	-0.13963956
5	0xbead3352	-0.33828217
6	0x3e9da247	0.3078787
7	0x3c7d8b89	0.015475162
8	0xbe5d4101	-0.21606828
9	0xbdb83165	-0.08993796
10	0xbe0ac71b	-0.13552515
11	0xbe04987f	-0.12948798
12	0xbf09c38a	-0.53813994
13	0x3dc127f9	0.09431452
14	0x3e8c61c8	0.2741835
15	0xbe79b34a	-0.243848
16	0x3d853d4b	0.06505831
17	0xbecf91a2	-0.40540797
18	0xbe3df03e	-0.18548676
19	0xbec473a0	-0.38369465
20	0xbf27d58a	-0.6556021
21	0x3e14fcf7	0.14549623
22	0x3ea6961a	0.32536393
23	0xbca80384	-0.020509489
24	0xbe735adc	-0.23765129
25	0xbf20cf55	-0.62816364
26	0x3e9571f8	0.29188514
27	0xbef3f61a	-0.47648698
28	0xbd86b260	-0.06576991
29	0xbede0382	-0.4336205
30	0xbe930376	-0.28713578
31	0xbf28e3a4	-0.6597235
32	0xbf252b0b	-0.64518803
33	0xbef30874	-0.47467387
34	0xbf0fba0c	-0.5614326
35	0xbd90aaf0	-0.07063854
36	0xbf142afe	-0.578781
37	0xbe72765d	-0.23677965
38	0x3d4996c8	0.04921606
39	0xbf17fdb9	-0.59371525
40	0xbde980f4	-0.11401549
41	0xbeae2802	-0.340149
42	0xbf204ff4	-0.62622
43	0xbedc5a42	-0.4303761
44	0x3e769a37	0.24082266
45	0xbf421f2f	-0.7582883
46	0xbef7fcab	-0.48434958
47	0xbe9977ba	-0.29974157
48	0xbf01de71	-0.50730044
49	0x3cbf5ec8	0.023360625
50	0xbefe00e2	-0.4961005
51	0xbedbb44d	-0.42910996
52	0xbf0079f5	-0.5018609
53	0xbe7dd0eb	-0.24786727
54	0xbf38615d	-0.72023565
55	0x3eafad99	0.34312132
56	0xbec3df20	-0.38256168
57	0xbe2b0c31	-0.1670387
58	0xbf4c8de4	-0.7990401
59	0xbeb821ce	-0.3596329
60	0xbdc62e2a	-0.09676774
61	0xbe7a2a43	-0.24430184
62	0xbed7cc59	-0.42148092
63	0xbf55c854	-0.835088

hidden_layer_1.weight f4 [64, 64]
0	0xbe802beb	-0.25033507
1	0xbe5e427a	-0.21705046
2	0xbcfd3cc9	-0.030912774
3	0xbd537dae	-0.05163353
4	0xbec60c0d	-0.3868107
5	0xbde1a90f	-0.110185735
6	0xbcc6dcca	-0.024275202
7	0x3d2ffc73	0.042965364
8	0x3e5955bb	0.2122411
9	0xbdb6b294	-0.0892078
10	0x3dd23054	0.10263124
11	0x3cc40c77	0.023931725
12	0xbe325618	-0.17415655
13	0xbcf03f14	-0.029326953
14	0xbcfffb49	-0.031247752
15	0xbe1b499f	-0.15164803
16	0xbeeccde0	-0.4625082
17	0xbd7916ec	-0.060812876
18	0xbd290c02	-0.041271217
19	0xbecd1d01	-0.4006119
20	0xbe64660e	-0.22304556
21	0x3dbcab59	0.092123695
22	0xbd333971	-0.043755952
23	0xbe471dc3	-0.19444947
24	0xbe058291	-0.13038088
25	0xbed06207	-0.4069979
26	0xbe724f10	-0.23662972
27	0xbd4f1bef	-0.05056375
28	0x3e429efa	0.19005957
29	0xbe5e95bb	-0.21736805
30	0xbd395524	-0.045247212
31	0xbe1872e1	-0.14887573
32	0xbe76baab	-0.24094646
33	0xbd32ea15	-0.04368027
34	0xbd8a4b89	-0.067526884
35	0x3e080eda	0.13286915
36	0x3eac1819	0.33612135
37	0xbdef8751	-0.116957314
38	0xbdfe1d18	-0.12407893
39	0x3e44e4c0	0.19227886
40	0xbd967fbc	-0.07348582
41	0xbdd69248	-0.1047712
42	0xbea2e490	-0.31815004
43	0x3e5be8a3	0.21475463
44	0x3e386c51	0.1801007
45	0xbe2203c3	-0.15821747
46	0xbeb77fb2	-0.3583961
47	0xbd8815c3	-0.06644776
48	0xbe1146f1	-0.14187218
49	0x3c4772a1	0.012173326
50	0xbd0116ef	-0.03151601
51	0x3d7b9c69	0.06142846
52	0x3da901b9	0.08252282
53	0x3e23e5cf	0.16005634
54	0xbd833f38	-0.064085424
55	0xbdb13eb0	-0.08654535
56	0x3cfaeac0	0.030629516
57	0x3c0fec17	0.008784316
58	0xbe6fb0aa	-0.23407236
59	0x3da0ac6b	0.07845386
60	0xbe18d013	-0.14923124
61	0xbd29cf2c	-0.04145734
62	0xbc36318b	-0.01112021
63	0xbee3c891	-0.44488958
64	0xbd4625e7	-0.04837599
65	0xbf446288	-0.76712847
66	0xbea13208	-0.31483483
67	0xbe166741	-0.14687826
68	0xbcab6259	-0.02092092
69	0x3df65421	0.12027765
70	0xbe69604e	-0.22790644
71	0x3ddef380	0.10886288
72	0x3e726c3d	0.23674102
73	0x3e4cc21b	0.1999592
74	0xbdc97ea4	-0.09838608
75	0xbd261894	-0.040550783
76	0xbf0bcb1f	-0.54606813
77	0xbed1fe78	-0.41014457
78	0x3e358906	0.17728052
79	0x3e9269f1	0.28596452
80	0xbda2288d	-0.07917891
81	0x3dc30dd7	0.09524124
82	0x3e89afc2	0.26891905
83	0xbe9190d8	-0.2843082
84	0xbe280f9f	-0.16412209
85	0xbe5aabb6	-0.21354565
86	0x3e0a2be9	0.13493313
87	0xbccafe09	-0.024779337
88	0x3e0a276b	0.134916
89	0xbe8402bb	-0.25783333
90	0x3e2cebeb	0.1688687
91	0xbd66d3ee	-0.056354456
92	0x3ef2da42	0.47432142
93	0xbecc2a87	-0.39876196
94	0xbdbb6cd8	-0.0915162
95	0xbee779e5	-0.45210186
96	0xbe6c8b21	-0.23099948
97	0xbd9d6ddd	-0.076869704
98	0x3ee99c90	0.4562726
99	0x3c5a3f15	0.013320704
100	0xbc8bc04f	-0.017059473
101	0xbdb63a27	-0.088978104
102	0x3b18c1ed	0.0023308948
103	0x3a162921	0.00057281746
104	0x3df1e3ec	0.11811051
105	0xbdca7d82	-0.0988722
106	0x3d2de8b7	0.042458262
107	0xbeb4390b	-0.3519977
108	0x3d8a425d	0.06750939
109	0xbf056b68	-0.52117014
110	0x3e1f88ab	0.15579478
111	0x3d9835d4	0.07432142
112	0xbeca05fd	-0.39457694
113	0xbee9d839	-0.45672777
114	0xbee03b3b	-0.4379519
115	0x3f0073fd	0.50176984
116	0x3ef8b59b	0.48576054
117	0x3e30934f	0.17243694
118	0x3e5982ac	0.21241254
119	0xbd5e3b1c	-0.05425559
120	0xbde8e3a4	-0.11371544
121	0xbe77409e	-0.24145743
122	0x3e8bb6d5	0.27287927
123	0xbdad33d9	-0.08457155
124	0xbe261358	-0.16218317
125	0xbed50955	-0.41608682
126	0xbf237c9d	-0.6386202
127	0xbf39959b	-0.72493905
128	0xbdcb97b1	-0.09941042
129	0xbd90bc7e	-0.07067202
130	0xbb086ca4	-0.0020816708
131	0xbd16f307	-0.036852863
132	0x3d6b3da5	0.057431836
133	0x3d3ddc78	0.046352834
134	0xbe1511b9	-0.14557542
135	0xbd216abc	-0.03940843
136	0xbdd06533	-0.10175552
137	0x3d8757e9	0.066085644
138	0xbd8133d3	-0.06308713
139	0x3cce6759	0.025195764
140	0xbd0188df	-0.03162467
141	0xbdb345eb	-0.0875357
142	0xbd142214	-0.036165312
143	0xbe550249	-0.20801653
144	0xbe07efbd	-0.13275047
145	0x3aa93427	0.0012909219
146	0x3cf6945f	0.030100046
147	0x3dacc2a5	0.08435563
148	0xbe058aa9	-0.13041176
149	0xbd280b67	-0.0410265
150	0xbe16299a	-0.14664307
151	0x3cd36b3a	0.025807966
152	0xbe2905a5	-0.1650606
153	0xbd22c10e	-0.039734893
154	0xbdfa4bd2	-0.12221493
155	0xbd328964	-0.043588057
156	0xbae8df1b	-0.0017766686
157	0xbdec67ab	-0.115432106
158	0x3d339274	0.04384084
159	0x3dac942e	0.084267005
160	0x3cb54080	0.022125483
161	0xbd6e8e21	-0.058241013
162	0xbb409b73	-0.002938953
163	0xbe110054	-0.14160281
164	0x3da40f59	0.0801074
165	0xbdf9569c	-0.121747226
166	0xbd9a9201	-0.07547379
167	0x3d870032	0.06591834
168	0xbd963d96	-0.07335965
169	0x3dc881fe	0.09790419
170	0x3c2f7383	0.0107086925
171	0xbbaa2b14	-0.0051931236
172	0xbced2c5e	-0.02895182
173	0x3bf2515c	0.0073949527
174	0xbe257e07	-0.16161357
175	0xbd68d0df	-0.05683982
176	0xbd04b873	-0.032402467
177	0xbd399063	-0.045303714
178	0xbd6581f9	-0.056032155
179	0x3da4cb07	0.08046537
180	0xbe0fa247	-0.14026748
181	0x3d90984b	0.070602976
182	0xbe25f21a	-0.16205636
183	0xbde2b844	-0.11070302
184	0x3dc3c99b	0.095599376
185	0xbd9aa860	-0.07551646
186	0x3dd162f7	0.10223954
187	0x3dd42e59	0.103604026
188	0xbd83420d	-0.064090826
189	0xbdd6b41f	-0.10483574
190	0xbe09fbbb	-0.13474934
191	0x3d13b720	0.036063313
192	0xbe8fff3f	-0.28124425
193	0xbd574aaa	-0.05256144
194	0x3dab8ebf	0.08376836
195	0xbd6e7ff1	-0.058227483
196	0xbdcbc898	-0.099503696
197	0x3d9966f5	0.074903406
198	0x3d27810b	0.04089455
199	0xbcca46a9	-0.024691897
200	0x3d01af17	0.03166112
201	0xbc283cef	-0.010268434
202	0x3b2b3ca9	0.0026128686
203	0x3d957d83	0.0729933
204	0xbe933fe1	-0.28759673
205	0xbd90e3dc	-0.07074711
206	0xbd8bd377	-0.06827443
207	0xbd33bc8f	-0.043880995
208	0xbdf711ce	-0.12063943
209	0x3d6e10be	0.058121435
210	0xbd90763c	-0.070538014
211	0xbdcaed4e	-0.099085435
212	0x3b3d356e	0.0028870958
213	0x3c0e76bb	0.0086953
214	0x3cc1c62c	0.023654066
215	0xbe32ba91	-0.17453982
216	0xbb6d2203	-0.0036183603
217	0xbc5f78f3	-0.013639676
218	0xbcbe242c	-0.023210607
219	0xbe28c07a	-0.16479674
220	0x3d12870a	0.035773315
221	0xbe2027a3	-0.1564012
222	0x3c995598	0.018717572
223	0xbdcbfe2e	-0.0996059
224	0xbe3d93c2	-0.18513396
225	0xbdd3ffaf	-0.10351502
226	0xbe8a71b7	-0.27039883
227	0xbdbaff42	-0.09130718
228	0xbe417575	-0.18892463
229	0xbca34960	-0.019932449
230	0x3d989b51	0.07451499
231	0xbd0fd8e8	-0.035118967
232	0xbd98200c	-0.074279875
233	0x3d996772	0.07490434
234	0xbd1dc257	-0.038515415
235	0xbe001ffd	-0.12512203
236	0xbe1124cb	-0.14174192
237	0x3bd540c5	0.0065079653
238	0x3c1da655	0.009622176
239	0xbd3becb7	-0.045880046
240	0x3c820f61	0.015876474
241	0x3c10e7d4	0.008844335
242	0xbc0cfd1b	-0.008605267
243	0xbe070dd3	-0.13188867
244	0xbf47eadc	-0.7809274
245	0x3db5bf96	0.08874433
246	0xbe19355e	-0.14961764
247	0xbdb82f8c	-0.08993444
248	0x3d235648	0.039877206
249	0x3d348cb8	0.044079512
250	0xbe1bb4c0	-0.1520567
251	0xbdc88207	-0.09790426
252	0x3ccf1bb9	0.025281774
253	0xbd6241ba	-0.055238463
254	0x3bdcd283	0.006738962
255	0xbdebf09a	-0.115205005

hidden_layer_1.bias f4 [64]
0	0x3d701d64	0.05862178
1	0x3e181f37	0.14855658
2	0x3d209ec3	0.039213907
3	0x3d8b15a7	0.06791239
4	0xbd12412a	-0.035706677
5	0xbd2ac96b	-0.041695993
6	0x3de18a67	0.11012726
7	0xbe620198	-0.2207092
8	0xbd8ac741	-0.06776286
9	0x3b70740f	0.003669027
10	0xbcee56e8	-0.029094175
11	0x3b7cb1d9	0.0038558154
12	0x3d7a5a7e	0.061121456
13	0x3e2f3e6e	0.17113659
14	0xbdad6823	-0.08467128
15	0x3d14e326	0.036349438
16	0x3d8e4286	0.06946282
17	0xbdb9f2d7	-0.09079521
18	0x3d4168fb	0.047219258
19	0xbdd75b92	-0.105155125
20	0xbd43febd	-0.04785036
21	0xbd4b4b5b	-0.04963241
22	0x3e1b9b05	0.15195854
23	0x3d52c7e5	0.051460166
24	0xbd652129	-0.055939827
25	0x3be2a783	0.0069169416
26	0xbb681e9e	-0.003541864
27	0x3dd85f89	0.10565097
28	0xbd7795c5	-0.060445566
29	0xbdccf7f9	-0.100082345
30	0xbc864015	-0.016387979
31	0xbc45ebd6	-0.012080153
32	0x3d2b8390	0.041873515
33	0x3e19b22c	0.15009373
34	0xbdc3015f	-0.09521746
35	0xbe445745	-0.19173916
36	0x3d9637be	0.07334851
37	0xbddb1103	-0.10696604
38	0xbd749318	-0.059710592
39	0xbd80b35e	-0.062842116
40	0xbe7213d3	-0.23640375
41	0xbdac7d15	-0.08422295
42	0x3d971fcb	0.07379111
43	0xbd99191f	-0.074754946
44	0x3d1a1dd4	0.037626103
45	0x3de23708	0.11045653
46	0xbd6eb343	-0.058276426
47	0xbe08c6a0	-0.1335702
48	0x3df439f1	0.11925114
49	0xbca608e2	-0.020267908
50	0xbdc2b49a	-0.09507103
51	0x3d78165a	0.06056819
52	0x3e8a4982	0.27009207
53	0xbe242a39	-0.16031732
54	0xbdde1f0e	-0.10845767
55	0x3cac395c	0.021023445
56	0xbd7492fc	-0.059710488
57	0x3cbde16b	0.023178777
58	0x3df0061d	0.11719916
59	0xbd269fca	-0.04067973
60	0xbd2ceb06	-0.042216323
61	0xbde05412	-0.10953535
62	0xbe06f02b	-0.13177554
63	0x3d43e726	0.047827862

hidden_layer_2.weight f4 [64, 64]
0	0x3d0d3398	0.03447303
1	0xbb1492c0	-0.0022670478
2	0x3d3de0d4	0.04635699
3	0xbda4358a	-0.08018024
4	0x3cd7bad0	0.026334196
5	0x3d723370	0.059131086
6	0xbda4d543	-0.08048489
7	0xbd34c97d	-0.044137467
8	0xbce9ec60	-0.028555095
9	0xbd9e3c12	-0.07726301
10	0xbd84810c	-0.06469926
11	0x3da91c22	0.08257319
12	0xbd73e238	-0.05954191
13	0xbc360c00	-0.011111259
14	0xbdd1628e	-0.10223876
15	0x3b1f9ac0	0.0024353713
16	0xbe06f153	-0.13177995
17	0xbca9ac4a	-0.020712037
18	0xbdaebc1c	-0.08531973
19	0x3cc372b0	0.023858398
20	0x3d26e8bc	0.040749297
21	0xbddf98f6	-0.10917847
22	0xbcdcc378	-0.026948676
23	0xbd0794f4	-0.033101037
24	0xbd758b12	-0.05994708
25	0xbda888f0	-0.08229244
26	0xbcb343d8	-0.021882936
27	0xbc9b6b1f	-0.018971978
28	0xbdcba270	-0.09943092
29	0x3d07ea1c	0.03318225
30	0xbcc3e4e8	-0.023912862
31	0x3d316088	0.04330495
32	0x3dd9cd2a	0.10634835
33	0x3dc94fc8	0.0982967
34	0x3aab0980	0.0013049096
35	0x3cac7cd4	0.021055616
36	0xbcb2a3b8	-0.021806583
37	0x3d88e258	0.06683797
38	0xbc8f678a	-0.017505426
39	0x3df0da26	0.117603585
40	0xbd7b8a9a	-0.061411478
41	0xbdcc9e04	-0.099910766
42	0xbb86e220	-0.0041163117
43	0x3d49ec7e	0.049297802
44	0xbd09c29c	-0.03363286
45	0x3d54a58d	0.051915694
46	0xbdd49de6	-0.10381679
47	0xbd82aa3a	-0.063801244
48	0xbd9d716b	-0.076876484
49	0xbd9fffee	-0.078124866
50	0xbd69c6e5	-0.057074446
51	0xbda99269	-0.08279879
52	0xbdd091ab	-0.10184034
53	0xbd921dbe	-0.07134579
54	0x3d8665d8	0.06562394
55	0x3c347ac0	0.011015594
56	0xbdac1ca2	-0.08403899
57	0xbbbd1200	-0.005769968
58	0xbc320281	-0.010864855
59	0x3daa90ca	0.083283976
60	0x3dec4efa	0.11538501
61	0x3db6d224	0.089268
62	0x3daadf4e	0.08343373
63	0xbe12ccf3	-0.14335994
64	0x3cf59021	0.029975953
65	0xbd948c3a	-0.072533086
66	0x3d3fa247	0.04678562
67	0x3d3d2050	0.046173394
68	0xbdb40c7d	-0.087914445
69	0x3c935534	0.017984964
70	0xbdb8ad0c	-0.09017381
71	0x3d8163f4	0.06317893
72	0x3dc16835	0.09443704
73	0xbdc43a7a	-0.09581466
74	0xbdf7c6c8	-0.120984614
75	0xbcbc5054	-0.022987522
76	0xbdc368b9	-0.09541459
77	0xbd0e9161	-0.034806613
78	0xbd31506f	-0.043289598
79	0xbe003424	-0.1251989
80	0x3d8cacfe	0.06868933
81	0x3c305f0a	0.010764847
82	0xbc93b414	-0.018030204
83	0x3c415708	0.011800535
84	0xbd8c8b75	-0.06862537
85	0x3ca68db3	0.02033124
86	0x3df80943	0.121111415
87	0xbdd63f1a	-0.104612544
88	0xbc460c77	-0.012087933
89	0xbdff46b5	-0.12464658
90	0xbdd2abcc	-0.10286674
91	0x3d924f90	0.071440816
92	0x3d912509	0.07087142
93	0xbd1ee9ca	-0.038797177
94	0x3c843e27	0.016142918
95	0xbd545f98	-0.051848978
96	0xbe069596	-0.13143
97	0xbdc56c40	-0.09639788
98	0x3db83553	0.08994546
99	0xbcdc2cd3	-0.026876843
100	0xbc193644	-0.009351317
101	0x3de44b00	0.111471176
102	0x3c948ba0	0.018132985
103	0x3cb7b739	0.022426235
104	0xbc4c322c	-0.012463134
105	0xbdda138b	-0.10648259
106	0x3d5287ac	0.051398918
107	0x3d36f093	0.044663023
108	0x3d5e7089	0.05430654
109	0xbd0dbcec	-0.034603998
110	0x3d2eec0c	0.04270558
111	0xbdb46060	-0.088074446
112	0xbcb03255	-0.021508375
113	0x3da7716a	0.08175929
114	0xbc288eeb	-0.010287981
115	0x3c1b5757	0.009481273
116	0xbdc9a052	-0.09845032
117	0xbdad005c	-0.08447334
118	0x398233aa	0.00024834025
119	0x3cd6df5c	0.026229553
120	0x3ce0c1b8	0.027436122
121	0xbdab90e2	-0.083772436
122	0xbd11e423	-0.03561796
123	0x3ddab667	0.10679322
124	0xbdadd727	-0.08488303
125	0x3d1c6964	0.038186446
126	0x3c0e753b	0.008694942
127	0xbcfec59f	-0.031100092
128	0xbe02b7d7	-0.12765442
129	0x3da8fd86	0.08251481
130	0x3de0e4b8	0.10981125
131	0xbd1000a5	-0.035156865
132	0xbd63fdd0	-0.055661976
133	0xbc628567	-0.013825751
134	0xbdb7351f	-0.08945679
135	0xbe0c7b70	-0.13718963
136	0x3cfbc760	0.030734718
137	0xbd67981d	-0.05654155
138	0xbadcae00	-0.0016836524
139	0xbcb07d2b	-0.02154406
140	0x3b97e42d	0.004635355
141	0xbdcaa48b	-0.09894665
142	0xbde8f6d7	-0.11375206
143	0xbe2814a4	-0.16414124
144	0xbd97dcfe	-0.07415198
145	0xbc862aef	-0.016377894
146	0xbddc0d0f	-0.10744678
147	0xbd963b7a	-0.07335563
148	0x3d8d838d	0.06909857
149	0xbdd54df2	-0.104152575
150	0x3c94848e	0.018129613
151	0xbc7ded79	-0.015498512
152	0xbd70ca31	-0.058786575
153	0xbde1934e	-0.11014424
154	0x3dede348	0.11615616
155	0x3c94c8c4	0.018162139
156	0xbc76973b	-0.015050705
157	0x3c7e66a0	0.015527397
158	0x3ce1602a	0.027511675
159	0xbbcf724b	-0.0063307635
160	0x3d5ac827	0.053413536
161	0xbd539b72	-0.051661916
162	0xbdba3823	-0.090927385
163	0x3d730405	0.059330005
164	0xbd9128dc	-0.070878714
165	0x3bd3ec60	0.006467387
166	0xbced1b2c	-0.02894362
167	0x3d96db0b	0.07365998
168	0xbdefe73a	-0.11714025
169	0xbc648802	-0.013948442
170	0xbdc7a837	-0.09748881
171	0xbe0b97a5	-0.13632067
172	0xbd54f836	-0.051994525
173	0xbd1ec83e	-0.038765185
174	0xbce9e690	-0.028552324
175	0x3d6c937e	0.057757847
176	0x3deb4cd3	0.114892624
177	0xbda6823c	-0.08130309
178	0xbd13f6ad	-0.03612392
179	0x3d4dce50	0.050245583
180	0xbe2b13bb	-0.16706745
181	0xbd4a4337	-0.049380507
182	0xbe057ca4	-0.13035828
183	0xbdb31d5c	-0.08745834
184	0x3dbcc97a	0.09218116
185	0x3c8d382f	0.017238704
186	0xbdf28087	-0.11840921
187	0xbd51b4dc	-0.05119787
188	0x3dd16dbe	0.1022601
189	0xbdfb0334	-0.1225647
190	0x3d5b1ceb	0.053494375
191	0x3d561dc2	0.052274473
192	0xbca92262	-0.020646278
193	0xbe836732	-0.2566467
194	0x3d198597	0.037480917
195	0xbd9f8300	-0.07788658
196	0x3d98873c	0.07447669
197	0xbcd75622	-0.026286189
198	0xbd916ef6	-0.07101242
199	0x3da3f156	0.080050156
200	0xbc9c5e24	-0.019087858
201	0xbbd4aadd	-0.006490095
202	0xbd020a0c	-0.031747863
203	0xbd087f2b	-0.0333244
204	0xbe83c907	-0.2573931
205	0xbc3d05ec	-0.011537056
206	0xbd31fc61	-0.043453578
207	0xbdb8df34	-0.090269476
208	0x3d4b1100	0.04957676
209	0xbdbb2768	-0.091383755
210	0x3c85e76b	0.0163457
211	0xbdae4762	-0.08509709
212	0xbe934317	-0.28762123
213	0x3c306efe	0.01076865
214	0xbd59bd3f	-0.053158995
215	0xbec1980f	-0.37811324
216	0x3cf1ba2a	0.029507715
217	0xbce0567b	-0.027384987
218	0xbdf696bf	-0.12040471
219	0x3cc567f0	0.024097413
220	0x3dde86f8	0.10865587
221	0x3d6756b7	0.056479182
222	0x3c59b5fb	0.013288016
223	0x3d073ff9	0.033019993
224	0x3e545467	0.20735322
225	0xbe66adbf	-0.22527216
226	0xbd8a2a0e	-0.067463025
227	0xbd8a6f07	-0.06759458
228	0xbd953b99	-0.07286758
229	0xbd74d524	-0.05977358
230	0xbe0e8370	-0.13917327
231	0xbd1d545c	-0.03841053
232	0xbf0628d3	-0.5240604
233	0x3e3828f0	0.17984366
234	0x3d9a467b	0.07532974
235	0x3d64d097	0.05586299
236	0x3dfbdada	0.12297602
237	0xbe217e6d	-0.15770884
238	0xbd31801c	-0.043335065
239	0xbd1b29af	-0.03788155
240	0x3c721e02	0.014777662
241	0xbd2dd854	-0.042442635
242	0x38585c82	5.1584568e-05
243	0xbf879021	-1.059086
244	0xbe849de4	-0.2590171
245	0xbc7d11d4	-0.015446145
246	0xbc928094	-0.017883576
247	0x3e4da23b	0.20081417
248	0x3d812eb4	0.06307736
249	0xbe5f0315	-0.2177852
250	0x3d2fd3c2	0.042926557
251	0xbdd18df5	-0.10232154
252	0xbdd25a3b	-0.10271116
253	0xbdab6ad0	-0.08369982
254	0x3d867a47	0.06566291
255	0xbe2ed60f	-0.17073844

hidden_layer_2.bias f4 [64]
0	0xbde3c17f	-0.11120891
1	0xbe15a7b1	-0.1461475
2	0xbd5e56ca	-0.054281987
3	0x3a82c0fb	0.0009975726
4	0xbdb6f0cb	-0.08932646
5	0x3decd753	0.11564507
6	0x3d7b321d	0.06132709
7	0xbd3933c1	-0.045215372
8	0x3d956696	0.07294957
9	0xbdc3f353	-0.09567895
10	0x3e396781	0.1810589
11	0xbe34c358	-0.17652643
12	0x3c7df0f6	0.015499344
13	0xbe1bf2cc	-0.15229338
14	0xbdfb3bf1	-0.12267292
15	0xbe15cede	-0.14629695
16	0x3d777ef1	0.060423795
17	0x3d864617	0.06556337
18	0xbe2bdd62	-0.1678367
19	0x3e1e44fb	0.15456001
20	0xbd160107	-0.036622074
21	0xbdbde7dc	-0.09272739
22	0xbca377e5	-0.019954631
23	0xbd2be85c	-0.041969642
24	0xbd9c8d9f	-0.076441996
25	0xbc882c63	-0.016622728
26	0xbd17928e	-0.037005
27	0xbe0821b0	-0.13294101
28	0xbe62d8e3	-0.22153048
29	0xbdbe70ac	-0.09298834
30	0xbe29a86d	-0.16568156
31	0x3e06e759	0.1317419
32	0xbdeeaac3	-0.11653664
33	0xbdf24568	-0.118296444
34	0x3d809a46	0.06279425
35	0xbe011492	-0.12605503
36	0x3c6d4ac9	0.014483162
37	0xbd78b276	-0.06071707
38	0xbd342551	-0.0439809
39	0xbe0602cb	-0.13087003
40	0x3de17630	0.110088706
41	0xbe09321e	-0.13398024
42	0xbd959820	-0.07304406
43	0xbdb273ee	-0.08713518
44	0xbda06df0	-0.07833469
45	0xbde185cc	-0.11011848
46	0x3d9d395e	0.076769575
47	0xbe06fc43	-0.13182168
48	0xbe1112d2	-0.14167336
49	0x3e223ce7	0.15843545
50	0xbe22755b	-0.1586508
51	0xbdd16494	-0.10224262
52	0x3ca7552b	0.020426353
53	0xbe16ef83	-0.14739804
54	0xbe31c827	-0.17361508
55	0x3bec027b	0.007202444
56	0x3de66abc	0.11250827
57	0x3cf71fe1	0.030166568
58	0xbb3456a7	-0.002751747
59	0xbd4f7363	-0.05064715
60	0xbcfa7c59	-0.030576872
61	0x3d16b24b	0.036791127
62	0xbdc0151d	-0.09379027
63	0x3e00759e	0.12544867

output_layer.weight f4 [9, 64]
0	0x3c62a910	0.013834253
1	0xbd7d0ca4	-0.061779633
2	0x3d9fad48	0.07796723
3	0x3d853434	0.065040976
4	0x3b9e86ec	0.0048378613
5	0x3c9a9b68	0.018872932
6	0x3cf5c7a2	0.030002419
7	0xbc663f7d	-0.014053223
8	0x3d9d2a66	0.076741025
9	0x3c7e9e8b	0.015540729
10	0x3dea25d5	0.11432997
11	0xbd9dc8a5	-0.077042855
12	0xbd80a3be	-0.06281231
13	0xbcae7084	-0.021293886
14	0xbce4037e	-0.027833696
15	0xbf011dc5	-0.5043605
16	0x3dfe0eed	0.124051906
17	0x3e7858af	0.2425258
18	0x3ba6dd52	0.0050923014
19	0x3d89e839	0.06733746
20	0x3d39d194	0.045365885
21	0xbd0f5aeb	-0.034998816
22	0x3e356e7d	0.17717929
23	0xbdf40c9f	-0.1191647
24	0x3d83bfa1	0.06433035
25	0x3e470c12	0.19438198
26	0xbd87154d	-0.0659586
27	0x3d80ec9c	0.0629513
28	0xbb6915ec	-0.0035566045
29	0xbda6f65a	-0.081524566
30	0x3d84b28e	0.06479369
31	0x3e233224	0.15937096
32	0xbea04004	-0.3129884
33	0x3d96a423	0.07355525
34	0x3e0da7d7	0.13833557
35	0xbd0226fb	-0.031775456
36	0xbea42452	-0.3205896
37	0xbdaacd13	-0.08339896
38	0xbc7553c2	-0.014973583
39	0x3d833415	0.06406418
40	0xbd554604	-0.052068725
41	0xbd39fc08	-0.04540637
42	0x3de6f760	0.11277652
43	0x3d1aeeaf	0.037825283
44	0x3c41cf03	0.011829141
45	0x3d9d83c6	0.076911494
46	0xbdec36bf	-0.115338795
47	0x3ca9f121	0.020744862
48	0xbd98c7ab	-0.07459959
49	0x3db92c83	0.09041693
50	0xbc8fb051	-0.017540129
51	0x3b960a72	0.004578882
52	0xbda08d11	-0.07839406
53	0x3d9be6b0	0.076123595
54	0xbd7b6d81	-0.061383728
55	0xbbb2f3a7	-0.0054611745
56	0x3dbbf6a8	0.09177905
57	0x3da18d86	0.078883216
58	0x3e6bddc4	0.23033816
59	0xbe5228d2	-0.20523384
60	0xbd9085a0	-0.07056737
61	0x3deeafdc	0.11654636
62	0xbd8b1878	-0.067917764
63	0x3d1c0f2d	0.03810041
64	0x3dea5d0a	0.11443527
65	0x3c1207b6	0.008912971
66	0x3c0c168b	0.008550297
67	0x3d16e95d	0.036843646
68	0x3c649540	0.0139516
69	0x3c494116	0.012283584
70	0xbc638485	-0.013886576
71	0x3c8d8572	0.017275546
72	0x3da2d640	0.07951021
73	0x3c8a2e74	0.016867854
74	0x3dec5937	0.11540454
75	0xbde9bc7c	-0.11412904
76	0xbc2b7adc	-0.010466304
77	0xbd3cce53	-0.046095204
78	0xbc9bee6a	-0.019034583
79	0x3cba4152	0.022736225
80	0x3ded7b96	0.11595838
81	0x3e2989f3	0.1655653
82	0x3d04be34	0.032407954
83	0x3d900afb	0.07033344
84	0x3c182d58	0.009288155
85	0x3cc6f556	0.024286907
86	0x3d304c18	0.04304132
87	0xbe10167f	-0.14071082
88	0x3df99e3c	0.12188384
89	0x3e3accb3	0.18242149
90	0x3b84e650	0.0040557757
91	0x3c8b5419	0.017007874
92	0x3d3756f6	0.044760667
93	0xbd2d633b	-0.04233096
94	0x3d8ac57b	0.06775948
95	0x3e2e3762	0.17013314
96	0xbd045cb1	-0.03231496
97	0xbc9bd462	-0.01902217
98	0x3e145163	0.14484172
99	0xbd752ce0	-0.05985725
100	0x3ce73955	0.02822558
101	0xbd0b777b	-0.034049492
102	0x3b72eabe	0.0037066187
103	0x3cb3fc0b	0.02197077
104	0xbc9de847	-0.019275798
105	0xbd32f4da	-0.04369054
106	0x3cd1c9ec	0.02560898
107	0xbd642d35	-0.055707175
108	0x3e1f6a5f	0.15567921
109	0x3d8f582e	0.06999241
110	0xbd13123b	-0.035906058
111	0xbc80d273	-0.01572535
112	0xbd163b14	-0.036677435
113	0xbeaa75f0	-0.33293104
114	0x3dbed239	0.093174405
115	0x3c0e1217	0.008671305
116	0xbde336ce	-0.110944375
117	0x3d944aa7	0.07240801
118	0x3da6d28c	0.081456274
119	0xbcdd87b1	-0.027042242
120	0x3dadb2c8	0.084813654
121	0x3dc98d2d	0.0984138
122	0x3d4635b9	0.048391078
123	0xbe570ae2	-0.21000245
124	0xbd4c09ac	-0.04981391
125	0x3daa8bf4	0.08327475
126	0x3da3b81e	0.07994102
127	0x3d892a8a	0.06697567
128	0xbc55add1	-0.013041929
129	0xbb7822ad	-0.0037862465
130	0x3e1d5137	0.15363012
131	0x3e5561b6	0.20838055
132	0x3c9e0f74	0.019294478
133	0x3d7ffe87	0.062498596
134	0x3de57de2	0.11205651
135	0xbc815857	-0.015789194
136	0x3e308f61	0.17242195
137	0x3e528777	0.20559488
138	0x3dd3f6aa	0.10349782
139	0x3d733380	0.059375286
140	0x3c2f47ae	0.010698242
141	0xbd40cfce	-0.047073178
142	0xbd68f0da	-0.05687032
143	0x3cf36051	0.029709013
144	0x3ddef0aa	0.10885747
145	0xbde09cd7	-0.10967415
146	0xbdaf544b	-0.085609995
147	0x3dc28ee8	0.094999135
148	0xbbf3b571	-0.007437401
149	0x3d631962	0.05544413
150	0x3d5d8ac2	0.054087408
151	0x3d19f2c7	0.037585046
152	0xbde572c2	-0.11203529
153	0x3dd826f2	0.10554303
154	0xbc0123f0	-0.007882103
155	0xbd32c0a6	-0.043640755
156	0xbacdd426	-0.0015703484
157	0x3db7b95f	0.089709036
158	0x3ca4297c	0.020039313
159	0x3dd0c482	0.10193731
160	0xbb456aa8	-0.0030123387
161	0xbc492dc8	-0.0122789815
162	0x3dc4bdc4	0.096065074
163	0xbd890f83	-0.06692412
164	0x3cd82315	0.026383916
165	0xbe0abbb6	-0.13548169
166	0xbe5fe93a	-0.21866313
167	0xbcd34bfb	-0.025793066
168	0xbd55a768	-0.052161604
169	0xbd2b27ad	-0.041785885
170	0x3ce1371d	0.0274921
171	0xbd1e05f4	-0.038579896
172	0x3e29dda9	0.16588463
173	0xbdf1f6e6	-0.1181467
174	0x3d298bb0	0.041392982
175	0xbcdabe6f	-0.026702134
176	0x3dcf5ef5	0.101255335
177	0x3d807327	0.062719636
178	0xbdb8471d	-0.08997939
179	0x3c455430	0.012043998
180	0xbe273567	-0.16328965
181	0x3dd2117d	0.10257242
182	0x3d95aacd	0.07307968
183	0xbcdd0ce5	-0.026983688
184	0x3d4e5120	0.050370336
185	0x3d021e9a	0.031767465
186	0x3d111be8	0.035427004
187	0xbded5bc7	-0.11589771
188	0xbccb4ceb	-0.02481695
189	0x3da49581	0.08036328
190	0x3dc95e62	0.09832455
191	0x3d73eb8a	0.0595508
192	0x3d901350	0.070349336
193	0x3d563488	0.05229619
194	0xbd823e70	-0.06359565
195	0x3bcd47c1	0.0062646572
196	0xbc213db5	-0.009841372
197	0x3d1fb724	0.038993016
198	0x3e470f8d	0.19439526
199	0xbcd04a5d	-0.025426084
200	0x3db57af3	0.08861341
201	0x3e2f0ad4	0.17093974
202	0x3dda727b	0.10666367
203	0xbdbddf4d	-0.09271107
204	0x3c991a39	0.018689262
205	0xbd4b741c	-0.049671277
206	0xbd60e209	-0.054903064
207	0x3d3a7398	0.045520395
208	0x3df53211	0.1197244
209	0x3e82f981	0.2558098
210	0x3d9b2532	0.07575454
211	0x3dbb82e2	0.09155823
212	0xbcda5d1e	-0.02665573
213	0x3ddeace8	0.10872823
214	0xbde40239	-0.111332364
215	0xbd79f3f0	-0.061023653
216	0xbc9bff00	-0.019042492
217	0xbddee1d6	-0.108829185
218	0xbd8c154d	-0.0684
219	0x3c508a16	0.012728235
220	0x3cb7d6bc	0.02244126
221	0xbc9d7596	-0.019221108
222	0xbd26d9a6	-0.04073491
223	0x3e1f601a	0.15564004
224	0x3d1648b9	0.036690447
225	0x3e0749a1	0.13211681
226	0x3e8cc5ff	0.2749481
227	0x3ce8e83e	0.028431054
228	0x3d1c7559	0.03819785
229	0x3dd50761	0.10401798
230	0xbe2fc312	-0.17164257
231	0xbc9bc676	-0.019015532
232	0x3b909b8c	0.004413074
233	0xbf48e7e6	-0.7847885
234	0x3b962d2b	0.004583021
235	0x3c9345c1	0.017977597
236	0xbde608a0	-0.11232114
237	0xbd595ab7	-0.053065028
238	0xbe5e3693	-0.21700506
239	0x3ce2d9a2	0.027691666
240	0x3dd6d6b9	0.10490174
241	0x3d53e092	0.05172784
242	0xbdc453c3	-0.09586289
243	0x3caad5aa	0.020853836
244	0xbdd5371e	-0.104109034
245	0x3dc33fd6	0.0953366
246	0x3d3126a0	0.043249726
247	0xbd3636df	-0.044485923
248	0x3daa04ea	0.083017185
249	0x3d87392e	0.06602703
250	0x3d0ecba2	0.034862168
251	0x3c55f0e8	0.013057925
252	0xbc753e64	-0.014968488
253	0x3d937d3a	0.072016194
254	0x3c09322e	0.00837378
255	0x3d2494d0	0.04018098

output_layer.bias f4 [9]
0	0x3e29e403	0.16590886
1	0x3e2906a5	0.16506441
2	0x3e2b5323	0.16730933
3	0x3e2b980e	0.16757223
4	0x3e2cee20	0.16887712
5	0x3e2bf588	0.16792881
6	0x3e30ac94	0.17253333
7	0x3e2d7864	0.16940457
8	0x3e2efa24	0.17087609
