DQN - Pendulum/data/Apprentice 2.pt (torch, 39996 bytes, 8 tensors)

input_layer.weight f4 [64, 3]
00000000: f36f 493f f91f f5be 9c84 71be f18e 9dbd
00000010: a8dc 9cbd 88f6 273a a376 a63e 3e33 953e
00000020: 1b30 143e e6d6 003f c788 f23c 5538 41bd
00000030: 511f 8bbd b033 e73e 208b 443e 6dd1 953d
00000040: 9e63 f53e 4af3 243e e881 3c3f f4fb eb3e
00000050: 3e20 5fbe 923d d03e e251 17bf 5ec4 dbbd
00000060: b00f a9be 430c 8b3f 0c7d 613e bdcf 12bf
00000070: d3bb 55bf 2243 6abe a89a 133f 28ef a2bd
00000080: e16f a2bd 8aee 193f 8f51 3a3e 89a5 3cbe
00000090: 1ede 0cbe b799 b63e 5b74 6ebe 3e9e 52bf
000000a0: 2928 a8be 84f4 16be ff1e 53be ad06 b73e
000000b0: 94c9 6abc b621 32bf e20b 0a3e 157f 613e
000000c0: 4351 2c3e 6a10 9cbe fa09 723e dea1 c3be
000000d0: c1da 413e 4d53 66bd ab1d 9a3c 5d3c 67bf
000000e0: d372 31be e033 7abe 39bc 843f a84d 653e
000000f0: 37b0 dc3b a985 603e 1e05 bbbc bca6 d13e
00000100: b170 16bf aabd 943e c640 3cbf de1e ef3c
00000110: 77f3 4bbe 0682 233f 5e87 273e b627 4ebd
00000120: df47 493f 0942 ec3e 1d02 623e 4354 20bf
00000130: 2620 8d3d f451 043e 6b62 72be 1d6d ee3e
00000140: 2500 ebbd 23df 353f 066f 263f 34d4 0fbd
00000150: 16da 09bf e067 f73e 57da cbbd 7501 f73e
00000160: 96e8 20be 747b b0bd 7e75 88be af2d e13e
00000170: e5ef 3abe cbe1 4cbf 50b6 353c 9e50 01bd
00000180: 3480 8c3d a015 703e 0b64 1cbe d631 67bf
00000190: 7607 1c3e 167e 7bbe 821d a63e 8521 1a3f
000001a0: b445 1f3e e968 6bbd de46 e33e 1996 36be
000001b0: 46d7 1bbf 1402 7dbe abe9 e3bd 424e b8bc
000001c0: 2240 d43e 49c9 69be f9fe e6be f739 c53e
000001d0: b008 6c3e 2824 1f3f bde0 c2bd 6eb0 26be
000001e0: 4e2a 343f 346a 56bf 8fbd 0e3d 513c 2e3f
000001f0: c561 52bf 4217 88be cb17 f83c cd7d 003f
00000200: 0a8c cf3c b35e d33e c085 29bf 0d49 31be
00000210: 1471 12bf eeee 49be c12e f23d c5cb 253f
00000220: 1edc a63e 330a 14be fc72 063d d9b9 c1be
00000230: b28b d0bd e074 09be 92dd fb3b 6709 b3bd
00000240: e50b e2be 7b6c 20bf 65ce 02be 55ff 853e
00000250: 2aeb ea3d e180 143e 34b4 073f 4241 543e
00000260: c2cf 323e 4b15 ec3e 988b 78bf 4788 f13d
00000270: a292 71bf 270e 903d 58e9 6d3e 7ee6 e23e
00000280: c62b 523e f541 f83c bf0a 33be 3a3c eb3d
00000290: 1858 203d b88d 81be 30e8 d5be 02ba 3cbd
000002a0: 4b0a debd 46ee 123f 2051 f8bd 2dbb 9bbe
000002b0: 866b 253f d002 c13d 9c99 663e 1b61 21bf
000002c0: 7281 0cbe eda3 b83e 6aa6 23be 2280 efbd
000002d0: 6bc6 ccbe 0316 d4be 7c3d d2bd 283e a33e
000002e0: bbf4 b73c 14e4 d8bd 1b37 303f 6382 15bf
000002f0: 099c 2ebe 3fed 83be 0b0d 08bf 6974 4f3e
0.78686446 -0.47875956 -0.23585743 -0.076932795 -0.07659274 0.00064072805 0.32512388 0.29140657
0.14471476 0.5032791 0.029606236 -0.047172863 -0.067930825 0.45156622 0.19193697 0.073153354
0.47927564 0.16108432 0.7363572 0.46090662 -0.21789643 0.40671974 -0.5910932 -0.107308134
-0.3301978 1.0863117 0.22020358 -0.57348233 -0.8348972 -0.22877172 0.5765786 -0.07955772
-0.079314955 0.60129607 0.18195175 -0.18422522 -0.13756606 0.3566415 -0.23286574 -0.8227271
-0.3284314 -0.14741713 -0.20617293 0.3574728 -0.0143302865 -0.6958269 0.13481095 0.22021134
0.16827874 -0.30481273 0.23636618 -0.38209432 0.18931104 -0.056231786 0.018812975 -0.9032648
-0.17328958 -0.24433851 1.0369941 0.22392905 0.0067348736 0.21925987 -0.022829589 0.4094752
-0.58765703 0.29050952 -0.73536336 0.029189523 -0.19917093 0.63870275 0.16360232 -0.05033084
0.7862529 0.4614413 0.22071119 -0.62628573 0.068908975 0.12921888 -0.23670356 0.46567622
-0.11474637 0.71043605 0.6501316 -0.035114482 -0.538484 0.48321438 -0.099537544 0.482433
-0.15713724 -0.08617297 -0.2665214 0.43980166 -0.18255575 -0.8003203 0.01109083 -0.031571023
0.0686039 0.2344575 -0.15272538 -0.9031042 0.15237221 -0.24559817 0.32444388 0.60207397
0.15553933 -0.057473097 0.44390005 -0.17830695 -0.60875356 -0.24707824 -0.11128553 -0.022498254
0.4145518 -0.2283069 -0.45116404 0.38520786 0.23050189 0.62164545 -0.09515522 -0.1627824
0.7037705 -0.83755803 0.034848746 0.68060786 -0.82180434 -0.26580244 0.030284783 0.50191957
0.02533533 0.41283187 -0.6621971 -0.17313023 -0.57203794 -0.1972005 0.11825324 0.6476405
0.3258981 -0.14457016 0.0328245 -0.37837103 -0.10182895 -0.1342349 0.0076863253 -0.08742028
-0.441497 -0.6266553 -0.12774046 0.26171365 0.11470635 0.14502288 0.53009343 0.20728019
0.17462066 0.46109995 -0.97088003 0.11793571 -0.9436437 0.07033949 0.23233545 0.44316477
0.2052451 0.030304888 -0.17484568 0.11486097 0.039146513 -0.25303435 -0.41778708 -0.04607583
-0.10841807 0.57394826 -0.12124848 -0.3041624 0.6461719 0.094243646 0.22519535 -0.63038796
-0.13721254 0.36062565 -0.1598145 -0.11694361 -0.3999513 -0.41423044 -0.102656335 0.3188336
0.022455564 -0.105903774 0.68834084 -0.5840208 -0.1705171 -0.25766942 -0.531449 0.2025925

input_layer.bias f4 [64]
00000000: 13b4 65bf 6a83 43bc 81a7 b0be 43e0 d53e
00000010: 8eba 35bf c991 0dbf 4fa6 0fbf 52f5 b63e
00000020: bd75 2dbe ed2f 4d3e 7ac6 62be d821 133f
00000030: 5bce ae3e 7f2d 243f 9fe6 afbe 04df 0ebf
00000040: 9427 58bf 5776 5f3b c8ae 35bd 6946 70be
00000050: c187 ff3d 862c 1cbd 52ad 31be efe6 18bf
00000060: 5433 d2be 6a9b 0fbe e222 a9be 284d 11bf
00000070: 9ce7 86be d3cf c93e 55cd 09bf 13b3 25bf
00000080: ce29 3fbf aec4 783d ad02 63bd 74c1 45bf
00000090: 2ec1 fbbd 0299 f03d da33 39bf 0d0f 29bf
000000a0: 0c9a c2be b0b7 4cbf 19b9 34bf f455 2bbf
000000b0: b709 f5bd d8fc 793c f785 263f 53e8 543e
000000c0: 2de5 e83e a694 eebe 590a f7be 8c71 cbbe
000000d0: 388e 1fbf fcbf f93c 57d2 05bf beff 843e
000000e0: fc33 56bd 77ef 43bd 7aa3 2fbe 8e8b 0ebf
000000f0: add8 adbe b3cb 19bf de22 c7be d500 40bf
-0.89727896 -0.011933187 -0.34502795 0.4177266 -0.70987785 -0.55300575 -0.5611314 0.3573404
-0.16939445 0.20037813 -0.22146025 0.57473516 0.34141812 0.6413192 -0.34355637 -0.55809045
-0.8443539 0.0034097636 -0.044356138 -0.2346436 0.12477065 -0.0381284 -0.17351273 -0.59727377
-0.41054785 -0.1402413 -0.33034426 -0.56758356 -0.2634858 0.3941637 -0.53828937 -0.6472637
-0.74673164 0.060734443 -0.055422474 -0.7724831 -0.122927055 0.11747934 -0.72344744 -0.6603859
-0.38008153 -0.79967785 -0.70594937 -0.6692803 -0.119647436 0.015258037 0.65048164 0.2079175
0.45487347 -0.46597785 -0.48250082 -0.39735067 -0.62326384 0.030487053 -0.5227408 0.25976366
-0.05229567 -0.047835793 -0.17152205 -0.55681694 -0.33954373 -0.60076445 -0.3889379 -0.7500127

hidden_layer_1.weight f4 [64, 64]
00000000: 2d64 9b3d e04b b43d abce b3bc 49e8 67be
00000010: 63cb 15bd a3f3 2dbe 106e 473d 8ab2 d1be
00000020: ff11 2dbe 9ec8 1cbf fefe 513b 6c57 86be
00000030: 9ef8 a3bf 6321 453e 2909 75bd 2a69 d23d
00000040: 4503 973d 497b 133e 6c25 7abf ee5d efbd
00000050: 2de9 323e 7318 f93d 5393 29be 7096 603e
00000060: b823 90be ca50 1e3e 9381 bebd 98a8 11be
00000070: 523b bbbe 8a2a e5bd 8453 6fbd 0f26 d33e
00000080: 7e0e f3b9 0015 6ebe 4137 db3c bdb8 87bc
00000090: a82b 52be b974 d7bd 42ad bbbd 8862 9d3c
000000a0: f179 6fbe e649 ebbc 540f 8cbe 0045 163d
000000b0: 240f 213e 2a1f 7d3c 03c4 473e 3823 07bf
000000c0: f32c 0a3e 1ada 08be 4f9d bcbe 03c5 883d
000000d0: 8066 7b3d 1ec0 4abe f38c d0bc 822d 433e
000000e0: c640 353e 7f80 2ebd 5f3e 4a3e 8d39 79bd
000000f0: 0344 ad3d dc4b d73d ceba acbc 6f9d d33b
00000100: 384f f23c e55c 923c eb03 1dbd 1073 1dbd
00000110: 18d2 84bd fa74 4d3c f180 46be 78ea a93d
00000120: 6bd4 a5bd eaa7 60bc af75 1d39 8bf9 ccbd
00000130: a527 893d fec2 f3bd ce3e 22be 0c77 b23c
00000140: f904 843d 3053 37be b043 c03d a3d4 9fbc
00000150: 76a3 3cbe 5448 7dbd acd7 8fbc d0fa 173d
00000160: bde0 5b3d 9158 fcbc 42ee 5e3d 264c 44be
00000170: 4333 b7bd f4e8 a3bd adc1 1bbe bf54 99be
00000180: b09e a6bd 4fa0 893d ee14 0abe 6792 bebd
00000190: 65cc 633c da60 a43d 0ea5 24be 8f9d 45bd
000001a0: cc52 b5bc 54b4 dabd ebfc a3bd e5dc 7e3c
000001b0: 6d39 133d 1c04 e0bd db79 fdbd 88c5 dc3b
000001c0: d0fa ebbd 6786 6a3d 6058 b8bd f0b0 2f3d
000001d0: d2e1 193c 55a1 a6bd 108e 4c3d 9f9f 1bbe
000001e0: ccf0 b13b 836d 8fbd bc2b 6f3d 6553 b73c
000001f0: b9a4 473d 46ff d6bd ebdc 56bc cc43 9b3d
00000200: ef61 623d 9531 dbbd 9fee ed3d 7d8f b0bc
00000210: 6af0 f13d d885 f43c dc8e 3e3b 8f99 a8bc
00000220: 70af 38bc 6885 0cbe 59f4 93bd a9ca 813d
00000230: 17f2 0fbe 826e 8c3d 3ce8 af3b 1a73 623d
00000240: c870 79bd bfbf 4ebc d1c9 adbd 8a6c c23d
00000250: dccc 14bc 3a1c 08be 7adb 193d cb83 c3bc
00000260: 9da9 423d db04 16bd b311 f23b fb61 b63c
00000270: 585b cfbd 3e4b cf3d 0068 6bbd da1b f1bd
00000280: b1e6 37bd d546 fe3c a361 dfbc 3989 5fbb
00000290: 540e 86bc 39b3 5f3d 8686 eebd d5a1 91bd
000002a0: b972 40bd a0fd 94bb 1092 843d 6672 c33d
000002b0: b173 c53c 8018 c6bc c64a 64bd c945 11be
000002c0: 6c53 8e3d ba92 e53d e5a6 52bd d1e0 80bb
000002d0: 7c4a a13c 6cc3 6cbd 8277 bbbd 8bd5 c5bc
000002e0: d1d2 16be 4699 f3bd 7d04 8ebd 0c23 a03d
000002f0: b6c8 03be ae96 ce3c f23a ca3d 20db 46bc
00000300: 1ea5 babd 527c 323b 44dd bdbc c632 f3bd
00000310: 4f33 00be e31e 793d c37d d3b9 6232 083c
00000320: e2fb 163d 954d d1bd dd38 bc3d 9f4a 4cbb
00000330: 12e5 07be 4841 2fbd 1d37 523d a5a3 01bd
00000340: dc1c 1ebe 65ed 9dbd 8893 da3d 1c25 20be
00000350: 478d 1c38 7245 07bd 3e09 df3c de17 b3be
00000360: 39c3 a33d e1ed 01bd 30fa 653d 8b91 193e
00000370: 7c87 0b3e 1282 f3bd cc61 39bb 9106 9dbe
00000380: 8b1a 0c3d 02f2 92bc 4b8e 97bd 2791 273d
00000390: 703d e03d f691 6b3a d2a8 7fbd cdf4 83bd
000003a0: 5e3f 37be 2beb 34bc cc13 63bd 2152 47be
000003b0: a15d f3bc 409d dc3d 9bc1 66be f989 a53c
000003c0: 2dc0 eabd e96b 8f3d 4e1c 793d 9fae 233b
000003d0: e975 81be 0cc0 afbc beda 593d 4b4c 07be
000003e0: 44dd c93c 9f87 b6bc 282a eabd c4f4 e43c
000003f0: d389 9b3c 5b52 1abd c646 26be 8c33 1bbd
0.075874664 0.088035345 -0.021949133 -0.22647204 -0.036570918 -0.16987471 0.04868895 -0.40956527
-0.16901396 -0.6124362 0.0032042856 -0.26238573 -1.2810247 0.19251017 -0.05982319 0.10273965
0.073736705 0.14402498 -0.9771335 -0.116878375 0.17471762 0.121628664 -0.16560106 0.21932387
-0.2815225 0.15460506 -0.09302058 -0.1422447 -0.36568695 -0.11189754 -0.058429256 0.41239974
-0.0004635937 -0.23250198 0.026759746 -0.016567582 -0.20524466 -0.1052031 -0.09163906 0.019212022
-0.2338636 -0.028721761 -0.27355444 0.036686897 0.15728432 0.015449325 0.19508366 -0.52788115
0.1349371 -0.13364449 -0.36838767 0.06678202 0.06137705 -0.1979985 -0.025457835 0.19060329
0.1770049 -0.042603012 0.19750355 -0.0608459 0.08460238 0.10512516 -0.02108517 0.0064579765
0.02957879 0.017866561 -0.038333815 -0.03843981 -0.06485385 0.012540096 -0.19385125 0.082966745
-0.08097156 -0.013711909 0.00015016527 -0.10008534 0.06697015 -0.11902426 -0.1584427 0.021785282
0.06446261 -0.17902827 0.0938791 -0.019510573 -0.1842173 -0.061836556 -0.017558895 0.037104428
0.053681124 -0.03080395 0.05442644 -0.19169673 -0.08945324 -0.08003417 -0.152106 -0.2994747
-0.08135736 0.067200296 -0.13484547 -0.09305268 0.013903712 0.080262855 -0.16078588 -0.048245963
-0.022134207 -0.10678926 -0.08007225 0.015555595 0.035943437 -0.10938284 -0.12376758 0.0067374147
-0.11522448 0.057257082 -0.09001231 0.04289335 0.009392219 -0.081362404 0.04994017 -0.1519761
0.0054303166 -0.070033096 0.058391318 0.022378633 0.048741076 -0.10497908 -0.013114194 0.075812906
0.055269178 -0.107028164 0.11617779 -0.021552796 0.118134335 0.029848978 0.002907685 -0.020581035
-0.011272296 -0.13722765 -0.0722434 0.063374825 -0.14057194 0.06857015 0.0053682607 0.05528555
-0.060898572 -0.012618958 -0.08485759 0.094933584 -0.009082045 -0.13292018 0.037562825 -0.023866555
0.047525037 -0.036625724 0.007387364 0.022263518 -0.10124844 0.10121773 -0.05747223 -0.117728904
-0.04489774 0.031039635 -0.027268237 -0.003410889 -0.016364254 0.05461428 -0.11646752 -0.07110945
-0.046984408 -0.004546836 0.06473172 0.09543304 0.024103018 -0.024181604 -0.055735372 -0.14186777
0.06949505 0.112096265 -0.051428694 -0.00393305 0.019688837 -0.057803556 -0.09153654 -0.024149677
-0.14728858 -0.11894469 -0.0693445 0.07819185 -0.12869534 0.025218334 0.09874524 -0.012137204
-0.09113525 0.0027234745 -0.023176797 -0.11874919 -0.12519573 0.06082047 -0.00040338756 0.008312793
0.036861308 -0.10219876 0.09190533 -0.0031172407 -0.13270977 -0.042786866 0.05132209 -0.031650204
-0.15440696 -0.07711295 0.106726706 -0.15639156 3.7324873e-05 -0.033025213 0.027226087 -0.34979147
0.0799622 -0.031721 0.0561468 0.14996926 0.13625902 -0.11890043 -0.0028287051 -0.30669072
0.034205 -0.017937664 -0.07400187 0.040909912 0.10949218 0.00089862884 -0.06241686 -0.064431764
-0.17895266 -0.011042397 -0.0554388 -0.19464923 -0.029707732 0.107721806 -0.22534792 0.020207392
-0.11462436 0.07003004 0.06081801 0.0024975908 -0.2528527 -0.02145388 0.053187124 -0.13212697
0.02464164 -0.022281466 -0.11433822 0.027948745 0.018986618 -0.037676197 -0.16237935 -0.037890956

hidden_layer_1.bias f4 [64]
00000000: e312 133e 9cd2 58bb 7378 05be 4dc8 843c
00000010: 6a95 eabd de38 593d 30b6 923d 5e43 293d
00000020: d71a 2dbe e1fa 2f3d 9c28 a63c 7cfd 5ebe
00000030: 3b35 d13c 5014 833c e6d2 b2bd 12e1 80bd
00000040: 0bb0 bfbd 3c18 e23d f2bd 963c dc75 86bc
00000050: 7626 d6bd 6596 283e 74de 783d b2ee acbd
00000060: acf7 3fbe 2bdc 15be 9ec0 223e 39ff 463e
00000070: f638 bb3b 300f d7bd 9d36 913d 6b90 6a3c
00000080: 5037 a73d 64be fb3c 9b6b 23be 38f0 1e3d
00000090: 99bb 04be e3f4 cd3d 4517 1d3d 97cb d9bd
000000a0: c8a2 7a3d fc52 e43d 02ce d53c b6c3 c73d
000000b0: 1393 1a3d bb5c ffbd ab5e b4bd ecac 0fbe
000000c0: e364 6e3d ec4e 2b3e 40de 7d3e 37f7 95bd
000000d0: c360 05be cfa6 79bd b6b1 b6bc 97a0 0c3d
000000e0: 354e d53c c8ae a5bc 2264 baba 4d3f b8bd
000000f0: dcd3 c03d 8415 163e a15e d7bd 1f5e fdbd
0.14362673 -0.0033084517 -0.13034229 0.016208792 -0.1145428 0.05303275 0.07163656 0.041324012
-0.1690477 0.042963866 0.020283036 -0.21776384 0.025538078 0.016000897 -0.08731632 -0.06292929
-0.093597494 0.110397786 0.01840112 -0.016413622 -0.104565546 0.16463621 0.060759023 -0.08443965
-0.18746823 -0.14634769 0.1589379 0.19433297 0.0057135774 -0.10500944 0.07090495 0.0143166585
0.08164847 0.030730434 -0.15959017 0.03880331 -0.12962188 0.10056474 0.03835227 -0.10634535
0.061190397 0.111486405 0.026099209 0.09754126 0.037737917 -0.12468859 -0.08807119 -0.14030808
0.05820168 0.16729325 0.24791813 -0.07322543 -0.13025193 -0.060950097 -0.022301536 0.034332838
0.026038269 -0.020224944 -0.0014220516 -0.08996449 0.09415409 0.14656645 -0.10516096 -0.12371468

hidden_layer_2.weight f4 [64, 64]
00000000: 72ad 143d 0266 f7bd f78f 88bd 4698 a03c
00000010: 9bcf 89be 396b 5b3c bd1c 4c3e 9bd0 ba3c
00000020: c4a3 73be 8af2 dbbd 5636 253d 12fd 67bc
00000030: 9938 b1bd 2bd0 75bd 20aa 8cbd 4780 9ebd
00000040: 3bbf 463d e4ee 7d3d f63b cfbe fb03 ccbd
00000050: 031a ac3d 127e 223b af95 6f3e e921 93bc
00000060: c44c dcbd ed4c e33d 82f5 283d 1c6b 81be
00000070: ea5e 173e 8032 45bd edac dd3d 5b6e 8fbc
00000080: 0df1 4fbe c9a5 5b3c 2163 aa3d 71b2 9c3d
00000090: 51d0 583d dd23 12bd 88c1 273a 92b6 22bd
000000a0: abd5 e03c 8354 413d 955f eabe 2663 c53d
000000b0: ad5f e1be a587 aa3c dba3 09be d6e1 513d
000000c0: d397 99bd bd96 0abe 832b 29bc 36ae 76bd
000000d0: 2075 d1bd 3366 953d 7f20 be3d 12db 0bbf
000000e0: c496 88bb b71f 58be 4589 bfbc b423 f83c
000000f0: 0141 d3bb 1fee 3a3c 8608 acbd 2d56 b8bd
00000100: 8b74 7bbd 1274 be3d f0e2 ccbd db0f d83c
00000110: 1638 b4be 5639 d73d d306 71bd fd43 51be
00000120: 9b70 4dbe 30ef a2bd cfca 5dbe 9c5d b5bd
00000130: 0449 bbb7 0ae6 983d 3a2a 893c 3d2d 12bc
00000140: 4306 153d c0d4 9f3c 9faf 89be a94f a3be
00000150: 419f 59bd 3ffc ca3d 029a 84bc fa32 c1bb
00000160: bf2a 5dbe 544a adbe cb94 f53d 97e3 f8bd
00000170: 58af ebbe 33f7 dcbd c309 fabd 5606 a83d
00000180: 05c2 aabd 4a7b 8abd 1605 fcbc 8756 0c3d
00000190: 539c 4abd d056 dd3d 1dc2 eabb cdb1 eb3b
000001a0: 84dc a1bc ff38 a23d c37c 0e3c ed26 7ebb
000001b0: 2258 fabd 1e8b 333c 3cca f4bd d4c9 bcbd
000001c0: 06ee 8dbc 0dcf 39be 1ea8 b1be ed63 8fbd
000001d0: fd75 8f3d d233 efbb ef5b 73bd 4edc f53d
000001e0: d94c ca3c a6eb b73d 0fd0 303d 60bd 81bd
000001f0: 2c4f 31be 261f 97be 7089 703c 0b9e a3bc
00000200: 425e 753d 9e09 b43d 649d 80bd d2c0 5b3d
00000210: deab 293d cc2c 663d 5bec bf3d 0e5b ef3b
00000220: f1ce 2cbe aacb 4ebe 445f b5bc 2d36 28bd
00000230: 241b 5ebe afcf a2bc f857 a9bc 2b10 803d
00000240: f487 d53d f8b5 48bd e146 26be 8ffb 5f3c
00000250: 6617 123d 0aec 98bd e9ca 843d 4445 c73b
00000260: c1b8 a23c f6a1 0c3e 49f0 87bd 8c00 213e
00000270: da5d ca3d 0e9b 353d 4a29 88bd 3f98 c3bc
00000280: e27d 9ebd 3f6b d93a d28a a1bd 85d4 b7bd
00000290: d287 c43d 2f82 3bbf 5124 e7bc 3a3e 1abc
000002a0: 327b af3d 2445 3a3d 6910 29bf fe7e f13d
000002b0: 7286 8cbe 3204 9e3d 2fc9 5dba 01d3 b53b
000002c0: 7a3e f63d 05b3 67be f029 8dbd 35b8 5abd
000002d0: 03ae 5d3d caca 8b3b 5a03 963d aae5 54be
000002e0: 473f 82bd d719 67bd 3450 a4bd 0a2f dbbd
000002f0: 51c4 1abe 0058 213d e2b1 e2bd 9fea 5f3d
00000300: ae86 5c3d 08f5 aa3c 5859 fe3c 83eb b0bd
00000310: 4e93 fb3d aa25 68be c57c a03c 23a8 383e
00000320: ced1 a53c fe2c c53d 170c 803d 37c6 aebd
00000330: 636b f33d 8a48 733d 228e d9bd 535e c5bd
00000340: 303d 40bd e04d acbc f73b dbbd 15c1 27bf
00000350: 6734 413d c83b 143c 507c 423d 3d96 b93c
00000360: 7950 dbbd 704c 283d bb67 e8bd a87c e8bd
00000370: 15eb 873d eb57 93bd da53 96bd 3cca c1bd
00000380: ac3d bc3d 03dc 3cbd 26ce 8f3d 2e43 67bd
00000390: 0fdb 67bc 4908 e1be 192d 243d 6db7 87bc
000003a0: 2737 fcbd 3c52 db3d bb35 96be a506 943c
000003b0: a1ba a73d 24fa d03c d229 d93d 7870 863c
000003c0: b066 3b3c 5c37 3f3e f35a 47be 04ad cebd
000003d0: 3a52 c53d 82c9 fcba 8a9a 2dbe 308a 7f3e
000003e0: b879 5dbe 8a72 febd 6cf5 16be 83b5 62bd
000003f0: e7eb c4be 311f 893d 0684 8cba 2656 683c
0.036298223 -0.12080003 -0.06668084 0.01960386 -0.26916203 0.013392263 0.19932838 0.022804549
-0.2379294 -0.1073962 0.040335022 -0.014159458 -0.08653373 -0.060012978 -0.06868386 -0.07739311
0.048522215 0.061995402 -0.40475434 -0.09961697 0.08403399 0.0024794382 0.23396944 -0.017960506
-0.107568294 0.11098657 0.04124976 -0.2527703 0.147823 -0.048143864 0.108239986 -0.017508676
-0.20306797 0.0134062255 0.083196886 0.076512225 0.05293304 -0.035678733 0.0006399383 -0.039724894
0.027445635 0.047199737 -0.45776048 0.09638052 -0.44018307 0.020816633 -0.13441412 0.051240765
-0.07499661 -0.13534065 -0.010325315 -0.060224734 -0.10227418 0.072948836 0.09283542 -0.5463115
-0.0041683633 -0.21105848 -0.023380885 0.030290462 -0.006446958 0.011409312 -0.08400063 -0.09000812
-0.06139044 0.092994824 -0.100042224 0.026374748 -0.3519904 0.10508983 -0.0588444 -0.20436092
-0.20062487 -0.07955778 -0.21659397 -0.08855745 -2.2326138e-05 0.074657515 0.016743768 -0.008921918
0.036382925 0.019510627 -0.268918 -0.31896713 -0.053130392 0.099113934 -0.016186718 -0.0058959695
-0.21598338 -0.3384577 0.11991271 -0.12152784 -0.46032214 -0.10789337 -0.12208893 0.082043335
-0.083377875 -0.06761797 -0.030764144 0.034262206 -0.04946549 0.10807574 -0.0071642534 0.0071928264
-0.01975847 0.079210274 0.008696738 -0.0038780526 -0.12223841 0.010958461 -0.11952636 -0.09218183
-0.017325412 -0.1814539 -0.34698576 -0.07001481 0.07004926 -0.0072998786 -0.059413847 0.120049104
0.024694847 0.08980493 0.04316717 -0.063349485 -0.17315358 -0.29515952 0.014681205 -0.019972822
0.059904344 0.08790897 -0.0628002 0.053650685 0.04142367 0.056195065 0.09371253 0.0073045557
-0.16875817 -0.20194879 -0.022140153 -0.04106729 -0.21690041 -0.019874422 -0.02067183 0.06253084
0.104263216 -0.049001664 -0.16237976 0.013670816 0.035666846 -0.07466896 0.064840145 0.006081255
0.019863488 0.13733658 -0.06637628 0.15722865 0.09881182 0.044337325 -0.066485 -0.023876308
-0.07738854 0.0016587748 -0.07887806 -0.08976082 0.09596218 -0.7324552 -0.02821556 -0.00941425
0.085684195 0.045476094 -0.66040665 0.117918 -0.27446324 0.07715644 -0.00084604596 0.0055488353
0.12023635 -0.22626884 -0.068927646 -0.05339833 0.05412103 0.0042661177 0.07324858 -0.20790735
-0.063597254 -0.056421127 -0.0802311 -0.10702331 -0.15113951 0.039390564 -0.11069085 0.05466711
0.053839378 0.020868793 0.031048462 -0.0863867 0.122839555 -0.22670618 0.019590745 0.18032889
0.020241644 0.09627722 0.06252306 -0.085339 0.11885717 0.05939535 -0.10622813 -0.096371315
-0.046933353 -0.021033227 -0.10704797 -0.65528995 0.047169115 0.009047456 0.047481835 0.022654647
-0.10708708 0.04108852 -0.1134791 -0.11351901 0.06636635 -0.071945034 -0.07340212 -0.09462401
0.091914505 -0.046108257 0.070217416 -0.056460552 -0.014151349 -0.43951634 0.04008207 -0.016566956
-0.12315207 0.10709044 -0.29337868 0.018069575 0.081898935 0.025509901 0.1060368 0.016411051
0.011438057 0.18673462 -0.19468288 -0.10091594 0.09634824 -0.0019286128 -0.16953483 0.24955058
-0.21628463 -0.1242419 -0.14742059 -0.055348884 -0.3846123 0.066954024 -0.0010720498 0.014180696

hidden_layer_2.bias f4 [64]
00000000: 96eb d8bc aca0 b63d a6ef 713e d0cf 3bbb
00000010: affb e9bc 486d d8bd c417 36be e600 8abd
00000020: 371f 903e 18de 473e 8a89 c13e fbf7 f83e
00000030: 557b 34be dadf c33d 9ea2 4dbc 8470 3a3e
00000040: 1b6d f9bd ee18 00bd 4131 f8bd 86aa 89bd
00000050: 48d1 11be f761 43bd 0872 77be 3307 25be
00000060: b53f b03d 88b1 283d 919a 2cbe f992 1ebe
00000070: b515 ecbc 78f6 44be f2b6 5ebe 9278 23be
00000080: 29d4 21be 23a2 cfbd 15c0 d9bd e20a 16be
00000090: 57f8 c6bc 6740 50bd 6f8c aa3d df68 8c3e
000000a0: 13f1 fd3d 82ff 40bd 2e05 1dbe 6e5c 2c3c
000000b0: 9e8e 06be 607b acbc 64a4 56bd 5c05 a8bc
000000c0: e797 1fbe 5e86 363d a16f 36be db42 623c
000000d0: 8779 cf3b 9523 343d 2c59 003d 9f42 6f3e
000000e0: 3244 9c3c 697a a83e db11 b8bd 65cc 01be
000000f0: 538e 3a3e af14 edbb d1c3 74bd 4e4c b23e
-0.026479524 0.089173645 0.23626575 -0.0028657801 -0.028562395 -0.10567719 -0.17782503 -0.067384526
0.28148815 0.19518316 0.37800246 0.48626694 -0.17625172 0.09564181 -0.012550978 0.18206984
-0.12179013 -0.031273775 -0.121187694 -0.06721978 -0.1423999 -0.04770085 -0.24164593 -0.16116028
0.08605901 0.041184932 -0.16855837 -0.15485753 -0.028818944 -0.19234645 -0.21749476 -0.15963963
-0.15803589 -0.10138347 -0.1063234 -0.14652589 -0.02428834 -0.05084267 0.08327567 0.2742376
0.12399497 -0.04711867 -0.15334007 0.010520084 -0.13140342 -0.021054924 -0.05240287 -0.020510368
-0.1558529 0.044561736 -0.1781602 0.013809885 0.006331626 0.043979246 0.03133504 0.23365258
0.019075487 0.32905892 -0.08987781 -0.12675627 0.18218355 -0.0072351317 -0.059757058 0.3482384

output_layer.weight f4 [9, 64]
00000000: c51f d83d 1734 353d 592e 793d 9896 40be
00000010: cd2c 9f3d 2e63 e03d 7bfa bebd 6952 2ebe
00000020: 18d5 6abe e31e 343e 023d b43d b8e4 373e
00000030: c3da 4c3e 3413 573c e54c 9c3e 9a33 363d
00000040: 9499 1abd ec80 acbc 6db3 e03c b9b8 31bc
00000050: 6f72 72bd ef11 843d 79f8 83bd eb26 633c
00000060: aaa2 02be 9eca ae3d dd50 783c a109 d8bb
00000070: 0325 b4bd 6742 cdbd f72b c43b d5b7 aabc
00000080: 4509 c4b9 0098 90bd 17ca a73c f152 8e3c
00000090: 5a17 aa3d aa9a b33d 2d19 61bc ecab 033e
000000a0: 77cb e43d 18b5 bbbc 5828 14be 9bc6 073d
000000b0: 216a 423c 1aeb b83d a6a9 a93d 3a1b 983d
000000c0: b2dd 04be 7528 723d 5e59 7b3d edf0 0c3e
000000d0: 04dd 8e3d a246 cf3d a0d9 023d bd0b 043d
000000e0: 9d58 68be 3ed9 2f3e 4365 773d 7a75 9dbd
000000f0: 7466 acbe 70d4 e73d 6c4b 1bbc 7568 263e
00000100: e167 793e bef7 a83d 97a5 163d 8a8c 2fbe
00000110: c5e4 c93d f683 4abc 3610 f9bc 247d c33c
00000120: 490c 9fbe 3a05 353e 2980 ec3d 5458 803e
00000130: b5da 79bd e073 103d d065 0d3d d7b7 d33d
00000140: 560f e4bd 92b0 d83d 7676 d1bb 79b7 9e3c
00000150: 5536 7d3d eba1 50bd 6370 1c3d a8bf 58bd
00000160: 2a4d dbbc 421e 733e 6ca5 8e3c 68d6 743d
00000170: 8265 ee3c eb2b f93c 7989 c3bd 7fdd 49bd
00000180: 71be b5bc 5842 7fbd cf31 893d 3509 f6bc
00000190: 3dd1 e93d e0e1 eabc 936c 2cbe 4a3b b63d
000001a0: b8ba 3a3d 9432 fcbd fc5b fe3d 41c3 69bc
000001b0: ada0 5dbd 95ec ce3d 0670 a4be 4d73 703d
000001c0: 9c0b 5dbb 5400 353e 45ca 7b3d f0b7 283e
000001d0: d3f8 19bd e26b f9bd 1d76 093d 2a52 2f3e
000001e0: 9260 413d 2039 2c3e 9d6f 8e3d e499 033d
000001f0: 543c 70be d56a c23e d00d af3d f824 d43d
00000200: b4d3 cd3d 2e17 fa3d eda7 c73d f2e1 33be
00000210: 9d95 00bd 113a c63d b516 e63c b6ed 92bd
00000220: 08c2 82be 7f6a 9c3e 95dc 0d3e 0ffc 583e
00000230: 88f1 003e 5f55 803d bd18 833e 496b 483c
00000240: c3c7 fe3d d5a6 edbd 3633 263d a746 d1bd
00000250: 0521 413c 90b5 36bd c063 1abe 97a0 303e
00000260: a76f e7bc 2541 a53d 6b53 d43c 0f2e cbbc
00000270: dc7a b3bb a2f5 cdbd f24e 9f3c 83ba 383c
00000280: b755 5e3c 507c acbd 74a1 023e e966 8fbd
00000290: b154 7c3d cefb 9d3d 0238 423a 2a81 153e
000002a0: bf92 d13c 5ae6 07be 86c6 c53d 72aa d43c
000002b0: d212 dcbc 9d3f 36be 47f8 e13d b842 ea3c
000002c0: ca2b 523c f635 46bd 5ebb 8f3d eff7 723d
000002d0: c93d 1b3e b91a 273d 0ac9 963c 74d3 7c3d
000002e0: d5f6 653e dc0e 173e 160f 1bbd 94e2 20bd
000002f0: 46a0 69be ea86 8a3c 3b1a 883d 9c3b 053e
00000300: 492e d53d 65e9 94bd ddc7 ca3d ced7 4ebe
00000310: 2269 63bc 27cd 1ebd a9c8 00bc a104 34bd
00000320: 4b1e 6dbe a4bb 783e fc73 333e 4d35 133e
00000330: 1a39 233d e9d4 873d e5ae 383e 877a 063e
00000340: 952f 973d cc38 31be 9819 1f3c aad8 8ebd
00000350: 3193 543d b149 9ebd 9a49 bd3c 4d89 e2bc
00000360: 66c5 dfbb d4f8 733d 9d91 df3d b3ea 313d
00000370: 6347 363d b4f3 c2bd 3708 2bbd b49e 00bd
00000380: 1d14 2d3c 0040 f1ba 485c fd3c 5f0a a2bc
00000390: da89 ce3d 6ec0 7dbc acdf b03c e6bd 2f3e
000003a0: e272 1fbd 2bc9 7ebd 64a9 bc3c a496 08bf
000003b0: b616 473d e496 923d e292 0c3d 43a7 7e3c
000003c0: cfd8 8cbd d00b 0d3d c3de 8abd 2aed 183e
000003d0: 99b5 ad3d 554d 163e 73cf 023e 1b1b 0b3d
000003e0: 8351 c33c 6ea7 123e 5dbe 1c3d 76e1 b1bd
000003f0: 9139 96be 0ed6 42bd 8311 d33d d1f0 c43d
0.105529346 0.04423913 0.060835216 -0.18807447 0.07772217 0.10956417 -0.09325119 -0.17023624
-0.22932851 0.17589907 0.08800699 0.17958343 0.20005326 0.013127137 0.30527416 0.044482805
-0.03774412 -0.021057568 0.027429307 -0.010847264 -0.059191164 0.06448733 -0.06443877 0.013864259
-0.12757364 0.0853474 0.015155998 -0.0065929447 -0.08796122 -0.10022431 0.0059866863 -0.020839611
-0.0003739094 -0.07060242 0.020482106 0.017373534 0.08305235 0.08769734 -0.0137389125 0.12858552
0.1117162 -0.0229135 -0.14468515 0.03314839 0.011866123 0.09029217 0.08284311 0.07427068
-0.12975195 0.059120614 0.061364524 0.13763781 0.06975749 0.10120894 0.031945825 0.032237757
-0.22690053 0.17172715 0.060399305 -0.076884225 -0.33671916 0.11319816 -0.009478431 0.16250785
0.24356033 0.08250378 0.036779013 -0.17143455 0.098580875 -0.0123605635 -0.030403238 0.023863383
-0.3106406 0.17677775 0.11547882 0.2506739 -0.06099959 0.035266757 0.034520924 0.10337799
-0.111357376 0.10580553 -0.0063922955 0.019374596 0.061819393 -0.050935667 0.038193118 -0.052917153
-0.026770193 0.23742011 0.017412864 0.059774786 0.029101137 0.03041645 -0.09547705 -0.0492835
-0.022185536 -0.06231913 0.06698953 -0.030033687 0.11416862 -0.028672159 -0.16838293 0.08898027
0.045588225 -0.123143345 0.124198884 -0.014267744 -0.05410831 0.10103718 -0.32116717 0.05870371
-0.0033728844 0.17675906 0.061472196 0.16476417 -0.037590813 -0.1217878 0.033559907 0.17121187
0.047211237 0.16818666 0.06954882 0.032129183 -0.23460513 0.3797213 0.085475564 0.10358614
0.10050145 0.122114524 0.09748826 -0.1756666 -0.031392682 0.09679044 0.028087 -0.07174246
-0.2553866 0.3055 0.13853677 0.21189903 0.12592137 0.06266283 0.2560481 0.01223261
0.12440445 -0.11604086 0.040576182 -0.10218554 0.011787658 -0.044606745 -0.15077114 0.1724876
-0.028251482 0.08069066 0.025918683 -0.024802236 -0.0054772925 -0.10056616 0.019446824 0.011274937
0.013570241 -0.08422148 0.12756902 -0.070020504 0.061604206 0.077140436 0.00074088585 0.14600053
0.02558267 -0.13271466 0.09657006 0.02596018 -0.026864443 -0.17797704 0.11033683 0.028596267
0.012827823 -0.048391305 0.07018159 0.05931848 0.15160288 0.04079697 0.01840641 0.061725095
0.2245744 0.14751762 -0.037856184 -0.03927858 -0.22815046 0.016910035 0.06645628 0.1301102
0.10409219 -0.07271079 0.09901402 -0.2019951 -0.013880046 -0.038769867 -0.007860341 -0.043949727
-0.23156087 0.24290329 0.17524713 0.14375801 0.03984938 0.06632406 0.18035467 0.13132678
0.073821224 -0.17306823 0.009710692 -0.06974919 0.051898185 -0.07728899 0.023106385 -0.02765336
-0.0068289516 0.059563473 0.109164454 0.043436717 0.044501673 -0.09519139 -0.04175588 -0.03140135
0.010563877 -0.0018405914 0.030927792 -0.019780336 0.10084887 -0.015487773 0.02159103 0.17162284
-0.03892792 -0.062203567 0.02302999 -0.5335486 0.048605643 0.07157686 0.034319766 0.015542808
-0.068772905 0.034435093 -0.0678077 0.14934221 0.08481903 0.14677937 0.12774448 0.033961397
0.023842579 0.14321682 0.038267482 -0.086855814 -0.29340795 -0.04756742 0.103060745 0.096162446

output_layer.bias f4 [9]
00000000: a334 8f3e fd5b 693e 7ded 833e e61e 883e
00000010: 5f14 8b3e 2f43 963e f72d 983e 45bf 723e
00000020: 224e 9a3e
0.27969846 0.22788997 0.25767127 0.26586074 0.2716398 0.29348132 0.29722568 0.23705776
0.30137736
