DQN - Pendulum/data/Expert.pt (torch, 39476 bytes, 8 tensors)

input_layer.weight f4 [64, 3]
00000000: a2db 933e a648 0e3f 5785 053e 3f60 d9be
00000010: b19f c9be 6d98 acbd 15d5 a13e cb64 93bf
00000020: c9a4 333e 976d 433e b831 703f 2898 c3be
00000030: 3cf9 5dbe 6a33 d5be 7971 56be ab69 98bd
00000040: 66db 96bf dcf4 49be 4d91 a9be 106c 7f3f
00000050: 2591 603c f5b0 1c3f b074 cf3f 4473 c1bd
00000060: 7539 d93e d6a9 f3be 6146 08bf 65ac 21bf
00000070: 30c4 acbf e57b a7be 9a0f cc3f aa5e fa3e
00000080: 1df3 96bd c421 3b3f f831 adbf 34c1 8ebe
00000090: 0012 3bbf 7d32 28bf 2fa7 0ebe 2f65 43bd
000000a0: b686 823f db6a a63e db5c 1fbf 6674 d13e
000000b0: dac0 4e3e e1fe eabe de56 283f f170 eb3e
000000c0: fa7d c7be 5dcc 64bf 8276 23be 634e 26bf
000000d0: 2839 47bf 7c84 ae3c f162 18bf 79e1 cabe
000000e0: 6c87 d4bd 15b4 b9be de19 84bf 784b 4abe
000000f0: 095f b03d c554 5abe f9a1 243f 890d e0be
00000100: aff3 0e3f e0c2 173e 73f9 c4be 949e 693d
00000110: ad05 c43d b5b4 19bf 639d 2ebf 4127 dcbe
00000120: 22bf 3e3e f82d cb3f 21db 6c3e b23a 2f3e
00000130: a04c f23e 628c b33e 8025 833e fddd b5bd
00000140: baa6 24bf 9239 0abf 3299 77bf 87d3 45be
00000150: 0dd7 993e fff2 9c3f e3ab 563e 94a2 d7bd
00000160: f8a9 9cbe b5b3 5a3c 73bc e83e 2840 b03e
00000170: 2f78 073f 83fc 85be c041 ae3f e251 eebb
00000180: 6b51 cbbd e885 b1bc fc60 0cbf 8fe0 d7be
00000190: b89e efbf 2a76 06bf b11a 893e 65c8 1abf
000001a0: 7e00 00bf 00d1 84be 41c3 c638 d4a1 c53d
000001b0: 13ba 5f3f 9959 f9be 82ee e0be 78ca f3be
000001c0: af59 45bf 006f 2bbe bc11 91bd 3fc8 483f
000001d0: 3136 e43e fec2 05bf 5b0b 763f bd20 623e
000001e0: 90c0 8abe 9b89 b2bf ad2b b3be 2f88 01be
000001f0: a656 b9bf 5f37 8bbe 8c33 c03f 9fa7 c93e
00000200: e92a 27bf 7d84 f0be 086b 2a3f db4b bbba
00000210: e2d0 d3be 1f72 36bf 1275 fbbe a835 733e
00000220: 6466 45bf b5de 84be 3231 543f 64f9 103f
00000230: 0280 aa3e ffd0 b5be 42a9 39be d807 1abf
00000240: 8e8c 44bc 7c41 f33e 05ca 173f 463b 1240
00000250: 4c2b c4be 3e7a d5be 9cc8 563e 71a3 5dbe
00000260: 7386 51bc e0d3 76bc f7b5 d63d 2356 953e
00000270: ad70 873e 7551 80bf 925d 0f3e 6f32 c8bd
00000280: e6ea 853f 8475 613e 475a 4dbe f574 a0be
00000290: 1550 0fbf fe8d 1ebf 316f 57bf aca3 a0be
000002a0: 1bb5 3f3e 0b54 603f 159f cdbe 4cea aabe
000002b0: b83a 6b3f aaf3 683e d2bc 0d3f 4765 7e3f
000002c0: e24e 06be dac8 4c3f 7e2b 4d3f e3ba a33e
000002d0: 8294 10bf 0244 103f 8608 583e 61c4 5a3e
000002e0: 7db4 84bf f6c1 20bf 4b51 12bf bc4c c13e
000002f0: eb71 ad3d 2d5b 9f3e 06a5 53bf c4aa 99be
0.28878504 0.555796 0.13039146 -0.42456242 -0.39379647 -0.084275104 0.3160788 -1.1515135
0.1754333 0.19084774 0.93825865 -0.38202024 -0.21677107 -0.41640788 -0.20941724 -0.074420296
-1.1785705 -0.19722313 -0.33118668 0.99774265 0.01370648 0.61207515 1.6207485 -0.09445813
0.4242665 -0.47590512 -0.5323239 -0.6315368 -1.3497372 -0.32711712 1.5942261 0.48900348
-0.07370589 0.730984 -1.3530874 -0.27881777 -0.7307434 -0.6570204 -0.13930963 -0.047703918
1.019736 0.325034 -0.6225106 0.40909117 0.20190755 -0.45897582 0.6575755 0.45984605
-0.389633 -0.89374334 -0.15963176 -0.6496336 -0.7782159 0.021303408 -0.5952597 -0.39625147
-0.10377392 -0.36270204 -1.0320394 -0.19755352 0.086118765 -0.213214 0.6430965 -0.43760327
0.5584058 0.14820433 -0.38471565 0.057035998 0.09571395 -0.6004136 -0.68208903 -0.42998698
0.18627599 1.5873404 0.23130466 0.17112234 0.47324085 0.3506804 0.25614548 -0.088802315
-0.64316905 -0.53994095 -0.9671813 -0.19318973 0.30046883 1.2261657 0.20964007 -0.10529056
-0.30598426 0.01334851 0.45456275 0.34423947 0.5291776 -0.26169214 1.3613815 -0.007272945
-0.099276386 -0.021670297 -0.54835486 -0.42163512 -1.8720312 -0.52524054 0.26778176 -0.6046203
-0.5000075 -0.25940704 9.4777446e-05 0.09650007 0.873933 -0.4870117 -0.43931967 -0.4761541
-0.7708997 -0.16741562 -0.07083461 0.7843055 0.44572595 -0.5225066 0.9611108 0.22082801
-0.2710004 -1.3948244 -0.3499426 -0.12649606 -1.4479568 -0.27190682 1.5015731 0.39385697
-0.6529985 -0.4697608 0.66569567 -0.0014289574 -0.41370302 -0.71267885 -0.49112755 0.23750937
-0.7710936 -0.25951162 0.82887566 0.5663054 0.33300787 -0.35511014 -0.18130973 -0.6016822
-0.0119964015 0.47510898 0.5929263 2.2848678 -0.38314283 -0.41694826 0.20974964 -0.21644379
-0.012788403 -0.015065163 0.10483926 0.2916728 0.26453152 -1.0024859 0.14000538 -0.097752444
1.046231 0.22017485 -0.2005397 -0.3133923 -0.5598157 -0.6193541 -0.8415404 -0.31374872
0.1872143 0.8762824 -0.40160432 -0.3338188 0.9188647 0.227492 0.5536624 0.99373287
-0.13116029 0.79993975 0.8014449 0.3197852 -0.56476605 0.5635377 0.21097001 0.21363975
-1.0367581 -0.6279596 -0.57155293 0.37753856 0.08468994 0.3112425 -0.8267368 -0.30013096

input_layer.bias f4 [64]
00000000: cdab e13e 8894 023f c03a 15be 7bcf debb
00000010: 4d32 53be db84 723d 6ab5 1b3f 0771 343f
00000020: d3ae d33c 0220 14bf 22e9 35bf c177 113e
00000030: f6bb fe3e fc59 27bd 15e6 293f 874e 183e
00000040: 14c4 583e 1f2b 123f 558e e53e d26d ce3d
00000050: 5e25 ed3e 8ab4 b23e 1de4 b23e b2a3 223f
00000060: 2396 87be 3bfa ec3e bce0 5dbe 9bf4 123f
00000070: 7bfa 633d 1300 8e3e ec32 203f 7375 9c3e
00000080: c52d 8dbe 8dd8 b9be 86f2 c43e 45c1 003f
00000090: ec3e 56be 9064 8e3e 7db5 2dbd 69c5 033f
000000a0: 232b 37be cdb7 00be bcc7 41bf 022c d73e
000000b0: 069c f1be dd89 223f ccb9 473e d339 61bd
000000c0: 854f a43e d584 0d3e 8e38 11bf 08e8 173f
000000d0: 4ac7 b8be 9eb9 9b3e e417 d8bc c3d6 0abf
000000e0: 290b 1ebd 47aa 0e3f 72d0 0a3f f3cb 283f
000000f0: 7abf 353f 3eaa 623e 05ff ae3d 1f96 9b3e
0.44076386 0.5100789 -0.14573193 -0.006799636 -0.20624657 0.059208732 0.6082369 0.70484966
0.025840199 -0.5786134 -0.7105886 0.14205839 0.49752778 -0.0408573 0.663667 0.14873706
0.21168548 0.5709705 0.44835153 0.1007954 0.4631757 0.34903365 0.34939662 0.6353103
-0.26481733 0.4628466 -0.2166776 0.5740449 0.0556588 0.27734432 0.625777 0.30558357
-0.27573982 -0.36298028 0.3846628 0.50294906 -0.2092244 0.27811098 -0.04240941 0.514731
-0.17887549 -0.12570114 -0.75695395 0.42025763 -0.4718935 0.6349161 0.1950447 -0.054986786
0.3209192 0.13820203 -0.5672692 0.59338427 -0.36089545 0.30415052 -0.02637858 -0.5423395
-0.038584862 0.5572857 0.5422431 0.659362 0.70995295 0.22135255 0.08544735 0.3038797

hidden_layer_1.weight f4 [64, 64]
00000000: c10d 4d3e eb09 a63d 99b8 80be 4c6f 10bf
00000010: 1c44 863d d2f1 3cbd 8d84 8d3e c954 013d
00000020: c002 cc3c 2666 a03e 8434 683f 56a5 97be
00000030: 738b a03e 4fdc bfbb 3508 963c 0e18 1dbe
00000040: 8925 ed3d d4cb 403e dc59 e23d f14b 583e
00000050: 4165 41bf c12f bbbb 4e87 d13d 06e4 0e3e
00000060: 3406 283e f7bc 0d3d 6309 1c3c 887a cf3d
00000070: e445 463e f602 d73d 8b95 5bbe 58c0 4c3e
00000080: d7c6 b73e 95dd 453e 4b65 b13d 5a7d 773e
00000090: 8fb7 08bf 6c05 153e 1230 09bd 6b31 433e
000000a0: 7ba8 403e 3b64 e5be a793 acbe a848 593e
000000b0: 94d3 f43d be31 9e3b ed4a bb3e dd86 893e
000000c0: 89e2 afbe e2a2 38bf 3877 9fbd 2725 893d
000000d0: 31a2 503e 1210 253e a5ef ad3e 727c a73e
000000e0: 9b29 873d 48ff 0e3e 1f6d 25be d6f7 bc3e
000000f0: fdad 653e 6c23 20bc 0c84 933d 8555 20be
00000100: af79 23bd 9c38 ef3d ae3e ab3c 1452 0cbe
00000110: 7390 f2bd 37c4 503e 47d9 803d d7df f8bb
00000120: 5062 0cbd 8aef c2bd fb19 823e ba03 ff3c
00000130: a5e8 813e affc 463e 0a41 3f3d c11c b83d
00000140: 807e 8f3e 7378 c83d da03 b43d fe92 593e
00000150: 24aa 80be 6143 7b3e d0ca e93d 9307 0a3d
00000160: f0a3 203e b085 333d 4b07 8d3d fcc9 233e
00000170: 799e a23d df15 7f3d 7cad 01be f8d2 02be
00000180: f299 723c d064 883e 9dfb ea3d 4b5f d13d
00000190: 2a41 18be 98bf 833e 3b7c a1be 8818 253e
000001a0: 0238 603e 8454 4f3e 0d8c 4dbd 9a71 83bd
000001b0: b2f3 57be c4e7 ae3d af39 ffbe efae afbc
000001c0: dbb9 37be f7b9 bbbd d832 9e3d 5edf d63d
000001d0: 7426 6f3e 9822 723e e902 0b3e 7c20 f4be
000001e0: 7ed5 063e eaaf 063d 6b17 5cbe 1ad1 0dbe
000001f0: f876 433d 9118 33bd d59f e9b8 b694 873d
00000200: 660b f33d b331 9b3e c264 493e 265d 50be
00000210: 8b12 20be 32fa b23d 3703 a03e c63c 753b
00000220: d3a7 94be 2dd5 52be 5be1 943e f642 65bd
00000230: ebf9 353e fc31 7d3a f513 2c3e 1597 12be
00000240: 4fc3 0f3e 80eb 7a3e 995e d53e ea35 503e
00000250: 8b2c d0be 1d5d 2a3e 1074 8e3e 7665 f03c
00000260: 774b 76bd 799c 9dbd a01c f8bd 639c c03e
00000270: 6bd1 f0bd 2e12 703e d5bf 00bd 5a87 8f3e
00000280: 5de8 3d3d 4861 23be f610 12bd 295f 443e
00000290: 9a82 95be a690 823e 2c8f 0bbf 1aa2 9b3e
000002a0: 4c69 74bd 6c9b 703d d4af 87be 5ebc 603e
000002b0: d0d3 59be e414 073e d13d 0bbf 2695 ab3d
000002c0: c0c0 b6be 967c adbe 1421 773d 08d3 073e
000002d0: ebb8 de3d ce9b b43d 7971 61bd ba69 efbe
000002e0: da55 523e 70f9 f83d 1d42 6fbd 9d27 f6bc
000002f0: f8e3 783e 1716 1bbe 352a 943e 453d 37be
00000300: 4e17 b43d 9ea9 323e fb62 123e 366f aebe
00000310: bd67 82bd 1f0c 213c 8c46 953e 9805 18be
00000320: 813a 25be 96cd 21be 8724 8c3e 6962 a13b
00000330: af6a 0b3e 789a 863e 1d2d 043e dc9d fa3d
00000340: c610 273e 44f0 603d 39ad 373e 836e 213e
00000350: 69e4 5abe 070b 883e 7592 133e 9353 0a3d
00000360: 59b7 843e 2be0 9f3b 4106 b4bd fbe0 ef3d
00000370: 9c51 c43e 8355 8c3d e5e3 2c3c 7408 b03d
00000380: 788b 6b3e 859a 8b3d 6335 1a3e 00a6 833e
00000390: e00c 27be c06b 0a3e 4c75 173e 05d3 993d
000003a0: 6a46 693e f1fa 1e3e ffa1 58be 7d24 743e
000003b0: 7cfd 85bd 66ec 133e 1752 b1bd 79ec 7f3e
000003c0: 5a1f 12be 6259 76bd 93a7 bd3d 8969 1e3e
000003d0: 7511 8f3d b626 6a3e b186 703e 8e96 78be
000003e0: 9f6c 1e3e 32c9 a23e 6a34 f3bd bbca 1b3d
000003f0: bdc6 a33e e91a 403d 4b00 243e 4f29 7cbd
0.20024778 0.081073605 -0.25140837 -0.56419826 0.065559596 -0.046129055 0.2764019 0.031574998
0.024903655 0.31327933 0.9070513 -0.2961833 0.3135639 -0.0058551203 0.01831446 -0.15341207
0.11579425 0.18827754 0.110522956 0.2112272 -0.75545126 -0.00571248 0.102308854 0.13954172
0.16408616 0.03460404 0.009523722 0.10130793 0.19362599 0.10498612 -0.21443765 0.19995248
0.3589389 0.19322808 0.08661898 0.24168912 -0.5340509 0.1455285 -0.03349311 0.1906182
0.1881427 -0.44803032 -0.337064 0.21219122 0.11954418 0.004827707 0.365806 0.26860705
-0.3435252 -0.7212354 -0.07786411 0.06696539 0.20374371 0.16119412 0.33971897 0.32712132
0.065997325 0.1396457 -0.16154908 0.36907834 0.22429653 -0.00977407 0.0720292 -0.15657623
-0.03991097 0.11680719 0.020903911 -0.13703185 -0.11843958 0.2038735 0.06291442 -0.007595043
-0.034273446 -0.09518345 0.25410447 0.031129707 0.25372806 0.19432329 0.046692885 0.08989859
0.280262 0.09788599 0.08789797 0.2124748 -0.25129807 0.24537422 0.114156365 0.03369863
0.15687537 0.043828666 0.06886157 0.1599502 0.079403825 0.062276717 -0.12663835 -0.1277579
0.014807211 0.26639414 0.11473773 0.10223254 -0.14868608 0.25732112 -0.31540093 0.16122639
0.21896365 0.20247084 -0.05018239 -0.06418152 -0.21089056 0.085402995 -0.49848697 -0.02144572
-0.17941992 -0.09166329 0.077245414 0.10491823 0.23354512 0.23646009 0.13575329 -0.47681034
0.13167378 0.03288261 -0.21493308 -0.13849297 0.04772088 -0.0437246 -0.00011140077 0.06620161
0.118674085 0.30311355 0.19667342 -0.20348033 -0.15632074 0.08739127 0.31252453 0.0037420257
-0.2903429 -0.20589133 0.29078183 -0.055972062 0.17771117 0.00096586323 0.16804488 -0.14315446
0.14039348 0.24503899 0.41673735 0.20333067 -0.40658984 0.16637082 0.27822924 0.029345255
-0.060130563 -0.076958604 -0.12114835 0.37619314 -0.11758693 0.23444435 -0.031432945 0.28032953
0.046364177 -0.15955079 -0.035660706 0.19176926 -0.29201204 0.25500983 -0.5451534 0.3039711
-0.05967073 0.05874197 -0.26501334 0.21946856 -0.21272206 0.13191563 -0.543912 0.08378057
-0.35693932 -0.33884114 0.06033428 0.13264096 0.10875114 0.0881878 -0.055039857 -0.4676035
0.20540562 0.121569514 -0.05841266 -0.030048186 0.24305713 -0.15145145 0.2893845 -0.17894466
0.087935075 0.17447516 0.1429557 -0.34069222 -0.06367443 0.00982955 0.29155385 -0.14845884
-0.16135599 -0.15801081 0.27371618 0.0049250615 0.13614915 0.26289725 0.12907834 0.122371405
0.16314992 0.054916635 0.17937173 0.15764813 -0.21376194 0.26570913 0.14411338 0.03377111
0.25921133 0.004879018 -0.08790255 0.117128335 0.38343513 0.068522476 0.010552381 0.08595362
0.23002422 0.06816582 0.15059428 0.25712585 -0.16313505 0.13517666 0.14790839 0.07510952
0.22780767 0.15525414 -0.21155547 0.23842044 -0.06542489 0.14445648 -0.086582355 0.24992551
-0.14269772 -0.060143836 0.09260478 0.15469946 0.069857515 0.2286633 0.2348888 -0.24276182
0.15471123 0.31794125 -0.118752316 0.038035136 0.31987563 0.046900664 0.16015737 -0.061562832

hidden_layer_1.bias f4 [64]
00000000: f483 8a3e 3b2c 3f3e aa2e bd3e 737d 6c3e
00000010: 8def 9c3d f08f 9c3e f4c9 05be 7999 6a3e
00000020: ef15 05bd 754e 4e3e 142d 483e a4ea ca3d
00000030: 4fbf 603e 4599 953e ddb8 c43e fb82 f93d
00000040: 3b70 af3d 53cf 8e3e 7301 2b3d c220 9b3e
00000050: 5058 133e 278c 263e f9bf a73e 23c6 a0bd
00000060: db2b cbbd abfc bd3e 825c d0bd a9e5 ba3e
00000070: 7622 733e 64ad 553e 87fd ab3e 89d6 273e
00000080: 3262 293e 12b4 c73e e363 e03d b3db 3e3e
00000090: 0f5b a3bd 34d2 42bd 3bca 953e ccf4 c4ba
000000a0: 81f7 853e e191 dc3d 9cf7 4c3e f8d2 363d
000000b0: 6722 123e 3d41 233e 219c 223c 4b42 933e
000000c0: 04fb 163e 3742 853e 87f8 103e bfb9 af3c
000000d0: d1b6 d7bd 2a27 8c3e 1aa2 423e b740 d33d
000000e0: 98bb 993d ddd7 a33d 8b1c 173e bf2d 6e3e
000000f0: 6b34 c93e 9848 cd3d ea0e 923e 9a79 183d
0.27053797 0.18669216 0.36949664 0.2309473 0.07662878 0.30578566 -0.1306532 0.22910108
-0.03249162 0.20147116 0.19548446 0.099080354 0.21947978 0.29218498 0.3842229 0.12183186
0.08566328 0.2789255 0.04174943 0.3029843 0.14389157 0.16264401 0.3276365 -0.078502916
-0.09920474 0.37106833 -0.101738945 0.36503342 0.23743615 0.20866925 0.33591864 0.16390432
0.16541365 0.3900457 0.10956552 0.18638496 -0.079763524 -0.047563747 0.29255852 -0.0015026568
0.26165393 0.10770012 0.2001633 0.04463479 0.14270936 0.15942855 0.009924919 0.28761515
0.14744192 0.2602708 0.14157306 0.021450875 -0.10532916 0.2737363 0.1900715 0.10315078
0.07506484 0.08000157 0.14756982 0.23259638 0.39297804 0.10023612 0.28527004 0.037225343

hidden_layer_2.weight f4 [64, 64]
00000000: 8c71 d6bd 5625 813d 698b 39bd cf4c 4e3d
00000010: 83a9 d33c 3bfe 9abd 48b6 3a3d 5e1f 88bd
00000020: 2fad d7bc f2db d0bd 80f4 92bd 99e9 d23d
00000030: 0c8c a73d 6eba fb3d 82cb 90bd 4026 e43d
00000040: a548 493d 2c04 7b3d 8031 713b 869f 8ebd
00000050: 5654 89bd 4a56 3abd f025 38bd 10e3 703d
00000060: de9f c7bd 9422 38bd beac f03d 23ee d5bd
00000070: 758f d2bb 3cc2 3a3d a80b 973c 9247 bdbd
00000080: 4042 0cbe 0a3f 293c ccc3 dcbd 885f cdbd
00000090: 32e9 8a3d 6067 6cbd f14c 6b3d 80ed 10bd
000000a0: 94b1 95bd 0811 943c 173d 0bbe 822b abbd
000000b0: 143d 863c 9e2c e3bd 9891 ca3c d793 c53c
000000c0: 8e3e 423c aa43 aebd 7d6e 5b3d dc11 cc3d
000000d0: 2045 03bc 78ac d5bc c850 02be 80e6 cd3a
000000e0: 40ec e83b 4621 2cbd 0de5 72bd e4ad 39bd
000000f0: 6077 c33c f5fb 0abe 7bf0 19bd 23a1 953c
00000100: 50da f5bd 2e00 f83d 0da7 243e c404 14bc
00000110: 9507 343e bdac b93d a0ab bdbc 4abc 1e3c
00000120: 773e 5e3e 5f91 823c 1000 bd3e 707f ab3d
00000130: dc1f 7e3d 723b 7dbe 8a38 a73e 9e9b 19be
00000140: 6a6e a4bd 80d0 e8bc 2a5d 373e f570 27bd
00000150: 379d 19bd 6802 933d ad8a 6e3f 1d1f a1bd
00000160: b63f 7abf 8693 c8bc d012 b33d 6489 75be
00000170: 27d5 2d3e 50a9 bebe 86f0 b4be 07ed 1b3e
00000180: 6bc8 f63d 917f 253e d424 2f3d 80ca bebc
00000190: 5ee7 c6bd b193 a5bd f9c8 e43e 5f79 80be
000001a0: e870 983d 9334 71bf 32bd 47bd af80 063e
000001b0: cd7a cc3d 6354 503d c687 d0bf f6d2 5cbe
000001c0: efc1 1abb 8841 8d3b a73f e13c 384f 1bbd
000001d0: 71a5 93be 24bf c3be e57f 90bc 39d1 d63c
000001e0: 050a 283e 1774 7f3e 5a88 06be a3b6 0cbe
000001f0: c12f 0f3e 7d05 d7ba c844 b8bd ea40 f8be
00000200: cc4a 1f3e 5e94 c33d a582 5e3e b4dd 013d
00000210: 420e 013e 5683 4a3e 7ca2 43bb 9384 703e
00000220: 7d2b 763e 474c 3d3e b3c2 863e 347f 253e
00000230: ddfc 0e3e 1926 f93c 2dda 223f 8804 61be
00000240: 7cb1 7b3d 5ece 213e ebc3 783e fe19 ef3d
00000250: d444 a83d d27a 613e eecf 8cbe 0348 4abd
00000260: ecd5 f23d a424 a03d e03d 02bc 1afd 923d
00000270: 2ae7 ee3b 6636 3f3e fdca ee3d 88bb 1a3e
00000280: 06f9 893d 63f5 3d3e 3cb0 ddbb c178 703e
00000290: 6e01 603e db4f 223e 49a5 3e3f 2df6 19be
000002a0: da28 f73c c0a7 bebd 068c b53d 7311 4d3c
000002b0: 6a7c 963e 7f3c 153e ecd0 44be 8e38 943e
000002c0: de29 d63d f9d2 903d b08e 283e 7c8f fa3d
000002d0: 03f8 5b3e 9ae1 c2bd d2a2 633d c44e 3cbc
000002e0: 3c33 703e 240e 8f3e ca3c 463e da2e 983d
000002f0: 0a6e c73d 010a 393e c544 8d3e 638e 0abe
00000300: 6400 25bd 5b72 dbbc 7235 db3a ad75 81bd
00000310: 901b 12be 6fd7 8cba 28db eb3c f472 72bc
00000320: 6942 bcbd 9cd3 20be d8d3 a93a cf32 b8bd
00000330: fc2e aa3d 4363 803d 2d10 acbb c89e 23bd
00000340: 1258 8a3d ce28 92bd 7797 9ebd fe83 343c
00000350: c511 5b3d 4d2c 673d 83c0 28bd d08a 00be
00000360: e81f 31bd 52a6 403c d834 e2bc 5c3e aabb
00000370: db0c c03c 81d0 7e3d 11f3 a7bd fb83 5bbd
00000380: 91fe a9bd 4693 a2bd 803d a6bb 3dad d53c
00000390: bf23 bdbd 6edb 8abd d547 ebbd 01ee f4bb
000003a0: 7ca5 373d cd54 88bd 9deb a6bd 35e6 69bd
000003b0: d9a3 2dbe c33d 24be b6a5 683d 0e92 ebbd
000003c0: 02f1 013d 59f8 27bd 1a0a 35be d32b 2cbc
000003d0: 9977 ce3d 52f9 f83c a818 8a3d 9147 e73c
000003e0: da4d 04bd cf79 3a3d bd2a 303d 3223 873c
000003f0: 22f8 b9bc fe53 04be b342 80bd 7428 983a
-0.10470876 0.063059494 -0.045298968 0.05036622 0.025837665 -0.07568022 0.045583993 -0.06646608
-0.026327698 -0.10198201 -0.07175541 0.102984615 0.08181009 0.12291418 -0.07070066 0.11140108
0.049141545 0.061283275 0.0036803186 -0.069640204 -0.06705539 -0.045492448 -0.044958055 0.058810294
-0.09747289 -0.04495485 0.11751698 -0.104458116 -0.006425793 0.045595393 0.018438175 -0.092421666
-0.13697147 0.010329971 -0.10779533 -0.10027987 0.0678276 -0.057715774 0.057446424 -0.035382748
-0.07309261 0.018074527 -0.13597523 -0.08357908 0.016386546 -0.110924944 0.024727628 0.024118347
0.0118557345 -0.08509 0.053572167 0.09964344 -0.008012086 -0.026083216 -0.12726128 0.0015708953
0.0071082413 -0.04202392 -0.05930047 -0.04533185 0.023860633 -0.13572676 -0.037582856 0.018265313
-0.120045304 0.12109409 0.1607935 -0.009034339 0.17581017 0.0906615 -0.023153126 0.009688446
0.21703516 0.015938459 0.3691411 0.08373916 0.062042102 -0.24729708 0.32660323 -0.1500077
-0.08028872 -0.028419733 0.17906633 -0.04087921 -0.037503447 0.07178193 0.9318035 -0.078672625
-0.97753465 -0.024484407 0.087438226 -0.23978192 0.16975842 -0.3723855 -0.35339755 0.15227138
0.120499454 0.16161944 0.04275973 -0.023289919 -0.097120985 -0.080848105 0.4468458 -0.250926
0.0744341 -0.94220847 -0.048764415 0.13135026 0.0998436 0.050861727 -1.6291435 -0.2156485
-0.0023614129 0.0043107904 0.027496172 -0.037917346 -0.2883716 -0.38231766 -0.01763911 0.026222812
0.16410072 0.24946629 -0.13137951 -0.13741545 0.1398306 -0.0016404834 -0.08997494 -0.48487025
0.15555876 0.09549783 0.21729524 0.031705573 0.12603095 0.19776663 -0.0029851487 0.23488073
0.24040027 0.18486129 0.2632042 0.16161805 0.13963647 0.030413674 0.6361416 -0.21974385
0.06144856 0.15801379 0.24293487 0.116748795 0.08216253 0.22019508 -0.27502388 -0.049385082
0.118572086 0.07819489 -0.007949322 0.071771815 0.0072907405 0.18673095 0.11659811 0.151106
0.067369506 0.18550639 -0.0067653935 0.23483564 0.21875545 0.15850775 0.74470955 -0.15035315
0.030170847 -0.093093395 0.08864598 0.012516367 0.29391795 0.14573859 -0.19220322 0.28949398
0.10457204 0.0707149 0.16460681 0.12234399 0.21481328 -0.09515686 0.0555752 -0.011493389
0.23457044 0.27940476 0.19359127 0.07430811 0.09737785 0.18070222 0.2759153 -0.13530879
-0.040283576 -0.026787927 0.0016724302 -0.06321273 -0.14268327 -0.0010745357 0.028791025 -0.014797915
-0.09192354 -0.15705723 0.0012956811 -0.08994066 0.08309743 0.06268933 -0.0052509517 -0.039946347
0.06755079 -0.07136689 -0.077437334 0.0110177975 0.053483743 0.056438733 -0.04119922 -0.12552953
-0.04324332 0.011758404 -0.027613088 -0.005195422 0.02344363 0.062210564 -0.08200658 -0.053592663
-0.08300508 -0.079382464 -0.0050732493 0.026083583 -0.09235334 -0.06780134 -0.1148831 -0.0074746613
0.044835553 -0.066567995 -0.081504084 -0.05710431 -0.16957034 -0.16039185 0.05679866 -0.11502467
0.031723984 -0.041008327 -0.17679635 -0.010508495 0.10081405 0.030392323 0.06742984 0.028232368
-0.032300808 0.045526322 0.04300951 0.016496275 -0.022701327 -0.12922665 -0.06262722 0.0011608736

hidden_layer_2.bias f4 [64]
00000000: 1a4f 8abd 8e8a a33e 6244 993e 6358 0ebd
00000010: 2016 b53e e907 a43e b1f7 a7bd d69a cebd
00000020: 8116 f43d 97ce 893e 6bdf a83e e210 8b3c
00000030: b4b3 f2bd f4a2 9f3e d0a3 ad3e 0cd6 cb3e
00000040: 398f 5b3e bf48 053f efa1 303e 11ce 143c
00000050: ca3f e23e 4a6a cbbd 95be 083f 9cf3 923e
00000060: 1b53 933d 8e69 a33e 8a14 383f 321d b1bd
00000070: 93c0 ac3e af49 e83e fa3c 4fbd 85f9 153e
00000080: 2363 383e e376 e2bc d876 fabd e731 903e
00000090: 1a0f 9c3e a0af b93e 6c09 b73d cfe1 9b3d
000000a0: ac97 ca3e 6c26 ab3e 7716 26be 4366 183e
000000b0: f822 4f3e c8c6 98bd 037c 5b3e 104b fd3e
000000c0: 8283 aabc 4121 e4bd 708b 823e 5cb3 8c3e
000000d0: 1ce3 893e 828a 933e faa9 00be 0646 b83e
000000e0: 7baa a83e 57f7 e0bc 0bba 2b3e 2e0c 543c
000000f0: 065c 973e 7ff2 90bd 62a5 febd 0842 1e3e
-0.06753369 0.31941646 0.29934984 -0.03475226 0.35368443 0.32037285 -0.0820154 -0.10088126
0.11918355 0.26915428 0.32982954 0.016975824 -0.11850682 0.3117901 0.33914042 0.39811742
0.21441354 0.52064127 0.17249273 0.009082333 0.44189292 -0.099323824 0.53415805 0.28701484
0.071935855 0.3191647 0.7190634 -0.08648147 0.33740672 0.45368716 -0.05059526 0.14645965
0.18006568 -0.02764458 -0.12229699 0.28163072 0.30480272 0.36266804 0.08937344 0.07611429
0.3956884 0.3342775 -0.16219507 0.1488276 0.20228183 -0.074597895 0.21434025 0.4947133
-0.020814661 -0.11139155 0.25497007 0.2748059 0.26931083 0.2881661 -0.12564841 0.35990924
0.32942566 -0.02746169 0.16770189 0.012942357 0.29562396 -0.070775025 -0.12433888 0.15454876

output_layer.weight f4 [9, 64]
00000000: 0839 97bd bcf4 47bf 0843 83be 5913 dd3d
00000010: 40d7 85bd c67e 9a3f 531a 92bc 18a6 153d
00000020: d87c 8a3d ffa2 2bbe 1b94 80be b803 82bc
00000030: e00c 233d 828f 28be e17d acbe 16e0 313f
00000040: 6092 acbe de8b 213f e787 cbbd fd33 7f3e
00000050: 4229 f93c c6ec 7abd 51ad 65be d9c7 93be
00000060: b7d5 0fbd d75b 993e 69fc 183f 2755 f23c
00000070: e9a6 74be 81a0 b63e c4d6 30bd f66c 5bbe
00000080: 5809 f7bd e3bd 203d a722 c73a 0e81 3abe
00000090: 7043 adbe cac0 5c3f dd44 3fbd 7d63 cb3c
000000a0: 9c8c 66bf 75fe 38be 2f7a a13d 795c e5bd
000000b0: 49bd 83be cc43 943d 20cb 24be b804 873f
000000c0: fe17 cf3d 7a47 5b3d 7d73 4dbe c7e3 6dbe
000000d0: fd21 16be ed99 a0bd 6a5b e73d 367e a1bd
000000e0: dbbb 3fbe c655 0c3d ec32 b0be 4714 b3ba
000000f0: e199 a4bf 4970 3b3f 1ec6 9a3d 27f3 a4be
00000100: 9578 9abd 7feb 1abf dab3 11be eca0 fc3c
00000110: 2b1b aabc 9b0e 883f ef8b df3d 569f 5ebd
00000120: f06a b23d 8748 96be 1623 9fbe 7689 a2bd
00000130: 0cbc 49bd 71c0 8cbe e3ce 66be 4d04 423f
00000140: 3bc3 afbe 3120 0b3f f8d3 28be 87bd b3bd
00000150: dd35 f5bd 4f6c 723d 4509 a93e db58 5cbe
00000160: 8f25 ecbd 9f26 c23e 4efc 383f a5dd b03d
00000170: 300b f0bd 77fc 723b 911d 893d d6ba 7dbe
00000180: b0e8 8bbe 3d43 06be ec3c 133d 319a 5ebe
00000190: bb78 9dbe 9292 483f 3f51 29bc 23ac 153d
000001a0: ef60 26be e188 9bbe f061 dfbc 9436 5fbe
000001b0: 09c5 4dbe b81f 733d 8e31 74be 77c9 f23e
000001c0: b0a3 2d3d afee 9b3d 0500 78be a124 acbd
000001d0: 4e42 85be 4e28 2bbe 16f5 b1bc 75fd 6cbd
000001e0: d785 70be 4b46 0d3d 4ad8 21be a1ed f0bc
000001f0: c471 8cbf b200 4f3f 30f2 73bc 29bb 22be
00000200: 80d0 59bb 1d4a e5be e44b 93be 2260 7d3c
00000210: 10f5 a5bd 258d 573f 5874 5abd d7d4 ec3c
00000220: 624d 63bc fd20 96be 3546 6abe 8a5e bcbd
00000230: 0028 4a3b ec0e a5be cfcd 2fbe 21c8 1f3f
00000240: 42c7 03be 1f1a 163f da16 2dbe f6f5 383a
00000250: 4b05 31be 6265 e93d 6abf d93d 0fa8 abbe
00000260: beb1 69bc 3768 be3e f6b4 353f ff39 32bd
00000270: 0b0a a4bd 3c6b b53e ed48 e6bc c8c3 53be
00000280: dac2 5cbe 7830 4a3d f140 a2bc 6364 98be
00000290: 14b3 7cbe 9a62 273f a102 f4bc a337 e1bd
000002a0: f38b cabb 2f97 07be 1120 fcbc de6b 7bbe
000002b0: ff1c 61be 8045 e3ba 75bc 94be 92f8 423f
000002c0: 209c 733c f487 b3bd 9457 1ebe 302b 54be
000002d0: 88a1 6bbe 6ba1 aebd ba9e bc3d 4046 78be
000002e0: 240c 50be 8977 b33d 72d0 82be e92f c23d
000002f0: 3612 6ebf db85 5a3f 70d1 e13d 0b02 5abe
00000300: 3076 f83d c030 b3be 3c76 a0bd 735a 723d
00000310: 628d 11be 4c61 253f 9d74 23bc 744a e03d
00000320: 891d 98be a737 96be 8f24 71be 7235 a3bd
00000330: 4022 7a3d 9d6e 98be b6be 23be 4cfb 343f
00000340: a000 6abe bb96 273f 978b 4fbe 2627 873d
00000350: cd1f bebe 4387 ffbd ce9c f23e 07b8 9cbe
00000360: 1790 2a3d 4050 bc3e a272 1a3f c0f3 0f3d
00000370: 7a62 0ebe e5c3 8c3e bd51 b5bd 6de5 62be
00000380: 3a28 55be af9f 883d 1fcd 4cbd 19fe 55be
00000390: 1fa2 84be 2998 1a3f bf6b a2bd 5766 aabd
000003a0: b584 e93e da96 90be 9e44 6dbc 8964 a6be
000003b0: ee82 0abe b258 dcbd 1ac9 a5be e28a f43e
000003c0: d043 a53c dec8 1ebc aeb1 afbd dca0 36be
000003d0: 345d c5bd 4383 35be 6631 f1bd 76b7 83be
000003e0: 255d 0bbe 9b05 db3d 77ec 8abe 8734 193c
000003f0: af39 0ebf 6cff 663f 04bf afbd 2094 36be
-0.07383925 -0.7810781 -0.25637078 0.10794706 -0.06535196 1.2069938 -0.017834818 0.036535352
0.06762093 -0.16761397 -0.25112996 -0.015870914 0.0398072 -0.16460994 -0.33689788 0.69482553
-0.33705425 0.63104045 -0.09938031 0.24922176 0.030415181 -0.06126096 -0.22429396 -0.2886341
-0.035115924 0.2995288 0.5976015 0.02958162 -0.23891796 0.3566933 -0.043173566 -0.21428284
-0.12062329 0.03924359 0.0015192822 -0.18213293 -0.33840513 0.8623167 -0.046696533 0.024827713
-0.900583 -0.18065818 0.07884633 -0.111992784 -0.2573035 0.07239494 -0.16093111 1.0548315
0.10111998 0.053534962 -0.20063587 -0.23231421 -0.14661403 -0.07841859 0.11296733 -0.07885401
-0.18724005 0.034261487 -0.3441385 -0.0013662659 -1.285946 0.7321821 0.07557319 -0.3221676
-0.075425304 -0.6051559 -0.14228764 0.030838452 -0.020764908 1.0629457 0.10915362 -0.054351173
0.08711803 -0.2935221 -0.31081456 -0.07936375 -0.0492516 -0.2749057 -0.22539859 0.7578781
-0.34328637 0.54345995 -0.1648711 -0.08776384 -0.11973164 0.059185322 0.33014885 -0.2151827
-0.11530601 0.3792009 0.72259986 0.08636025 -0.11720884 0.003707675 0.066950925 -0.24778304
-0.27325964 -0.13111587 0.03594677 -0.21738507 -0.30756173 0.7834865 -0.010334312 0.036541115
-0.16247915 -0.30377868 -0.02726838 -0.21798164 -0.20094694 0.05935642 -0.23847029 0.4741933
0.042392433 0.07613885 -0.24218757 -0.08405424 -0.2602715 -0.16714594 -0.021723311 -0.057858903
-0.23488556 0.034490865 -0.15805164 -0.029410185 -1.0972219 0.80860436 -0.014889285 -0.15891708
-0.0033235848 -0.44783106 -0.28768837 0.015464814 -0.081033826 0.84199744 -0.05333361 0.028910084
-0.01387343 -0.29322043 -0.22878344 -0.091977194 0.0030846596 -0.32237947 -0.17168353 0.6241475
-0.1286898 0.5863361 -0.16903248 0.0007055694 -0.17287175 0.1139629 0.106322125 -0.33526656
-0.014263568 0.37188885 0.7097925 -0.04351234 -0.08009728 0.35433376 -0.028110946 -0.20680153
-0.21558705 0.04936263 -0.019806357 -0.2976409 -0.24677688 0.6538483 -0.02978641 -0.1099694
-0.006181234 -0.13241266 -0.03077701 -0.24552867 -0.21983717 -0.0017339438 -0.2905003 0.7616054
0.014868766 -0.087661654 -0.15463096 -0.207196 -0.23010838 -0.08526882 0.09209962 -0.24245548
-0.20317131 0.08763034 -0.25549656 0.094817944 -0.9299654 0.853605 0.11026275 -0.21289842
0.121319175 -0.3499813 -0.078350514 0.05916829 -0.1421409 0.6460159 -0.009976533 0.10951701
-0.29710034 -0.29339334 -0.23549102 -0.07969178 0.06106782 -0.2977189 -0.15990719 0.7069595
-0.22851801 0.6546437 -0.20268093 0.06599264 -0.37133637 -0.12476971 0.47385257 -0.30609152
0.04164132 0.36779976 0.60331166 0.035144567 -0.13904753 0.27493206 -0.08853481 -0.22157831
-0.20816126 0.06671082 -0.050000306 -0.20897712 -0.2590494 0.6038843 -0.07930707 -0.08320301
0.4560906 -0.2824009 -0.014481692 -0.32498577 -0.13526508 -0.10759105 -0.3237999 0.4776221
0.020173937 -0.009691445 -0.085788116 -0.178348 -0.09636918 -0.17725854 -0.11777 -0.25725907
-0.1360975 0.106944285 -0.27133533 0.009350902 -0.5555677 0.9023349 -0.08581355 -0.17829943

output_layer.bias f4 [9]
00000000: fe05 b3be 04a3 70be 4e50 6cbe 4e4b fabd
00000010: bf4c 91be a4ac 4e3d 01b0 59be 3d94 d7be
00000020: 2779 b4be
-0.3496551 -0.23499686 -0.23077509 -0.122213945 -0.28378865 0.05045761 -0.21258546 -0.42105284
-0.35248682
