DQN/data/Apprentice 10.pt (torch, 38472 bytes, 8 tensors)

input_layer.weight f4 [64, 4]
00000000: 58fb 993d 20df e43c 8235 ae3e 7089 e0bd
00000010: 4fb6 9b3e dad0 a6be db29 313e ef72 1cbe
00000020: 8e48 143e 50af 123e b945 503f 1b7e 383e
00000030: 847d c93e eb18 273e c008 44bf 90c7 493d
00000040: 7d9e 403e 007b 4abe 87eb fc3d 29df 8a3e
00000050: 06bc ae3e 1d7f 4cbe 8b68 8bbd 4c0c 793e
00000060: 012a 883e b237 60be d08b 59bd f569 cb3e
00000070: 11b9 f43d 06f1 ad3b 998c f6be a473 1dbf
00000080: 9d25 233e ec53 adbe 9859 c73d cf1d 91be
00000090: 15b2 f4be 36a2 90bd 0979 fb3e ac00 a73d
000000a0: dd30 033f 6482 a7be 4bf6 d2be 592b 233e
000000b0: 797a c63e a526 7bbe 3db0 ca3e bd11 043e
000000c0: f830 c2be a42c 423c 8b80 e13e 76da f7be
000000d0: 2617 0e3e 4d5c ccbd af4f 22bf e34a 3d3e
000000e0: ccc7 553e 3e6c e4be f4b6 86be 94af f6be
000000f0: 20ad 973e d67a 20be 519a 11bf 0b0d 803e
00000100: f454 03be 5d71 073c 4d61 f53e 9d47 a4be
00000110: ace2 923d 44ef 0cbd e154 26bf fd8c 073e
00000120: 3efb b0be 20d2 83be fc2a 203f 6b06 cbbd
00000130: 3116 a63e d48a 9e3e 979b 0cbe 0b8a 113e
00000140: 58c3 833e 10fc 83bd 34e2 093f 835e cd3e
00000150: 8f3c adbc 6b44 c1be b377 62be f4a7 79be
00000160: 0660 62bd 22f3 953e 2ae9 46be c2dc 393e
00000170: 259c 38bd 26e8 973e 83ad 463e 34e1 953e
00000180: 767b 89be 4ea0 87be d423 203e 42f3 f6be
00000190: b8e8 503b 558b d1be 5f61 cdbe a760 ccbe
000001a0: 103b e9bd a8bd d93d 2493 3a3e 18d0 c43d
000001b0: 2985 65be 1c63 c03e 09d9 aabe 52b0 aebe
000001c0: e157 8dbe a0da cfbd bc95 a63e f980 a63e
000001d0: a966 b43c 13ed 07be cbbe 06be f54a debe
000001e0: 4009 a8be 6104 90be fcd0 89be e95a 0b3c
000001f0: 57f6 2e3d 1c7a 9abe a95f 423f 8c28 e5bc
00000200: d7ca e8bd faad c3be 9f14 fcbe 25a0 cabe
00000210: e829 f83d 0ce3 01be 01a2 93be d7fd 89be
00000220: ce74 a1be 3d40 d53e 4bd8 de3e 15bc 653e
00000230: 1197 e33e 653b eabc e138 0a3f a58f efbe
00000240: a0b6 b73d 1c43 dc3d 139c ca3c ed34 edbe
00000250: 7ba1 62be ab51 00bb 2703 29be fb95 983e
00000260: 653e 9b3e 2b79 2e3d af61 97be 6011 b6bb
00000270: 79dd e6be 5286 eb3e 3e08 8d3e 28d4 743e
00000280: 706b 193d 2639 80be 4cbf b23e 7451 0bbe
00000290: 2933 bebe 8547 cdbe d80c e73e e806 cd3e
000002a0: cb05 3dbe 0cc4 653e 7c6e 053e 1718 b7be
000002b0: 169a 6c3d 4854 a2be ee03 85be dcd3 94be
000002c0: fde8 88bd eb64 cb3e 1630 b63e c3fd b7be
000002d0: 218d 9ebe 7214 64bd efde 5f3b 1871 783e
000002e0: 8477 c2be d6bf 6d3e b01c ddbe cc11 83bd
000002f0: eceb 393e 244b 83be 5a60 ac3e 6a51 82be
00000300: ab5b 85bd aff8 a63e f880 08bf e505 0bbf
00000310: 8ceb 933e 9c34 cebe a328 2d3f 074b 703d
00000320: 9105 87be c6cd e23e 3da0 0e3f ccce 9d3e
00000330: 26b2 043e 5a53 68bd e9fd 81be ba6f 9dbe
00000340: 34b8 043f 4f63 a7be af85 eebe 108e b43e
00000350: 36d6 40bd 08d6 1bbe 8b52 803e 2abb babe
00000360: e0d8 ef3e 24a3 8abe fc71 aabe 23d4 7e3e
00000370: 0219 95be fe0f e8be d6a2 a2be 0618 b7be
00000380: c56d 433e 4883 e03d 89c8 62be f340 bbbe
00000390: bed2 f03e 60e4 1dbd ef2d 50bf 9a1d fb3d
000003a0: c2a4 97be d52b 1ebd 4af6 8dbe 5171 d53e
000003b0: 8f39 b0be 27e5 86be 2523 c0be 8dd9 0cbf
000003c0: 91d7 43bd 4206 edbe 7baf d9be a8fc 2cbe
000003d0: dc20 bc3e a60e c53c d8d1 d73d 9b52 c73c
000003e0: 98ca ee3e 2ad9 06be 42ce ce3e 34c2 9f3e
000003f0: 08e5 5fbe f86f cfbd b0e4 863d 5ca1 a0be
0.07518643 0.027938426 0.34025198 -0.10963714 0.30412528 -0.32581216 0.17301123 -0.15278219
0.14480802 0.14324689 0.8135639 0.18016855 0.39353573 0.16318099 -0.7657585 0.049262583
0.18810458 -0.19773483 0.12349611 0.27123383 0.34127825 -0.19970365 -0.06807049 0.24321097
0.26594546 -0.21896246 -0.05311185 0.39729276 0.11949361 0.0053082732 -0.48154142 -0.6150458
0.15932317 -0.3385309 0.097338855 -0.28343055 -0.47792116 -0.07062189 0.4911578 0.08154425
0.51246434 -0.32716668 -0.41203532 0.15934505 0.38765314 -0.2452646 0.39587584 0.12897392
-0.37927985 0.0118514635 0.44043383 -0.4840886 0.13876018 -0.099785425 -0.6340284 0.18485598
0.20876998 -0.44613832 -0.26311457 -0.4818083 0.2962427 -0.15671858 -0.56876093 0.2500995
-0.12825376 0.008266774 0.47925797 -0.32085887 0.071721405 -0.03440787 -0.64973265 0.13237377
-0.34566683 -0.2574625 0.6256559 -0.099133335 0.32438806 0.30965292 -0.13731228 0.14212815
0.25734973 -0.064445615 0.53860784 0.4011117 -0.02114704 -0.3774751 -0.22115974 -0.24380475
-0.055267356 0.29287058 -0.19424883 0.18150619 -0.045070786 0.29669303 0.19402127 0.2927338
-0.26852006 -0.2648949 0.15638667 -0.48232466 0.0031876992 -0.40926614 -0.4011335 -0.3991749
-0.113882184 0.10631877 0.18220192 0.09610003 -0.22414078 0.37575614 -0.3336871 -0.34118897
-0.2760611 -0.10149121 0.32536113 0.32520273 0.022021608 -0.1327403 -0.13158719 -0.43416563
-0.32819557 -0.2812834 -0.26917255 0.008505561 0.042715397 -0.30171287 0.75927216 -0.027973436
-0.11366814 -0.3821867 -0.49234483 -0.39575306 0.12117368 -0.12684268 -0.28834537 -0.26951477
-0.31534427 0.41650572 0.43524393 0.22435029 0.44451192 -0.028592775 0.5399304 -0.4678928
0.0897038 0.107549876 0.024732625 -0.46329442 -0.22131912 -0.0019579928 -0.16505109 0.29801926
0.3032104 0.042596024 -0.29566714 -0.0055562705 -0.45090845 0.46000916 0.2754535 0.23909056
0.037455976 -0.250436 0.34911573 -0.1360529 -0.37148407 -0.40093628 0.45126987 0.40044332
-0.18459241 0.22438067 0.13030428 -0.35760567 0.057764135 -0.31704926 -0.2597956 -0.29067886
-0.06685064 0.39725432 0.35583562 -0.35935792 -0.30967048 -0.05568356 0.0034159978 0.24261892
-0.37981808 0.23217711 -0.4318595 -0.06399879 0.18156403 -0.25643265 0.3366726 -0.2545274
-0.06511625 0.32611606 -0.5332179 -0.5430587 0.28890646 -0.40274513 0.6764013 0.0586653
-0.26371434 0.44297618 0.55713254 0.30821836 0.12958583 -0.056720115 -0.2538903 -0.30749303
0.5184357 -0.32692954 -0.46586367 0.35264635 -0.047079287 -0.15218365 0.25062975 -0.3647092
0.4684515 -0.2707759 -0.33290088 0.24885611 -0.29120642 -0.453247 -0.3176486 -0.35760516
0.19084843 0.1096254 -0.2214681 -0.3657299 0.47035784 -0.038547873 -0.8132009 0.122615054
-0.29617888 -0.03861602 -0.27726966 0.41688016 -0.34418914 -0.26346704 -0.37526813 -0.55019456
-0.047813002 -0.46293837 -0.42516693 -0.16893256 0.3674382 0.024054836 0.105380714 0.024331382
0.46638942 -0.13168779 0.40391737 0.31202853 -0.21864712 -0.10128778 0.065865874 -0.31373107

input_layer.bias f4 [64]
00000000: aab4 c5be 7e9c 963e 036f e9bd 3bd0 713e
00000010: d1a3 2c3a 8ebf 7dbe a621 9f3d fe72 c53d
00000020: 19fa 313e e18f 4abe c121 86be f3c5 ad3d
00000030: c3e4 d23e 4991 0f3e 5c75 6ebe a115 063e
00000040: 63e2 fc3c 121d c43e 39e1 dc3d 291a 9d3e
00000050: f9a3 0e3e ec6b af3e b27a 853e e74b c0bc
00000060: 686b cebe f16e c73e 1ef3 d5be 25b0 8d3e
00000070: 1bab f3be f6a0 8d3e 6fbe a4be b64b b7bd
00000080: 4913 8e3e ae5d ad3e d8fa c03d 31b0 2fbd
00000090: 5313 aabe bd3b 6e3e f944 cb3d 8794 92bc
000000a0: 1428 8bbe afa7 023e 1b91 17be 637d 853e
000000b0: 16b7 863e 88af 9c3e bf58 5d3d d814 cfbe
000000c0: 7bcb 05bf 839d 893e 33bc 293e 5eb1 a93e
000000d0: b501 eebe b1f8 c63e 20df e6be 30da a2bd
000000e0: 3c7b bb3e b47f 5c3d bb2e e6bb dc94 3fbd
000000f0: fcc9 fc3d c0f9 ee3e ac7a 45be 1ee1 dabe
-0.38614398 0.2941627 -0.11398127 0.2361459 0.000658569 -0.24780104 0.0777009 0.09641074
0.17380561 -0.19781448 -0.26197627 0.084850214 0.41190156 0.14020266 -0.23286957 0.13094188
0.030869668 0.3830343 0.10785145 0.3068402 0.13929738 0.34262025 0.26070172 -0.023473693
-0.4031632 0.3895183 -0.41787046 0.2767345 -0.4759148 0.27661866 -0.3217654 -0.089499876
0.27749088 0.33860534 0.09422845 -0.04289264 -0.33217868 0.23264976 0.09925265 -0.017893089
-0.27179015 0.12759279 -0.14801447 0.26072225 0.26311558 0.3060267 0.054039713 -0.4044559
-0.5226361 0.26877984 0.16575699 0.33143133 -0.46485677 0.3886161 -0.45092106 -0.07951772
0.36617458 0.053832725 -0.0070246137 -0.046772823 0.12343213 0.4667492 -0.19285077 -0.42749876

hidden_layer_1.weight f4 [64, 64]
00000000: 5235 e03d ce1b 533c fb32 1bbe c380 c13d
00000010: f1d7 85bd f8a0 19be 7d61 e8bc 43c8 73bd
00000020: 6970 e13b 52be 6bbd 9521 f7bd 1e9a f73d
00000030: 10eb 923c da32 a3bd c4c1 c73d da02 21be
00000040: 63bc 3a3d e004 873d 7a0e 813b 0813 9e3d
00000050: 91c6 693c 830f 50bd 8ed9 c93d 1002 d4bd
00000060: 48aa a3bc 8227 f3bb e846 dabc e814 573d
00000070: 92b0 113d befe ca3c 80f8 b73d 7577 65bd
00000080: a778 f33b 3283 7f3d f006 c53d 563d ce3d
00000090: 05bd 153e 2de5 383d cc22 77bd 3a01 e8bd
000000a0: 00bc b8b9 2886 75bb b6cc 0fbc ed1b a0bc
000000b0: bcff 1e3d 76be c1bd a300 b23d 80c3 df3a
000000c0: 5813 6c3e a129 a23d 678f 683d 3140 85bd
000000d0: 1217 1f3c 5d71 cfbd 8399 8d3d c0df 99bb
000000e0: d88c 7c3d 569c 8cbc 9ad6 b2bd 4c1c 1bbc
000000f0: 383a 8dbd dc47 18bd ed29 4cbc 8418 b53d
00000100: 4083 473d c639 583d 95ec a13e ddeb 11be
00000110: eb10 a33d 08bf e3bc 62e9 ea3d d2cb 5dbe
00000120: 720d 083e a419 773d dd51 c83d 6dab 603d
00000130: 3217 ca3d 906b c2bd 08e2 97bd 8709 86bd
00000140: ca0c ee3d b89c c8bd b1a6 6abd ade2 09bd
00000150: ad02 c03d d779 ffbc 4c56 a83c 36a4 d03d
00000160: 64bd 0fbd 6714 91bd 4eed 913d 8888 d6bd
00000170: 0142 62bc 917f b53d 1d0a 913e 5359 a93d
00000180: f783 afbd 5707 ae3d 491e 063e c3b6 4d3d
00000190: 2bd7 fabc 2851 d7bc 8714 683d fadf 0e3e
000001a0: 1882 24bd 9eea eb3d 4042 e43d 4c0a ba3c
000001b0: 7c74 64bd 4aca 433d e3c0 e1bb c4c5 293d
000001c0: 7536 e53c 4d2c babd c21c 16bc 0126 b9bd
000001d0: 7f60 003e 90f7 30bd dc48 91bd be23 8e3d
000001e0: de82 5a3d 5b4e 1a3d fb44 c43d 23bf e33d
000001f0: 4d8a 633c 5ed5 abbd 07ae 70bd d6ca e43d
00000200: 7ca6 6fbd 0f60 9e3d d164 81be 3a42 013e
00000210: 4e7b ac3c 0cd6 9cbc 8687 8f3b a373 82bd
00000220: cc2f cc3d 0f67 3fbe 94f0 b13c 3e72 cabd
00000230: 7f03 bbbd 0440 153e 5ecb b13d 8570 23bc
00000240: ae79 9e3d c425 73bd 7b11 453d 7322 c3bd
00000250: 93c9 a1bd d0e9 e9bc 3aa5 f83c 4d57 ccbd
00000260: 14e4 9f3d 9ae4 8ebc d853 483d 7144 b5bc
00000270: c01b 48bc dc94 9d3d cc75 83be 4d9a cfbd
00000280: b57a 8abc 3cb3 88bc 7cd5 38bd 58fc 6e3d
00000290: e317 9dbc cec2 f83d c2ed b93c dffe 19bd
000002a0: da98 ebbd 55b6 33bd 5f31 a5bd 7c89 a83d
000002b0: 6f0d 3cbc 1e05 353d 9bdc 523e 9cf3 2e3d
000002c0: 5f38 28bd 749a 983c 75e8 69bd 1c6d dc3b
000002d0: 24f7 a93d 3dec 0f3d 8e6b 473d c00f 19bb
000002e0: a660 d3bd e2c6 86bd 388f ce3d beee d13d
000002f0: 10ac bf3d aaee 4a3c 6fae 1fbd 50f2 343d
00000300: 70ea 98bd 62e7 de3d 0038 d4be f69a 003e
00000310: ec5e bbbd 4949 06be ad04 0e3d 04fb 213e
00000320: 13cb c3bb 9c73 3abf e37f 913e 28e6 9f3d
00000330: 44b9 2b3d b0f1 f13d 68b7 be3c 1ec8 bdbc
00000340: a9df 94ba ad52 963d 9a74 323d 8710 b13c
00000350: 9d89 56bd 8f4c 803c 7e0f 9bbd 4ee9 e0bc
00000360: c05d 8f3b a82a a23d 6e21 bfbd d298 403d
00000370: fc2f bebe f3c6 23be 36ec bebc ec9c 63be
00000380: 3453 89bd e623 95bc 7b76 7bbd 2dc1 5d3d
00000390: baea a339 e180 babc 04cf 5e3d f674 7fbe
000003a0: dabe 85bd 94b9 dbbb 74b9 723b 96c3 de3d
000003b0: bdac b7bd 2b71 9bbd 8cdb 793e 76ca ae3d
000003c0: 6d81 123e f08d a1bd 0f74 263d 5083 df3b
000003d0: 77e2 673d 767a 0a3d 143e 593d 6e71 f23d
000003e0: 9986 153d cb6a 16bd 09c6 f4ba 6c45 2b3e
000003f0: eeb6 a93d b44e ff3d 377c de3c 54c4 98bd
0.1094767 0.012885047 -0.15156166 0.094483875 -0.06535328 -0.15002811 -0.028366799 -0.059517156
0.0068798554 -0.05755455 -0.12066952 0.120899424 0.017934352 -0.079686835 0.09753755 -0.15723744
0.045589816 0.06592727 0.0039384933 0.07718474 0.014268533 -0.050796043 0.098559484 -0.10351956
-0.019978657 -0.007420481 -0.026645139 0.052510172 0.03556878 0.024779674 0.089829445 -0.056022126
0.0074301544 0.062380977 0.09620464 0.10070293 0.14622886 0.045140434 -0.06033592 -0.11328359
-0.00035235286 -0.0037463997 -0.008776834 -0.019544566 0.038818106 -0.09460156 0.08691528 0.0017071813
0.23054254 0.07918096 0.056777384 -0.06506384 0.00971009 -0.10129044 0.06914046 -0.0046958625
0.061657757 -0.01716439 -0.08732338 -0.009467196 -0.0689587 -0.037177905 -0.012461168 0.088425666
0.048709154 0.052789472 0.3162581 -0.14250131 0.07962211 -0.027801052 0.114702955 -0.21659783
0.13286379 0.060327187 0.09781239 0.054850984 0.098677054 -0.09493172 -0.07416159 -0.06544786
0.11623533 -0.09795517 -0.057287876 -0.03366344 0.0937551 -0.031186027 0.020548962 0.10187571
-0.035092726 -0.070839696 0.071253404 -0.1047526 -0.013809682 0.08862222 0.28328028 0.0826899
-0.08570092 0.08497494 0.1309749 0.050223123 -0.030620178 -0.026283816 0.0566602 0.13952628
-0.04016313 0.11519359 0.11145449 0.022709988 -0.05577515 0.04780034 -0.006889449 0.04144837
0.027980069 -0.09090481 -0.00916213 -0.09040452 0.1253681 -0.043204844 -0.07093975 0.06940411
0.05334746 0.03767238 0.095834695 0.11120441 0.013887954 -0.08390306 -0.058759715 0.111715004
-0.05850838 0.077331655 -0.2527223 0.1262292 0.02105489 -0.019145034 0.0043801693 -0.06369712
0.09970054 -0.18691657 0.021721162 -0.09885071 -0.09131526 0.14575201 0.08681367 -0.009975557
0.07738052 -0.059362188 0.048112374 -0.09528055 -0.07899775 -0.028553873 0.030352224 -0.09977589
0.07807174 -0.01744299 0.048908085 -0.022127362 -0.012213647 0.07694408 -0.2567581 -0.101368524
-0.016904214 -0.016687028 -0.04512547 0.058346123 -0.01917643 0.12146531 0.02269638 -0.03759658
-0.115037635 -0.043875057 -0.080660574 0.08229348 -0.011477812 0.044194333 0.20591967 0.042712793
-0.041069385 0.018628336 -0.057106454 0.006726874 0.082990915 0.035137404 0.048686557 -0.0023355335
-0.103211686 -0.06580903 0.100859106 0.102506146 0.0935899 0.0123860035 -0.038984712 0.0441764
-0.074665904 0.108839765 -0.41448975 0.12559113 -0.09148964 -0.13113894 0.034672428 0.15818411
-0.005975136 -0.72832656 0.28417882 0.07807571 0.04192473 0.11813676 0.023280814 -0.023166712
-0.001135816 0.07339988 0.04356823 0.021614326 -0.052377332 0.015661506 -0.07571314 -0.027454998
0.0043751895 0.07918292 -0.09332548 0.04702074 -0.37145984 -0.15993862 -0.023305994 -0.2222783
-0.06705323 -0.018205594 -0.06139229 0.054139305 0.00031264668 -0.022766532 0.054396644 -0.24946961
-0.06530543 -0.0067054722 0.0037036808 0.10877149 -0.08968494 -0.075899445 0.24400157 0.0853471
0.14307185 -0.078884006 0.040638026 0.0068210736 0.056612458 0.033808194 0.053037718 0.11838041
0.036505315 -0.03672294 -0.0018674742 0.16725701 0.08286844 0.12466183 0.02715884 -0.074593216

hidden_layer_1.bias f4 [64]
00000000: cf04 5ebd f57d ef3c b7e8 9b3d 9065 9b3d
00000010: d8b1 69bd b0f4 1abd 9888 a6bc c0f3 d33d
00000020: 7378 83bc 3959 453d 9843 843d 1e12 1b3b
00000030: 609c c03c 7cce 0fbd 5ec4 fb3d 90c8 9fbc
00000040: 40f9 413b 4c9a 3b3d 2f68 503d 0c84 633c
00000050: 5975 f8bc 6220 eabd e9c5 2dbd 4d47 a83c
00000060: 986e 72bd 3852 0ebe 8507 073d eaae 76bc
00000070: 8abf 2b3d 8c09 39bd d619 efbc c2ad 42bd
00000080: 78d4 cfbd 7824 8e3d 6c3f 14be 133e 50bd
00000090: 7f68 b43d f753 cebd 38d2 edbc 017c 1d3d
000000a0: 05a1 a1bd fa7f 0a3d 2920 f3bd 40a2 4cbd
000000b0: 33d1 593c 32ec 8ebc 893e b2bd ad5b f93c
000000c0: b6c2 a6bd d8ed aa3d 6c3e 113d 93fd 543d
000000d0: bfef b63d c0bb ab3d 2077 a0bb 789b f3bc
000000e0: 8238 523b 1228 10be 8984 e23d b63d 97bd
000000f0: 8741 5b3d e5a4 f2bd f0ac 4ebd c272 093d
-0.054203805 0.029234866 0.07612746 0.07587731 -0.05705437 -0.03783101 -0.020328805 0.10349226
-0.016048646 0.048180792 0.06458205 0.0023661922 0.023512065 -0.03510903 0.122933134 -0.019504815
0.0029598027 0.045801446 0.050880607 0.013886463 -0.030329393 -0.11431958 -0.04242507 0.020541811
-0.0591875 -0.13898551 0.032966156 -0.015056351 0.041930713 -0.04517512 -0.029187124 -0.04752899
-0.10147947 0.069405496 -0.14477319 -0.05084045 0.088089935 -0.10074609 -0.029030904 0.038448337
-0.0789204 0.033813454 -0.118713684 -0.04995942 0.013294506 -0.017446611 -0.08703334 0.030439222
-0.08142607 0.08346146 0.03545992 0.05199964 0.08932447 0.0838542 -0.0048970133 -0.02973722
0.0032077138 -0.14077786 0.11060435 -0.07384817 0.05352929 -0.118478574 -0.050457895 0.033556707

hidden_layer_2.weight f4 [64, 64]
00000000: 21b7 273e a8f7 d0bd 4552 a13c f6d9 84bd
00000010: 25d6 04be 406e f2bb 16e1 94bd dfd9 3bbd
00000020: deec 8cba ea59 5d3c fefb 2cbd 98a1 38bd
00000030: 7095 17bd 8ce4 f63d c014 b03d 5ef6 94be
00000040: 7874 f6bc 1b1e d53c b783 43ba e23b 953d
00000050: 0060 023e 546e d0bd d215 83be d6b1 0b3b
00000060: 2e3a d9bd f233 43bd d6bb c83d dc85 b63d
00000070: f67b f5bd 5cb9 c43d 0474 29be 9102 e1bd
00000080: 7423 4abd 8835 32be d03d 25b8 bb97 bebb
00000090: 8405 37bc 571c 813d 48dd e53c 48f6 e7bd
000000a0: 884f 5bbd 7ac8 a7bd aa32 f63d ab78 43be
000000b0: c18d 87bd de01 62be ee6c 08bc 6e6a 56bb
000000c0: 975e 513d 97b9 f8bd f8ba b63d 9e97 b83c
000000d0: 8b80 babd 2091 99bd c09a db3c 85fa c7bd
000000e0: 4455 a53d 511d 8ebd 29a9 d53d e0bc c8bb
000000f0: 7104 923c ea5a 523d ac0a 42bd 9fcb 093e
00000100: ee1d dc3c 389e f8bc 45fc ba3b 7dd3 e3bb
00000110: ed5b acbb a80b 693d c0ed 263b 274f f5bd
00000120: 07e0 4cbd ded7 9f3d 883e 4b3b 5760 693d
00000130: 9e84 c0bd e1f2 f2bd bff8 453d eb65 543d
00000140: 7881 f8bd 42b7 a5bd 51de ae3d 589c afbd
00000150: a43b 57bd 2800 66bd 6927 3bba ea51 673d
00000160: 11b5 09be ea85 ffbd e10a 80bc 8e53 d03d
00000170: 8f97 c2bd 86ad ef3d f5de 3a3d 4043 35bd
00000180: e62b dcbd 3c97 e43d 68bd 763d 34df a13b
00000190: e907 dbbc 03ad cabc d28b d0bd a0c3 573c
000001a0: ea5d ecbd e05d b93d 77e3 813d 7cfc 20ba
000001b0: aa31 6d3c a3f4 4bbd 9a8a 03be 77cd 5d3d
000001c0: 824c c6bd 92c4 4c3d be94 bd3d 1ad8 b53c
000001d0: 8999 6b3d 95be edbd 201d 40bd 9088 a6bc
000001e0: 00bb cbbc ee1d f73d d457 c23d 3f2e a53d
000001f0: c59d af3d 640c 873d f6c3 ad3d 1fc1 5e3d
00000200: 8023 fb3d 2cb8 1e3d a442 e43d 00c9 643a
00000210: 74dd 44bd 8641 cd3d 822e 9b3d e00b c93b
00000220: 5020 7c3c d8f2 bdbd c811 703d 041b 7ebd
00000230: e899 e13c a041 38bc 24f4 3a3d 4036 8d3b
00000240: 58c9 de3c 1e50 f5bd 7019 41bc c06f 013d
00000250: c476 833d 94ed 1e3d 9063 82bd d084 1e3c
00000260: 4840 b3bc 1c06 55bd e676 cfbd 4837 d9bc
00000270: 7ce4 bebd a4c2 1a3d a01a 58bc a09c 023c
00000280: 68de d93c c402 443d a03f 74bc 4807 d93c
00000290: 847f 3ebd be90 9f3d c2eb f93d 50f2 1a3d
000002a0: e4d4 033d 0835 57bd ae5a 89bd 70fa 9cbd
000002b0: 5454 b0bd 1466 b7bd 3017 d5bd 605e 1fbc
000002c0: 000b 5ebd 40ad 18bb 7c9d 873d c425 d3bd
000002d0: 8227 c9bd b0cc 58bd d4fe 193d 70e2 543c
000002e0: 08be 02bd 445d c2bd dc9a c63d 125f 96bd
000002f0: e84a e2bc f878 f13c 2034 59bd a8c2 863d
00000300: 2985 29bb ac39 ecbd 1812 0e3e 9705 8abd
00000310: f5de 0cbe 345b 86bd 2e5d c93d f58c 163e
00000320: 4b29 ea3d ee7e f7bd d66b 043d 3ac6 fdbd
00000330: 077b ee3d 3df8 dc3d a2da a33d 9daa 11be
00000340: c015 9fbb 5f8c 923d b4c5 b4bd a9c8 9fbb
00000350: fe4a 323d d0c8 233d bfa6 13be 1586 b23d
00000360: 82ad b7bd 6052 d3bc f655 1abd c41b 47bd
00000370: 7999 153e aa68 aa3d 7847 cabd 0d02 84bd
00000380: 826d d0bd 669a ccbd 22cc 49bc 79df fa3c
00000390: 4451 b23c 5268 a2bd babc e63d 39ce 083d
000003a0: 13c6 23bd 473b 243e 8075 a3bd 5026 67be
000003b0: 9e82 9f3d 118f 88bd 8370 47bd 1f54 693c
000003c0: ff45 a3bd 62a1 f53d 26a2 b2bd d287 4ebc
000003d0: 42cc 94bc 939a cb3d 8a02 d33d d8b8 d6bc
000003e0: f3f7 cc3d 8426 c4bd 8331 d23c 9c34 e3bd
000003f0: dfa6 d63d ba96 a6bd e73f 163e 85e1 b73d
0.16378452 -0.10203487 0.01969255 -0.06486885 -0.12972315 -0.0073983967 -0.07269494 -0.045862075
-0.0010751744 0.013510207 -0.042232506 -0.045075983 -0.03700775 0.120553106 0.08597708 -0.29094213
-0.030084834 0.026015332 -0.0007458287 0.07286812 0.12731934 -0.101772934 -0.25602585 0.0021315715
-0.106068 -0.04765696 0.09801452 0.089122504 -0.11986534 0.09605667 -0.16548163 -0.10986818
-0.049350217 -0.17403233 -3.9396633e-05 -0.0058164275 -0.011170749 0.063042335 0.028059617 -0.11326271
-0.053542644 -0.08192535 0.12021382 -0.19089 -0.06618834 -0.22071025 -0.008326752 -0.0032717246
0.0511156 -0.121447735 0.0892238 0.022533234 -0.09106549 -0.074983835 0.026807189 -0.0976458
0.08072904 -0.069391854 0.10432655 -0.0061260313 0.017824383 0.051356234 -0.04737346 0.13456582
0.02686974 -0.030348882 0.0057063424 -0.0069527016 -0.005259982 0.056895882 0.00254713 -0.11977988
-0.050018337 0.07804845 0.0031012613 0.056976642 -0.09400295 -0.11862732 0.048332926 0.05185501
-0.12134069 -0.08091594 0.08538497 -0.08574742 -0.052547112 -0.056152493 -0.00071393565 0.056474604
-0.13447978 -0.12476714 -0.015630187 0.10172187 -0.09501564 0.11703019 0.045622785 -0.044253588
-0.107505605 0.11161658 0.060239226 0.004939938 -0.02673717 -0.024740702 -0.101829186 0.013169199
-0.1154135 0.09051108 0.063422136 -0.0006141139 0.014477173 -0.04979385 -0.12845841 0.054151025
-0.096825615 0.04999215 0.09256886 0.022197772 0.05751947 -0.11608616 -0.046902776 -0.02032879
-0.024869442 0.120662555 0.09489408 0.08065461 0.08575014 0.0659416 0.08484642 0.054383393
0.122626305 0.03874986 0.11145523 0.0008727461 -0.048062757 0.10022263 0.0757723 0.006135449
0.015388563 -0.092748344 0.058610708 -0.062037483 0.027539209 -0.011246115 0.045642987 0.0043094456
0.027195618 -0.11978172 -0.01178585 0.031600714 0.06419137 0.03880079 -0.06366646 0.00967522
-0.021881238 -0.05200778 -0.101301 -0.026515618 -0.09320924 0.03778328 -0.013189942 0.007971913
0.02659531 0.0478542 -0.0149077475 0.02649273 -0.046508327 0.07791279 0.1220317 0.037828743
0.03218545 -0.05254081 -0.06706749 -0.07664955 -0.08609834 -0.08955017 -0.10404813 -0.009727091
-0.05420971 -0.0023296624 0.06621835 -0.103099376 -0.09821989 -0.05292958 0.03759654 0.01299344
-0.03191951 -0.09490445 0.09697506 -0.07342352 -0.027623609 0.029476628 -0.053028226 0.065800965
-0.0025866723 -0.115344375 0.1387409 -0.067393474 -0.13756926 -0.06560364 0.09832226 0.14702208
0.11433657 -0.12084757 0.032329403 -0.12391324 0.11644559 0.10789535 0.08000685 -0.1422524
-0.0048548877 0.0715568 -0.088267714 -0.0048762155 0.04352855 0.03998643 -0.14419077 0.0871698
-0.08968641 -0.025796115 -0.037679635 -0.048610464 0.14609326 0.08320744 -0.09876913 -0.06445704
-0.10177137 -0.09990387 -0.012316735 0.030624138 0.021767266 -0.07930054 0.112664655 0.033399794
-0.03998382 0.16038238 -0.07981396 -0.22573209 0.07788585 -0.06667913 -0.048691284 0.014241247
-0.07972335 0.11993672 -0.087223336 -0.012605624 -0.018163804 0.09941592 0.10303219 -0.026211187
0.1000823 -0.09577659 0.025658375 -0.11094019 0.10481047 -0.081342176 0.14672814 0.08978561

hidden_layer_2.bias f4 [64]
00000000: 3799 613d 4b5d febd f088 cdbd b0f1 5abc
00000010: a4cf d9bd 0f96 623b 949a b9bc 3c96 f13d
00000020: 5aae ba3c e08e 113d 0a39 d5bd f434 833b
00000030: d228 67bd 14ba 5b3d 4555 5c3d 11e1 093d
00000040: 9582 5c3d e14e 5a3d 8afd fdbd e11a 18bd
00000050: b7f3 123d 8604 d73d 04b7 dd3d 967a 07be
00000060: 0014 68bc df83 e8bd d60b c9bd 25aa 873c
00000070: c7b1 7dbc c2c9 15bd 87e5 0b3d 18a7 a83c
00000080: 3dc7 93bd e79c 283c 1020 913d bb54 af3d
00000090: 9e07 ca3d d3d9 983d 5647 fe3c 3aa1 003d
000000a0: ad5d a53d e15a 773d 6522 4dbb 74c4 84bd
000000b0: 48b0 3fbd 6a65 13bd 1945 853c 5b87 cebb
000000c0: 4062 b1bb 2cfa a7bc 4f0c 6dbc 7c5c adbd
000000d0: 2750 d43c aa44 be3b d3e6 80bd e520 b03d
000000e0: 4dd2 a63c c06b 903d 8b4d e33d 6b7a 843c
000000f0: eb4b a03d e32a b43d a8fd 2f3d b427 8cbd
0.055077758 -0.12420138 -0.100358844 -0.013363287 -0.106353074 0.0034574305 -0.022656716 0.11796233
0.022788215 0.035536647 -0.1041127 0.0040041152 -0.056435414 0.053644255 0.053792257 0.033661906
0.05383547 0.05329788 -0.12401874 -0.03713501 0.035876956 0.1049891 0.10825923 -0.13230357
-0.014164925 -0.113532774 -0.09816711 0.016560623 -0.01548428 -0.036569364 0.03415444 0.020587489
-0.07215736 0.010291315 0.070861936 0.08561083 0.09864734 0.07463422 0.031039875 0.031403758
0.08074508 0.060389403 -0.0031301018 -0.06482783 -0.046798974 -0.035985388 0.0162683 -0.0063027567
-0.0054133236 -0.020505033 -0.014468267 -0.084649056 0.025917126 0.0058065252 -0.06294026 0.08600024
0.020363951 0.07051802 0.110987745 0.016171655 0.0782698 0.087972425 0.042966515 -0.0684351

output_layer.weight f4 [2, 64]
00000000: b545 1c3e d8d9 a63d 4083 2b3c d900 0b3e
00000010: 645f 4cbd 2eab 123e a97c 7ebc 77a8 9c3d
00000020: 4c18 113e d8fa cc3c 429e f43d cf15 6cbd
00000030: 5856 8dbd 60c0 97bd 6be6 3f3d 1b97 b6bd
00000040: ee14 13bd ffca 6f3e 0093 033a 4ca6 80bc
00000050: 843b a6bc 2cad 28bc 187d e93d cc77 ce3b
00000060: 04d2 e03d 5ba7 b73d 0049 dcbd 5825 a0bd
00000070: ab65 07bc df16 1d3b 6b72 073c ffe6 dfbd
00000080: 8df8 babd d4ca 313c 6776 a4bd 9336 063d
00000090: e4bb 09bd 4aea 0b3c 3e83 283e 3165 93bd
000000a0: 1f75 cd3d 9b79 bdbb c79a 84bd a5f3 53bd
000000b0: 6806 e43d 8b1d d9bd 4048 c4bd 94e7 2b3e
000000c0: 154b ac3d 2644 2abd 70e7 c1bd f8d2 903d
000000d0: 337c 4a3b 4288 dbbd 2d40 523d 63a1 52bc
000000e0: 4051 213d 6906 7e39 40f2 b6bc 42a0 8fbd
000000f0: d603 863d 0c5c 67bd 0bfa 223e 9374 fbbd
00000100: 45b7 0abe e3b4 7ebd 20af c6bd cdec 383e
00000110: f1aa 10be 9509 d2bc 2083 dbbc 1f6d c43d
00000120: 78e0 903d 4e25 863c 001b e8bd 437f a23d
00000130: 7196 c4bb b862 ba3c 5663 96bd 3bb6 f9bd
00000140: 0e9b 83bd fce6 5b3d 24ce 493d b673 03bd
00000150: 7929 3b3e 2ed6 013d efa2 0d3e 44a9 f93d
00000160: 628a f3bd 9084 adbc fc3b a33d 6e46 63bd
00000170: a433 f7bc bc3c a33c 960c 993d 30c0 7cbd
00000180: 6b5c f4bd 8448 58be c0ee 2bbe 1343 c9bc
00000190: 155b b9ba 2cbb a53d 3664 323e e551 973d
000001a0: f779 7bbd 3866 783d 55f0 803d 4d4f 9dbd
000001b0: 7a29 9abd 2899 c5bd 5c4d 69bc e3c3 eebd
000001c0: fd44 d23c 3d97 dd3c 6345 bfbb 1c71 43bd
000001d0: 8959 debd f96d 943d e3dd 76bd a14c 2e3c
000001e0: 6379 693d 9159 21bd 02e9 a3bd 252d 6bbd
000001f0: 45ef 26bd 9e85 2ebd 8ff5 823d 4958 433d
0.15260966 0.08147019 0.010468304 0.13574542 -0.04989566 0.14323112 -0.015532651 0.076493196
0.14169425 0.025021955 0.11944248 -0.057637986 -0.069012344 -0.074097395 0.046850603 -0.0891554
-0.035908632 0.2341728 0.0005019158 -0.015704297 -0.020292051 -0.010295194 0.11400813 0.006300902
0.10977557 0.089674674 -0.10756111 -0.07819623 -0.008263986 0.002396993 0.008267025 -0.10932731
-0.091294385 0.010851581 -0.08030396 0.03276689 -0.033626452 0.008539746 0.16456315 -0.07197035
0.10032105 -0.0057823188 -0.06474834 -0.05174603 0.111340344 -0.10601338 -0.09584093 0.16787559
0.08412758 -0.041568898 -0.09467971 0.07071489 0.0030896782 -0.107193485 0.051330734 -0.01285586
0.039384127 0.00024225716 -0.02233231 -0.070129886 0.065437004 -0.056484267 0.15915696 -0.12278094
-0.13546474 -0.062184226 -0.09701371 0.18059082 -0.14127709 -0.025639335 -0.026795924 0.09591126
0.07074064 0.01637521 -0.11333275 0.079344295 -0.0059993793 0.02275215 -0.073431656 -0.12192961
-0.06426059 0.05368708 0.049268857 -0.032092772 0.1827754 0.0316984 0.13831685 0.12190488
-0.11891629 -0.021181375 0.079704255 -0.05548709 -0.030175991 0.019926421 0.07473104 -0.06170672
-0.1193169 -0.21121413 -0.16790295 -0.024568116 -0.0014141524 0.08092341 0.1742104 0.07388667
-0.06139561 0.06064436 0.0629584 -0.07681141 -0.07527442 -0.09648353 -0.014239635 -0.11658456
0.025667662 0.027049655 -0.005837129 -0.04771529 -0.10856921 0.07247538 -0.0602702 0.010638387
0.05700053 -0.039392058 -0.08003427 -0.0574161 -0.04075553 -0.042607896 0.06394493 0.047691617

output_layer.bias f4 [2]
00000000: 8ace 413d 847a 333d
0.04731611 0.043818012
