DQN/data/Apprentice 2.pt (torch, 38460 bytes, 8 tensors)

input_layer.weight f4 [64, 4]
0	0x3e4cac7e	0.19987676
1	0xbec7c56e	-0.39017814
2	0x3eb9d94d	0.362986
3	0x3f0f26ec	0.55918765
4	0x3e18a108	0.14905179
5	0xbdd91d4d	-0.10601292
6	0x3eb3fa40	0.35151863
7	0xbca785ab	-0.02044948
8	0x3d08b8ec	0.03337948
9	0x3ee3cb4d	0.44491044
10	0x3e4864ef	0.19569753
11	0xbea664b5	-0.32498708
12	0xbe0eacca	-0.13933101
13	0xbea9df0b	-0.3317798
14	0xbf3efc18	-0.74603415
15	0xbe4137ae	-0.18868896
16	0xbdc5ad4d	-0.09652195
17	0xbe66b3b1	-0.22529484
18	0x3d863c8e	0.06554519
19	0x3e613154	0.21991473
20	0xbe27f388	-0.16401494
21	0x3e6a89b0	0.22904086
22	0xbe140e30	-0.14458537
23	0x3d0b1780	0.03395796
24	0x3ec940b8	0.3930719
25	0x3e0e1b90	0.13877702
26	0xbeeecae6	-0.46639174
27	0x3ea09764	0.31365502
28	0xbf165072	-0.587165
29	0xbf07bfd3	-0.53027076
30	0x3e7a0d84	0.24419218
31	0x3eb8968f	0.36052367
32	0x3e0c4954	0.13699847
33	0x3edd10c4	0.43176854
34	0xbeb78808	-0.3584597
35	0x3e18fa80	0.14939308
36	0x3de8617f	0.11346721
37	0x3e68dd29	0.22740616
38	0x3efa8793	0.4893156
39	0x3ee7349f	0.45157334
40	0x3e2c6f1c	0.1683926
41	0x3cc0d896	0.023540776
42	0xbee34c9a	-0.4439438
43	0xbf14c0b4	-0.5810654
44	0x3e98200e	0.29711956
45	0x3e5ff312	0.21870068
46	0x3f0eea90	0.55826664
47	0x3e2c20ba	0.16809359
48	0xbf069747	-0.5257458
49	0xbeea3e0a	-0.45750457
50	0x3e802b47	0.25033018
51	0x3e445e8a	0.19176689
52	0xbf2b58e9	-0.6693254
53	0x3f0cde19	0.55026394
54	0x3e1ba99d	0.15201421
55	0xbe7a3904	-0.24435812
56	0x3e5714fe	0.21004102
57	0x3dfd8814	0.123794705
58	0xbf01bfec	-0.50683475
59	0x3e1c1539	0.15242471
60	0x3e6ec14c	0.23315924
61	0x3dda4b92	0.10658945
62	0xbf09af8b	-0.5378348
63	0xbe99fc1a	-0.3007515
64	0xbe68163d	-0.22664733
65	0xbee85534	-0.45377505
66	0x3e4476eb	0.19185989
67	0x3f145165	0.579367
68	0xbec42347	-0.38308164
69	0x3e00c93e	0.12576768
70	0x3ece0be9	0.40243462
71	0xbec5cfef	-0.38635203
72	0xbd71eef8	-0.05906579
73	0x3c7193e4	0.0147447325
74	0x3e758824	0.23977715
75	0x3edc3e4b	0.43016276
76	0xbefed1b2	-0.4976936
77	0xbe323ef1	-0.17406823
78	0x3e55523e	0.20832154
79	0x3ed1690e	0.40900463
80	0x3e5ae21d	0.21375318
81	0x3de75acd	0.11296616
82	0x3ec35335	0.3814942
83	0x3f1b90fe	0.60768116
84	0xbd9ff97d	-0.07811258
85	0x3ede8b3a	0.43465596
86	0xbf312c8a	-0.69208586
87	0xbec9a82e	-0.39386123
88	0x3f3c8c0d	0.736512
89	0xbeb000cb	-0.34375605
90	0x3d093915	0.033501703
91	0xbee576ef	-0.44817302
92	0xbf0bb8d4	-0.545789
93	0x3e69d8f7	0.22836672
94	0x3e79d63d	0.24398132
95	0xbf085875	-0.53259975
96	0xbcaf9e10	-0.021437675
97	0xbdab000b	-0.083496176
98	0x3cfb7d62	0.030699436
99	0x3bca400a	0.006172185
100	0x3e7b9640	0.24569035
101	0x3ecd45c0	0.40092278
102	0x3ea16392	0.3152128
103	0x3e99860e	0.29985088
104	0x3dc0ee9e	0.094205126
105	0xbd3ea468	-0.04654351
106	0x3e6161f5	0.22010024
107	0x3f0f3cb9	0.5595203
108	0xbe43234c	-0.19056433
109	0x3e635234	0.22199327
110	0xbe9901fc	-0.29884326
111	0x3f0f5d13	0.56001395
112	0x3dc49ec3	0.09600594
113	0x3d10094b	0.035165112
114	0xbe19bf08	-0.15014279
115	0x3e5dda56	0.2166532
116	0x3ee3c1d4	0.44483817
117	0xbeb40081	-0.35156634
118	0xbe00a1fe	-0.12561795
119	0x3ebcf985	0.36909118
120	0xbec204d4	-0.3789431
121	0x3eb2d318	0.34926677
122	0xbef3ab7e	-0.47591776
123	0xbe03d4bc	-0.1287412
124	0x3e16c368	0.14722979
125	0xbecac301	-0.396019
126	0xbf3fb42b	-0.7488429
127	0xbedd9826	-0.43280143
128	0xbd63ca17	-0.05561265
129	0x3daab26a	0.08334811
130	0xbd77dc49	-0.060512815
131	0xbf0c9d49	-0.549275
132	0x3dc32c61	0.09529949
133	0xbe78798f	-0.24265121
134	0x3f148f0d	0.5803078
135	0x3ee466ca	0.44609672
136	0x3f13aba9	0.5768381
137	0x3ed706df	0.4199743
138	0x3e333b24	0.17503029
139	0xbc92a643	-0.017901545
140	0x3e84ceea	0.25939113
141	0xbe06720f	-0.13129447
142	0xbd9e8bad	-0.07741485
143	0x3ebd5673	0.36980018
144	0xbf0b35d2	-0.54379
145	0xbef9cfa7	-0.4879124
146	0x3eb93cec	0.36179292
147	0x3e8f0db0	0.2794013
148	0x3f1222be	0.5708426
149	0xbe9df452	-0.30850464
150	0xbef27c4e	-0.47360462
151	0xbeb4b2af	-0.35292575
152	0x3e24139d	0.16023107
153	0x3adb7e2d	0.0016745977
154	0xbdd7fb25	-0.10545949
155	0xbe68d31c	-0.22736782
156	0x3dbce003	0.09222414
157	0xbe63a0fd	-0.22229381
158	0xbe4e08d1	-0.2012055
159	0x3ef3af87	0.47594854
160	0xbeaf95c8	-0.34293962
161	0x3e807a1c	0.25093162
162	0xbddce2b6	-0.10785429
163	0x3eff1b1e	0.49825376
164	0x3e716597	0.2357391
165	0xbc107dbd	-0.008819041
166	0x3e715901	0.23569109
167	0x3da28e3f	0.079372875
168	0xbec1e7a5	-0.37872043
169	0xbe4487b4	-0.19192392
170	0xbe8b087e	-0.27154917
171	0xbf1ac204	-0.60452294
172	0xbe4b3151	-0.19843031
173	0xbe07badf	-0.1325488
174	0xbe845ea6	-0.2585346
175	0xbf0872c2	-0.53300107
176	0xbe559da7	-0.20860921
177	0x3ecc4c83	0.39902124
178	0xbf021a5a	-0.5082146
179	0xbf08fbd6	-0.5350927
180	0x3e2ae06d	0.16687174
181	0xbe9e8c5f	-0.3096647
182	0x3f17a3b7	0.59234184
183	0x3e857bc3	0.26070985
184	0xbeafe87c	-0.3435706
185	0x3ef1312a	0.47107822
186	0xbde53870	-0.11192405
187	0x3ea5797a	0.32319242
188	0x3e55aec4	0.20867449
189	0x3ec8dafc	0.39229572
190	0x3e942950	0.2893777
191	0x3e243484	0.16035658
192	0x3f74a160	0.9555874
193	0x3e41b398	0.18916166
194	0x3d84eace	0.06490098
195	0xbe139174	-0.14410955
196	0xbe6e8440	-0.23292637
197	0xbd32ae6d	-0.043623377
198	0x3e572385	0.21009643
199	0x3ddf7cae	0.10912453
200	0xbe819367	-0.25307772
201	0xbb9f3b21	-0.0048593436
202	0x3f005828	0.50134516
203	0x3eb2daaa	0.34932452
204	0x3d4a97b9	0.0494611
205	0xbe55e271	-0.20887162
206	0x3ec256ce	0.37956852
207	0xbf0a8a5e	-0.5411738
208	0xbdc9a398	-0.09845656
209	0x3ea0109e	0.31262678
210	0x3e968f70	0.2940631
211	0x3e38d018	0.18048131
212	0xbec15fca	-0.37768394
213	0x3d216610	0.039403975
214	0xbd1b7c20	-0.03796017
215	0xbc23a740	-0.009988606
216	0x3e02f151	0.12787367
217	0x3ef6c2a3	0.4819537
218	0x3d99d1ce	0.0751072
219	0xbda64649	-0.081188746
220	0xbf0da341	-0.5532723
221	0x3e570162	0.20996621
222	0xbf2cd84b	-0.67517537
223	0xbee0f811	-0.4393926
224	0xbe118c9a	-0.14213791
225	0xbf0a904d	-0.54126436
226	0xbe6018bf	-0.2188444
227	0x3ec1a2f0	0.37819624
228	0x3e86c876	0.26324815
229	0xbea1cab9	-0.31599978
230	0x3edd3366	0.43203276
231	0x3f04b212	0.51834214
232	0xbea87770	-0.32903624
233	0x3ce343db	0.027742317
234	0x3eb5159d	0.35368052
235	0x3f067193	0.5251705
236	0xbe934174	-0.28760874
237	0x3e9d7b4a	0.30758125
238	0x3e013fd0	0.12621999
239	0x3e156508	0.14589322
240	0xbea66dd4	-0.32505667
241	0xbdd73f6c	-0.10510144
242	0xbeac9005	-0.33703628
243	0xbef56123	-0.47925672
244	0xbea880bd	-0.3291072
245	0x3e24d3ad	0.16096373
246	0x3da756a9	0.08170826
247	0x3d33656b	0.04379789
248	0x3f573488	0.8406453
249	0x3eac871e	0.33696836
250	0xbe8e7f26	-0.27831382
251	0x3e911aa0	0.28340626
252	0xbf38038e	-0.71880424
253	0x3dcb6933	0.099321745
254	0xbf210d07	-0.62910503
255	0xbf10494e	-0.56361854

input_layer.bias f4 [64]
0	0xbe0ae608	-0.13564312
1	0x3e834f04	0.25646222
2	0x3e0312ed	0.12800188
3	0xbd2ab2d0	-0.041674435
4	0xbd9deea0	-0.0771153
5	0xbe8a1abc	-0.26973522
6	0xbef37c76	-0.47555894
7	0xbef902ef	-0.4863505
8	0xbea6c734	-0.32573855
9	0x3eeec1e8	0.46632314
10	0xbdea6a61	-0.114460714
11	0x3f01f489	0.50763756
12	0xbeef52ee	-0.46742958
13	0xbecc0c87	-0.39853308
14	0x3e70df8e	0.2352278
15	0xbd59fc47	-0.053219106
16	0xbefd0fee	-0.49426216
17	0x3dd0ca97	0.10194891
18	0x3d4e409c	0.050354585
19	0xbe30fa3a	-0.17282954
20	0xbe60b432	-0.21943739
21	0x3e1eb3e0	0.15498304
22	0x3ee5cd8e	0.44883388
23	0xbdbcb6c4	-0.09214547
24	0x3e84aef0	0.25914717
25	0xbed28690	-0.41118288
26	0xbde35a64	-0.11101225
27	0xbe9ad664	-0.30241692
28	0x3efbaae1	0.49153808
29	0x3e89c4cb	0.26907954
30	0x3e04f97a	0.12985793
31	0x3ecdc48b	0.40189013
32	0xbe21823a	-0.15772334
33	0x3df87f95	0.12133709
34	0xbe44b631	-0.19210126
35	0x3ea42487	0.32059118
36	0x3e59f687	0.21285449
37	0x3ec0fffe	0.37695307
38	0xbe31139b	-0.17292635
39	0xbe974fe8	-0.2955315
40	0x3ea7afa6	0.32751197
41	0xbe7c030b	-0.24610536
42	0xbde29b46	-0.11064772
43	0xbe4bf685	-0.19918258
44	0x3dab9fff	0.08380126
45	0xbcc0b76d	-0.023524964
46	0xbef64436	-0.48098916
47	0xbec13cd8	-0.37741733
48	0x3f04047e	0.51569355
49	0xbd9bd20a	-0.07608421
50	0x3d7feaae	0.062479667
51	0xbb878c42	-0.004136593
52	0xbefd6890	-0.49493837
53	0xbe103e40	-0.14086246
54	0x3e193734	0.14962465
55	0xbe8aa02d	-0.2707533
56	0xbeb175bc	-0.34660137
57	0xbe5f4bbf	-0.21806239
58	0x3d5078e3	0.050896537
59	0xbe343a20	-0.17600298
60	0x3ee42375	0.44558302
61	0xbde11a7e	-0.10991381
62	0x3e8ae1d0	0.27125406
63	0xbea55d20	-0.3229761

hidden_layer_1.weight f4 [64, 64]
0	0x3dc3ca02	0.09560014
1	0xbc9ee5d5	-0.019396702
2	0x3d6017b2	0.054710098
3	0xbd66eeb0	-0.056379974
4	0x3cb01360	0.021493614
5	0x3c78e1e0	0.015190572
6	0x3d760a64	0.060068503
7	0xbd78e8e8	-0.06076899
8	0x3d9cf9b2	0.07664813
9	0xbc01e923	-0.007929119
10	0xbda1595c	-0.07878372
11	0xbd3d171e	-0.046164624
12	0x3df5eed2	0.12008442
13	0xbde475c4	-0.111552745
14	0xbddb6efd	-0.10714529
15	0x3b5f4fec	0.0034074737
16	0xbdce151c	-0.1006262
17	0x3d0f9de2	0.03506268
18	0xbd2cce87	-0.042189147
19	0xbdcff6c2	-0.10154487
20	0x3df9d732	0.121992484
21	0x3d79d30a	0.06099228
22	0x3d7eb0fc	0.062180504
23	0xbcbcc782	-0.023044351
24	0x3dc18de7	0.09450894
25	0xbdda8d04	-0.10671428
26	0xbd1da0b0	-0.03848332
27	0xbdbc19c0	-0.09184599
28	0x3d4a39c5	0.0493715
29	0xbd145764	-0.036216155
30	0x3db3113b	0.08743521
31	0x3d9eb09b	0.077485286
32	0x3ca13461	0.019678297
33	0xbdc4a979	-0.09602637
34	0xbe0b753a	-0.13618937
35	0xbd8573aa	-0.06516202
36	0xbd9fa2d2	-0.077947274
37	0x3d9d379c	0.07676622
38	0xbcc4bdcc	-0.024016283
39	0x3df62dc4	0.12020448
40	0x3d2efd10	0.042721808
41	0xbcd7aff8	-0.026329026
42	0xbd66dac4	-0.056360975
43	0x3c80027e	0.015626188
44	0xbd786a18	-0.060648054
45	0xbded422c	-0.11584887
46	0x3c714430	0.01472573
47	0xbdfa03d0	-0.122077584
48	0xbdd91a53	-0.10600724
49	0xbc2745f3	-0.010209548
50	0xbda118df	-0.07866072
51	0xbda46bfe	-0.080284104
52	0x3cd0fe80	0.02551198
53	0xbd9d7fbe	-0.076903805
54	0x3d00c164	0.03143443
55	0xbdb8f47b	-0.09031006
56	0x3dff2bd8	0.124595344
57	0xbda75f00	-0.08172417
58	0x3dad17b5	0.084517874
59	0x3d838cc2	0.06423332
60	0xbc410ed6	-0.011783322
61	0x3d744677	0.059637513
62	0xbd254e48	-0.040357858
63	0x3cfcb055	0.0308458
64	0x3d3dd232	0.046343036
65	0xbd1b6bbc	-0.03794454
66	0xbc5fa1ce	-0.013649417
67	0xbe63823a	-0.22217646
68	0x3d566ef2	0.0523519
69	0x3dfacec4	0.12246469
70	0x3c3fdc60	0.011710256
71	0x3e8513a0	0.25991535
72	0xbda9ea5c	-0.08296654
73	0xbe865eca	-0.26244193
74	0x3e57cf14	0.21075088
75	0xbe6d7f03	-0.23192982
76	0x3eb3eab5	0.35140005
77	0x3efe8fc7	0.49719068
78	0xbd1bace1	-0.038006667
79	0x3ce39528	0.027781084
80	0x3e888b6e	0.26668876
81	0x3da1b1fa	0.078952745
82	0x3e221451	0.15828063
83	0x3e113638	0.14180839
84	0x3e896242	0.26832777
85	0x3dafff21	0.08593584
86	0xbe78e138	-0.24304664
87	0x3e4ab2ef	0.1979482
88	0xbda30bab	-0.0796121
89	0xbcf80fe0	-0.030281007
90	0x3e0ff1a7	0.14057027
91	0x3dea337a	0.114355996
92	0xbd89e951	-0.06733955
93	0xbd9a54b7	-0.07535689
94	0x3dead9dc	0.11467335
95	0xbc878b8c	-0.016546033
96	0x3e43a1d3	0.191047
97	0x3e30403c	0.17212003
98	0x3e5eb90f	0.21750282
99	0x3d4f2d32	0.05058021
100	0x3e090372	0.1338022
101	0xbe1d0374	-0.15333349
102	0x3e163d25	0.14671762
103	0x3e0268ce	0.12735292
104	0xbdce529d	-0.10074351
105	0xbcb00062	-0.021484558
106	0x3da3e2f0	0.08002269
107	0x3d378598	0.04480514
108	0x3dfc2c57	0.12313145
109	0x3dbab394	0.09116283
110	0xbd9ac490	-0.075570226
111	0xbb64b600	-0.003489852
112	0xbc98de06	-0.018660557
113	0xbe155cc8	-0.14586174
114	0xbd09c8b9	-0.03363869
115	0x3ac00d20	0.0014652349
116	0x3d8a9c88	0.06768137
117	0xbadde200	-0.0016928315
118	0x3ddb98d0	0.10722506
119	0x3e7a6615	0.24453004
120	0x3e7dca47	0.24784194
121	0x3e808f22	0.25109202
122	0xbd09ace0	-0.033612132
123	0xbd8a2e1c	-0.06747076
124	0xbd0f7194	-0.035020426
125	0x3d8a6a42	0.06758548
126	0xbe0a6063	-0.13513331
127	0x3dcc943b	0.0998921
128	0xbdffb80b	-0.12486275
129	0x3ddf9eb7	0.10918944
130	0x3dcf800b	0.10131844
131	0xbda0bd22	-0.07848574
132	0xbd99e935	-0.07515184
133	0x3d0d2530	0.034459293
134	0xbda46262	-0.080265775
135	0xbd5d0331	-0.05395812
136	0x3d4b54c0	0.04964137
137	0xbcb00ac5	-0.02148951
138	0x3e40f0d4	0.18841869
139	0x3e3be666	0.18349609
140	0x3d1698fb	0.036766987
141	0x3e32f3f7	0.17475878
142	0xbd2e713c	-0.042588457
143	0x3e7039ac	0.234595
144	0xbe2b4575	-0.16725715
145	0x3de7de57	0.11321705
146	0x3e3edc22	0.18638662
147	0xbcceca63	-0.02524299
148	0xbd3e7a0b	-0.046503108
149	0x3dded9cd	0.10881386
150	0x3d35c509	0.04437736
151	0x3e5dff10	0.2167933
152	0x3d5e4fae	0.054275207
153	0x3dfff222	0.12497355
154	0x3c7d1f0d	0.015449298
155	0x3d8b07c6	0.06788592
156	0x3d508ed9	0.05091748
157	0x3da4071b	0.08009168
158	0x3dc08d77	0.09401982
159	0x3dab0f37	0.083525114
160	0x3c894023	0.016754216
161	0x3d345593	0.044026922
162	0x3edb15c7	0.42790052
163	0xbd4541ea	-0.048158564
164	0x3d9181cc	0.07104835
165	0x3cff37e4	0.03115458
166	0x3ea9aa7c	0.33137882
167	0xbd3c783e	-0.04601311
168	0x3cc1121e	0.02356821
169	0x3de2d32c	0.11075434
170	0x3d46ce34	0.048536494
171	0x3cfac3e3	0.030610984
172	0x3e289e48	0.1646663
173	0xbe150716	-0.14553484
174	0xbd0361b8	-0.032075614
175	0xbd83c8b8	-0.064347684
176	0xbcaf1625	-0.021372864
177	0xbe3a8c52	-0.1821759
178	0x3dbe31d2	0.09286846
179	0x3e2fe99b	0.17178957
180	0xbcc526a8	-0.024066284
181	0x3d6e5330	0.058184803
182	0x3de4e3a3	0.11176231
183	0x3dd2595c	0.1027095
184	0xbdfed800	-0.124435425
185	0xbdaf0c7f	-0.08547305
186	0x3d8c67df	0.06855749
187	0x3dfdda6e	0.12395178
188	0xbb47d514	-0.0030491995
189	0xbcf16aa1	-0.02946979
190	0x3ca4838a	0.020082254
191	0x3d832f24	0.06405476
192	0xbd412bc4	-0.04716088
193	0x3dd4a5c0	0.10383177
194	0x3d1c03cc	0.03808956
195	0x3dc0d5e0	0.094157934
196	0x3de6dd5e	0.11272691
197	0xbcd4a230	-0.025956243
198	0xbd1d48fc	-0.03839968
199	0x3d08ec7c	0.033428654
200	0xbde32a54	-0.11092058
201	0xbdc5b4ba	-0.096536115
202	0xbdcce3f0	-0.10004413
203	0x3da453ac	0.08023772
204	0x3d9b89ec	0.07594666
205	0xbdbe3806	-0.092880294
206	0xbd6d1280	-0.05787897
207	0xbd863374	-0.06552783
208	0x3ddcfc9a	0.107903674
209	0xbdbb326e	-0.09140478
210	0xbdc27270	-0.094944835
211	0x3ca6e6e8	0.020373777
212	0x3d74e620	0.059789777
213	0xbd28c364	-0.041201964
214	0xbb408bc0	-0.0029380172
215	0xbbc0bc60	-0.005881831
216	0x3b63e400	0.003477335
217	0x3def05f8	0.1167106
218	0x3bded080	0.0067997575
219	0x3de7b5ac	0.11313948
220	0xbdba2ca0	-0.09090543
221	0xbdf8fc30	-0.12157476
222	0xbcfd1738	-0.03089486
223	0x3daa837a	0.083258584
224	0x3dc48d6e	0.09597288
225	0xbd9f18b6	-0.07768385
226	0xbdcadf56	-0.09905879
227	0x3c9b66a0	0.018969834
228	0x3cae76c0	0.021296859
229	0xbd4e23e0	-0.05032718
230	0x3dd541ca	0.10412939
231	0x3bebffe0	0.0072021335
232	0xbdf7b6a4	-0.12095383
233	0xbd7228cc	-0.05912094
234	0xbd2cbb54	-0.042170838
235	0xbde40af8	-0.111349046
236	0xbdfe087e	-0.124039635
237	0xbcdc1290	-0.02686432
238	0xbdc821ac	-0.097720474
239	0x3d4b38a0	0.04961455
240	0xbcb25838	-0.021770582
241	0xbdcf21ce	-0.101138696
242	0xbca61c80	-0.020277262
243	0xbc677830	-0.014127776
244	0x3d83f608	0.06443411
245	0x3cd3a7d0	0.025836855
246	0x3dff74d8	0.12473458
247	0xbd7e92a8	-0.06215158
248	0xbd61dd38	-0.05514261
249	0xbdd8b664	-0.10581663
250	0x3d0cbbb0	0.03435868
251	0xbcc6d990	-0.024273664
252	0x3dcdb246	0.100437686
253	0xbd3a3490	-0.045460284
254	0xbd91dbd6	-0.071220085
255	0xbd9bad28	-0.07601386

hidden_layer_1.bias f4 [64]
0	0xbdd80d5d	-0.10549424
1	0xbe650517	-0.22365223
2	0x3da153aa	0.07877286
3	0xbde7bd20	-0.113153696
4	0xbd64aa6b	-0.055826586
5	0x3d1f7329	0.038928185
6	0xbdc5e086	-0.09661965
7	0x3c1c70fe	0.009548424
8	0xbc893396	-0.01674823
9	0x3d95738d	0.0729743
10	0x3dc633b1	0.09677828
11	0xbdf33314	-0.11874977
12	0xbe44b6c8	-0.1921035
13	0x3e416d9c	0.18889469
14	0xbd441f51	-0.04788143
15	0x3e31af96	0.17352137
16	0x3e177cba	0.14793673
17	0xbdbf9fd8	-0.0935666
18	0x3c976a26	0.018483233
19	0xbe0c3346	-0.13691434
20	0x3df2a333	0.11847534
21	0x3d5e467a	0.05426643
22	0xbe099f04	-0.13439566
23	0xbcc1352f	-0.02358493
24	0xbd098f90	-0.033584177
25	0xbc853c84	-0.016264208
26	0x3e5c82bb	0.21534245
27	0xbdc3c5d3	-0.09559216
28	0x3e30537e	0.1721935
29	0xb9fe42f0	-0.00048496528
30	0xbdc7ed2f	-0.09762036
31	0x3e4667c1	0.19375516
32	0xbe0847fb	-0.13308708
33	0x3d83a374	0.064276606
34	0xbdb0281a	-0.08601399
35	0xbd42b607	-0.047536876
36	0x3d7b6995	0.061379988
37	0xbe2f8725	-0.17141397
38	0x3e1694f0	0.14705253
39	0xbd4a7560	-0.049428344
40	0x3df9bf6e	0.121947154
41	0xbdd50fd0	-0.104034066
42	0xbe34ae23	-0.17644553
43	0xbd8b02f3	-0.06787672
44	0xbd506cbc	-0.050884947
45	0xbe3e9d59	-0.18614711
46	0x3dbfaa83	0.093586944
47	0x3b461800	0.0030226707
48	0xbda966ee	-0.082715854
49	0xbdedd278	-0.11612409
50	0xbe273be1	-0.16331436
51	0x3c96bf5d	0.018401796
52	0xbd8e5eb8	-0.0695166
53	0x3df5bff1	0.119995005
54	0xbe0c623a	-0.13709345
55	0xbde3ea2a	-0.111286476
56	0xbcdab6be	-0.026698466
57	0xbcce43e7	-0.025178863
58	0x3ccea3af	0.025224535
59	0xbdae5ca6	-0.08513765
60	0xbb678b09	-0.0035330674
61	0xbdceb812	-0.100937024
62	0xbdbaaa25	-0.09114484
63	0x3d22fa5e	0.03978955

hidden_layer_2.weight f4 [64, 64]
0	0x3d9e58bc	0.077317685
1	0x3da93924	0.08262852
2	0xbde7ee1e	-0.11324714
3	0xbd7e6a88	-0.062113315
4	0xbdc242b9	-0.094853826
5	0xbde7659a	-0.11298676
6	0x3d1da1f2	0.03848452
7	0xbddb7030	-0.107147574
8	0x3dcb7147	0.09933715
9	0xbdcf2e21	-0.1011622
10	0x3cef6aa8	0.029225662
11	0x3bdd25c0	0.006748885
12	0xbd969a71	-0.07353676
13	0xbd79d42c	-0.06099336
14	0x3dbb3c8f	0.0914241
15	0xbd51e26c	-0.051241323
16	0x3cc1fef9	0.02368115
17	0xbd99f896	-0.07518117
18	0xbd38e848	-0.045143396
19	0xbb64b300	-0.0034896731
20	0xbc9b2390	-0.018937856
21	0xbdc7e780	-0.09760952
22	0xbdbf4dc6	-0.09341006
23	0x3d7cea4c	0.06174688
24	0x3d327cde	0.043576114
25	0xbe0be524	-0.13661629
26	0xbddd5670	-0.10807502
27	0x3d7d7a24	0.06188406
28	0xbc90e818	-0.017688796
29	0xbdc06d78	-0.093958795
30	0xbd7e3630	-0.062063396
31	0xbdcefe18	-0.10107058
32	0xbb582120	-0.0032978728
33	0x3c80d024	0.01572425
34	0xbdd63346	-0.104589984
35	0x3dd0b68c	0.10191068
36	0x3c6a60dd	0.014305321
37	0x3de0a501	0.10968972
38	0xbdb17fea	-0.08666976
39	0xbd52ecf8	-0.051495522
40	0xbd6b947e	-0.05751466
41	0x3d9eef34	0.07760468
42	0xbdb52306	-0.08844571
43	0x3d80db32	0.06291808
44	0x3d4f452c	0.050603077
45	0xbbd2bbcb	-0.006431078
46	0xbd34fbec	-0.044185564
47	0x3dce714c	0.100802034
48	0xbdb1935c	-0.08670685
49	0xbd6d9c70	-0.05801052
50	0x3ddf4b01	0.10902978
51	0xbd24d2e5	-0.040240187
52	0x3c566535	0.013085653
53	0x3d0dca6c	0.034616873
54	0xbded5d4e	-0.11590062
55	0xbdf3dd98	-0.119075
56	0xbcd18888	-0.025577798
57	0xbe06a391	-0.13148333
58	0xbdd241f4	-0.10266486
59	0x3ccb29c8	0.024800196
60	0x3de2eca6	0.11080293
61	0x3d074644	0.033025995
62	0xbd5426b4	-0.051794723
63	0xbb88f1f2	-0.0041792328
64	0x3bcb1620	0.006197706
65	0x3e922fe9	0.28552178
66	0xba2f085b	-0.0006676965
67	0x3df4b992	0.11949457
68	0x3bcd6d40	0.006269127
69	0x3e63abe3	0.22233538
70	0x3d37f334	0.04490967
71	0x3d0f9e9e	0.03506338
72	0x3db7c32f	0.08972775
73	0xbe0c3737	-0.13692938
74	0x3e6d7bd5	0.2319177
75	0x3d39f098	0.045395464
76	0x3e1856ed	0.1487691
77	0x3d5e37b5	0.054252345
78	0x3e015c5c	0.12632889
79	0x3e2cd9e6	0.16879997
80	0xbda8e6db	-0.08247157
81	0x3dfb82f9	0.122808404
82	0xbd081554	-0.033223465
83	0x3e1d0aca	0.15336147
84	0x3d8095b4	0.062785536
85	0x3da6f920	0.081529856
86	0x3dd0006e	0.10156332
87	0xbd1fb538	-0.038991183
88	0x3e0c4349	0.13697542
89	0x3e1e3e65	0.15453489
90	0xbe1b8910	-0.15189004
91	0x3e358d0e	0.1772959
92	0x3e2bb373	0.16767673
93	0x3e2723c3	0.16322236
94	0x3dc4fe92	0.09618868
95	0x3d317ef6	0.04333397
96	0x3e7dbe8b	0.24779718
97	0x3e47429c	0.19459003
98	0xbcb5cf70	-0.02219364
99	0x3e053a91	0.13010623
100	0xbd5c4bd1	-0.05378324
101	0x3da22242	0.079166904
102	0x3d77d921	0.060509805
103	0xbd3aa581	-0.045567993
104	0xbbbc7b07	-0.0057519707
105	0xbd5d8df0	-0.05409044
106	0x3e3ac259	0.182382
107	0x3dfb5ae6	0.12273197
108	0x3dabe8d2	0.08394016
109	0x3cdcb433	0.026941394
110	0x3e622ba8	0.22086966
111	0xbdf48540	-0.11939478
112	0x3d100d94	0.0351692
113	0x3d9b0608	0.0756951
114	0x3e5ed10b	0.21759431
115	0xbda49ab2	-0.08037318
116	0x3e6d8c47	0.23198043
117	0xbc408585	-0.011750584
118	0xbb926349	-0.004467402
119	0x3da17955	0.078844704
120	0xbd95840e	-0.07300578
121	0x3c9e8274	0.019349314
122	0x3dea05c7	0.11426883
123	0xbd374cf8	-0.044751137
124	0xbd90b3b6	-0.07065527
125	0x3d58becd	0.052916337
126	0x3d278b39	0.040904257
127	0x3d9e3da0	0.07726598
128	0xbd1890eb	-0.03724758
129	0x3de8cbfc	0.11367032
130	0xbe4b64c0	-0.19862652
131	0x3d8a91c8	0.06766087
132	0x3d95eeb4	0.0732092
133	0x3d091b54	0.033473328
134	0xbd13d4f8	-0.036091775
135	0x3da2af14	0.0794355
136	0xbe0c94c3	-0.13728623
137	0xbe891935	-0.26777044
138	0x3e9e1a9c	0.30879676
139	0x3d3929d4	0.045205906
140	0x3dbca9aa	0.09212048
141	0x3dd313f0	0.10306537
142	0x3e4b3a0b	0.1984636
143	0x3dfad420	0.12247491
144	0xbe904c74	-0.2818333
145	0x3cc86d94	0.024466313
146	0xbd359c80	-0.044338703
147	0x3d819ff1	0.063293345
148	0x3e46560a	0.19368759
149	0x3e74adc1	0.23894407
150	0xbdccd8e3	-0.10002305
151	0xbe0a4e6c	-0.13506478
152	0xbd043104	-0.032273307
153	0x3cdb79cc	0.026791476
154	0xbe2c4380	-0.16822624
155	0x3e6cf997	0.23142086
156	0x3d8d704d	0.06906185
157	0x3e08540c	0.13313311
158	0xbd81f35f	-0.063452475
159	0x3e255607	0.16146098
160	0x3e09b4f7	0.13447939
161	0x3dc564e6	0.096383855
162	0x3de3c784	0.11122039
163	0x3e345861	0.17611839
164	0x3c9d2513	0.019182717
165	0x3e0932a5	0.13398226
166	0x3e2a9cc4	0.16661364
167	0x3cc06cf0	0.023489445
168	0xbed2a932	-0.4114471
169	0xbd545330	-0.051837146
170	0x3d92fe9b	0.071774684
171	0x3e165069	0.14679112
172	0x3d4e1cd8	0.050320476
173	0xbb1dbfe7	-0.0024070682
174	0x3e81daf5	0.25362363
175	0xbcc1a438	-0.023637876
176	0xbd65a1f4	-0.056062654
177	0x3d9d5d32	0.07683791
178	0x3e6be9a7	0.2303835
179	0xbe2cee62	-0.16887811
180	0x3d90c574	0.07068911
181	0x3e24a7e8	0.16079676
182	0x3e064710	0.13113046
183	0x3e1cca16	0.15311465
184	0xbdc7c64a	-0.097546175
185	0xbd3a92a8	-0.04555002
186	0x3e76493a	0.24051371
187	0x3df4b58e	0.11948691
188	0xbd088605	-0.033330936
189	0xbd5596db	-0.05214582
190	0xbd56cf53	-0.052443814
191	0x3e41bca7	0.18919621
192	0x3e138546	0.14406309
193	0x3e7be616	0.2459949
194	0xbaaf1422	-0.001335744
195	0x3dc022b2	0.093816176
196	0x3d20104c	0.039078042
197	0xbbac0892	-0.005250045
198	0x3dfd8c12	0.12380232
199	0xbd5757d3	-0.05257399
200	0x3e522a26	0.20523891
201	0x3db51aca	0.08843
202	0x3dfd7d48	0.12377411
203	0xbcca4dd0	-0.024695307
204	0x3e3c6f8e	0.1840193
205	0x3def1bdf	0.11675238
206	0x3e36f3b9	0.1786641
207	0xbdb21a2b	-0.086963974
208	0x3e17f8db	0.14841025
209	0x3e18fbe3	0.14939837
210	0xbd4405c4	-0.04785706
211	0x3c590653	0.013246137
212	0x3e551a6a	0.20810857
213	0x3e4a9c64	0.19786221
214	0x3c1758e4	0.009237502
215	0x3d8a20be	0.06744526
216	0x3e5ce32e	0.21571037
217	0x3e529da0	0.20567942
218	0x3de9d1dd	0.11416981
219	0x3e89f139	0.2694185
220	0xbd2c4ced	-0.04206555
221	0x3df0ee8a	0.11764248
222	0x3d1ab318	0.037768453
223	0x3c1a3567	0.009412146
224	0x3e51f89b	0.20504992
225	0x3d4ce94f	0.050027188
226	0xbdd8c512	-0.10584463
227	0x3dbbb35a	0.09165068
228	0x3e21215b	0.1573538
229	0x3daea8f6	0.085283205
230	0x3d90b4e6	0.07065754
231	0xbdcfc51a	-0.10145016
232	0x3e83f7f4	0.2577511
233	0x3ded472e	0.11585842
234	0x3e8a4776	0.27007645
235	0x3dce368e	0.10068999
236	0x3d51c920	0.0512172
237	0x3e8fb1fb	0.28065476
238	0xbcb830fd	-0.022484297
239	0xbd094244	-0.03351046
240	0x3c98df58	0.018661186
241	0x3d9910d0	0.0747391
242	0x3e2ffa95	0.17185433
243	0x3e900b4d	0.28133622
244	0x3e3674e7	0.17818032
245	0x3e08029a	0.13282242
246	0x3e8c0a80	0.2735176
247	0x3e6395e3	0.22225146
248	0x3d0e70a4	0.03477539
249	0x3dd70a00	0.10499954
250	0x3e130e2e	0.14360878
251	0xbd224000	-0.039611816
252	0xbd6ea0f8	-0.05825898
253	0xbde2f5e0	-0.11082053
254	0x3c85f2c0	0.016351104
255	0x3d527c94	0.05138834

hidden_layer_2.bias f4 [64]
0	0xbda20465	-0.079109944
1	0xbc212777	-0.009836069
2	0x3db24316	0.08704202
3	0xbda2b35e	-0.07944368
4	0x3c84988a	0.016186018
5	0xbdca5666	-0.098797604
6	0x3d2a12ba	0.041521765
7	0xbde9558f	-0.11393272
8	0x3d91f7f2	0.0712737
9	0xbdf526fc	-0.11970326
10	0xbdc9e5bd	-0.09858272
11	0x3d14fa91	0.03637177
12	0xbd60f668	-0.05492249
13	0x3d11f924	0.03563799
14	0x3e02a690	0.12758851
15	0x3cc8c2c4	0.024506934
16	0xbe2edb20	-0.17075777
17	0xbea570f3	-0.32312736
18	0x3dab582a	0.08366425
19	0xbe0cc641	-0.13747503
20	0xbe3b55ec	-0.18294495
21	0x3dff8d29	0.12478096
22	0xbe021f9e	-0.12707373
23	0xbd256f25	-0.0403892
24	0xbd8ec9ed	-0.06972108
25	0x3dde5fab	0.10858091
26	0xbe145b9c	-0.14488071
27	0x3d79df14	0.06100376
28	0xbd99631c	-0.07489607
29	0x3ebf1027	0.3731701
30	0xbe2a72f7	-0.16645418
31	0xbdd75bcc	-0.10515556
32	0x3d9f99ef	0.077930324
33	0xbdaeafe4	-0.08529642
34	0x3e04b015	0.12957795
35	0xbd11e8ee	-0.03562253
36	0xbdd6244a	-0.1045614
37	0x3ce43bd4	0.02786056
38	0x3d6e4638	0.058172435
39	0x3d965aa4	0.07341507
40	0x3df62863	0.12019422
41	0xbdab3b71	-0.08360947
42	0xbd96ea08	-0.07368857
43	0xbd083d82	-0.033261783
44	0xbdef85a0	-0.11695409
45	0xbcf300ec	-0.029663526
46	0x3ddbcb39	0.10732121
47	0x3da9d426	0.08292417
48	0x3bdb7664	0.006697463
49	0xbbc4f820	-0.006011024
50	0xbd825138	-0.063631475
51	0x3d8ef5f7	0.06980508
52	0x3d4a6a1d	0.049417604
53	0xbda4e5d8	-0.08051652
54	0x3d17799f	0.03698122
55	0x3d24921a	0.040178396
56	0xbcbad2a2	-0.022805516
57	0xbd6a2aef	-0.05716985
58	0xbe0bac09	-0.13639845
59	0xbd91f3e9	-0.071266
60	0x3e17ebd0	0.14836049
61	0xbd39d3f8	-0.045368165
62	0xbcaed2e0	-0.021340787
63	0x3de39e6a	0.111141995

output_layer.weight f4 [2, 64]
0	0x3db35906	0.08757214
1	0xbe91f166	-0.28504485
2	0xbe81b52a	-0.2533353
3	0xbdb95817	-0.09050005
4	0xbe86d7ca	-0.2633651
5	0xbda83b56	-0.082144424
6	0xbe4f8598	-0.20265806
7	0xbe0beeb2	-0.13665274
8	0xbe761810	-0.24032617
9	0x3d5c627c	0.05380486
10	0xbce95705	-0.028483877
11	0xbdae0271	-0.084965594
12	0xbdac04fc	-0.08399388
13	0xbe0fd05f	-0.14044331
14	0x3e5adf13	0.21374159
15	0xbdbfc1c1	-0.093631275
16	0x3d6ed5ac	0.058309242
17	0xbea3c2f7	-0.31984684
18	0xbe8e88fc	-0.27838886
19	0xbdd00906	-0.10157971
20	0xbd034d35	-0.032056052
21	0xbe94d5e5	-0.2906944
22	0x3d5f878e	0.054572634
23	0x3dbfe6d5	0.093701996
24	0xbad3d113	-0.0016160331
25	0xbe1e13a3	-0.15437178
26	0xbc5c9018	-0.013462089
27	0x3beff613	0.0073230355
28	0xbc7f5f90	-0.015586749
29	0xbefa5671	-0.48894075
30	0x3d590bb0	0.05298966
31	0xbdcd9c14	-0.10039535
32	0xbe7cf437	-0.24702536
33	0x3cc323e8	0.023820832
34	0x3d23f518	0.04002866
35	0x3d5011a3	0.05079807
36	0x3d82afc2	0.063811794
37	0x3db4ff34	0.08837739
38	0x3d852787	0.0650168
39	0x3cb25d6f	0.021773068
40	0xbe92e9c9	-0.2869399
41	0x3de1046f	0.10987174
42	0xbe48c423	-0.1960607
43	0x3e634f2e	0.22198173
44	0xbcfa54c8	-0.030558005
45	0xbe7a91c6	-0.2446967
46	0xbe219a9c	-0.15781635
47	0x3e81f476	0.2538182
48	0x3c545a8c	0.012961041
49	0x3dafa247	0.08575874
50	0x3d33c778	0.0438914
51	0xbe75a55c	-0.23988861
52	0x3d7d2dcc	0.061811253
53	0x3d5c5f4a	0.053801812
54	0x3c1b325e	0.009472458
55	0xbd565f61	-0.052337054
56	0x3d9bf401	0.076148994
57	0x3d9aea79	0.07564253
58	0xbe5961ba	-0.21228686
59	0x3d47b0ee	0.048752718
60	0x3e220ea2	0.15825894
61	0xbe39b65c	-0.18135971
62	0x3dd4a1cc	0.10382423
63	0xbe6c43fd	-0.2307281
64	0xbdd82aee	-0.10555063
65	0xbdb8d363	-0.09024694
66	0x3e1a6e0e	0.15081045
67	0xbe826869	-0.25470284
68	0xbe41f643	-0.18941598
69	0x3ddfb942	0.10924007
70	0xbde824ef	-0.113351695
71	0x3dc2dd10	0.095148206
72	0xbcbc8a70	-0.02301523
73	0xbdcbabc2	-0.099448696
74	0x3cc45852	0.023967896
75	0x3e5f6e65	0.21819456
76	0x3db93722	0.09043719
77	0xbe2f25e5	-0.171043
78	0x3c30758b	0.010770212
79	0xbe4c5d95	-0.19957574
80	0xbc951fa9	-0.018203573
81	0xbec563e4	-0.38552773
82	0xbd015731	-0.031577293
83	0x3d69289e	0.0569235
84	0xbeb8540c	-0.36001623
85	0x3e15e09d	0.14636464
86	0xbd39a00c	-0.04531865
87	0x3b0cb8af	0.0021472385
88	0xbdcd4ea7	-0.10024767
89	0xbe76d710	-0.24105477
90	0xbd9554ff	-0.07291602
91	0xbe71d60c	-0.23616809
92	0xbe8ab41f	-0.27090546
93	0x3e88987b	0.26678833
94	0xbd291ee4	-0.041289225
95	0xbdb5ee16	-0.08883302
96	0x3dabe61d	0.083935
97	0xbd4e0881	-0.05030108
98	0xbe545974	-0.20737249
99	0xbd89c45d	-0.067269064
100	0x3dbc764a	0.09202249
101	0xbe77b404	-0.24189764
102	0x3dba353d	0.09092186
103	0xbe686c36	-0.22697529
104	0xbd0c1347	-0.03419807
105	0x3db1975d	0.086714484
106	0x3e01a6dc	0.12661308
107	0x3c6b80d1	0.014373974
108	0xbcc52dc8	-0.024069682
109	0xbe2d135e	-0.16901919
110	0xbdc9f21e	-0.09860633
111	0x3d1466f8	0.03623101
112	0x3d70deda	0.058806278
113	0x3d7b2086	0.061310314
114	0xbd407f1c	-0.04699622
115	0xbe1f5755	-0.15560658
116	0xbc12c5e7	-0.008958316
117	0xbd2d56ed	-0.042319227
118	0xbdc28340	-0.0949769
119	0xbe914acc	-0.28377378
120	0xbd473830	-0.04863757
121	0xbc470b2a	-0.012148658
122	0xbdc07fe0	-0.0939939
123	0x3caa03e3	0.020753806
124	0xbe98bdb5	-0.29832235
125	0xbd927bcb	-0.07152518
126	0x3d8de3ce	0.06928216
127	0xbe1c1157	-0.1524099

output_layer.bias f4 [2]
0	0x3bfd6b44	0.0077337343
1	0x3d57fda2	0.052732117
