DQN/data/Apprentice 3.pt (torch, 38460 bytes, 8 tensors)

input_layer.weight f4 [64, 4]
-0.07244985 0.042946 0.40157446 0.40143943 0.25779927 -0.08043459 0.6206157 -0.1930566
0.30605528 0.06744711 0.21375239 0.24477257 -0.73989505 0.433819 0.5330055 0.020212999
-0.16942005 0.015213079 -0.0841265 -0.28440505 -0.26714396 -0.32377985 0.23565292 -0.01956085
-0.5383196 -0.3361661 -0.21118495 -0.47546723 -0.45283574 0.36933815 0.54339886 0.33145082
-0.23672886 0.27945933 0.8009013 -0.4853281 0.23608902 -0.08770874 0.25368264 -0.5274042
0.027104879 0.5372305 0.17180935 -0.08767196 -0.11548213 0.24001952 0.69123864 -0.49302128
-0.29052198 0.49784708 0.37590927 -0.15341401 -0.38483107 -0.4201498 0.29669452 0.18511537
-0.32909688 0.14977841 -0.11960439 -0.19668873 0.14366686 -0.39473575 0.38205636 -0.17757863
0.11008139 -0.38882434 0.53998256 -0.31986272 0.11148222 -0.47971147 -0.20108035 0.043009285
0.4662183 -0.4794514 -0.5111108 -0.2809985 0.39099008 -0.15460598 -0.22974353 0.27225953
-0.17747192 0.5149898 0.89591956 0.3907353 -0.23309785 0.14506727 0.09886111 0.32777897
-0.14532019 -0.18206166 -0.19279523 0.18274951 -0.37424156 0.5330622 -0.14970039 -0.43889615
-0.20308414 0.069671534 0.8206919 0.4140653 -0.026060598 -0.53038037 0.0047304374 0.31508675
-0.73127484 0.16051596 0.038992085 -0.26339418 -0.36157364 -0.023139296 0.5964924 0.5857574
-0.502698 0.18804838 0.60795707 0.27237073 0.232483 0.44842023 0.372164 -0.40755278
-0.7855846 0.2726188 0.070022576 0.07258876 -0.21583384 0.23400122 0.42759824 0.22837591
-0.5994069 -0.03874048 0.289269 -0.4744828 0.022531845 0.28972152 -0.32331568 0.20331764
-0.19845356 -0.11915772 -0.41094607 0.22769882 -0.4684329 -0.037613165 0.704969 -0.03450441
-0.123640954 0.29335254 0.17237449 0.20011693 0.08119433 0.2837122 0.5338861 -0.3219643
0.5175421 -0.45260918 -0.79769415 -0.21197878 -0.61912215 0.1837798 0.60229677 0.22783157
-0.47923395 0.07433072 0.3152472 -0.40035996 -0.30851445 0.29253376 0.29812136 -0.43676662
0.111626744 -0.31335104 -0.3059231 -0.2434358 0.25164077 0.13981843 -0.20382513 -0.42661843
-0.5162142 0.56164616 0.3087241 -0.09502802 -0.4878312 0.03639851 0.21318889 0.37173018
0.17600384 0.46413058 0.111793146 0.06394183 -0.08002949 -0.3648087 -0.43665788 0.38965467
-0.5943693 0.2924712 0.5243846 0.3623704 -0.15349628 0.10506434 0.80437505 0.34608898
-0.34112927 -0.0710025 0.39439303 0.021275466 -0.32631245 0.24102199 0.26510972 0.31784898
-0.07781151 -0.09399445 -0.25187534 -0.3716276 -0.49884862 0.12792826 -0.28557652 0.2488311
0.099905 -0.17644255 0.97036695 -0.007015373 0.47207093 -0.40721482 0.1017316 -0.10580826
-0.04823737 0.1553052 0.71999025 0.18772446 -0.27506787 0.09098792 0.27753794 0.26982206
0.18885447 -0.30220282 -0.25047457 -0.11814953 -0.47898135 -0.08802958 -0.059398137 -0.4714263
-0.38336372 -0.11879714 0.5877943 -0.14957918 -0.33261272 -0.5510016 0.521691 0.15576015
-0.5621569 0.24205697 -0.0491104 -0.33292127 0.094473526 -0.18089841 -0.38076407 -0.15525587
00000000: 9660 94bd 25e8 2f3d 2b9b cd3e 7889 cd3e
00000010: 44fe 833e e4ba a4bd ace0 1e3f a1b0 45be
00000020: 47b3 9c3e b621 8a3d e8e1 5a3e a9a5 7a3e
00000030: c369 3dbf 861d de3e 0c73 083f bb95 a53c
00000040: 737c 2dbe 4740 793c 844a acbd 8a9d 91be
00000050: 18c7 88be 79c6 a5be 004f 713e 133e a0bc
00000060: 50cf 09bf f71d acbe de40 58be 7170 f3be
00000070: 16da e7be e419 bd3e 301c 0b3f ecb3 a93e
00000080: 0d69 72be 4b15 8f3e de07 4d3f ed7c f8be
00000090: 52c1 713e a4a0 b3bd b1e2 813e f603 07bf
000000a0: 0d0b de3c f087 093f caee 2f3e 5b8d b3bd
000000b0: e581 ecbd adc7 753e 04f5 303f 496d fcbe
000000c0: 4cbf 94be d0e5 fe3e 2e77 c03e 9018 1dbe
000000d0: 9408 c5be e01d d7be 58e8 973e e28e 3d3e
000000e0: 637f a8be 835f 193e 25f3 f4bd c568 49be
000000f0: 681d 133e ce1a cabe e49c c33e 2cd7 35be
00000100: 5a72 e13d fc13 c7be 4c3c 0a3f 0cc5 a3be
00000110: ca50 e43d be9c f5be 02e8 4dbe 812a 303d
00000120: 2ab4 ee3e a77a f5be 28d8 02bf 09df 8fbe
00000130: da2f c83e 0851 1ebe e341 6bbe 9a65 8b3e
00000140: 33bb 35be 5fd6 033f fc5a 653f 750e c83e
00000150: 34b1 6ebe 848c 143e b277 ca3d a5d2 a73e
00000160: d1ce 14be 5f6e 3abe 1d6c 45be b022 3b3e
00000170: 979c bfbe c476 083f 0f4b 19be ffb6 e0be
00000180: 4af5 4fbe f3af 8e3d dd18 523f 5e00 d43e
00000190: 097d d5bc 02c7 07bf c901 9b3b 0d53 a13e
000001a0: d434 3bbf 4c5e 243e 2ab6 1f3d 9adb 86be
000001b0: 2e20 b9be 9f8e bdbc bab3 183f 32f4 153f
000001c0: d1b0 00bf c18f 403e 13a3 1b3f 2d74 8b3e
000001d0: 0610 6e3e 5697 e53e 488c be3e c2aa d0be
000001e0: 131c 49bf b194 8b3e ff67 8f3d 6aa9 943d
000001f0: 8c03 5dbe 049e 6f3e 28ee da3e 60db 693e
00000200: bb72 19bf 56ae 1ebd 111b 943e 69ef f2be
00000210: b494 b83c 6156 943e a289 a5be 8032 503e
00000220: 6937 4bbe f608 f4bd 8667 d2be e129 693e
00000230: 70d6 efbe 4310 1abd d978 343f 7f54 0dbd
00000240: 7837 fdbd 4e32 963e f082 303e 74eb 4c3e
00000250: 3649 a63d ba42 913e c2ac 083f 81d8 a4be
00000260: a47d 043f 64bc e7be af35 4cbf f710 59be
00000270: ca7e 1ebf c630 3c3e 1f30 1a3f ae4c 693e
00000280: 275e f5be b43a 983d 1568 a13e fbfb ccbe
00000290: 9bf5 9dbe fcc6 953e 5da3 983e e09f dfbe
000002a0: 909c e43d 8c6f a0be f4a1 9cbe 3c47 79be
000002b0: 0fd7 803e 902c 0f3e 89b7 50be bb6d dabe
000002c0: 9d26 04bf 0bc8 0f3f 1611 9e3e 0d9e c2bd
000002d0: 03c5 f9be 9b16 153d 304e 5a3e 6b53 be3e
000002e0: 5a3a 343e 86a2 ed3e cef3 e43d eff3 823d
000002f0: 80e6 a3bd 35c8 babe 9f91 dfbe d180 c73e
00000300: 9628 18bf c9be 953e 123e 063f 9d88 b93e
00000310: 212e 1dbe f92b d73d 86eb 4d3f 9332 b13e
00000320: 7fa8 aebe c269 91bd e2ed c93e e349 ae3c
00000330: 6d12 a7be 78ce 763e 76bc 873e 1abd a23e
00000340: a45b 9fbd 2a80 c0bd cef5 80be f945 bebe
00000350: 1669 ffbe a0ff 023e 1637 92be 94cd 7e3e
00000360: fe9a cc3d 5bad 34be f869 783f 37e1 e5bb
00000370: 48b3 f13e 767e d0be a858 d03d 00b2 d8bd
00000380: 8c94 45bd 5408 1f3e 4851 383f d73a 403e
00000390: b2d5 8cbe e057 ba3d 7419 8e3e 1e26 8a3e
000003a0: 1163 413e 54ba 9abe 343e 80be 61f8 f1bd
000003b0: 0b3d f5be da48 b4bd 764b 73bd ca5e f1be
000003c0: 4048 c4be ea4b f3bd b079 163f 492b 19be
000003d0: 374c aabe 710e 0dbf 8b8d 053f 977f 1f3e
000003e0: 84e9 0fbf c8dd 773e fd27 49bd a874 aabe
000003f0: 567b c13d 6f3d 39be 82f3 c2be 65fb 1ebe

input_layer.bias f4 [64]
-0.16642812 0.0061559863 0.057887863 0.5111259 0.40423676 0.42618516 0.07492574 0.2443584
0.1979939 -0.058832657 0.36257187 -0.35212302 0.08551208 -0.3492919 -0.1936678 -0.465729
0.44121525 -0.09494285 0.45248127 -0.21050806 -0.022691548 -0.12529182 0.09720663 0.05187973
-0.23561074 -0.37681955 0.39010775 -0.16502362 0.3373131 0.15761438 0.27152437 -0.46127176
0.3809488 0.19800954 0.053186994 0.294934 -0.4074511 -0.004803011 0.4822919 0.2695012
-0.365822 -0.13235345 -0.42191982 0.36470363 -0.43512428 0.05384245 -0.24512854 -0.089754194
-0.2357809 -0.2090108 0.625036 0.31536025 -0.23318066 -0.48834616 0.26561114 -0.33779526
0.21465985 -0.45072025 0.17126244 0.40335336 0.25707912 -0.3882091 -0.34769866 0.5188639
00000000: 226c 2abe 28b8 c93b d31b 6d3d 26d9 023f
00000010: 1ff8 ce3e f134 da3e ab72 993d 1739 7a3e
00000020: eabe 4a3e 83fa 70bd 05a3 b93e 7849 b4be
00000030: f520 af3d 63d6 b2be da50 46be 0874 eebe
00000040: f7e6 e13e 6671 c2bd a0ab e73e 6d8f 57be
00000050: a0e3 b9bc 804c 00be 4514 c73d d77f 543d
00000060: f143 71be 7eee c0be 34bc c73e f4fb 28be
00000070: 4db4 ac3e aa65 213e 3e05 8b3e d02b ecbe
00000080: b90b c33e 03c3 4a3e 9bda 593d 9701 973e
00000090: 6e9d d0be 9462 9dbb f7ee f63e 10fc 893e
000000a0: 054d bbbe aa87 07be e005 d8be 6fba ba3e
000000b0: 9cc8 debe e789 5c3d fa02 7bbe 0cd1 b7bd
000000c0: 8c70 71be ed06 56be 5c02 203f e676 a13e
000000d0: e9c6 6ebe 8208 fabe 2ffe 873e 80f3 acbe
000000e0: cbcf 5b3e cec4 e6be 6c5f 2f3e 5584 ce3e
000000f0: e09f 833e 58c3 c6be 8f05 b2be 44d4 043f

hidden_layer_1.weight f4 [64, 64]
0.08356103 -0.023215793 -0.052559167 0.025592627 0.12610503 -0.11560024 0.121654145 -0.17399444
0.023707828 -0.0077679045 0.07812851 0.14534421 0.16377398 0.05923004 -0.005800549 0.003554806
-0.07654535 -0.026964553 0.11485511 -0.07467004 -0.27948055 -0.0049557607 0.085162945 0.14037889
0.123481855 0.0050442293 0.07945041 -0.10579536 -0.056916922 -0.051564224 0.09119266 0.11102313
0.11986788 0.008129474 0.32833728 0.14694633 0.115060076 -0.03294948 0.054335427 -0.24863583
0.110814154 -0.0048962943 0.11037399 0.1539317 0.24761875 -0.104130976 0.00044991428 0.13233499
-0.55399746 0.03836929 0.050288454 -0.024101665 0.058929227 -0.08755429 -0.14639217 -0.08169213
-0.050406296 0.063097835 -0.18805827 0.123018965 0.15466338 0.0065488536 0.111454934 -0.03927191
-0.17560278 -0.039704263 -0.04673804 0.1813523 0.112100996 0.10695092 0.07173879 0.13577467
-0.055072606 -0.15334176 -0.081612594 -0.19448149 -0.046327066 -0.05203995 -0.16639285 -0.027780205
0.14805001 -0.10483034 0.113297254 -0.15502997 -0.05614737 -0.0992979 0.033210307 -0.105049506
-0.09872349 -0.084365115 0.030550659 -0.20683177 0.09766417 -0.017813575 0.02739675 -0.0819045
0.08208927 0.113031074 -0.066567495 0.10557304 0.07725054 -0.015245648 0.025608152 0.15848774
-0.13607201 0.061696395 0.030792296 0.007220071 -0.17564213 -0.0606965 -0.10368636 -0.12160332
-0.49788702 -0.27754557 0.13710505 -0.03209731 -0.047854874 -0.040877774 0.05356775 -0.06391406
-0.014945302 0.050528467 0.2714613 0.10179527 0.030079698 -0.14970088 -0.009467774 0.021661963
-0.113011695 0.07228691 0.007731774 -0.00047030003 0.097633824 -0.11161059 0.14360917 -0.15365742
-0.00078578293 0.046873327 0.10247426 0.031082857 -0.04699685 -0.3636441 0.06629778 0.020922497
0.10398661 0.100939274 0.02382532 -0.133486 -0.32912487 0.019458534 0.012032217 -0.045344524
-0.31392682 -0.13390987 0.2029201 0.04878136 -0.09339449 0.013002228 0.06178842 0.1249558
0.05144061 0.13611643 0.32627437 0.086506754 -0.0061749667 -0.005819743 0.024998402 -0.10355579
0.026867071 0.11131486 0.10227364 0.11198137 -0.08021349 0.007701076 0.03622343 0.024780877
-0.3698713 -0.33425835 0.24065763 -0.07611287 -0.07587794 0.10355197 -0.099764995 0.0075229257
-0.12519652 0.10160677 0.11521351 0.14591974 0.08843916 -0.13571486 0.121731356 0.17485881
-0.009745498 0.077452645 0.111672305 0.14367884 -0.01548236 -0.09411224 0.07647127 -0.28195995
0.1436533 -0.060707696 0.095139004 0.16672006 0.17375731 0.12103339 0.0260309 -0.003982872
-0.05572064 0.0064038746 -0.09466263 0.018918812 -0.014900398 0.24535744 -0.08413599 0.07579482
0.20927164 0.22322361 -0.051624294 0.05644728 -0.10282031 0.16739717 -0.04190283 0.10333097
0.16135389 -0.070862845 -0.0022097847 0.002566871 0.046345115 0.04797789 -0.031343758 0.028704006
0.15541282 0.075812474 0.028614312 0.07981295 0.17529567 0.11841303 0.1485064 0.07332906
0.28789312 0.17939305 0.04240843 -0.06596449 0.050215892 -0.107661605 0.062624194 0.01133208
-0.058322348 -0.004530102 0.051237285 0.11118932 0.07508828 0.12006939 0.026176425 -0.106571265
00000000: 0c22 ab3d 0c2f bebc 4848 57bd a1a7 d13c
00000010: ad21 013e d2bf ecbd cf25 f93d 992b 32be
00000020: eb36 c23c e889 febb d701 a03d 1dd5 143e
00000030: 5eb4 273e 339b 723d 8812 bebb c0f7 683b
00000040: cfc3 9cbd c4e4 dcbc 2839 eb3d 9bec 98bd
00000050: 1318 8fbe ef63 a2bb e969 ae3d 7cbf 0f3e
00000060: 0ee4 fc3d 104a a53b e6b6 a23d 3dab d8bd
00000070: b821 69bd 0235 53bd 38c3 ba3d 1860 e33d
00000080: 4b7d f53d 7c31 053c d31b a83e 1979 163e
00000090: 9ea4 eb3d 09f6 06bd d38e 5e3d 649a 7ebe
000000a0: 88f2 e23d 1871 a0bb c20b e23d 46a0 1d3e
000000b0: c58f 7d3e 9f42 d5bd 79e2 eb39 d382 073e
000000c0: c7d2 0dbf 1e29 1d3d 44fb 4d3d db70 c5bc
000000d0: c65f 713d aa4f b3bd d4e7 15be 344e a7bd
000000e0: d576 4ebd 7039 813d 5992 40be 5ef1 fb3d
000000f0: 1460 1e3e c497 d63b 7c42 e43d 95db 20bd
00000100: 37d1 33be f0a0 22bd 6370 3fbd 6bb4 393e
00000110: 3595 e53d 1509 db3d c9eb 923d 8408 0b3e
00000120: d093 61bd 9f05 1dbe 8124 a7bd 2826 47be
00000130: 73c1 3dbd d827 55bd e362 2abe 5093 e3bc
00000140: 6c9a 173e 4ab1 d6bd 6408 e83d 2dc0 1ebe
00000150: c9fa 65bd b35c cbbd 8807 083d 3224 d7bd
00000160: 8b2f cabd 9ec7 acbd 6045 fa3c b5cb 53be
00000170: 2704 c83d c6ed 91bc 266f e03c 8cbd a7bd
00000180: 6b1e a83d d67c e73d 8a54 88bd ae36 d83d
00000190: 8835 9e3d e2c8 79bc 30c8 d13c 9c4a 223e
000001a0: 7656 0bbe 5cb5 7c3d 2040 fc3c 5896 ec3b
000001b0: 88db 33be e59c 78bd 8459 d4bd 290b f9bd
000001c0: 0ceb febe 741a 8ebe 4465 0c3e 7878 03bd
000001d0: 7903 44bd 746f 27bd db69 5b3d 60e5 82bd
000001e0: 24dd 74bc f0f6 4e3d fafc 8a3e 0a7a d03d
000001f0: b369 f63c 304b 19be b91e 1bbc 6e74 b13c
00000200: ad72 e7bd 290b 943d d25a fd3b 9a92 f6b9
00000210: 3ef4 c73d 1894 e4bd 480e 133e 5f58 1dbe
00000220: 00fd 4dba 3ffe 3f3d 06de d13d 7aa1 fe3c
00000230: c57f 40bd 8f2f babe 21c7 873d a865 ab3c
00000240: eff6 d43d 40b9 ce3d 512d c33c 8eb0 08be
00000250: 0e83 a8be 8167 9f3c c722 453c 2ebb 39bd
00000260: 04bb a0be ab1f 09be 49ca 4f3e f7ce 473d
00000270: 9c45 bfbd 4c07 553c db15 7d3d d4e8 ff3d
00000280: 64b3 523d 1b62 0b3e 6f0d a73e 742a b13d
00000290: 6057 cabb 8bb3 bebb 73c9 cc3c 0f15 d4bd
000002a0: 5518 dc3c 0cf9 e33d d874 d13d 7d56 e53d
000002b0: f846 a4bd 4f59 fc3b 055f 143d 4401 cb3c
000002c0: c55f bdbe e923 abbe f46e 763e 10e1 9bbd
000002d0: e565 9bbd 0e13 d43d 9751 ccbd e082 f63b
000002e0: 8433 00be 3617 d03d 10f5 eb3d fc6b 153e
000002f0: 971f b53d d6f8 0abe 4a4e f93d 300e 333e
00000300: 95ab 1fbc 7e9f 9e3d 73b4 e43d 8c20 133e
00000310: b9a9 7dbc ebbd c0bd f89c 9c3d 0e5d 90be
00000320: da19 133e a2a8 78bd 3dd8 c23d aab8 2a3e
00000330: 70ed 313e 5be0 f73d c13e d53c c082 82bb
00000340: 533b 64bd 98d7 d13b 7bde c1bd a0fb 9a3c
00000350: cd20 74bc fb3e 7b3e 7d4f acbd 513a 9b3d
00000360: 4e4b 563e bb94 643e ff73 53bd 4335 673d
00000370: 7493 d2bd 2a6a 2b3e 4da2 2bbd 309f d33d
00000380: f439 253e 8a20 91bd 09d2 10bb f338 283b
00000390: 60d4 3d3d 7784 443d 5062 00bd aa24 eb3c
000003a0: 8a24 1f3e 9243 9b3d 9068 ea3c f974 a33d
000003b0: b580 333e 8882 f23d 1012 183e 8c2d 963d
000003c0: ba66 933e d0b2 373e 76b4 2d3d 6418 87bd
000003d0: 2eaf 4d3d b07d dcbd 1d41 803d 30aa 393c
000003e0: 6ae3 6ebd 4071 94bb 30de 513d 3ab7 e33d
000003f0: e2c7 993d f1e6 f53d f16f d63c 0942 dabd

hidden_layer_1.bias f4 [64]
-0.047764454 0.15173846 0.0364407 0.13894026 0.004583597 0.10155989 0.21968485 0.10366941
0.12374303 0.09509892 0.018459756 0.1762901 0.109522626 0.06809993 0.22896114 -0.11046305
-0.1209037 -0.06976947 0.14135475 0.09019568 -0.11000298 0.09857957 0.042316947 -0.06692439
0.09744837 -0.08265328 -0.020545412 -0.088776544 0.14004639 -0.034062065 0.113960795 0.15747774
0.14914444 0.14715236 0.017467856 0.17065865 0.07765093 -0.02826046 0.12447005 0.11572184
-0.029936062 0.15745424 0.0029099146 -0.002083754 -0.038654644 -0.092236385 -0.049669724 -0.13005504
-0.004577557 0.20914689 0.15283136 0.029474415 0.06695783 -0.11483101 0.10658212 0.11041642
0.09767444 -0.076634005 0.17914945 0.091401994 0.009883955 -0.032360658 -0.08733823 0.04220292
00000000: a9a4 43bd 5461 1b3e d842 153d 5b46 0e3e
00000010: 0032 963b a2fe cf3d 11f5 603e a150 d43d
00000020: fc6c fd3d 39c3 c23d ea38 973c 6485 343e
00000030: 664d e03d fa77 8b3d ca74 6a3e 743a e2bd
00000040: 5c9c f7bd 4ce3 8ebd 4dbf 103e 83b8 b83d
00000050: 3e49 e1bd 16e4 c93d 8954 2d3d a80f 89bd
00000060: 0393 c73d 1f46 a9bd da4e a8bc 7ad0 b5bd
00000070: 5268 0f3e aa84 0bbd 4764 e93d d841 213e
00000080: 52b9 183e 1caf 163e c018 8f3c 24c1 2e3e
00000090: 7307 9f3d 7b82 e7bc 27ea fe3d 92ff ec3d
000000a0: 793c f5bc af3b 213e 44b4 3e3b 978f 08bb
000000b0: 5554 1ebd 6ee6 bcbd 7b72 4bbd 262d 05be
000000c0: 55ff 95bb 9a2a 563e d37f 1c3e 5474 f13c
000000d0: 3021 893d 852c ebbd ba47 da3d 0122 e23d
000000e0: 8909 c83d 4af2 9cbd f472 373e f830 bb3d
000000f0: 50f0 213c 9c8c 04bd 63de b2bd f8dc 2c3d

hidden_layer_2.weight f4 [64, 64]
0.052155122 0.01642114 -0.07706091 -0.11338657 0.03342928 -0.053847462 -0.10727127 -0.11456409
-0.10947189 -0.067876786 0.04921922 0.102778584 -0.0026587993 -0.11944768 0.08257906 0.018865734
0.017091095 -0.059705302 -0.023433268 0.07438451 0.003970742 -0.11044145 0.058599904 -0.12015268
-0.0015456676 0.010910034 -0.123553336 -0.044279754 0.089468285 -0.079509094 -0.072004646 -0.07228002
0.10307449 0.08625661 -0.12352005 -0.06596099 0.100469634 0.07934415 -0.01802218 0.012858316
0.110109955 -0.08530919 -0.07457642 -0.07344325 0.07798964 -0.093810976 0.05993256 0.047470897
0.09602995 -0.04468669 -0.09061721 0.010068908 0.04078479 -0.011039704 0.01731117 0.01142174
0.123288214 0.09478104 0.063512236 0.09159863 0.021009028 -0.019668072 -0.11044994 0.09694974
-0.11857258 -0.07514545 0.1097738 0.08885704 0.085354164 -0.012299268 0.07460532 0.11833382
0.07739982 0.029151175 -0.11300045 -0.019464875 -0.0039577195 -0.12240517 0.22531824 -0.04448004
0.088460684 0.06439735 -0.03536396 -0.1389145 0.03503625 -0.30728427 -0.09067033 -0.11212251
0.050405122 0.10179396 -0.012395203 0.039617408 0.046500433 -0.079205625 -0.12688655 -0.05447225
0.10735915 -0.023289746 -0.22776 -0.09072415 0.096449785 0.041701883 -0.291553 0.09821661
0.09181921 -0.34705856 -0.2086721 0.054345936 -0.1360203 -0.07143391 0.045673598 0.050238088
-0.058514938 -0.059579514 -0.02950713 0.0991467 -0.0944767 -0.10506489 -0.12168369 0.045943603
-0.12530346 -0.030371858 0.11403751 -0.03031101 0.06983963 -0.1796124 0.042345677 0.059656736
-0.051709954 0.11170237 -0.019387493 -0.10701693 0.042403415 -0.031662192 -0.07601738 -0.04381714
-0.12473857 -0.0013126844 -0.13711694 0.016253397 -0.056746233 -0.1357133 -0.036951132 -0.017530203
0.061789602 0.09498977 0.092234164 -0.10029557 0.009351015 -0.08875109 -0.03991534 0.10011074
-0.122873366 0.034948245 0.0014831817 -0.022904677 -0.08842704 -0.09666559 0.019342149 0.08717203
0.06283231 -0.11441454 -0.08880688 -0.006882983 -0.028117707 0.08046919 -0.014432266 0.039209444
-0.01354428 -0.06794664 -0.09911735 -0.06644558 0.03210726 -0.06114216 0.06963093 -0.041431725
-0.033656165 -0.097895384 0.07810021 0.04510347 -0.116281435 0.012348592 -0.079676285 -0.07348648
-0.044801027 0.012877726 -0.10291412 -0.08293251 0.003219679 0.067175955 -0.05932811 -0.11053086
0.02298376 -0.09774735 -0.07007237 -0.13294081 0.047193035 0.029694958 0.06453963 -0.09828435
-0.046281718 -0.05438377 -0.11766574 0.006211536 -0.03050065 -0.039726764 0.09442951 0.081490725
-0.007530391 0.0107667595 -0.010900121 -0.14403881 0.06511961 -0.034512434 -0.064572394 -0.12191428
-0.09053267 -0.13223699 0.0681636 -0.05874352 0.07985671 -0.119399995 -0.046887368 0.1015733
-0.06348613 -0.052579477 0.06404775 -0.007921762 -0.037456587 -0.075918555 0.0006193946 -0.0544978
0.063000366 0.04915543 -0.020123092 -0.00024971366 0.013762116 0.045986593 -0.028798863 0.11023489
-0.102874815 -0.055171568 0.014676884 -0.08160196 0.017511949 -0.0064727813 -0.09556593 -0.07830348
-0.0037570691 -0.08037402 0.07567771 0.06331113 0.04844989 -0.09797969 0.018275931 0.09468547
00000000: 9ca0 553d a085 863c 1cd2 9dbd 3837 e8bd
00000010: 24ed 083d 288f 5cbd 0ab1 dbbd 94a0 eabd
00000020: cc32 e0bd fc02 8bbd 189a 493d 947d d23d
00000030: 403f 2ebb fca0 f4bd 361f a93d 508c 9a3c
00000040: a002 8c3c 8c8d 74bd 20f7 bfbc e856 983d
00000050: 001d 823b 202f e2bd 7406 703d 9c12 f6bd
00000060: 0098 caba 00c0 323c 8809 fdbd b05e 35bd
00000070: 263b b73d aad5 a2bd 2c77 93bd 8c07 94bd
00000080: b818 d33d 4ea7 b03d 14f8 fcbd 8e16 87bd
00000090: 06c3 cd3d 307f a23d 40a3 93bc b0ab 523c
000000a0: 5481 e13d 96b6 aebd 86bb 98bd 6a69 96bd
000000b0: 08b9 9f3d f81f c0bd d87b 753d d870 423d
000000c0: 5aab c43d 6409 37bd 8495 b9bd 10f8 243c
000000d0: f40d 273d e0df 34bc 28d0 8d3c 4022 3b3c
000000e0: 887e fc3d 901c c23d b412 823d 1098 bb3d
000000f0: 201b ac3c f01e a1bc 9433 e2bd 968d c63d
00000100: 2ed6 f2bd dce5 99bd 16d1 e03d aefa b53d
00000110: 2ace ae3d de82 49bc adca 983d 0059 f23d
00000120: cc83 9e3d 72ce ee3c c86c e7bd cd74 9fbc
00000130: c2af 81bb 90af fabd d3b9 663e b430 36bd
00000140: e02a b53d c2e2 833d cdd9 10bd 9a3f 0ebe
00000150: 2c82 0f3d 5d54 9dbe 5eb1 b9bd 7da0 e5bd
00000160: 9a75 4e3d 5a79 d03d 4015 4bbc dd45 223d
00000170: 3d77 3e3d 8f36 a2bd 8cee 01be 4b1e 5fbd
00000180: 1ddf db3d 23ca bebc eb39 69be 95cd b9bd
00000190: 7787 c53d 98cf 2a3d 6f46 95be ca25 c93d
000001a0: b60b bc3d a9b1 b1be 24ae 55be d899 5e3d
000001b0: e848 0bbe f14b 92bd 3d14 3b3d 74c6 4d3d
000001c0: 5cad 6fbd a609 74bd f0b8 f1bc 6d0d cb3d
000001d0: 007d c1bd 432c d7bd 4c35 f9bd 5c2f 3c3d
000001e0: 8d4f 00be 67ce f8bc 7f8c e93d cc4e f8bc
000001f0: 1408 8f3d 50ec 37be a972 2d3d 9f5a 743d
00000200: d1cd 53bd 36c4 e43d 85d2 9ebc b12b dbbd
00000210: 34af 2d3d 37b0 01bd 00af 9bbd 9a79 33bd
00000220: ef76 ffbd 610e acba 6268 0cbe d825 853c
00000230: bd6e 68bd 6df8 0abe 125a 17bd 809b 8fbc
00000240: 1817 7d3d ff89 c23d 44e5 bc3d c467 cdbd
00000250: 0035 193c 22c3 b5bd 447e 23bd dc06 cd3d
00000260: 08a5 fbbd e425 0f3d 5267 c23a 97a2 bbbc
00000270: 3c19 b5bd 9cf8 c5bd 6d73 9e3c 4087 b23d
00000280: 3aae 803d 2c52 eabd 62e0 b5bd a58a e1bb
00000290: 1b57 e6bc 08cd a43d 5075 6cbc 159a 203d
000002a0: d4e8 5dbc 9c27 8bbd 0afe cabd 9f14 88bd
000002b0: e782 033d 3470 7abd a99a 8e3d 50b4 29bd
000002c0: 0cdb 09bd 607d c8bd 01f3 9f3d 6bbe 383d
000002d0: f624 eebd c051 4a3c 522d a3bd 1480 96bd
000002e0: 4881 37bd 19fd 523c a3c4 d2bd 85d8 a9bd
000002f0: 4001 533b 8c93 893d 0802 73bd 015e e2bd
00000300: 7048 bc3c c32f c8bd 1a82 8fbd a321 08be
00000310: 7c4d 413d d742 f33c 5b2d 843d 4e49 c9bd
00000320: e691 3dbd 84c1 5ebd bcfa f0bd 248a cb3b
00000330: 80dc f9bc 88b8 22bd 4264 c13d 9ce4 a63d
00000340: 80c1 f6bb 1067 303c 6c96 32bc e97e 13be
00000350: 6e5d 853d e95c 0dbd 883e 84bd 32ae f9bd
00000360: 3169 b9bd 2269 07be 5c99 8b3d 0c9d 70bd
00000370: ea8b a33d fc87 f4bd f80c 40bd aa05 d03d
00000380: 0405 82bd 945d 57bd 772b 833d 47ca 01bc
00000390: 146c 19bd 307b 9bbd de5e 223a 1639 5fbd
000003a0: 5606 813d 3457 493d 2fd9 a4bc 00ec 82b9
000003b0: 807a 613c 705c 3c3d 98eb ebbc d4c2 e13d
000003c0: 08b0 d2bd 95fb 61bd 5077 703c ee1e a7bd
000003d0: 3875 8f3c a019 d4bb 12b8 c3bd 935d a0bd
000003e0: 2939 76bb 229b a4bd eafc 9a3d 44a9 813d
000003f0: 6473 463d 93a9 c8bd 68b7 953c 75ea c13d

hidden_layer_2.bias f4 [64]
-0.10648121 -0.06235016 -0.017928286 -0.0991894 -0.15289506 0.035252042 -0.090523235 0.10541471
-0.13065039 0.0083339 0.0030660667 0.11144902 -0.007783083 -0.07941918 -0.1416814 0.118318014
-0.095811486 0.12451284 0.018030943 -0.028442048 0.1427397 0.05032018 -0.05578364 0.07882294
0.13819033 -0.0326076 0.15036692 0.07776748 -0.08575539 -0.11196335 0.15607923 0.023329629
0.1413432 0.07358147 0.18141088 -0.0318359 0.08431754 0.0863203 -0.11931839 0.1741245
0.03261265 -0.11687591 -0.06576027 -0.0087725725 -0.12155972 0.16079353 -0.096944556 0.04032475
-0.036732495 0.11190674 0.057074226 0.11212112 -0.11399127 -0.08722281 0.09999443 0.116255924
-0.07380167 0.18102445 0.15267275 0.07964274 -0.11210016 0.005371594 -0.14238097 -0.008140289
00000000: d212 dabd e262 7fbd 57de 92bc d023 cbbd
00000010: 8690 1cbe 7264 103d 3f64 b9bd abe3 d73d
00000020: 37c9 05be e98a 083c 10f0 483b 623f e43d
00000030: 3b09 ffbb 86a6 a2bd ee14 11be b750 f23d
00000040: d038 c4bd 9600 ff3d a1b5 933c 4cff e8bc
00000050: 5b2a 123e 881c 4e3d 637d 64bd ec6d a13d
00000060: c481 0d3e 8c8f 05bd c9f9 193e 8e44 9f3d
00000070: 86a0 afbd 0a4d e5bd 3cd3 1f3e c71d bf3c
00000080: 46bc 103e e2b1 963d c6c3 393e 5c66 02bd
00000090: adae ac3d b3c8 b03d 335d f4bd b14d 323e
000000a0: d894 053d a35c efbd 52ad 86bd d6ba 0fbc
000000b0: 4df4 f8bd 0fa7 243e de8a c6bd 912b 253d
000000c0: d074 16bd 5c2f e53d aac6 693d c29f e53d
000000d0: 4174 e9bd dfa1 b2bd e1c9 cc3d 9617 ee3d
000000e0: 5425 97bd 795e 393e 3f56 1c3e bc1b a33d
000000f0: c594 e5bd 3204 b03b 51cc 11be d95e 05bc

output_layer.weight f4 [2, 64]
0.061117962 0.25475064 0.09017736 -0.073734276 -0.3463512 0.00026691178 0.03128404 0.037609752
0.01590056 -0.18244903 0.024465883 -0.011717422 -0.21577989 0.0067560375 -0.20934582 -0.102639385
0.010808751 -0.100633785 -0.018720035 -0.08084533 0.25780773 -0.12588482 0.10026259 -0.10183654
0.21013853 -0.040058672 0.21722126 -0.062085174 -0.06843141 0.0125307 0.022458952 -0.0010711679
0.15030178 -0.16897827 -0.08030554 0.031361267 -0.15267242 -0.08957848 -0.06648368 0.0057542725
-0.15164839 0.009807602 -0.17964572 -0.197812 0.007080015 -0.11851097 -0.050170586 -0.06734334
0.08826941 -0.09346786 0.24471202 0.16179468 0.0016322492 -0.061814778 -0.033955052 -0.19402097
0.036655113 0.24881542 -0.030670304 0.19035234 -0.24547443 -0.10006778 0.078721516 0.024539635
0.07049088 0.020127367 0.07629049 0.06955818 -0.015778316 -0.14540753 -0.0031798 -0.20166948
0.05154324 -0.19604121 0.107106365 0.03790761 -0.04375113 0.109657854 -0.069319986 0.12646243
-0.0832113 -0.126515 0.07504557 0.07865244 0.10704663 -0.069769196 0.030998563 -0.19157277
-0.0037339772 0.0041210055 -0.038497288 -0.08202487 -0.097067475 0.039417148 -0.119240664 0.078767024
-0.11199056 -0.19702852 -0.16760595 0.045716733 -0.17496714 -0.120812744 0.014109339 -0.160323
0.08922116 0.05098091 -0.1849001 0.05602842 0.0994672 -0.15658505 0.087498814 -0.14137289
-0.054757953 -0.17965911 0.100865066 0.0530541 0.010492611 0.012287925 0.1580044 -0.10774609
0.059868634 0.07680219 -0.16436951 0.03495721 -0.039032005 -0.16626248 0.101636775 0.11105182
00000000: d456 7a3d ad6e 823e e8ae b83d ff01 97bd
00000010: f254 b1be 4bf0 8b39 b223 003d af0c 1a3d
00000020: e441 823c ebd3 3abe ad6c c83c 6efa 3fbc
00000030: 67f5 5cbe c061 dd3b c05e 56be 9934 d2bd
00000040: 3017 313c 1619 cebd c25a 99bc 3d92 a5bd
00000050: 60ff 833e f3e7 00be 7956 cd3d ad8f d0bd
00000060: 8e2e 573e 9014 24bd 406f 5e3e 064d 7ebd
00000070: c425 8cbd 914d 4d3c d6fb b73c 6e66 8cba
00000080: b6e8 193e a408 2dbe 3b77 a4bd ac74 003d
00000090: 2956 1cbe ec74 b7bd 9828 88bd 568e bc3b
000000a0: b749 1bbe 10b0 203c 0cf5 37be 3b8f 4abe
000000b0: 78ff e73b e1b5 f2bd ac7f 4dbd 4eeb 89bd
000000c0: 98c6 b43d 146c bfbd ca95 7a3e 81ad 253e
000000d0: 32f1 d53a 7e31 7dbd 7414 0bbd 6fad 46be
000000e0: ac23 163d 78c9 7e3e 4a40 fbbc b9eb 423e
000000f0: a65d 7bbe 56f0 ccbd bf38 a13d 5807 c93c
00000100: 865d 903d 26e2 a43c 303e 9c3d 8574 8e3d
00000110: 8741 81bc b6e5 14be 3164 50bb 7282 4ebe
00000120: 011f 533d 07bf 48be 955a db3d 0345 1b3d
00000130: 6334 33bd 4c94 e03d a3f7 8dbd 5e7f 013e
00000140: b06a aabd 268d 01be 7eb1 993d 8814 a13d
00000150: 433b db3d 27e3 8ebd b3f0 fd3c a72b 44be
00000160: beb5 74bb 8009 873b 55af 1dbd a8fc a7bd
00000170: 50cb c6bd e073 213d 7334 f4bd 9b50 a13d
00000180: 4f5b e5bd d8c1 49be e5a0 2bbe 7841 3b3d
00000190: 962a 33be ac6c f7bd db2a 673c b62b 24be
000001a0: 95b9 b63d 5cd1 503d 7456 3dbe 0e7e 653d
000001b0: 76b5 cb3d d557 20be 9432 b33d 0ec4 10be
000001c0: e049 60bd 8ff8 37be 5892 ce3d 424f 593d
000001d0: 33e9 2b3c 4b53 493c e8cb 213e fba9 dcbd
000001e0: d038 753d 774a 9d3d 7b50 28be 4b2f 0f3d
000001f0: 06e0 1fbd b640 2abe f126 d03d 236f e33d

output_layer.bias f4 [2]
-0.0657756 0.057147115
00000000: 5cb5 86bd 1813 6a3d
