DQN/data/Apprentice 6.pt (torch, 38460 bytes, 8 tensors)

input_layer.weight f4 [64, 4]
000000 12 54 0b 3f df c0 dd be be dc 4b bf 77 01 bd be
       0.54425156 -0.4331121 -0.796337 -0.3691518
000010 0c 62 fb 3e 5c 60 da 3d b7 93 3b bf e7 df ca be
       0.4909824 0.1066291 -0.7327227 -0.3962395
000020 41 10 0c 3d e6 c0 f0 3d 31 d9 53 3f 3d ba 67 bd
       0.03419519 0.117555425 0.8275328 -0.056574095
000030 22 af e4 3d a0 1f e1 3e 15 fb ed bc 8c 3b 18 bf
       0.111662164 0.4396944 -0.02905039 -0.5946586
000040 8c 74 b1 be 7e 41 ee 3e 05 ce b1 be e9 9b a9 3e
       -0.3465923 0.46534342 -0.34727493 0.33126763
000050 b1 17 03 bd a0 84 ad bd bc ae 8f 3e 8a 30 87 bd
       -0.032005016 -0.08472562 0.28063 -0.06601055
000060 1d 2a e2 3d db d0 53 be 43 e5 07 bf 6d 75 a0 bd
       0.11043189 -0.20685141 -0.530842 -0.07834897
000070 2e 1a cb be b5 da 2f 3e 40 12 51 3f 15 24 99 3d
       -0.3966841 0.17173274 0.8166847 0.07477585
000080 30 ab 09 3d 61 7b d6 be 88 c7 cd be cb 10 a1 be
       0.033610523 -0.41891006 -0.40191293 -0.31458125
000090 2c c8 a8 3d b4 8c bf 3e 71 5e c8 3e 52 2f 45 3b
       0.08241305 0.37412035 0.39134553 0.003008802
0000a0 a3 4e a7 3e 1f e3 32 be 9e ac a8 bf b2 58 a4 be
       0.32677183 -0.17469452 -1.3177679 -0.3209892
0000b0 54 d5 29 3e 10 97 bf bd 70 db 22 be 44 a1 1e be
       0.16585284 -0.09354985 -0.15904021 -0.15491205
0000c0 45 7e 92 3e 11 2f 60 3e 6a 0e 53 be b0 da 11 be
       0.2861196 0.21892954 -0.20610967 -0.14243579
0000d0 69 15 63 bd 4e d8 bf 3e e2 b2 7a 3c 89 aa 10 3d
       -0.05544034 0.37469715 0.015301438 0.035318885
0000e0 93 35 21 bd 49 ce a1 be fb fe 22 bf 3c e8 bb 3e
       -0.039357733 -0.31602696 -0.6367032 0.36700618
0000f0 c8 9a 04 bf 00 6d ee be 55 10 9e 3e fa a9 ca bd
       -0.5179868 -0.46567535 0.30871835 -0.09895702
000100 12 2a 26 3e 22 73 b1 be 2d 5d 2b be 71 31 1f bc
       0.16226986 -0.34658152 -0.16734762 -0.009716378
000110 d1 54 f4 bd 7a 09 5d be db c0 0d bf 69 a1 99 be
       -0.1193024 -0.21585646 -0.553724 -0.3000596
000120 16 b8 a1 be 61 df f6 3d 8a d6 c8 be 0f f4 20 bf
       -0.3158576 0.12054325 -0.3922618 -0.62872404
000130 63 c0 42 be 60 3a c2 bd 94 c7 17 3f 8e 77 a9 be
       -0.19018702 -0.094837904 0.5928891 -0.33099025
000140 4c 10 1a 3f bd c8 6c 3d 22 84 d4 bd 39 bd 3a 3e
       0.6018112 0.057808626 -0.10376765 0.18236245
000150 e3 c3 ad 3d 6c 03 4f 3e 07 b9 c1 bc ca 0e 13 bf
       0.08484628 0.20216149 -0.023647798 -0.5744444
000160 12 6c d1 3c a2 4b 58 bd ee 9d 93 bf 15 9a c6 be
       0.025564227 -0.052806504 -1.1532571 -0.3878943
000170 c0 f9 b4 3d 50 68 16 bd 38 f8 b3 3e b0 12 b3 3d
       0.088366985 -0.036720574 0.35150313 0.08743799
000180 ec 41 24 3e a3 ee d4 be c3 9c 3f bf 02 b6 d7 3e
       0.16040772 -0.41588315 -0.74848574 0.42131048
000190 9a 1c 70 3e 68 37 2a be 73 4d 0b bf fc 61 bd 3e
       0.2344841 -0.16622698 -0.54415053 0.3698882
0001a0 69 01 6a bd 81 86 34 3e 67 f6 44 bf ad 83 58 3e
       -0.05713025 0.17629434 -0.7693848 0.2114398
0001b0 89 dd 69 3e 56 97 bf bc 11 fe f2 be 77 3e 00 bf
       0.22838415 -0.023387592 -0.47459462 -0.50095314
0001c0 73 82 e0 be ed 51 06 be ff 8c f9 be ce 60 b9 be
       -0.43849525 -0.1311719 -0.48740384 -0.3620667
0001d0 30 cd 4d be 4f bc e3 3e 33 44 33 3f 70 0b 65 3e
       -0.20097804 0.44479606 0.7002594 0.22367644
0001e0 3b b7 4b 3e cb f3 40 bd ce 16 6a 3e ca b4 f6 3d
       0.19894116 -0.0471075 0.22860262 0.120462015
0001f0 65 1b 97 be 06 5a 51 bd 5b 96 65 bc fa cc ad 3e
       -0.29513088 -0.051111244 -0.014012898 0.33945447
000200 90 cc 9d 3e e8 92 3e 3b b2 70 3b bf fd 04 ba 3e
       0.3082013 0.0029079262 -0.73218834 0.3633193
000210 79 db 24 3e 8f b7 15 3f b5 4d 16 bf c3 d6 2f 3e
       0.16099347 0.58483213 -0.5871232 0.17171769
000220 13 94 a3 bd cf 49 35 3d d3 48 0d 3e 19 a9 22 3e
       -0.07987227 0.044259842 0.13797311 0.15884818
000230 47 22 5b bd fa a5 83 be 29 60 43 bf ac c3 1d 3e
       -0.053499486 -0.25712568 -0.76318604 0.15406674
000240 0f 6a d0 3e 2b 6f 94 be bc 79 76 3d 38 3c e7 be
       0.40705916 -0.28991064 0.06017469 -0.4516313
000250 0f 42 1b 3f 07 c1 a4 be 21 d7 2d 3e 36 30 ae 3e
       0.6064767 -0.32178518 0.16976596 0.34021157
000260 38 e5 9f bd cf d7 8b 3e 6f ec 0c bf 7f 0e ea bd
       -0.07807392 0.27313086 -0.5504827 -0.11428546
000270 74 b1 67 3e 56 f8 54 be 99 dd 1d bf b4 ea db be
       0.22626287 -0.20797858 -0.61666256 -0.42952502
000280 5e b0 55 3e 35 d1 8e 3e 2b 14 03 3f 32 02 9f bd
       0.2086806 0.27893987 0.5120265 -0.077640906
000290 e6 20 ce be 2b 46 3d 3d 63 98 cd be 61 82 cc bd
       -0.40259475 0.046209496 -0.40155324 -0.09985805
0002a0 80 7b d8 3e 2f e4 91 bd 3c 09 0c bf 71 38 3f 3e
       0.42281723 -0.07123601 -0.5470159 0.18673874
0002b0 fd fb ec 3d d0 ac f5 3c 8c d2 52 bf 74 ae f3 3d
       0.115715005 0.02998963 -0.8235252 0.11898509
0002c0 a4 1a f7 ba ba 1f a2 3c 9d a0 21 3f 0e 43 46 3e
       -0.0018852544 0.019790519 0.631357 0.19361517
0002d0 52 dd 6a bd 35 51 1c bd e9 4d c0 be a6 98 05 bf
       -0.057339974 -0.038163383 -0.3755944 -0.5218605
0002e0 da 4a 93 bc ce 16 8e 3e 5e c8 eb bc cb 80 15 bf
       -0.017980028 0.27751774 -0.028782066 -0.5839965
0002f0 4c b9 f0 bd 3d 1f e0 3e 29 ba 84 3e eb 18 36 3b
       -0.117540926 0.43773833 0.2592328 0.0027785848
000300 4f a7 88 3d 94 a0 af 3e 7f ad 53 bf 7c 49 b2 3e
       0.066725366 0.343022 -0.8268661 0.3482169
000310 02 e0 22 3f 02 8a da 3c 0a 45 ea be 14 b0 dc 3d
       0.6362306 0.026677135 -0.45755798 0.10775772
000320 4f fc 6f be e8 1f b0 3e ab 45 4d bf c8 27 0d bf
       -0.23436092 0.34399343 -0.8018443 -0.55138826
000330 e5 bc bb 3e 4b 2c 55 3d 7e e0 99 be 9e 31 99 3e
       0.36667553 0.052044194 -0.30054086 0.29920667
000340 32 fe 1a be 11 15 3b 3f 94 fe 7f 3f 05 70 ff 3e
       -0.1513603 0.7307902 0.9999783 0.49890152
000350 1c f5 b6 be a3 c6 a8 bb 7b ec 1d 3f 5e 0b 6c be
       -0.3573388 -0.0051506325 0.61688966 -0.23051211
000360 b2 9c ef bd d9 27 af be 89 2d 52 bf 78 6e 96 3d
       -0.11699809 -0.3421009 -0.8210073 0.07345289
000370 10 6b 27 3d 13 6a 93 3e 45 7b 27 bf ef e7 68 be
       0.040873587 0.28791866 -0.6542247 -0.22744726
000380 29 56 a1 bd c5 67 81 3e 34 ad f9 3d fd 8c ba 3e
       -0.07877762 0.25274482 0.12191239 0.3643569
000390 fd c4 c7 be 01 00 ae 3e 72 70 0d 3f e8 83 f3 bd
       -0.39017478 0.33984378 0.552497 -0.118903935
0003a0 7a 8a 83 3d 89 a3 c8 3e 87 1d 00 bf 9e df da 3c
       0.06422897 0.39187267 -0.50045055 0.026717957
0003b0 f9 76 fa 3d bb c2 94 be 86 bc 2e bf 2e 54 62 be
       0.122297235 -0.29054818 -0.68256414 -0.22102425
0003c0 49 57 19 3e 28 78 df 3e 8e dd e2 be fe b0 1d bf
       0.14974703 0.4364636 -0.44309658 -0.61598194
0003d0 f5 83 c5 3e 79 c4 41 3d 1c f6 59 bf 18 71 e4 3e
       0.38577238 0.04730651 -0.8514116 0.44617534
0003e0 16 8b cb 3e 96 d8 58 be 67 f5 31 bf 30 3a d2 be
       0.39754552 -0.21176371 -0.6951508 -0.4106002
0003f0 b4 4a 19 3f 1f 52 c7 be f4 80 a4 be 12 4a b5 be
       0.5987961 -0.3892984 -0.32129633 -0.35408074

input_layer.bias f4 [64]
000000 42 f3 96 3e b1 62 2f be c2 3c 67 3e 9e 96 b6 bd
       0.29482466 -0.17127492 0.22581771 -0.08915447
000010 8f 16 90 be 28 c4 a8 bc a9 28 26 3e 73 ea 94 bd
       -0.2814221 -0.020601347 0.16226448 -0.0727128
000020 91 a5 02 3f 7f 2a 68 be 3a b9 e9 3e 76 60 9f be
       0.51033884 -0.22672461 0.4564913 -0.3112828
000030 f6 8d f2 be b4 f9 ef 3e 1b 7b d6 3d 0a f5 d5 be
       -0.47373933 0.46870196 0.10472699 -0.41788512
000040 69 67 02 3f 59 75 07 3f f1 17 0d 3e c4 cb f2 3e
       0.5093904 0.52913433 0.13778664 0.47421086
000050 6e a7 a1 be f8 1f 3a be 38 98 11 3f 68 d4 ef be
       -0.3157305 -0.18176258 0.5687289 -0.4684174
000060 70 b0 ba be b3 d0 10 bf c9 a6 91 3e f4 32 b0 bd
       -0.36462736 -0.5656845 0.2844756 -0.086034685
000070 82 2c bd 3e bb 8f 1a 3e a4 00 d1 3e f0 26 d3 be
       0.3694802 0.15093891 0.408208 -0.41240644
000080 a4 bf fd be 01 30 cf 3e 14 7c 6d be 42 1e bf 3d
       -0.49560273 0.40466312 -0.23191863 0.09331943
000090 e0 e0 11 3f 89 c7 c3 3e 10 12 3c 3e c5 ba ea 3d
       0.56983757 0.3823817 0.18366265 0.11461405
0000a0 6f 13 0e 3f bf 6c b9 3e 4c ac 36 3e 70 86 c8 bc
       0.55498403 0.3621578 0.17839164 -0.024478167
0000b0 d1 d2 02 bf cc 81 3a bd 78 f7 fa 3c 5b c2 12 3f
       -0.5110293 -0.04553394 0.03063558 0.5732781
0000c0 dc 70 b8 3e 7b fb 5f bc 15 69 f5 be 6e 1b f3 be
       0.36023605 -0.013670797 -0.47931734 -0.47481865
0000d0 48 a7 9b be 31 a9 b9 3e c9 c9 d1 3e bd 7f b2 be
       -0.30401063 0.36261895 0.40974262 -0.34863082
0000e0 2d fc 14 be e6 eb 80 3e 08 9d 0a bf b7 34 7c 3e
       -0.14549322 0.25179976 -0.5414586 0.24629484
0000f0 0c bc 4e 3e b9 35 be 3e 03 7f 04 3f 4f 16 e2 3e
       0.20188922 0.37150362 0.51756305 0.44157645

hidden_layer_1.weight f4 [64, 64]
000000 fa 84 b0 bd ba 0e d6 bd 8d 4a 1a be 9d e2 68 bd
       -0.08619113 -0.104520276 -0.15067501 -0.05685674
000010 6c d0 47 3d 06 4c 84 bd 1a 4c 4c bc 21 ed 04 bd
       0.04878275 -0.06459813 -0.012469316 -0.032452706
000020 e1 21 19 be 19 31 32 bd 1e 2f 45 bd b6 30 8b bd
       -0.1495433 -0.043503854 -0.048140638 -0.067964
000030 78 97 4f 3d 40 54 40 3d 80 97 30 3c e6 4a a6 3c
       0.05068156 0.046955347 0.010778308 0.020299386
000040 9c 75 99 3d c1 b8 05 3d 6b f5 ca bc a7 38 f9 3c
       0.07493135 0.0326469 -0.024775228 0.030422522
000050 c8 94 13 bd 3e ab b2 bc 0f f3 05 be d0 0c 2c bd
       -0.03603056 -0.02181017 -0.13081001 -0.042004406
000060 61 c1 dd bd 60 7e 78 3c bc d4 80 bd 01 ab 0a be
       -0.108279 0.015166849 -0.06290576 -0.13541795
000070 e0 f1 b1 3d 15 7c 5a 3d 50 53 a4 bd 31 31 a9 3c
       0.08688712 0.05334099 -0.08023703 0.02065334
000080 50 e2 e4 bd 64 dc 6d bd 26 51 b8 bd fb 08 bd 3d
       -0.11175978 -0.05807151 -0.08999853 0.092302285
000090 bf b0 78 3c 87 74 4a bd b4 4e 11 be e9 c3 8e 3d
       0.015178858 -0.049427535 -0.14190179 0.06970961
0000a0 a2 ed ee bd c1 38 a5 3c 81 47 e5 3d 4c 0b 41 3d
       -0.116664186 0.020168664 0.11195279 0.047129914
0000b0 08 a2 3f 3d 5e a2 9d 3d 13 44 39 3d 37 b5 36 3d
       0.046785384 0.07696985 0.045230936 0.044606414
0000c0 e7 ac b4 bd 8c 64 4b 3d 3b 2b 84 bb dc 34 74 3d
       -0.08822041 0.049656436 -0.004033474 0.059620723
0000d0 d8 80 dc bc 2f ac bb bd 49 c7 64 bb 35 a4 10 be
       -0.026916906 -0.09163701 -0.0034908822 -0.1412514
0000e0 a0 59 80 bd 47 82 dc bd dc 9c 0e bd c1 4b 99 bd
       -0.062670946 -0.10767036 -0.03481756 -0.07485152
0000f0 e8 bb 43 3d 30 2f 9a bd 29 a3 a6 3d f0 5a 87 3d
       0.047786623 -0.075285316 0.08136589 0.06609142
000100 58 2a d5 bd d2 5e 9c bd 60 cf a0 3c e0 26 a5 bd
       -0.10408467 -0.07635273 0.019630134 -0.080640554
000110 00 eb fa 3b e2 87 a7 bd f2 35 8b 3d 20 6e 76 3d
       0.0076574087 -0.081802145 0.067973986 0.060163617
000120 98 1f ec 3d 20 94 83 bd 90 93 ff bd c0 bb ca 3b
       0.115294635 -0.06424737 -0.12479317 0.0061869323
000130 b0 92 de bd 90 61 2c 3c e4 cf 72 bd f2 4f b4 3d
       -0.10867822 0.010521308 -0.05928029 0.08804311
000140 5a 0a ed bd bc 3f 03 3d d8 34 e9 bd 00 f0 85 bb
       -0.1157424 0.032043204 -0.11387032 -0.004087448
000150 c0 82 c5 bb 5c 2b 85 bd ce 87 a0 3d 78 7f 96 bc
       -0.0060275495 -0.06502411 0.07838403 -0.018371329
000160 0e eb be bd 80 bf e9 3d 86 d5 95 3d 80 4c fc ba
       -0.09322177 0.11413479 0.07316117 -0.0019248873
000170 e6 b6 c6 bd 08 29 df bc 24 cc 8e 3d d2 13 94 bd
       -0.09702854 -0.027241245 0.069725305 -0.07230343
000180 14 3d 86 3d 70 de d5 bc 20 59 26 3d 00 8a 4e 3a
       0.065546185 -0.026107043 0.04061234 0.000787884
000190 08 6c 19 bd 5c 3a 5b 3d 30 2e ea bc fa 77 f7 bd
       -0.037456542 0.053522453 -0.028586477 -0.120834306
0001a0 98 c6 83 3d 1c e1 29 bd 92 5c 83 bd 1c 48 60 bd
       0.06434363 -0.041474447 -0.06414141 -0.05475627
0001b0 e2 1f b0 3d c8 6d f5 bd 9c e0 00 3d a0 c0 ce bc
       0.08599831 -0.1198383 0.031464204 -0.025238335
0001c0 38 52 d0 3c 86 27 d7 3d 08 ea 0d 3d fc 97 bb 3d
       0.02542983 0.10505585 0.034647018 0.09159848
0001d0 4a 06 c1 bd d8 4f 95 3c 2e ad 97 bd 04 fa 47 bd
       -0.09425028 0.018226549 -0.07406078 -0.048822418
0001e0 a8 9b 02 bd d0 0f 15 bd 60 50 ed bd 5c 77 d8 3d
       -0.031886727 -0.036392033 -0.11587596 0.10569641
0001f0 5c 7d 35 3d e8 24 89 bc f4 40 98 bd 02 5f e8 bd
       0.044309005 -0.016741231 -0.07434264 -0.11346246
000200 b7 89 82 be dc a7 db 3d d7 70 e5 bc 42 ec 82 be
       -0.25495693 0.10725376 -0.028007908 -0.25570875
000210 59 d7 ff bd b5 50 93 bc 32 43 92 3c 18 85 9d be
       -0.12492246 -0.01798282 0.017854307 -0.30765605
000220 39 ee 49 3e 39 5d e1 bd c6 21 02 be cc de 6f bd
       0.19719781 -0.11004109 -0.12708196 -0.058562085
000230 3a 50 d4 bc 94 6c c9 bb 50 7a 10 bb 71 07 58 be
       -0.025917161 -0.0061469767 -0.002204556 -0.21096589
000240 38 23 26 3d ef 8e 5f 3e e8 58 39 be 9c 7d a0 3c
       0.04056093 0.21831869 -0.18100321 0.019591145
000250 f1 c7 66 be 6c 55 dc bd a5 cd 53 be f8 06 27 3d
       -0.22537209 -0.107584804 -0.20683916 0.04077813
000260 59 ad d3 3d 1b 24 b1 bd 98 54 ef 3d ec 68 c1 3b
       0.10335798 -0.08649465 0.11686057 0.0059024002
000270 e1 5c 36 be b5 18 05 be 9f ed 93 bd 4a a4 b4 3c
       -0.17808868 -0.12997706 -0.07223057 0.022050995
000280 2e 89 2c bb 97 a2 fd bd cd 88 c1 3c 04 53 b2 bd
       -0.0026326883 -0.12384527 0.023624802 -0.0870724
000290 82 18 ee bd 17 00 5a 3d e0 6c 00 be 20 1c 40 be
       -0.11625768 0.053222742 -0.12541533 -0.18760729
0002a0 4e 39 51 be 7f 1e dd 3d 66 9d 1e 3d b5 4a 67 3b
       -0.20432016 0.10796832 0.038724326 0.0035292332
0002b0 d4 1d 2b bf 9e 69 91 be 21 06 a0 bd 16 48 18 be
       -0.6684239 -0.28400892 -0.07813669 -0.14871249
0002c0 a6 e3 90 3d 6c 83 8d 3d c9 94 f9 bd 78 55 35 be
       0.070746705 0.06909832 -0.12186582 -0.17708385
0002d0 52 de 2b 3e 44 d5 d5 3a 3e 21 45 bd 18 7c cf bc
       0.16784027 0.0016314168 -0.048127405 -0.025327727
0002e0 8a e9 0a bb fe e1 44 bd 9c fb f8 bd 7a 6e 98 3e
       -0.002119633 -0.048067085 -0.12157366 0.29771787
0002f0 91 82 69 be a7 bc af 3d f7 c6 06 be 96 da 86 3e
       -0.22803713 0.085809045 -0.13161837 0.26338643
000300 98 28 64 bd a8 c8 e9 bd 38 a3 61 bd 90 6c 6c bc
       -0.055702776 -0.11415225 -0.0550873 -0.01443018
000310 00 00 72 b7 ac 93 2b 3d 00 c5 93 3a 58 22 c8 3d
       -1.4424324e-05 0.041888878 0.001127392 0.097721756
000320 80 c0 03 3b 98 9c 23 3d a0 8d 6b bc 98 50 44 bd
       0.0020103753 0.03994426 -0.014377028 -0.047928423
000330 5a 92 bd bd 64 74 e1 3d b2 4e ab bd c8 e7 b9 bd
       -0.0925643 0.11008528 -0.08364619 -0.09077412
000340 80 dc 81 bd 62 8a dc bd dc 61 7b bd 58 97 a1 3c
       -0.06340885 -0.10768582 -0.061372623 0.019725487
000350 e2 d4 b4 bd 9a 8e 9d 3d 18 3d 78 bd 7e 8c 92 bd
       -0.08829667 0.07693215 -0.06060514 -0.07155703
000360 d0 ef 79 bd 48 6e c0 bd fc a0 c6 3d 64 d8 0c bd
       -0.06101972 -0.093960345 0.09698674 -0.034386054
000370 9e 6d ba 3d 24 ad 16 bd e4 f6 f9 bd 6a 78 b3 bd
       0.09102939 -0.036786214 -0.12205294 -0.087632015
000380 04 02 e8 bd 02 5c e1 bd 64 fd d2 bd 44 4c 85 bd
       -0.113285094 -0.11003877 -0.10302237 -0.06508687
000390 18 8b ab 3c 5c 67 e2 3d ca 43 80 3d 10 cf 1a 3c
       0.020940349 0.110548705 0.0626293 0.009448782
0003a0 80 b8 80 bb c4 05 7c bd 68 6c e8 bc 70 e1 37 3d
       -0.003928244 -0.061528936 -0.028372005 0.04489273
0003b0 e0 f5 6c 3c 90 50 7c bc dc 27 55 bd 36 73 b5 bd
       0.014462918 -0.015400067 -0.052039966 -0.08859865
0003c0 48 a7 83 bd 24 1e 06 3d 36 42 be 3d a0 50 14 bc
       -0.06428391 0.032743588 0.092899725 -0.009052426
0003d0 94 8d 1a bd dc 3c e1 bd 8e a2 a8 3d 6c 79 a2 bd
       -0.037732676 -0.10997936 0.0823413 -0.07933316
0003e0 76 19 d3 3d d2 b3 f4 3d f0 dd 2c bc da bc 8f 3d
       0.10307591 0.119483605 -0.010550961 0.070184425
0003f0 00 85 cd 3c 08 f0 8d 3d 90 4f 8f 3d 78 97 ff 3c
       0.025087833 0.06930548 0.06997597 0.031200156

hidden_layer_1.bias f4 [64]
000000 93 26 91 bd 60 6e c5 bd 53 5d 50 3e e4 ec 14 bd
       -0.070874356 -0.09640193 0.203481 -0.03635873
000010 56 e5 30 bc aa 65 7d bd 5b 56 b5 3d ec ef f6 3d
       -0.010796865 -0.061864533 0.088543616 0.1205748
000020 c6 2d 95 bd 55 1b 13 bc 1c 0a 29 3e 6e 5f 0c be
       -0.07284121 -0.008978684 0.16507763 -0.13708279
000030 20 f1 2c 3e 91 e5 25 3e 58 fc 53 3e 3e 8a 1e 3d
       0.16888857 0.16200854 0.2070173 0.038706057
000040 1e 58 87 3d 6f 1f 29 3c 81 04 13 be 4f c5 d9 bc
       0.06608604 0.010322436 -0.14357187 -0.026583342
000050 85 e3 be 3d 35 e7 94 bc d8 5e 91 bd 4a 8e d3 bd
       0.0932074 -0.018176654 -0.07098168 -0.10329874
000060 b6 de 11 3e c0 68 7e 3c 78 f2 4d 3e 7b ea 9e bd
       0.14245114 0.015527904 0.20112026 -0.07759567
000070 f3 28 c2 bc 4d e1 50 3e 2d 5e fd 3c 5e 85 2e bd
       -0.023701167 0.20398445 0.030928696 -0.042607658
000080 56 c7 0c be 7c 82 46 bd e7 c6 34 bd 37 cf 13 3e
       -0.13747916 -0.048464283 -0.044135 0.14434515
000090 c5 bd b1 3d 5f 8d 4d 3e d8 09 62 bd 6c 40 e1 3d
       0.08678774 0.2007346 -0.05518517 0.109986156
0000a0 56 e3 8c 3c ab 34 da 3c 9d 07 4d 3d 09 7a d4 b9
       0.017198246 0.026636442 0.05005609 -0.00040526714
0000b0 32 a8 f5 bd 7b 5a 10 3e 13 20 ab 3d 1c dc 0e 3d
       -0.11994971 0.14097016 0.08355727 0.03487788
0000c0 ab 0b 28 3e a3 23 3d 3c b0 3c 8f 3c 59 01 0b 3e
       0.16410701 0.011544141 0.017484993 0.13574733
0000d0 51 6d 0e bd 8a d4 ba 3c 58 8d 45 be e3 9e d9 3b
       -0.03477222 0.022806425 -0.192922 0.006641255
0000e0 3c 0d e4 3d 41 cc 41 bb 77 32 fb 3c 3a 57 47 3d
       0.11135337 -0.0029571208 0.030663712 0.04866717
0000f0 a6 ff 36 bd df 2d 71 3d c4 7b 28 bd d2 bd a8 bc
       -0.0446774 0.058881637 -0.041133657 -0.020598326

hidden_layer_2.weight f4 [64, 64]
000000 7a 91 95 3d 0c 01 f7 bd 92 e0 0c be f4 04 b8 bd
       0.07303138 -0.120607466 -0.13757542 -0.0898532
000010 a2 6d a3 3e bc 69 85 bd 49 c3 e8 3d 4b b8 03 3d
       0.3191958 -0.06514308 0.11365373 0.032158177
000020 b9 fe 3e 3e b8 ce 24 be c9 ce 84 3d 98 0e c6 bd
       0.18651856 -0.16094482 0.06484754 -0.09670752
000030 76 c0 b9 3d 3a 12 fc bd 7c 2a a8 be a1 b3 b2 bd
       0.09069912 -0.12308164 -0.32844913 -0.08725668
000040 ae 34 f8 bc 36 16 fc 3c 35 3c dc 3d 72 a9 c7 bd
       -0.030298557 0.03077231 0.10753671 -0.09749116
000050 87 4d 68 3c 5a 7e e1 bd 3b f2 a9 3d 02 02 b8 3d
       0.01417864 -0.11010428 0.08298155 0.08984758
000060 6f 3d db bd 77 a7 70 3e f6 5d 39 be bc e6 0a 3d
       -0.10705077 0.23501383 -0.1810225 0.03391145
000070 b6 35 24 3b ea de 75 bd 87 76 89 3c e5 7b 7c 3e
       0.0025056428 -0.06002704 0.016780151 0.24656637
000080 eb b2 df 3c ef 0e fb 3c c3 c7 0d 3e 70 6a ad bd
       0.027306994 0.03064677 0.13845734 -0.08467567
000090 22 13 fb 3d 3b 5a 01 3d 73 81 e6 bd 6c f3 25 be
       0.12259509 0.03158019 -0.11255159 -0.1620614
0000a0 5d 1d a3 3b 35 63 1f 3e 0b eb 42 3e 31 fa 20 3e
       0.0049778656 0.15565188 0.19034974 0.1572044
0000b0 a4 60 64 be 81 26 b4 bd ef a9 92 3d 8a 7f 59 3e
       -0.2230249 -0.087964065 0.071613185 0.21240059
0000c0 4a c3 a2 3d fd 7c 02 be ad a0 34 3e e8 83 ab 3d
       0.07947405 -0.12742992 0.17639418 0.083747685
0000d0 2b dd 61 3d ef e9 c7 bd ee 8c dd 3d 6f d4 db bc
       0.055142563 -0.09761416 0.10817896 -0.026834695
0000e0 b0 c5 4b 3e 29 f7 0b 3e f8 b2 f8 bc 74 7d 14 3e
       0.1989963 0.13668503 -0.030358776 0.14500982
0000f0 bd 55 49 be e4 84 48 bd 5b 4f 6d 3e 9c 3d 8c 3d
       -0.19661613 -0.04895486 0.23174803 0.068476886
000100 a1 52 bc 3d 32 43 bf bd 3b b4 0a 3e ea 46 e8 bd
       0.09195448 -0.09338988 0.13545315 -0.11341651
000110 3c b8 28 be 44 aa de bd 2b 92 28 3d d1 78 f0 3d
       -0.1647653 -0.10872319 0.04115502 0.11741794
000120 94 ef 07 3d 62 3b 4c 3d 70 f7 69 bc 4f 79 b6 be
       0.033187464 0.04986132 -0.014280185 -0.35639426
000130 23 55 d3 3d 0b 7d fc 3b ca 22 eb bd 78 2c 85 3d
       0.10318973 0.007705336 -0.11481245 0.06502622
000140 49 dd 4b bd f0 08 09 3e b4 57 76 bd f1 a6 9f bd
       -0.04977158 0.13382316 -0.060142234 -0.077955134
000150 6c b9 5b bb ca fa 90 bd 5b 91 c5 bc 0a 6b d7 bd
       -0.0033527268 -0.07079084 -0.024117162 -0.10518463
000160 11 de 0e be 7a d5 96 bd 24 e8 c4 3c 32 26 b0 3d
       -0.13951899 -0.07364936 0.024036475 0.08601035
000170 9d 11 ff bc e1 6d 11 be 7b 4d e4 3d 99 2c 41 be
       -0.031136328 -0.14202072 0.11147591 -0.18864669
000180 0a 0c dc bd c0 be 85 bd 33 7c ab 3d 93 bf 40 3d
       -0.10744484 -0.06530523 0.083732985 0.0470577
000190 46 f5 3a be fe d8 c3 3d 51 1d 1f 3d 80 8d c1 3d
       -0.18257627 0.09562872 0.038846318 0.09450817
0001a0 83 d3 74 be 0c 69 1f 3e 45 af 2b 3e 8e 3c 1b 3d
       -0.2390881 0.15567416 0.16766079 0.037899546
0001b0 ef 96 00 bf d3 2a b8 3d c3 86 de 3d b2 e6 c7 3d
       -0.50230306 0.08992543 0.108655475 0.097607985
0001c0 b0 06 e8 3d 44 f8 01 3e 9a 2d 82 3d 6f 71 9a bb
       0.113294005 0.12692362 0.06356354 -0.0047132294
0001d0 d0 bc bc 3d 14 70 ee 3d 90 e7 98 3c 10 99 1a 3e
       0.092157006 0.11642471 0.018665105 0.15097451
0001e0 9b 6b a8 3d d5 8b 35 bd 21 e6 8c bd a8 d3 07 be
       0.08223649 -0.044322807 -0.06879831 -0.13264334
0001f0 d0 57 c6 3d 79 28 1f 3e 55 df a9 bd 86 51 01 bd
       0.09684718 0.15542783 -0.0829455 -0.031571887
000200 a9 56 51 3d a0 8d d8 bd ec 06 b2 3d fa 62 99 bd
       0.051108036 -0.10573888 0.086927265 -0.074895814
000210 c4 49 04 3e 92 d7 f9 3d 44 56 35 bd 15 f1 46 3d
       0.12918764 0.1219932 -0.044271722 0.048569757
000220 83 3f 0d 3e 8f 6e 23 3e 21 a0 fe 3d a3 de 24 be
       0.13793759 0.15960144 0.12432886 -0.16100554
000230 87 bd ef 3c 64 bd 02 3d f2 db a3 bd 9f 16 a5 3d
       0.029265178 0.0319189 -0.080009356 0.08060955
000240 2b 0b dc bd 26 91 bc bd c0 58 2a 3d c9 9a 89 3c
       -0.107443176 -0.09207372 0.041588545 0.01679744
000250 a0 f8 aa bc 3b eb 86 bc 1b 21 5d bd 82 d1 00 3c
       -0.020870507 -0.016469589 -0.05398665 0.007862451
000260 fe 27 d2 bd 45 18 ec 3d 84 d4 a9 bd 61 21 82 3e
       -0.10261534 0.115280665 -0.08292487 0.2541609
000270 50 01 31 bd f5 61 d9 bd 72 54 ba bc dc 42 44 3e
       -0.043214142 -0.10614387 -0.022745345 0.1916613
000280 b3 cd b3 bd c4 51 42 bf cb 9d 35 ba 6c f0 8c bc
       -0.087794684 -0.75906014 -0.0006928115 -0.017204486
000290 ee 14 a9 3e cc f1 a5 bb 36 16 fe 3c 51 3a 99 3d
       0.3302378 -0.005064225 0.03101645 0.07481826
0002a0 7b 74 24 be 4c 15 17 3e af cb 05 3e dc 9c 0c bd
       -0.16060059 0.14754218 0.1306598 -0.03432928
0002b0 28 5c 7b be 9f 32 ab 3d 6e a3 8f 3d 1d 02 1a 3e
       -0.24546874 0.083592646 0.070135936 0.15039869
0002c0 0e a3 4a 3d c7 b4 47 bd fd e4 0a 3e 1d 3f b8 3d
       0.049471907 -0.048756387 0.13563915 0.08996413
0002d0 49 b0 4e bc 5f fc cf 3c 48 a7 3c 3e 1c 31 80 bd
       -0.012615272 0.025388895 0.18423188 -0.06259367
0002e0 a0 0f 94 3d 0d 08 b1 3d 70 c7 c1 3b c2 3e f0 3c
       0.07229543 0.08644114 0.0059136674 0.0293268
0002f0 94 e2 dd bb ff 1f 2b bc 43 9e 65 3e 57 2b c9 3d
       -0.006771395 -0.01044464 0.22423653 0.098227195
000300 bf 86 f8 bd 38 af 85 bc 08 79 54 bd 60 35 5a 3d
       -0.12135076 -0.016318902 -0.051873237 0.05327356
000310 f4 51 c0 3d 80 19 d4 3d a3 4d 10 3c c6 d3 14 be
       0.09390631 0.10356426 0.008807573 -0.1453391
000320 58 e6 54 bc 87 3a 92 3c c1 d8 f5 3b 96 1a 33 3e
       -0.012994371 0.017850174 0.0075026457 0.1749061
000330 1e 04 f6 bd 0d 5a 23 3c 57 00 25 3c e1 95 2f bd
       -0.12012504 0.0099702 0.010070882 -0.042867545
000340 13 f5 e7 bd f6 d6 03 be d9 17 85 bc 80 a9 c0 bd
       -0.11326041 -0.1287497 -0.016246723 -0.094073296
000350 cd 60 71 bd ed 7a f5 bb 89 74 84 bd b3 c6 57 bc
       -0.058930207 -0.0074914605 -0.0646754 -0.013169932
000360 c9 89 e7 bd bd e0 88 3d 3b eb 2e be da b1 8d 3d
       -0.11305577 0.066834904 -0.17081921 0.06918688
000370 67 d4 21 bd 58 19 2c be 72 f8 be 3d 91 f2 43 be
       -0.039509203 -0.16806543 0.09324731 -0.191355
000380 06 bd f3 3d 95 5e 15 3e 2f ae fb 3c ad c3 fb 3c
       0.11901288 0.14586861 0.030722706 0.030732954
000390 df 4f 4d bd 0c b7 d7 bd e9 97 86 bd 57 a1 97 3b
       -0.050125 -0.1053296 -0.06571943 0.0046273875
0003a0 36 c1 02 be d6 16 c9 bd fc 93 e0 bd 46 51 8d bd
       -0.12769017 -0.09818809 -0.10965726 -0.06900267
0003b0 09 c7 17 bc 80 be 16 be c3 21 09 bb 40 0e b0 3d
       -0.009263762 -0.14721107 -0.0020924665 0.08596468
0003c0 1e 90 87 3c f3 7c 00 be ea 0c b8 bd 87 5a d8 3d
       0.016548213 -0.12547664 -0.08986838 0.10564142
0003d0 2c e5 19 bd c8 09 b7 3d 3f c3 c0 bc 35 4e 56 3d
       -0.03757207 0.089374125 -0.0235306 0.052320678
0003e0 5e 5a 5f be 00 03 73 bd 00 17 cb 3b ce f3 c0 bd
       -0.21811816 -0.059329033 0.00619781 -0.09421502
0003f0 8b 62 de 3d 41 0e c9 bd 0e 35 36 bd 2b 5f 48 3c
       0.10858639 -0.09817172 -0.04448419 0.012229721

hidden_layer_2.bias f4 [64]
000000 a2 93 3b 3d 4b 13 27 3e 24 06 17 3d a8 d5 42 bd
       0.04579509 0.16315953 0.03687109 -0.04756704
000010 65 06 fb bd bf fe b3 bd a7 b1 a1 bd 98 73 d7 bd
       -0.12257079 -0.08788823 -0.078952126 -0.10520095
000020 31 46 7e be 8f 3a 4e 3d f9 58 03 3e 59 f0 31 3e
       -0.24831463 0.050348815 0.12826909 0.17376842
000030 cb a3 ad bd c7 0d d8 3d e4 93 62 be d0 54 b8 3b
       -0.08478507 0.10549503 -0.22126728 0.005625345
000040 3a 4a 9c bd 64 b0 cd 3d 38 dd b6 3c c1 09 e4 3d
       -0.07631345 0.100434095 0.022322282 0.11134673
000050 02 f6 e0 bc dd e9 69 3c e1 1b cf bc 40 f1 10 3d
       -0.027461056 0.014276949 -0.025281848 0.035386324
000060 f3 e2 e9 bd e9 2a 1c 3d b4 20 05 3e a2 9f 17 3e
       -0.1142024 0.03812686 0.13000757 0.14806989
000070 c2 7b 05 be e3 11 05 be d7 e3 1f 3d 22 40 28 be
       -0.13035491 -0.12995104 0.039035644 -0.16430715
000080 df 19 59 bc 9a fd 49 bd 9e 37 cb bd c1 3a 0f 3e
       -0.013250797 -0.04931412 -0.099227175 0.13987257
000090 bb 92 53 bd ea 2c 62 3e 60 2c a0 3d 58 7f 5d 3d
       -0.051653605 0.22087446 0.07820964 0.054076523
0000a0 90 57 34 3e 2a 34 e5 ba dd 60 4e 3e ba 0f c2 bc
       0.17611527 -0.001748686 0.20154138 -0.02368914
0000b0 7e 05 e4 3d bf c4 10 be 8a 28 3a 3e 70 49 0c 3d
       0.1113386 -0.14137553 0.18179527 0.034249723
0000c0 ab ae cc bd d0 d8 bb bd e5 9e 27 bd 5e c8 2b 3d
       -0.09994253 -0.09172213 -0.040923018 0.041939132
0000d0 72 c2 f4 3c fd 53 9b ba 3b fe 61 bd 83 e4 ab bd
       0.029877875 -0.0011850592 -0.055174094 -0.083931945
0000e0 ca 0f 32 3e 7c 3e e1 bd b8 6d cc bd ff 3a 8f bd
       0.17388836 -0.10998246 -0.09981865 -0.069936745
0000f0 8e 5f 2f bd 7f b2 46 3d 15 b1 db 3d 64 2f f7 3b
       -0.042815737 0.04851007 0.10727135 0.007543491

output_layer.weight f4 [2, 64]
000000 ad 78 ef 3b bc ad a2 bd b0 d1 ed bc 03 9e 6c bc
       0.007308087 -0.079432935 -0.02903065 -0.01444197
000010 13 91 19 bc 17 05 ed 3c 76 c6 e1 bd f8 4a 8f bd
       -0.009372967 0.028933091 -0.110241815 -0.06996721
000020 8a c6 52 be d3 d5 cb bb 1f fa de 3d 34 47 3b be
       -0.20583549 -0.006220558 0.108875506 -0.1828888
000030 46 f2 ae bd 35 c2 ae bb 2b 93 14 3b 78 13 15 bd
       -0.08542304 -0.00533321 0.0022670727 -0.03639552
000040 91 22 0d bd d3 1b 0d be cb b8 ce bd 6e 27 43 be
       -0.034456793 -0.13780145 -0.1009384 -0.1905801
000050 4f a2 28 bc 03 2d d1 bd 46 04 ed bc ae bb 8f 3d
       -0.010292604 -0.102136634 -0.028932702 0.07018219
000060 c1 3b 7d 3d 16 a5 48 be ef 2b 37 be 35 7b 4b 3e
       0.061824564 -0.19594225 -0.17887853 0.19871219
000070 bc 93 8d 3d 5d 22 98 3d ec 25 43 3d 5b 62 a3 3d
       0.06912944 0.07428429 0.047643587 0.07977744
000080 70 86 2c be fc 43 1d 3d 30 9a a9 bd 4a 31 5f 3d
       -0.16848159 0.038394913 -0.08281362 0.054490365
000090 c3 ba 4c bd 9e 29 de bd a9 e4 1e 3e be cf e0 bd
       -0.049982797 -0.108477816 0.15516914 -0.10977124
0000a0 9e 4c 0a be e8 c1 de bd 95 15 cd bd 6d 92 cd 3d
       -0.1350579 -0.108768284 -0.10013882 0.10037694
0000b0 fe 54 0d be 8c 0d d3 3c 11 da ef bd c8 df cc 3d
       -0.13801953 0.025763296 -0.11711515 0.100036204
0000c0 71 26 52 3c 80 ce 09 3d 8d 9c 72 3d ca c3 8c be
       0.012826548 0.0336442 0.05923133 -0.27493125
0000d0 01 b4 c6 bd 2d 29 db bd 68 ac b0 3c 42 a6 38 3d
       -0.09702302 -0.10701213 0.021566585 0.04508043
0000e0 37 06 29 3d 62 95 97 bd 6a be da bd 6d 7c 3b be
       0.041265693 -0.074015394 -0.1068085 -0.18309183
0000f0 31 86 d4 3d e5 ff f0 bd ee 8c 1e be 23 28 ae bc
       0.103771575 -0.11767558 -0.15483448 -0.021259373
000100 84 f4 a0 be ed e0 d6 bc 5d 29 26 be a6 8d 02 3d
       -0.3143655 -0.0262303 -0.16226716 0.031873368
000110 6c 51 22 bd fc bd 72 bd da d2 c0 bc 58 f6 07 bd
       -0.03962843 -0.059263214 -0.023538042 -0.033193916
000120 8f f1 36 bd 2a 58 9f 3c fd a2 0c 3d 9f d7 ad 3d
       -0.044663962 0.01945122 0.034335125 0.08488392
000130 b7 1b c9 bb 01 71 5a 3d 8b 63 fe bd 6e 6d a3 3d
       -0.006137337 0.053330425 -0.1242133 0.079798564
000140 85 f5 4c 3d b0 87 b6 3d 3c 59 f4 bb 11 0d b8 bd
       0.050038833 0.08912599 -0.0074569266 -0.08986867
000150 89 12 1d bd 5d 1d 95 3d f0 c4 8a be ae 7d ec 3c
       -0.038347755 0.07280991 -0.27103376 0.028868522
000160 9c 77 44 bd 65 59 bb bc 33 60 98 bd 53 8a af 3d
       -0.04796563 -0.022869775 -0.074402235 0.08571305
000170 4b b5 91 bd 1c 46 56 3d 73 ee 37 bd d9 ce 5c bd
       -0.07114657 0.052312955 -0.044905137 -0.053908203
000180 72 f2 4f be c6 63 ad bd 88 6c 9c 3d 6c d7 62 3d
       -0.2030733 -0.08466296 0.07637888 0.055381224
000190 d8 3e f1 3d 2d fb 3a 3d 2d 26 60 3e d2 94 52 be
       0.117795646 0.045649696 0.21889563 -0.20564583
0001a0 bb a5 80 bd 2a d2 f1 bc aa 40 40 3d c8 8e 83 bc
       -0.062816106 -0.02951916 0.04693667 -0.016059294
0001b0 4d d2 3a be 85 c7 a6 bd b5 57 c2 bd 5d a3 e2 3d
       -0.18244286 -0.08143524 -0.09489385 0.11066315
0001c0 1a fe 0b 3d 65 fd 99 bc 0a 1a 03 bd a3 4b 74 3e
       0.034177877 -0.018797586 -0.032007255 0.23856978
0001d0 0f af 65 be 5d 03 d1 bd d1 fe 06 bb 8d 98 ac bd
       -0.22430061 -0.102057196 -0.002059866 -0.08427534
0001e0 09 f0 5b 3e ec f8 34 be d4 7f 88 bd c6 1b 2a be
       0.21478285 -0.17673081 -0.06665006 -0.16612157
0001f0 74 f3 bb 3c c0 aa 16 be 26 1e a8 3b 36 58 86 bd
       0.022943236 -0.14713573 0.005130547 -0.06559794

output_layer.bias f4 [2]
000000 f7 46 00 3c 5b 32 17 3c
       0.007829419 0.009228314
