DQN - CartPole/data/Apprentice 6.pt (torch, 38460 bytes, 8 tensors)

input_layer.weight f4 [64, 4]
000000 b5 80 e6 bd bd cb 4f 3e ef e9 7f 3f 7f 27 9c bd
       -0.11255018 0.20292564 0.9996633 -0.07624721
000010 c9 7c ad 3e 19 14 44 be fc 00 d7 3e b2 36 91 bd
       0.33884266 -0.19148292 0.4199294 -0.070905104
000020 4d 01 22 bf c6 58 cb 3e 9d 42 1d 3f 4c e5 e6 3e
       -0.63283235 0.39716166 0.6142977 0.45096815
000030 4e d2 78 3e 17 31 7a be b2 a7 32 3f 42 50 f4 be
       0.24298975 -0.24432789 0.6978713 -0.47717482
000040 5a b4 a3 3e 2b 2b 79 be e9 33 8d be f0 10 37 bd
       0.31973535 -0.24332874 -0.27578667 -0.044693887
000050 95 65 cf bd ae ad 3a 3e 39 2e 9e 3e 67 be d1 be
       -0.10126797 0.18230316 0.3089464 -0.40965578
000060 e5 f5 86 3e 24 03 42 3e 34 0a c3 3e 6e 3f 83 be
       0.26359478 0.1894651 0.38093722 -0.2563433
000070 57 bb 9a 3e 51 98 09 3d 1a ac b4 3d 0c c7 2b 3e
       0.30221054 0.033592526 0.08821888 0.16775149
000080 c6 40 73 3e f3 49 1c 3e d5 bc a4 3e 56 7a 89 be
       0.23755178 0.15262584 0.32175317 -0.26851147
000090 31 9b ad 3d 44 28 bd be 2e ef a9 bf a3 4d e5 be
       0.08476866 -0.36944783 -1.3276117 -0.44785795
0000a0 b2 94 43 be 9a 87 f9 be 01 3b c5 bd e0 39 9a 3e
       -0.19099692 -0.48736268 -0.09630395 0.3012228
0000b0 7e da 5b 3e 1a ed 82 3e 6a 0c 2d 3f d6 f7 76 be
       0.21470067 0.2557152 0.6759707 -0.2411798
0000c0 31 71 3d be 3a ec d0 be 6e 50 6c be f1 8b b7 3e
       -0.1850021 -0.40805227 -0.23077556 0.35848954
0000d0 67 3b 85 be 33 1a 62 bd 9f 9c 5a 3e ed 6e 9a be
       -0.26021883 -0.055200767 0.21348809 -0.30162755
0000e0 73 ef 05 bf 46 57 81 be 52 ee d2 be b2 e6 db be
       -0.52318496 -0.25261897 -0.4119745 -0.42949444
0000f0 bc 61 20 be ff c5 16 be 0e 9d 65 3e 2a 60 8a 3e
       -0.15662283 -0.14723967 0.22423193 0.27026492
000100 27 3a 96 3e 28 21 76 bd 74 ae 7e bf 55 93 db be
       0.29341242 -0.060090214 -0.99484944 -0.42885843
000110 61 cc 32 3d 7c 45 91 3e b3 4f 86 3f 28 5c 8d be
       0.043651942 0.28373325 1.0493072 -0.27609372
000120 4f ed dc be a1 8b de 3d 2b 4c b5 3f a0 16 8d 3e
       -0.43149802 0.10866476 1.416387 0.27556324
000130 40 54 b9 be 52 11 da be 11 53 bb 3e 21 00 ce be
       -0.3619709 -0.4259134 0.36586812 -0.40234473
000140 89 c6 89 3e 45 9d 6a be f5 2a 09 bf 63 31 ed be
       0.26909283 -0.22911556 -0.5358117 -0.46326742
000150 21 88 a8 be 13 8c 7c 3e 2c 09 a3 be 74 d6 48 be
       -0.32916358 0.24662809 -0.31842935 -0.19613057
000160 d4 95 90 3e 31 b0 ac be 71 98 80 bf 54 6c 9c be
       0.2823931 -0.33728173 -1.0046521 -0.30551398
000170 fb 98 73 3d 8e 2e 66 3d 4d d3 23 3f ed 3f a3 3e
       0.059472065 0.05619674 0.63994294 0.3188471
000180 a0 7d 62 be c8 a6 0f 3f 6c 23 89 3f 6b 0d 91 3e
       -0.22118235 0.56113863 1.0713935 0.2833055
000190 44 01 7b bc e3 da ed 3e c4 71 b3 3d fa e2 81 3e
       -0.015320126 0.4645606 0.087619334 0.25368482
0001a0 c1 ce a8 be 4b d3 b4 3e 90 55 a6 3f 55 89 92 3e
       -0.3297024 0.35317454 1.2994862 0.286204
0001b0 67 6a 0c bf fe 67 d7 3e 5b c5 1a 3f ed bf cf be
       -0.5484986 0.42071527 0.6045739 -0.40576115
0001c0 0e ca 93 3e d0 83 03 3f 88 e0 af 3c 2c c5 ce 3d
       0.28865093 0.51373005 0.02146937 0.10096201
0001d0 25 fc 52 bd 84 be c3 3e 33 da 6d 3f d4 4d 79 be
       -0.051509995 0.3823129 0.9291107 -0.24346095
0001e0 4f 2e 9d 3d df 93 9f 3d 5a b2 ee 3e d0 d2 b9 3e
       0.07674848 0.07791876 0.46620446 0.3629365
0001f0 8c 78 88 be 89 aa 31 be 55 0b 1a bf 6f 74 d1 3e
       -0.2665447 -0.1735021 -0.6017354 0.40909144
000200 54 ce b0 be c5 d1 96 3d 9a 7b 74 3e 30 1d 80 3e
       -0.34532416 0.07364229 0.23875275 0.25022268
000210 f5 f4 9d be 91 d0 f3 3e 13 00 04 3f 6f 99 42 3e
       -0.3085095 0.4762006 0.51562613 0.19003843
000220 5b 31 37 bf 30 b3 e7 3b c1 15 5f 3f 06 b2 2d 3e
       -0.71559685 0.0070709214 0.8714257 0.16962442
000230 c6 aa 55 be 55 61 14 bb 5b df 48 3e 68 12 3b 3e
       -0.20865926 -0.0022641022 0.19616453 0.1826874
000240 cb dd 8f be f5 ba ca be 1f 3e e9 3e bb 63 4b be
       -0.28098902 -0.39595762 0.45555207 -0.19862263
000250 e3 44 b3 be 99 57 36 be 8a 94 80 3f 2b 9c 31 be
       -0.35013494 -0.17806853 1.004533 -0.1734473
000260 ab 02 91 bd 2d 14 3c bd e4 ee 1d bf 6d 6d a8 be
       -0.07080587 -0.04591768 -0.61692643 -0.32895985
000270 ba ee 3a 3e 31 a4 02 bf 1d 0c cc bd a1 b2 b2 3e
       0.1825513 -0.51031786 -0.09963248 0.34901908
000280 c6 8f 5d 3d d3 6a 60 be 84 24 e3 3e b6 fc 66 be
       0.05409219 -0.2191575 0.44363797 -0.22557339
000290 b2 19 10 3e 07 bd 46 3e 3e 4a 6a bf 8c b4 53 be
       0.14072302 0.19408046 -0.91519535 -0.20674342
0002a0 a9 6c de 3d fe 9a d9 3d 89 fe 4d be e4 6b ff be
       0.10860569 0.106252655 -0.20116629 -0.49887002
0002b0 95 4c 6e bf 1e 12 e2 3e 56 d4 6e 3f f4 4b ce 3e
       -0.93085605 0.44154447 0.9329275 0.40292323
0002c0 4b e1 19 bf b6 4f 81 be b2 e9 87 bd 20 0f 4e 3e
       -0.60109395 -0.25256127 -0.06636371 0.20122957
0002d0 46 c6 81 be de 12 90 be cd bc 40 bf 2b d0 d4 bc
       -0.25346583 -0.28139395 -0.7528809 -0.025978168
0002e0 72 ac 3e 3e dc c9 cc 3e ef 4b 5a 3f ff 36 fb be
       0.1862047 0.39997756 0.85272115 -0.49065396
0002f0 99 17 77 be a0 d9 95 bd 06 73 dd be 8c cc 90 3d
       -0.24130096 -0.07316899 -0.43251818 0.07070264
000300 ee 4c 41 be ac 20 74 be 3a 27 8b 3f f8 78 bc be
       -0.18877003 -0.23840588 1.0871346 -0.36811042
000310 ea df e3 bb 12 d6 62 3e f9 ca 5b 3f e5 17 e0 3c
       -0.006954183 0.22151974 0.85856587 0.027355144
000320 1b c5 c6 be 10 ff ed 3e 50 e2 45 3f a3 53 72 3e
       -0.38822255 0.4648366 0.7729845 0.23664717
000330 2d 31 ef 3d e3 37 80 be 8e 79 42 3e 34 36 84 3e
       0.116793014 -0.25042638 0.18991682 0.25822604
000340 75 55 89 3e 3a cb 98 3e 02 24 0f bf fc 98 ad be
       0.2682301 0.2984255 -0.5591432 -0.3390578
000350 97 4b 90 be 33 75 da 3d 58 98 95 be d8 47 b5 3c
       -0.2818267 0.10666885 -0.29217792 0.022128984
000360 6b 73 c4 be b8 1a 0c be 6f 3e 7c 3c 2f 8c c2 be
       -0.38369307 -0.13682067 0.015395745 -0.37997577
000370 4f 1c b3 3e d6 3b 0a 3f 0d f5 f4 be a2 a4 57 be
       0.34982535 0.5399755 -0.4784321 -0.21058896
000380 67 11 81 be ef d7 35 be 0f c1 52 3f 1c e3 ee be
       -0.2520859 -0.17758153 0.82325834 -0.46657646
000390 d0 d5 58 be 16 4c 33 be ba 08 e8 bd fb fe ab 3e
       -0.21175313 -0.17509493 -0.113297895 0.33592972
0003a0 5b c5 3f 3e 51 fb f2 bd 8b e2 5d 3d 33 7e 0b 3f
       0.18727629 -0.11864341 0.054171126 0.5448944
0003b0 c0 4c 00 3e d5 b8 1e be 25 0d 35 3e 96 ea 34 be
       0.12529278 -0.15500195 0.17680795 -0.17667612
0003c0 04 4c d7 be 28 a3 99 3d 3c 1a ba 3e 5d 52 b7 3e
       -0.42050183 0.07501823 0.3634814 0.35805026
0003d0 23 8c b2 be f4 29 9f 3e 8b fc 05 3f 3d 27 ac 3e
       -0.3487254 0.31086695 0.52338475 0.33623686
0003e0 b1 be 03 be 60 9d 2a bc da 6f f1 3d f7 67 d2 be
       -0.12865712 -0.010413498 0.11788912 -0.41094944
0003f0 3a c9 08 3f fd 84 e6 be 01 79 2f 3e 0b 79 00 3e
       0.5343205 -0.45023337 0.17136003 0.12546174

input_layer.bias f4 [64]
000000 0a 81 3f 3e ef 50 02 be e1 be b3 3e 4a 5e 48 3e
       0.18701568 -0.12726186 0.35106567 0.19567218
000010 07 a0 d7 be 22 b1 c9 bd 08 bc 9b 3e ca 73 65 be
       -0.4211428 -0.098482385 0.30416894 -0.22407451
000020 a7 ca 0f 3e 73 85 e0 3d fb 76 f3 be 43 07 87 3d
       0.1404215 0.109629534 -0.47551712 0.06593182
000030 19 75 06 be d7 0c 63 3e 73 d6 9b 3e b5 25 a4 be
       -0.13130607 0.22172867 0.3043705 -0.32060018
000040 4e a1 d3 be 5c 0b f9 3e fc 01 13 be 22 2f c8 3e
       -0.41334003 0.4864148 -0.14356226 0.3909846
000050 a3 6b 4b be 01 01 38 be 91 f1 e9 bd 4a b6 1f bf
       -0.19865279 -0.17969133 -0.11423028 -0.62387526
000060 b3 59 b7 3d d2 64 fb be 89 75 86 be fd ea 07 3e
       0.08952656 -0.49100357 -0.26261547 0.13273235
000070 06 bf 73 be e9 cc 90 3d 9e 51 0b 3f 86 7a ad be
       -0.23803338 0.070703335 0.5442141 -0.3388254
000080 4c 2f e0 3b 53 ab 4d 3e 97 99 b0 3e 90 93 b7 be
       0.0068415757 0.20084886 0.3449218 -0.3585477
000090 98 2b 01 3f e4 32 cb 3e ec f9 10 bd 64 b6 87 be
       0.50457144 0.39687264 -0.035394594 -0.2650634
0000a0 ae 67 74 3e 04 34 f2 be 9f 8c b1 be b2 70 16 bd
       0.23867676 -0.4730531 -0.34677598 -0.03672857
0000b0 7b da c2 3d 29 d2 93 bc 1a 50 18 be cf b6 33 bd
       0.09514328 -0.018044548 -0.14874306 -0.04387551
0000c0 b1 84 d1 3e da 00 47 3e ea 16 19 3e e6 95 04 3f
       0.40921548 0.19433919 0.14950147 0.51791227
0000d0 d0 ac a4 bc 76 5f be be 6f d4 e9 3e c7 2d 97 be
       -0.020101935 -0.37182206 0.45669886 -0.29527113
0000e0 78 56 58 3e 7c c2 2a 3e c2 8b ba 3e 63 bd 85 be
       0.21126735 0.16675752 0.36434752 -0.26121053
0000f0 96 0d 22 bf 8a 2c fd 3e 4a de 83 be 6c 0c 92 be
       -0.6330198 0.49448043 -0.2575553 -0.28525102

hidden_layer_1.weight f4 [64, 64]
000000 e4 91 40 3d 92 9f c6 3c 91 a4 0e be c4 67 a0 bd
       0.047014132 0.02424601 -0.13929965 -0.07832292
000010 62 66 d4 bd 2a 00 82 bc 8e 07 f7 bc 78 21 43 3d
       -0.103710905 -0.015869219 -0.03015497 0.04763934
000020 77 f6 bf 3d 0a 14 21 be 19 24 01 be 5a b9 38 bd
       0.09373181 -0.157303 -0.12611426 -0.04509864
000030 7f b6 37 3c 78 dd be bd 8c e8 86 bd 8d 46 65 be
       0.011212944 -0.093195856 -0.065873235 -0.22390194
000040 f4 75 d5 3d 0e db cb bd 2a 4d e6 bb 5b d4 1d 3d
       0.104228884 -0.09953891 -0.0070282416 0.038532596
000050 96 8e b9 bc fc f6 91 3b 41 88 04 3c 4b 46 40 bd
       -0.022650998 0.0044544917 0.008089126 -0.046942037
000060 07 98 ca bd d3 21 09 bc 8c c0 b0 3b fb fc 99 bd
       -0.09892278 -0.008369881 0.005394047 -0.07518955
000070 78 33 36 3d d3 22 9c 3d ed 28 1b bd d0 c5 91 3c
       0.04448268 0.0762383 -0.037880827 0.01779452
000080 fe 01 8b 3c b6 fd 8c 3d fe 46 f4 bb e9 83 f7 bd
       0.016968723 0.06884329 -0.007454752 -0.12085707
000090 c1 88 a7 bc 5b aa d2 3a f5 b3 c0 3d b6 97 0d bd
       -0.020450952 0.0016072498 0.09409324 -0.03456851
0000a0 c9 21 f9 bd 17 cb 98 3d 86 77 cd 3d 57 ba 0a bd
       -0.12164647 0.07460611 0.10032563 -0.033869114
0000b0 cd 1b e1 bc 28 66 5e 3d f9 28 9a 3c c6 31 1c 3c
       -0.027479077 0.054296643 0.018818365 0.009533351
0000c0 59 bf cf bd 2b be 0b be 71 5f 0a bd 82 a4 16 bd
       -0.101439185 -0.13646762 -0.033782426 -0.03677798
0000d0 71 d3 da bd 7f ef 51 3d 48 00 d9 3d 64 0d 3c bd
       -0.106848605 0.051253792 0.10595757 -0.045911208
0000e0 0b 16 51 bd 8a 64 a4 3d bf 22 66 3c 91 ce c1 bd
       -0.051046412 0.08026989 0.01404637 -0.094632275
0000f0 0b f7 92 3d 18 13 d3 3d 30 ca ee 3d f3 79 86 bc
       0.07176026 0.10306376 0.11659658 -0.016415572
000100 89 cb e8 bd 50 5b 6f 3d 12 41 f7 3b 25 08 2c bd
       -0.11366946 0.05843669 0.007545599 -0.041999955
000110 04 c8 a9 bd 76 53 c7 bd 90 03 de bd 40 43 80 3d
       -0.08290103 -0.09732716 -0.10840523 0.06262827
000120 f8 43 ea bd 7d c2 a4 3c 27 4c 9e 3d 96 40 f0 3d
       -0.11438745 0.02011227 0.07729369 0.11731069
000130 3b 96 10 be e2 1c e4 bd 0e 92 9e bd 24 bc ee bd
       -0.14119808 -0.111383215 -0.077427015 -0.11656979
000140 78 28 9b 3d e6 6c 5f 3d dd b7 27 3b 5d 45 b6 3c
       0.07576078 0.054547213 0.0025591769 0.022249872
000150 10 13 ae bd 50 24 51 3c 29 54 13 be 42 7a bf bd
       -0.0849973 0.012765005 -0.14387573 -0.09349491
000160 6d 10 0c be 58 b7 7b bd d9 1f 55 bb c2 ee b8 bd
       -0.13678141 -0.061454147 -0.0032520203 -0.090299144
000170 d4 81 26 bd bc b6 54 bc f1 89 46 bd 46 d8 4e bd
       -0.040651157 -0.01298302 -0.048471395 -0.050499223
000180 19 4b 3c 3d 86 47 4f bd 75 28 b3 3d dd 56 1e be
       0.045970056 -0.05060532 0.08747951 -0.15462823
000190 4b 3a df bd 8b 7f 97 3d 70 1d 2b be 46 6c b5 3d
       -0.108997904 0.07397374 -0.16710448 0.08858542
0001a0 1f 22 8f 39 c0 89 09 3d 6c 72 61 bd 85 a1 87 3c
       0.00027300508 0.033578634 -0.05504076 0.01655651
0001b0 d0 a2 a6 3d 26 c3 06 3d 08 10 ec bd 8a 70 71 3d
       0.08136523 0.03290095 -0.11526495 0.058945216
0001c0 d0 cb 45 3d 93 7f 32 bc b0 6d 24 be 91 76 a5 ba
       0.048290074 -0.010894674 -0.16057467 -0.0012623837
0001d0 52 24 aa bd d4 58 3d bd d2 13 f6 ba a0 4a 58 bd
       -0.08307709 -0.04622729 -0.0018774217 -0.052805543
0001e0 b9 d5 f6 bc f5 62 2b ba 79 4b d5 3d f0 e2 97 3c
       -0.030131208 -0.0006537878 0.10414786 0.01854083
0001f0 df 39 c4 bd db b3 91 bd 80 3d 16 bb 4b 38 01 be
       -0.095813505 -0.07114383 -0.002292484 -0.1261913
000200 89 8b 96 bd 36 a1 9b 3d d6 13 ab bd 84 61 d6 bd
       -0.07350833 0.07599108 -0.08353393 -0.104678184
000210 a0 57 62 3c 00 2f af bb 46 d2 a0 3c bc 6f 67 bd
       0.013814837 -0.005346179 0.019631516 -0.056503043
000220 5f 31 d4 bd ee 8e 31 be 93 69 9d 3d b0 03 e5 bd
       -0.10360979 -0.1733968 0.07686152 -0.11182344
000230 57 47 83 bd be 2d b4 bd 29 a8 d3 3c 5b 92 01 3d
       -0.06410091 -0.08797787 0.025837021 0.031633716
000240 c0 ec 68 3b 49 11 65 bd 7e 2b b5 3d 1e 10 02 be
       0.0035541505 -0.055924688 0.08846186 -0.1270146
000250 11 71 18 be 90 64 56 3d 66 5e 08 3c e2 64 fa bc
       -0.14886881 0.052341998 0.008323288 -0.030565683
000260 6b 3f 73 3d 20 f1 ae 3b 9d e9 e7 3d 04 36 a3 bc
       0.059386652 0.005338803 0.11323855 -0.019923218
000270 c8 f4 0b 3d d6 09 0a 3d 0a 3b 22 be 07 79 04 bd
       0.03416899 0.033700787 -0.15842834 -0.032341983
000280 64 73 14 bd fd db d6 3d 33 b0 ca bd 93 ea 43 3d
       -0.036242858 0.10491178 -0.098968886 0.04783113
000290 3a 91 f6 bc 1c 77 ba bd 14 30 7b 3d 3f a9 82 bd
       -0.030098546 -0.091047496 0.061325148 -0.063799374
0002a0 a2 40 eb bd c8 64 85 bc 3c 64 49 bd b7 dd 45 bd
       -0.11486937 -0.016283408 -0.049167857 -0.048307147
0002b0 74 01 8c 3d 4d 0f 69 bd f0 50 69 bd d9 67 ab 3c
       0.06836215 -0.056899358 -0.056961954 0.020923542
0002c0 bb 8d 37 be b1 37 90 3d 98 cd 80 3d a5 74 07 3d
       -0.1792516 0.07041872 0.06289214 0.033070225
0002d0 a4 7a 5a bd a8 35 cc bd 30 d8 0d be d8 0e 90 3c
       -0.053339615 -0.099711716 -0.13852 0.017585203
0002e0 9b 9b 14 be 7e 29 8b 3c eb 8c 62 bc b8 4e 2f 3d
       -0.14512484 0.016987558 -0.013827543 0.04279968
0002f0 3c 76 89 3d 5b 4a 24 3d d0 a9 17 bc a7 c6 c4 3b
       0.067120045 0.040109973 -0.009256795 0.0060051265
000300 65 e3 c9 3a 12 2a 6a 3d 89 57 81 3d 1b d1 57 3d
       0.0015402852 0.057169028 0.06315524 0.052689653
000310 3a a8 5d bd 2c d3 69 3d bc 08 56 bd 84 2c 67 3e
       -0.05411551 0.057086155 -0.052254423 0.22575575
000320 cb ec f0 3d 22 77 bd be a7 17 21 be d2 d4 1a 3e
       0.11763915 -0.37004954 -0.15731679 0.15120247
000330 1c 66 6b 3d a1 a3 8f 3d ac 48 87 3d c6 11 d8 3d
       0.057470426 0.070136316 0.06605658 0.10550265
000340 77 d7 c7 be e3 13 9b bd fa a1 46 bd be 62 70 3d
       -0.39031574 -0.075721525 -0.048494317 0.058687918
000350 30 5a 22 3d bd 45 ae 3d 3b 4c 57 bf 64 19 b6 3d
       0.03963679 0.08509395 -0.84100693 0.088915616
000360 c9 b9 99 3e 2c bc 6f 3e 64 c2 cc be 74 0f 1d 3e
       0.30024555 0.23411626 -0.39992058 0.15337926
000370 4d 74 60 3e 5e da a0 3d 6c c7 af bd 42 90 67 3e
       0.21919365 0.0785415 -0.085829586 0.22613624
000380 ad 4f 2d bd 90 76 19 3e 17 1e 5d 3e a4 bf fa be
       -0.042312313 0.14986634 0.2159351 -0.48974335
000390 c7 6c c2 3d 17 96 d5 3d 6e 2c 28 bd 9f 2d a6 3e
       0.09493404 0.10429018 -0.041057996 0.3245668
0003a0 2f fd 30 3d af 34 8f be b5 6e fc bd 67 f4 eb 3d
       0.043210205 -0.27969882 -0.12325803 0.115212254
0003b0 38 f5 cc bd 64 24 e0 be d1 6b ea 3d ce 22 4b 3d
       -0.10007709 -0.43777764 0.114463456 0.04959374
0003c0 43 1f 6a bd 6d 13 b3 3e ad e3 7f 3e 74 9e 45 be
       -0.05715872 0.34975758 0.24989195 -0.19298726
0003d0 7b 6f 9a 3d 4b 72 d1 be 90 53 c9 bd 1e ba 06 be
       0.075407945 -0.4090751 -0.098303914 -0.13156936
0003e0 91 ec 14 3d 3c 06 26 be 8b bb 4f bd d0 1e f3 bc
       0.03635842 -0.16213316 -0.050715964 -0.029677778
0003f0 5d fc 03 bf 7e 24 fa 3d ac 88 ab 3d 66 e0 5e be
       -0.5155695 0.122139916 0.083756775 -0.21765289

hidden_layer_1.bias f4 [64]
000000 68 27 0c be 9a de 0d be c9 7a 61 bc c1 74 ab 3d
       -0.13686907 -0.13854447 -0.013762184 0.083718784
000010 01 81 be bd 22 fa 58 3e 9d f5 53 3e 9f 34 e2 3d
       -0.09301949 0.21189168 0.20699163 0.11045193
000020 24 83 46 3e eb 67 e9 bd b0 d3 9b bd a8 da 9c be
       0.19385964 -0.11396774 -0.076087356 -0.3063557
000030 b3 27 fd 3d 4a 9d dd bd 06 c8 f4 3c fe 94 ac 3d
       0.12361088 -0.10821016 0.029880535 0.084268555
000040 e0 37 0f 3e 4a 81 4b bd 59 6b cb bd 4d 42 a8 3d
       0.13986158 -0.049683847 -0.09932584 0.08215771
000050 6e 85 35 3e a2 1b 06 3e b0 2b 74 3d 81 72 31 3e
       0.1772668 0.13096479 0.059611976 0.17328836
000060 90 81 35 3e c9 b5 00 3e 24 6b 08 bd d4 5d 5d 3e
       0.17725205 0.12569346 -0.033305302 0.21617824
000070 b4 4f ce 3c 39 b6 56 3e 0c d1 34 3d 94 a9 6b bd
       0.02518449 0.2096795 0.044144675 -0.05753477
000080 b1 0b 92 3d ec 18 ec bd 9b a9 88 3e a7 1e 3c be
       0.07131136 -0.11528191 0.266919 -0.18371068
000090 09 89 24 3e b1 b4 17 3e 36 87 20 3d 0b 59 22 bb
       0.160679 0.14815022 0.039191447 -0.0024772312
0000a0 ca 4a 36 3e b2 c1 3d 3e a4 3f e9 3d f9 e6 45 3c
       0.17801967 0.1853092 0.113890916 0.012078994
0000b0 e1 6f e3 bd 67 2f 13 be 04 6f ed bd 39 b4 cc 3d
       -0.111053236 -0.14373551 -0.1159344 0.09995312
0000c0 12 99 2a bc f0 e9 00 3e ae ec 06 3e e1 b8 bf bb
       -0.010412471 0.1258924 0.13176224 -0.0058508967
0000d0 c1 8a fe 3d 53 9d 9e bd c0 52 2b bc 14 2d 19 3c
       0.12428809 -0.07744851 -0.010456741 0.009349126
0000e0 82 0f 3d 3e 1d 5c c4 bc 44 64 63 3e 99 5a 45 3e
       0.18462947 -0.023969704 0.22206217 0.19272842
0000f0 fe 30 5c 3e 98 95 41 3e 5f e3 17 be 87 52 b0 3d
       0.21503064 0.18904722 -0.14832829 0.08609491

hidden_layer_2.weight f4 [64, 64]
000000 10 4b 9e 3d 05 63 80 bd 96 4c d8 bd 53 26 36 bd
       0.07729161 -0.062688865 -0.105614826 -0.044470143
000010 d5 ae f1 bc 44 9f 51 3e df 4c 58 3e 29 39 24 3d
       -0.029502312 0.20470911 0.21123074 0.040093575
000020 18 f1 fb 3c a2 e6 23 bd e2 8f e8 bd 54 3a 88 be
       0.03075461 -0.04001487 -0.113555685 -0.26607
000030 4e 21 49 3e 45 2a 78 bd 3a 2e b5 3d f5 64 80 bc
       0.19641611 -0.060587186 0.08846708 -0.01567314
000040 34 fc fb 3d cd 95 a8 bd 57 b9 8a 3d fb ab 1e 3e
       0.12303963 -0.08231697 0.06773632 0.15495293
000050 c7 a5 ba 3d 43 2d 8f 3c e5 df 27 bd bb a1 91 3d
       0.09113651 0.017477637 -0.040985007 0.07110926
000060 49 c3 2d 3e 4f 9b 0e 3e ac 87 f6 bd 6c f5 43 3e
       0.16969027 0.13926433 -0.12037596 0.1913659
000070 4a ae 48 bd 5e 4a 49 bd 99 e2 e4 3d a4 37 a3 bd
       -0.04899434 -0.049143188 0.111760326 -0.07969597
000080 70 b3 e2 3d be 13 ed bd 69 cd 41 be d6 d2 74 3d
       0.11069381 -0.11576031 -0.18926014 0.05977138
000090 29 ee 95 3d 42 cd 87 3d 46 98 48 bc f2 07 b8 bd
       0.07320816 0.06630947 -0.012243336 -0.089858904
0000a0 46 e5 06 3e 04 de e9 3d 36 e3 b8 3c df fb 50 3c
       0.13173398 0.11419299 0.02256928 0.012755363
0000b0 c5 d7 09 3d 6c 9b 20 3d a0 ed cf 3d 95 bd c0 3c
       0.03365304 0.03921072 0.10152745 0.0235279
0000c0 e1 e3 49 3d 8e 20 b0 3b 1f 77 61 3e 63 70 80 bd
       0.049289588 0.0053749746 0.22018097 -0.06271436
0000d0 72 85 9e 3e 81 5e 26 3e 00 10 ac b8 56 78 94 bc
       0.30961186 0.16246988 -8.204579e-05 -0.018123787
0000e0 7d a2 43 3e 52 03 6c bd f7 42 55 3e 80 56 2e 3e
       0.19104953 -0.057620354 0.20826326 0.17025185
0000f0 b6 23 f3 3d e9 17 2b 3e 0d dc a8 bd 7a db 8a 3c
       0.11872046 0.1670834 -0.08245096 0.016950358
000100 2f 21 1f 3d 98 8d 0e be 94 74 2a bd 86 43 9c bd
       0.038850006 -0.13921201 -0.041615084 -0.076300666
000110 16 bb 0f bd 61 d2 19 3e 7e 5b a8 3e 1e c9 2f 3c
       -0.03509053 0.1502166 0.32882303 0.010729102
000120 ac 83 ca 3d dc 14 8f 3d 0c 46 64 3d f9 38 0d 3f
       0.09888396 0.069864005 0.055730864 0.5516506
000130 2b cf 58 3e 18 69 a5 bd f9 92 49 3c b3 d2 21 be
       0.21172778 -0.08076686 0.012303107 -0.15803032
000140 dd 34 49 bd 5c 3c 9c 3d 31 4c 39 bd 3d 5a 39 3d
       -0.04912268 0.076287 -0.045238677 0.045252074
000150 87 22 d2 bd 09 c0 be bd 0e 37 91 bd 09 25 3a 3e
       -0.10260492 -0.093139715 -0.07090579 0.1817819
000160 2e f2 2e 3e bd aa 1b 3e 10 c0 73 3c fe 74 bd 3d
       0.17084572 0.1520185 0.014877334 0.0925083
000170 b7 5a bd 3d c4 66 95 bd f3 3c 97 3e a2 77 91 be
       0.09245818 -0.072949916 0.29538688 -0.28411585
000180 70 df 4f 3d 94 aa 08 3d 01 1c 81 be f6 e6 c6 bd
       0.050750196 0.0333658 -0.25216678 -0.09712021
000190 65 fd e3 3d 2d e6 01 3e 0b 67 01 3d ea 16 eb 3d
       0.111323155 0.12685461 0.03159241 0.1147898
0001a0 da 56 49 3e 5c 33 28 3e cd 33 d0 3d 9e bc 70 bd
       0.19662037 0.16425842 0.1016613 -0.05877363
0001b0 bc 59 f7 bd 22 04 8a 3c c5 48 ab 3c 11 ad 79 3e
       -0.12077662 0.016847674 0.020908723 0.24382426
0001c0 25 fe 78 3d 59 a8 71 bc 61 e4 91 3d fd b9 8c be
       0.060789246 -0.01474961 0.07123638 -0.27485648
0001d0 d8 86 55 3e 36 25 68 3e c0 b2 e9 bd df 4f 57 be
       0.2085222 0.22670445 -0.11411047 -0.21026562
0001e0 2a 55 93 3e 56 01 cd bd d9 fe 56 3e ca a9 aa 3d
       0.28775913 -0.100100204 0.20995654 0.08333166
0001f0 d4 a9 03 3e 7f 5b 1f 3a 58 21 da ba 29 2c 41 bb
       0.12857753 0.00060790026 -0.0016642017 -0.0029475784
000200 39 be e9 3d ae 6e 83 bd e7 d8 2a 3c 5a bc 4a 3d
       0.11413235 -0.06417595 0.01042769 0.049496032
000210 5a 0f d2 3d a9 62 c6 bd a1 e9 a8 bc bc 4e ee bd
       0.10256834 -0.09686787 -0.020619215 -0.11636111
000220 23 2f 70 3b 58 35 8b 3c 3e e1 9c 3d d9 29 da 3d
       0.003664919 0.01699321 0.07660149 0.10652513
000230 15 68 b8 bc 4b 5f 05 be 0b 32 c6 bd f9 63 4c 3d
       -0.022510568 -0.13024633 -0.09677514 0.04990003
000240 b7 7d fd bd 88 93 30 bd 80 5d 1b 3b 99 53 c6 3b
       -0.12377494 -0.043109447 0.0023706853 0.006052446
000250 40 1c c3 3d ec 9d 11 bc b2 72 d9 3c 1f 39 a1 bd
       0.09526873 -0.008887749 0.026543949 -0.07872223
000260 2a f0 32 bd 86 28 9c 3d 80 fe 6c bc d4 46 1e bd
       -0.04368607 0.07624917 -0.014464974 -0.038641766
000270 28 e0 19 bd 63 a3 73 bd ac c5 47 3c a7 40 8a bc
       -0.037567288 -0.05948199 0.012193125 -0.016876532
000280 1c 9b 0d be a4 95 6b bd a1 5f 8c bd 0c d7 6a 3d
       -0.13828701 -0.057515755 -0.06854177 0.05733399
000290 66 6b ea 3d 6e dd 65 bd ce 86 ce bd 30 02 0d bd
       0.11446266 -0.056119375 -0.10084306 -0.034425914
0002a0 22 36 52 bc 38 98 49 bc d9 c5 2d 3d 48 0f c7 3d
       -0.012830289 -0.012304358 0.04242501 0.097197115
0002b0 b0 89 af 3d e6 52 25 bb 04 4d d6 3d 89 4d 03 3d
       0.08571184 -0.0025226413 0.10463908 0.032056365
0002c0 71 7c d8 bd ed 7b 86 3c 3c 5e 84 bd 39 62 40 bd
       -0.1057061 0.016416514 -0.06463286 -0.046968672
0002d0 ec e5 63 bd 0e df c2 3d ae 09 93 3d f5 a5 85 bd
       -0.055639192 0.095152006 0.07179581 -0.065257944
0002e0 0a 74 ad 3d 0d b6 76 3d 4f 65 d3 bc 72 5a 79 bd
       0.08469398 0.06023221 -0.025805144 -0.06087727
0002f0 13 d4 0d be 7d 67 ab bd ad 36 e7 3c 80 64 83 3c
       -0.13850431 -0.08369348 0.028224314 0.016039133
000300 91 0f ae bc 2b b2 65 bd 82 fd 70 bc 2a 1f b6 be
       -0.021247657 -0.056078117 -0.0147088785 -0.3557065
000310 87 76 4e 3d 06 12 de bd b4 c2 41 3e e5 08 05 be
       0.050406005 -0.108432814 0.1892193 -0.12991674
000320 83 c5 fe 3d 5c 49 12 3d 38 e7 f2 bc 22 6b 34 3e
       0.12440016 0.035714492 -0.02965127 0.17618993
000330 3b db 54 3d 77 c9 5a 3d 19 9a 6f 3d de 69 d1 bd
       0.051966887 0.053414788 0.05849657 -0.10225271
000340 74 5e 17 3c 62 64 f7 bd 18 63 f8 bd f0 9d 33 be
       0.009238828 -0.120796934 -0.12128276 -0.17540717
000350 a4 7d bd bd 42 56 66 3d a7 35 ae 3d f7 b8 27 be
       -0.0925248 0.056234606 0.08506327 -0.16379152
000360 36 51 4c bd d8 b2 02 bd cc df 4f 3d 0d 2a 3a be
       -0.049882136 -0.03190884 0.05075054 -0.18180104
000370 d1 19 c2 3d 09 dd 0e be 34 55 18 3e f4 d1 98 3c
       0.0947758 -0.13951506 0.14876252 0.018654801
000380 09 b5 19 bf 66 99 c3 bd 0c 60 83 3e 64 6f 19 bd
       -0.6004186 -0.09550743 0.25659215 -0.037459746
000390 ba c2 8d be f3 85 c0 3d f8 c3 b1 be 9e 07 81 3b
       -0.27687627 0.09400549 -0.34719825 0.0039376756
0003a0 ce 1e 6b 3b 69 71 01 3e fc 73 79 bd 8c d4 cf 3d
       0.0035876515 0.12640919 -0.060901627 0.10147962
0003b0 ee 41 e3 3d 5f 2c 04 be a0 ce bf 3b e9 d3 30 be
       0.110965595 -0.12907551 0.005853489 -0.17268337
0003c0 0f a3 94 3e de 91 11 3d 70 fc 32 be 70 0f 57 be
       0.29030654 0.0355395 -0.1747911 -0.21001983
0003d0 1b 25 1e bf ba 19 21 bd 92 7b b8 bd eb 44 bb bd
       -0.6177537 -0.039331175 -0.09007944 -0.091440044
0003e0 74 4d db bd 0e e5 37 bc e8 14 71 bd af 5f 09 3e
       -0.107081324 -0.0112240445 -0.05885783 0.13415407
0003f0 86 f7 23 bf 44 43 cd bc f8 9c 77 3d b8 34 36 bd
       -0.64049566 -0.025056489 0.06045243 -0.04448387

hidden_layer_2.bias f4 [64]
000000 77 be fc 3d 31 98 9e 3d 5c 05 15 3d 25 e4 97 3e
       0.12341016 0.07743872 0.036382064 0.29666248
000010 23 19 9f 3e 3d e8 06 be 0a fa ee 3d 3a 69 bb bd
       0.31073865 -0.1317453 0.11668785 -0.0915093
000020 bb 6d e4 bd 40 1b 26 bd 41 01 9f 3e 7e ea fc bd
       -0.11153742 -0.04055333 0.31055644 -0.12349413
000030 ed 6e 2b 3e 04 83 03 be 49 68 60 3d cb cd db bd
       0.16741534 -0.12842947 0.054786954 -0.10732611
000040 20 3d 65 bd 52 b6 af 3c bd 3a 12 3e 3b d4 80 3d
       -0.055966496 0.021449242 0.1428022 0.0629048
000050 56 46 5f 3e 76 c4 93 3e cf 91 1e 3e 97 7a 44 3e
       0.21804175 0.28860825 0.15485309 0.1918739
000060 31 d4 9b 3b 11 b6 bd 3d b3 dd 48 3e 48 e0 5a 3e
       0.00475552 0.09263242 0.19615822 0.21374619
000070 0c b9 bd bd 38 e4 97 bd 19 5e 41 3e 34 a3 1e bd
       -0.092638105 -0.07416576 0.18883552 -0.03872986
000080 b5 57 1e 3e 29 76 9e 3d 5c 56 ff 3d 18 9b 55 3e
       0.15463145 0.07737381 0.124676436 0.20859945
000090 77 1c 7a bd 90 cc 07 be eb cc bd 3d 57 67 8b 3e
       -0.061062302 -0.13261628 0.092676006 0.2722728
0000a0 b5 cd dc bd 2f ec 41 3e c9 ed 5c 3e c3 7f 5b be
       -0.10781423 0.18937753 0.21575083 -0.21435456
0000b0 88 f9 78 3d 08 14 bb bd cb 74 68 3e 29 77 a9 3d
       0.060784847 -0.0913468 0.22700803 0.08274681
0000c0 83 54 51 3e 62 1f f4 bd c6 12 35 3e 8d 80 a2 bd
       0.20442395 -0.11920048 0.17682943 -0.07934675
0000d0 98 fe 70 bc 73 47 be 3d 5e c8 75 3c 9e 01 ce bd
       -0.014709137 0.092909716 0.015001385 -0.10058902
0000e0 00 89 0c bd dd 1c 4f 3e 9f 93 84 3d 23 ad ea 3c
       -0.03431034 0.20225854 0.06473469 0.028647011
0000f0 2b fb 27 3e 67 57 30 3d 2d 9e 9c 3d dc a1 06 be
       0.16404407 0.043052103 0.07647357 -0.13147682

output_layer.weight f4 [2, 64]
000000 8a df ba 3d 58 5e e5 bd 6c dc c8 3d 65 aa 6f bf
       0.09124668 -0.11199635 0.09807667 -0.93619376
000010 8b bb 46 bf cc 88 70 3d ac 16 c9 be b0 f9 95 bd
       -0.7762992 0.05872421 -0.3927511 -0.07323015
000020 45 81 b5 bc 98 19 80 3d ef 9c f7 3e 6f 09 b1 3d
       -0.022156367 0.062548816 0.48361918 0.086443774
000030 15 55 7e 3e 26 aa bf 3d 6f f0 81 3e fd 0d d1 bd
       0.24837144 0.09358625 0.2537875 -0.10207746
000040 a0 cd 87 3c 44 4f 7d 3e 47 fc 85 3e c5 7a 75 3c
       0.016577542 0.24737269 0.26169035 0.014982884
000050 c7 ee 40 3e 8a 92 13 3f 73 32 86 3e dd 0d d9 be
       0.18841086 0.57645476 0.26210365 -0.4239339
000060 76 62 cd 3d 27 9d 67 3d 42 f9 3b 3e 45 42 c3 3d
       0.100285456 0.056546357 0.18356803 0.09534124
000070 64 3b 02 bd 00 c9 fa 3d 63 f9 2a 3e fb 1f 90 3c
       -0.03179492 0.12245369 0.16696696 0.017593374
000080 ed dd 7d 3e 10 36 a9 3d cc 39 ca 3e 50 58 33 bf
       0.24791689 0.08262265 0.3949722 -0.7005663
000090 23 f8 68 3d d0 65 a5 3b 89 dc 60 3e 69 99 3c be
       0.056877267 0.0050475374 0.21959127 -0.18417896
0000a0 f1 7a f2 ba ab 2f bf be bf c2 49 3e 06 0c df be
       -0.0018499774 -0.37341055 0.19703196 -0.4356386
0000b0 bd 97 c7 3b 98 ef 1f 3d 00 34 64 3e 21 0d 94 3c
       0.0060910867 0.039046854 0.22285461 0.018072667
0000c0 e0 03 29 3e 30 c8 bb 3c 9d 90 a6 3d 19 14 cf bd
       0.16505384 0.022922605 0.081330515 -0.10111255
0000d0 6e 07 3b b9 23 b9 d1 bd 4f 0e 20 3c 5f 93 88 3b
       -0.00017836477 -0.1024039 0.009769036 0.0041679586
0000e0 1f 8a ef 3d 9b 1a 84 3d 18 c4 4c 3e d9 81 d1 bc
       0.116962664 0.06450387 0.19996679 -0.025574611
0000f0 91 5e 9b 3d 89 33 b8 bd 03 94 f4 3c 89 1b d9 3c
       0.075863965 -0.089942046 0.029855734 0.026502388
000100 65 f1 3c 3e d0 d1 4e 3e a6 00 9a bc 89 4d cd 3b
       0.1845146 0.20197225 -0.018799137 0.0062653464
000110 7c eb 7a 3d 4a 3d b2 bd 1a 53 4a bf e9 2e d5 bc
       0.06125973 -0.08703096 -0.7903305 -0.026023345
000120 e6 4a ec 3d 30 ec f8 bd 45 f0 6f be 32 24 43 bc
       0.11537723 -0.12154424 -0.234315 -0.011910485
000130 3f cc 41 3e 67 13 60 bb 19 93 b0 3d df 3d 9f bd
       0.1892557 -0.0034191252 0.08621807 -0.07775473
000140 98 77 5d 3d cb b7 23 3e 22 83 20 3e 2f 1b 05 bd
       0.05406913 0.1598808 0.15675023 -0.032496627
000150 8e 6b 27 3e 0b ac 4b be 53 0e b3 3d 11 d1 b7 be
       0.16349623 -0.19889848 0.087429665 -0.35901693
000160 e5 9c 37 3e ed f5 1e 3e 45 26 3b 3e a6 ac 09 3e
       0.17930944 0.155235 0.18276317 0.13444766
000170 30 06 97 bd f5 9b 33 be 22 3b ca 3d 1d 1c d3 3d
       -0.07374227 -0.17539962 0.0987456 0.103080966
000180 72 d6 fb 3d eb 6a 4c bd 75 bd 33 be 65 95 f7 3d
       0.122967616 -0.049906652 -0.17552741 0.120890416
000190 81 bc 06 3c 1c 2c 98 3d 03 a2 22 3e ed d2 09 bf
       0.008223654 0.07430288 0.15882115 -0.5383747
0001a0 00 51 a6 bc 8b 71 c6 3e 5b 12 04 3e 9b de 8a 3e
       -0.020302296 0.387585 0.12897627 0.2712296
0001b0 40 24 98 bd 27 e4 50 3d ac 87 ac 3d 0c 6d c4 bd
       -0.07428789 0.050998833 0.08424315 -0.095911115
0001c0 84 53 a7 3d 08 86 b6 bc bd 94 3b 3e ee d2 08 bd
       0.08170226 -0.022280708 0.18318458 -0.033404283
0001d0 28 a0 f7 3c 5c f0 1e bd 68 24 b3 bd 4c d3 e0 bd
       0.030227736 -0.038803443 -0.08747178 -0.10977802
0001e0 2f d6 da bd d5 53 61 3e 36 e7 a4 3d 2b 0c 0d 3d
       -0.106853835 0.22004636 0.080519125 0.034435432
0001f0 5e ab 12 3e 55 2a 88 3e 04 68 78 3e 53 60 83 bd
       0.14323184 0.26594797 0.24258429 -0.06414857

output_layer.bias f4 [2]
000000 0f 84 74 3b 30 0e 40 3d
       0.0037310158 0.04688853
