DQN - CartPole/data/Apprentice 8.pt (torch, 38460 bytes, 8 tensors)

input_layer.weight f4 [64, 4]
00000000: 335a 093e 5e24 b53e a8c2 3a3f a386 c2be
00000010: 9b4a 923e 2181 543a ffd6 3a3e 9be6 9e3e
00000020: 3715 21bf 08b0 6bbe 10f4 883e f02f b23e
00000030: 198a 3a3e 39b5 2cbe 55f2 3cbf 325e 8dbe
00000040: eb0c 77be f5e2 e23e 8ef7 7e3e 54b1 5a3e
00000050: 3123 9f3d 24a3 a0be 483e c6bd 782d 40bc
00000060: 1a7f 9c3e c25f c03e 656e 5abf 6902 5f3e
00000070: 21ec 97be a907 e43e 4fa9 723f 2ab3 733c
00000080: 1b4d 163f cf1e 373e b68d 53be 51b7 02bf
00000090: a670 0bbf 1694 d33e cda8 5b3e f1a8 63be
000000a0: 4172 5f3d 1ef5 8abb d441 683f 314e a5be
000000b0: 2220 053f 083e 91be 7346 19bf 3d05 ffbe
000000c0: a6e7 21be 2c3f dc3e 52ef b7be 1e01 e9be
000000d0: d44f 593e 609f 9d3e 121a c03e 0602 cabe
000000e0: 0685 a2be f26d a03e cb3f 503e afbc b2be
000000f0: e154 cfbe 43a7 e73e 22fa b43e 5977 e9be
00000100: a8fe 503e 18ef b6be b803 ed3d 9c1f 1cbe
00000110: 00cf 883e cf9c 27be a988 b2bd b4fc d8be
00000120: 4f41 0dbe 1c67 f2be f79c 30bd 8fe4 b0ba
00000130: 7a3f f3be b6d3 cc3d 6908 983d 2f2f cfbe
00000140: 015e c43e c2dd f4bc c0da 66bf 32bf d2bc
00000150: 65bf 25bf ea44 abbe e2e0 a63e 136d 1b3e
00000160: 3686 c13c e5ca a3be 405c c13d e92f 593e
00000170: 8ee3 0cbd 3ed9 9d3e a7dd e0be b8ae e5be
00000180: f5f6 dabe b3a8 7e3b a3dd 23bf 21ab 37be
00000190: 0039 1e3f 118d c2bd 66a5 25bf af58 89be
000001a0: ebbf 8b3c 66a1 59be a4f8 edbe 98ba ac3c
000001b0: 7ef4 31be 6b79 5ebe 6d99 603f d513 173e
000001c0: 063a f8be a185 a0be 23d3 49be 5f70 f6be
000001d0: ecc9 dcbc 2de9 4bbe 8a89 fb3e 72f6 bbbe
000001e0: 5310 ce3e 4123 e6be 4789 20bf 4520 443e
000001f0: b753 8cbe ef16 bf3d 56e6 eebd 5059 af3e
00000200: da0a 9d3e c0cd b7bd c648 ecbe b0cc 403d
00000210: 2940 06be 54ae 893e 6924 8cbe 9637 7fbe
00000220: 9b35 f73d 1c9e 353e ee1d c43d 65f4 61be
00000230: 3b27 75be 6364 ca3e 0c50 473f d21c 63bd
00000240: d201 193f ab82 c3be cc94 1fbe 2c86 bc3d
00000250: 8357 8d3e 8ea2 e0be 32ca b3be cfb2 ca3e
00000260: 2747 693e a17e ea3e c3c2 50bf 54f2 0f3d
00000270: 02fe f7be 66e4 f63e 2191 8b3e bae6 d63d
00000280: 0fdc bcbc ebf1 863e 93bc 52bf d498 d13e
00000290: 2090 bfbe 2d2f 8ebe 17a1 66bf 975d f0be
000002a0: 1d11 013f cadd 15bd b566 fe3e 287b 6f3e
000002b0: 0a55 bbbd 56a4 87be 6101 e1bd fddd 97bd
000002c0: 6644 b63e f458 c13e bf4f 143e 3cb8 27be
000002d0: bfb0 ff3e a47b 04bf 253c ec3d 510b 47bd
000002e0: 16b8 6e3e 92bf f33d f76e 48bf d04e b93e
000002f0: bbb2 833e dc07 8cbe 111f c03c 6739 db3e
00000300: ca20 0d3f 0d6e ae3d 75c4 11be ebd2 78be
00000310: 5d8f 8bbd 3385 cd3e 0ebe 73be fd3f 0bbf
00000320: 33c6 6f3e 87c6 81be 41c2 11bf d6d9 9abe
00000330: 2556 283f a368 6dbe 48f4 d6be 9fcb e7be
00000340: 1229 96be 8439 973e 8c36 41be 3024 c73d
00000350: 3886 9d3d 41eb cdbe 69e2 d23e 70a2 823e
00000360: 45dd a43e 6b14 edbd f6b3 b4be be3c a8be
00000370: 5f79 8d3d 2e3c f63e 890b 303f 5607 55bd
00000380: 3085 7b3e 8877 a5be 0b29 e8be 78cc 8fbd
00000390: dbe6 36be eadc a6bc a0bf 81be 8b7f 583e
000003a0: 66a4 fb3d 9b1c a0bd 7ed7 493e 2bdb f8bd
000003b0: 971b 04bf bfc8 d0bd 326b 6f3f e228 a5be
000003c0: 353c ce3e 327a 43be 1548 f13d 5a63 983e
000003d0: 7d15 d0be 55b6 9c3e 7712 5b3f bd52 c23e
000003e0: f65d 55bd 89d4 ddbd 1fe7 ad3e 82ae 863e
000003f0: 5015 b43e 4061 4ebc 0801 e1bd b09b 3e3d
0.13413315 0.35379308 0.7295327 -0.37993345 0.28572544 0.00081064 0.18246077 0.31035313
-0.62922996 -0.2301637 0.26748705 0.34802198 0.18216743 -0.16866006 -0.7380727 -0.27610928
-0.24126022 0.4431378 0.24899122 0.21356708 0.07770384 -0.31374466 -0.09679848 -0.011729591
0.3056572 0.37573057 -0.853247 0.21778263 -0.2967234 0.44537094 0.94789594 0.014874259
0.58711404 0.17882846 -0.20659527 -0.5106097 -0.5446876 0.41323918 0.21451111 -0.22232415
0.05455232 -0.004240646 0.90725446 -0.32286218 0.52002156 -0.2836764 -0.5987312 -0.49808684
-0.15811023 0.43016946 -0.35924774 -0.45508665 0.21221858 0.30785656 0.3751989 -0.3945467
-0.31742114 0.31333882 0.20336835 -0.3490958 -0.40494445 0.45244798 0.35347086 -0.45598868
0.20409644 -0.3572929 0.11572975 -0.15246433 0.26720428 -0.16368411 -0.08717472 -0.42380297
-0.13794445 -0.4734429 -0.043118443 -0.001349585 -0.47509366 0.10001318 0.07423479 -0.40465686
0.3835297 -0.029890899 -0.90177536 -0.025725935 -0.6474517 -0.33451015 0.32593447 0.15178327
0.023623567 -0.31990734 0.094414234 0.21209683 -0.0343967 0.30829805 -0.43919107 -0.44859862
-0.42766538 0.0038857877 -0.64010066 -0.17936374 0.61805725 -0.094995625 -0.64705503 -0.26825473
0.017059287 -0.21252975 -0.4647876 0.021085069 -0.17378423 -0.21726005 0.8773411 0.14753659
-0.48481768 -0.3135195 -0.19709449 -0.48132607 -0.026951753 -0.19913168 0.4912837 -0.3671146
0.4024683 -0.44948772 -0.6270947 0.19152935 -0.2740762 0.09330546 -0.11665027 0.34247828
0.30672342 -0.089747906 -0.46149272 0.047070205 -0.13110413 0.26890814 -0.2737153 -0.24923548
0.12070771 0.17736095 0.09576021 -0.22065885 -0.23940746 0.39529714 0.77856517 -0.055447407
0.597684 -0.3818563 -0.15584105 0.09205279 0.2760583 -0.4387402 -0.351152 0.39589545
0.22781049 0.45799735 -0.8154718 0.03514321 -0.4843598 0.4822113 0.27259162 0.10493226
-0.02305415 0.26356444 -0.8231899 0.4093691 -0.37414646 -0.27770367 -0.90089554 -0.46946403
0.5041674 -0.036588468 0.49687734 0.23386824 -0.09147079 -0.26492566 -0.10986591 -0.07415388
0.3559906 0.37763178 0.14483546 -0.16378874 0.49939534 -0.5175116 0.11534909 -0.048594777
0.2331241 0.119017735 -0.7829432 0.36192942 0.25722298 -0.27349746 0.023452314 0.42817232
0.5512816 0.08517084 -0.14235099 -0.24299209 -0.06814454 0.40140685 -0.23802969 -0.54394513
0.23415451 -0.25346777 -0.5693703 -0.3024432 0.65756446 -0.23184447 -0.41983247 -0.45272538
-0.2932821 0.29536068 -0.18868464 0.09723699 0.07691616 -0.40218547 0.41188362 0.25514555
0.32200065 -0.1157616 -0.3529355 -0.32858843 0.06907915 0.48092788 0.687676 -0.05200895
0.24562526 -0.32317758 -0.45343813 -0.07021421 -0.17861502 -0.020369012 -0.2534151 0.21142404
0.12287216 -0.07817956 0.1971111 -0.12151178 -0.516046 -0.10194539 0.9352294 -0.32257754
0.4028031 -0.19089583 0.11781327 0.297633 -0.40641394 0.30607858 0.8557505 0.3795375
-0.05209156 -0.108315535 0.33965394 0.26305014 0.3517251 -0.012596428 -0.10986525 0.046535194

input_layer.bias f4 [64]
00000000: 8020 da3e 7d8f 433e 0555 febe 6ccc b7bd
00000010: 5c33 6fbe 83db 47be d9df 683e 045c 4bbd
00000020: 457d fabe d81c 7cbe a51b f43e 9954 723e
00000030: d2da 953c 5cbf 19be e4ac 87bd dbe4 dbbb
00000040: 84eb ffbe b536 bf3e da7f 113e e320 ae3e
00000050: fb8c 823e dad5 07bf 99a8 013e 18c3 a63e
00000060: 87ac b53d 98f5 17be 9704 f43d 1c27 9bbe
00000070: 0973 923e 4958 88be bf99 853e 95fe b43e
00000080: ecfe 7abe 30e4 b53d d5b2 acbd 20a9 823e
00000090: 742a 023e 7b4c e33e 0c99 debe 51e3 aebd
000000a0: e5a6 d73e fefa a53e 71f9 043e 010a b83e
000000b0: 5741 a43d 6f80 ab3e 0faa 643e 0e74 383e
000000c0: ae88 fcbe 5d57 553e b2f0 143f ad3e 8bbe
000000d0: 9c3c ffbe 2562 80be f578 823e dd48 e83d
000000e0: bf7c 29bc 89f7 7fbd b787 b83e 6064 38bc
000000f0: a7d0 6abe 2f5b 93bd a36a 8c3d ce7a a2be
0.4260292 0.19097705 -0.4967424 -0.08974537 -0.23359436 -0.19517331 0.22741641 -0.0496483
-0.48923698 -0.24620378 0.4767734 0.23665084 0.018292818 -0.15014404 -0.06624773 -0.0067106313
-0.49984372 0.37346426 0.14208928 0.34009466 0.25498185 -0.53060687 0.12661971 0.3257072
0.088707976 -0.1483978 0.11914938 -0.30303276 0.2860339 -0.26629856 0.2609386 0.3535048
-0.24511307 0.08881414 -0.08432547 0.25519657 0.12711507 0.44394287 -0.4347614 -0.08539451
0.42119518 0.32418054 0.1298578 0.35945132 0.08020275 0.33496425 0.22330497 0.18013021
-0.49323028 0.20834108 0.5817977 -0.27196255 -0.4985093 -0.25074878 0.25482908 0.113420226
-0.010344683 -0.062491927 0.36041042 -0.0112544 -0.22931157 -0.07195126 0.06856277 -0.31734318

hidden_layer_1.weight f4 [64, 64]
00000000: 4e90 ddbd 3c9e 7abd 8a34 d3bd d068 373d
00000010: c4af d3bd 483e 1c3d fc64 48bd 2257 ddbd
00000020: b441 863d 449c 123d a83e fb3c 3cdf efbd
00000030: 72a8 cdbd 1233 b03d aa90 87bd 1ce1 09bd
00000040: 888f 5f3d 80a6 f3bd 587a a03d c2e9 ddbd
00000050: 50a7 963c 481d 6a3d bc35 a4bd 68d7 8fbd
00000060: 680c 033d 90fb 93bd ca19 8cbd ccb8 34bd
00000070: 386a 873c e097 06bc c253 9bbd 0e4e 80bd
00000080: 304d 0fbd 36b2 ec3d 3e40 913d c4e8 d43d
00000090: d05f 4ebd a0de 87bc 88ca fdbd 18e0 88bd
000000a0: 487d c13c 8cac d2bd dc77 f0bd d2de d8bd
000000b0: a6ea cf3d 802f 4dbd 2a4f f9bd 083b a2bc
000000c0: 5068 26bc 28d5 1ebd f06b 76bc c07a 1abb
000000d0: 84b9 813d 9cb5 b3bd 90bd 163d 681c 9d3c
000000e0: 0871 80bd 5050 ef3c d2e7 df3d b6a3 d13d
000000f0: f8bf 02bd 2c1f 3e3d c8ec eabc 18c7 f43c
00000100: e58d a6bb 4220 093d 8180 2bbd 6486 7dbe
00000110: 282b aebd 18ef b5bd 72cd 743d 2357 d83d
00000120: ae40 11bd f129 563d 89d2 eb3d e8ab e33d
00000130: d119 c93d b256 41bc 358f 923d 5f96 c43d
00000140: a838 183d e1a9 82bd 84ea 05be e40b 8b3d
00000150: 93ed a8bd e241 4d3d 4cd4 c6bd a239 fe3d
00000160: b7d4 2f3d c26e 3abe 583f 01be 6362 6b3d
00000170: 47e5 f13d b59b a2bd cb02 243d a697 06be
00000180: 06c1 b43d 5fa1 66bd 6ad9 073e db26 ae3b
00000190: 886f 243d ebd9 553b ceea 8cbe 85b9 f33d
000001a0: 4b0e 08be bbff 97bc 6906 28be 63f4 1cbe
000001b0: d50b 0e3e 759f 19bd 0ef7 f6bd 2018 c23c
000001c0: e01c 9bbe 72b0 893d db3b 813c 1b5c 84be
000001d0: 8a9a d03d caa3 50bc 5add 923d 0f23 8a3d
000001e0: 472c 133e 54a6 cdbd cbf7 94bd 72e7 b03c
000001f0: 347f c4bd b5b9 0d3e 4f92 bfbd 04ea 7f3d
00000200: 065b cbbc 8787 53be 3a39 9f3d efa4 b6be
00000210: dcc2 f1bd 5790 0e3d ed5f fabd bfa8 1e3e
00000220: cfb7 46be 3f2a 243c 1f1b b0bc 3a70 663d
00000230: 2700 14be 484c 9f3d 444a 49bd f503 bd3d
00000240: 88ae 11bd ceb5 423d e9d7 2ebe e343 b1bd
00000250: 6e21 803d 30e6 c13d b23f 20be 2686 70bd
00000260: caf7 23bd 31ad 88be eca5 c3bc 5664 c2bd
00000270: 038d 973c ade5 45bd 775e b6bd 0e64 c5bd
00000280: 00e7 253c 68f1 cb3d 55e9 eebd 803f f93d
00000290: 6de7 55be 7175 86bd 0823 b8be 5aa4 ed3d
000002a0: 97ff 2c3e d9b2 ba3d 9524 a3be 3025 523d
000002b0: 8b5c 363d 69f9 2e3d 593c 18be b2b7 71be
000002c0: aebb 43be 83b1 ca3d 2bc5 253d aad5 39be
000002d0: 369f 83bd fad1 82bd 5e6f a0bd a800 203d
000002e0: ca70 f83d b45f 3cbd 3adc 683d 16d5 433c
000002f0: 1960 5abd 2ba6 58be 5bc1 64be 10e9 933d
00000300: fec4 003e 55cf 4abd 1c64 48be a326 8cbe
00000310: 1ea4 c6bd f975 cbbc 2bb0 5e3e 10fa 3dbe
00000320: d259 5abd 9746 e7bd 2ef7 fabc 66ad de3a
00000330: 6ec0 babd fa64 98bc 2af9 dfbd 7305 48bd
00000340: 827e 8ebd e06d ed3d 7922 813d 7ada 6f3d
00000350: 00ab 5d3e 0452 69be 81b6 aabd 1a85 f1bd
00000360: 559b 10be 110f babe 6358 30bd 8016 a1be
00000370: bb95 8dbd e6f7 fabd f0c2 393e 0783 6f3d
00000380: ca86 d43d e6fc 483d 8617 12bc de4e 68bd
00000390: c96e 64bd 58b5 453d 09c9 debd b320 e1bd
000003a0: 7ab6 c63d 76c3 8fbd 1ad1 cd3d 7a55 823d
000003b0: 031f d63b 09e3 b33d 1fff 1d3e ea98 be3d
000003c0: 92ef d6bd bf70 11be 35de 6e3e aa4e 9ebe
000003d0: e08b c03d 2937 a03c d67d a3bb 79a7 dc3c
000003e0: 64f9 983d d26c a4bd a02e d53d 28f7 aa3d
000003f0: b3a4 a3bc e0ba dbbd 1ad0 b3ba 748c b73d
-0.108185396 -0.06118606 -0.103127554 0.04477769 -0.10336259 0.038145334 -0.04892443 -0.10807635
0.065555006 0.035793558 0.030669525 -0.117125005 -0.10041894 0.08603491 -0.06619389 -0.033661947
0.05458024 -0.11896992 0.07835835 -0.108356014 0.018390328 0.05715683 -0.080180615 -0.07023507
0.031994253 -0.07225716 -0.068408564 -0.04412155 0.016530141 -0.008214921 -0.07584335 -0.06264888
-0.03498572 0.115574285 0.07092331 0.10395959 -0.050384343 -0.016585648 -0.123921454 -0.066833675
0.023619309 -0.10286817 -0.11741611 -0.105893746 0.101521775 -0.050094128 -0.121733025 -0.019803539
-0.010156706 -0.0387775 -0.015040383 -0.00235717 0.063342124 -0.087748736 0.036801875 0.019178584
-0.06271559 0.0292131 0.10932888 0.102363035 -0.031921357 0.046416447 -0.02867736 0.029880092
-0.005082833 0.03347803 -0.041870598 -0.24758297 -0.08504325 -0.08883494 0.05976624 0.10563495
-0.035462074 0.052286092 0.11514766 0.11116773 0.09819377 -0.011800455 0.07156221 0.095989935
0.037163407 -0.06380058 -0.13077742 0.06789377 -0.08248439 0.05011166 -0.09708461 0.12413336
0.04292747 -0.18206313 -0.1262182 0.057466876 0.11811309 -0.07939855 0.040041726 -0.13143787
0.08825879 -0.05630624 0.1326653 0.0053146905 0.040145427 0.003263111 -0.27522892 0.119006194
-0.13286702 -0.018554559 -0.16408695 -0.15327601 0.13871701 -0.037505586 -0.12058841 0.023693144
-0.30295467 0.067231074 0.015775612 -0.2585152 0.10185726 -0.012734363 0.07171126 0.06744968
0.14372359 -0.1004149 -0.07273825 0.021594737 -0.095945746 0.13840373 -0.09354078 0.062479034
-0.024823677 -0.20657168 0.07774587 -0.3567271 -0.118047446 0.034805622 -0.12225328 0.15494059
-0.19406055 0.010019838 -0.021497307 0.05625937 -0.14453183 0.07778221 -0.04914309 0.0922927
-0.035566837 0.047536664 -0.1707455 -0.086555265 0.06256376 0.09467733 -0.15649298 -0.058721684
-0.040031232 -0.26694635 -0.023882829 -0.09491794 0.018499857 -0.04831474 -0.089047365 -0.096382245
0.0101258755 0.09958154 -0.11665598 0.12170315 -0.20889063 -0.06565369 -0.35964227 0.11603613
0.16894375 0.09116144 -0.31863847 0.051304996 0.04452185 0.042718325 -0.14866771 -0.2360523
-0.19114563 0.09897139 0.040471237 -0.18147913 -0.064268515 -0.06387706 -0.078337416 0.039063126
0.12130888 -0.045989707 0.05685065 0.011952659 -0.053314302 -0.21157138 -0.22339384 0.072221875
0.12575147 -0.049514133 -0.19569439 -0.27373227 -0.096992716 -0.024836527 0.2174689 -0.18552423
-0.053308316 -0.11292761 -0.030635443 0.0016988933 -0.09118734 -0.018602837 -0.10936196 -0.04883332
-0.06957723 0.115932226 0.06305403 0.058557965 0.21647263 -0.22785193 -0.08335591 -0.11792965
-0.14121754 -0.3633962 -0.043053042 -0.3146248 -0.069133244 -0.12254314 0.18140769 0.058474567
0.103772715 0.049069308 -0.008916741 -0.05671584 -0.055769715 0.048268646 -0.10878188 -0.10992565
0.097027734 -0.07019703 0.100496486 0.063639596 0.0065344586 0.08783538 0.15429352 0.0930651
-0.10494913 -0.14203165 0.23326953 -0.3091939 0.09401679 0.019557552 -0.004989366 0.026935326
0.074694425 -0.08028568 0.10409284 0.083479226 -0.019975996 -0.10729003 -0.0013718635 0.08962336

hidden_layer_1.bias f4 [64]
00000000: ee30 f4bd 27f0 cb3c 5836 1a3d ea06 cd3d
00000010: 9419 b8bd 7d42 9ebc 8ecc 6cbc b824 c8bd
00000020: 15b7 753d 8ed9 cabc f742 323c db3e efbc
00000030: 3574 ce3d 747b a73d ff28 4a3d 9777 ce3d
00000040: f098 e6bc 3979 c53d 2420 e5bd 841f e83d
00000050: 8423 dc3c 0933 ab3d b682 f0bd 5c05 fd3d
00000060: 2016 dcbb 463b 6b3d 82dc 4c3d 37b5 8a3c
00000070: c51a c03c aef8 e63d 369e b93c 6404 a43d
00000080: 395d b8bd 963e dfbd e05a 503d 33c1 0ebe
00000090: 4446 b53c 1619 febd ea9b 003d 678c a5bd
000000a0: 7174 593e 7c2a febd e9c2 9e3d 9acf bfbb
000000b0: dc83 00bd 8bc7 d43d 5990 483e 7696 8bbd
000000c0: b3e3 ca3d 9910 07bc 25f4 483e 831f b5bd
000000d0: 8773 82bc d6f8 febd a673 6abd 4008 cc3c
000000e0: 1a20 1d3e 2dda 66bc 95a5 e93b 4b0b 88bd
000000f0: e08f 033e fdc2 0a3e ca7a 00be 88e2 473d
-0.11923395 0.024894787 0.037649482 0.100110844 -0.08989254 -0.019318813 -0.0144530665 -0.097726285
0.059989054 -0.024761941 0.0108802235 -0.029204777 0.100807585 0.08177844 0.049355503 0.10081404
-0.028149098 0.09642262 -0.11187771 0.11334136 0.026872404 0.083593436 -0.11743681 0.12354538
-0.0067165047 0.057429574 0.05001498 0.016932113 0.023450265 0.11277901 0.022658449 0.0800865
-0.09002156 -0.10900609 0.050867915 -0.13940887 0.022128232 -0.124071285 0.03139869 -0.0808342
0.21235825 -0.12410447 0.0775202 -0.0058536055 -0.03137575 0.10389622 0.19586314 -0.068158075
0.099067114 -0.008243703 0.19624384 -0.08843901 -0.015924228 -0.124498054 -0.057239197 0.024906278
0.15344277 -0.014090103 0.0071303346 -0.06642779 0.12847853 0.13550945 -0.1254684 0.04880002

hidden_layer_2.weight f4 [64, 64]
00000000: 9092 133c be9c 71bd 744a 3dbd cc5f e9bd
00000010: 9884 a03d 163d 3abd 7f68 383d add8 453e
00000020: 2129 b33d 4a90 c8bd 901b debd 52d1 d7bc
00000030: b8de 35bd 7152 a53d c081 373d bbd1 123d
00000040: e49e 6c3d 4cfc 01be 660d c43d 5bc1 9dbc
00000050: 975a e03c fa54 5d3d bc3b a23d d239 9bbd
00000060: 02ff c03d 3884 033e 325f b73d 7b1b 853d
00000070: ebb1 bb3d 0e53 083d 8586 b13d d0d5 e5bd
00000080: d377 15be 07b2 943c 952c 4b3d 02e3 df3c
00000090: 801f e63c ba64 37bd 28ea dabd 124c df3d
000000a0: 3386 f73c f42e 633d 3198 5abc 7ebd d6bd
000000b0: 401f 843b 92a5 97bd 8527 42bd fe62 19be
000000c0: 8cb2 83bd 0d2b abbd bd73 f8bc 718b 983c
000000d0: 0c9a 6c3d 00b2 9b3c 2cc3 76bb 3102 e03d
000000e0: e7c0 26be 4de6 4dbd 9404 a7bc 0389 e8bd
000000f0: 0694 243d d504 e6bb 422e ddbc 26d1 e03d
00000100: e8a3 6abd 257e d9bd a114 4bbd 6b86 08bd
00000110: 2810 09bd 2aef b3bd 00cf f4bc 40a6 f4bd
00000120: f07c 733c 1094 4c3d 9d90 333d da6d f5bd
00000130: acb4 cf3c 4638 80b8 c6ca 8dbd 1224 a43d
00000140: 94ee da3d 4827 df3d 607f 003c 7adc 02bc
00000150: fea1 bfbd fd68 9b3d 08ad 8abc 808c 983b
00000160: 2075 79bd 5bb5 a93d e1da 1cbd 2467 df3d
00000170: 24e8 193d 87e3 013d 42ea 89bd 89af a53c
00000180: 08f2 483d ccb5 7bbd ec1b 44bd 7048 2cbd
00000190: c5d6 d0bd ea63 c7bd 5813 82bc fbb3 963d
000001a0: dfb3 c23a 38da 91bd a0bd bebc 66fb 22bd
000001b0: 1414 e03d a5e6 2c3c fa8c 833d dc43 bbbd
000001c0: bf5b db3d 0825 afbc 456a 99bd e00c 693d
000001d0: e032 87bb 20f3 a13b da0b 5d3d 3e7f bd3d
000001e0: 2564 73bd 5472 6ebc a149 9a3d b148 61bd
000001f0: 085c c0bd f151 e5bd 38a1 a0bc 40e2 c23b
00000200: 3cf7 a0bd e836 75bd 8817 243d 4edd 873d
00000210: a0a0 063d d088 bf3d c0b1 df3c c457 cebd
00000220: 9679 c2bd 426e a03d 50c1 1cbd c06e 4abc
00000230: 6e3f ad3d 8021 84ba 2868 c1bd 6064 7d3d
00000240: d68e e63d 90b8 cfbd d478 6b3d c823 e03c
00000250: b69c f0bd 208d 24bd 30e2 d73c 04b8 b13d
00000260: d656 d73d e272 f73d c646 debd 3e57 823d
00000270: c0ac d93c 48c5 223d e80b bd3c 2aa5 f73d
00000280: 6815 e03c baff fe3d c039 023b e2e1 c03d
00000290: 14f2 5abd 0057 e9bd 4054 f93b c6c5 eabd
000002a0: aef3 fcbd 0024 d139 4c3d 17bd f219 9cbd
000002b0: ec2c f23d 0604 b9bd 6a08 ab3d f063 4ebd
000002c0: 5265 ecbd 24d5 bbbd 1ccd cdbd b667 cc3d
000002d0: b827 6b3d 04ae e33d be32 a5bd e01b fbbb
000002e0: 4872 663d 0e72 863d b043 9dbd 942c 4e3d
000002f0: a058 2f3d 60bb 693d c8ed acbd 144c 02bd
00000300: f0ff 09bc 309e 7d3d 70cb 863d fc62 673e
00000310: b086 c13c b83b f7bd e4f6 70bd 3d68 cd3d
00000320: 1c17 5ebd f5d2 01be 8fbf c3bd 42a1 59bd
00000330: d215 6dbe 67a9 89bd 0da8 aabd ec6c 28bc
00000340: 04c8 c73d 310c 1cbe 8832 e8bd 6ebe 24bc
00000350: 6c3e e1bb 6a22 80bb 842d 473d b813 b1bd
00000360: 6494 bf3d 46d8 0b3e acdb a23d 1972 f0bd
00000370: ea0a febd 1d61 9cbd 6039 e93c d2d6 c7bc
00000380: f8db b0bd b98d 9bbd b109 8cbd eae9 2fbe
00000390: 651d b53d 4c2d 86bd 58d9 aa3c 0023 f6bb
000003a0: ad23 9abd 58e9 d33c e876 1fbd 8c15 1ebe
000003b0: 6443 223d 1232 aabd 76f5 023e 58fc 9a3d
000003c0: f282 f33d 94cc fe3c de3c 26be 4425 683d
000003d0: 420e f3bd f068 f5bc ce51 39be b9d6 cb3d
000003e0: 002e 633c 8dc7 e7bd 59a5 1d3d ffaa 38bd
000003f0: 6ec0 e0bd 7930 0cbe 0278 a6bd 369c a93b
0.009007111 -0.05898737 -0.046213582 -0.11395225 0.0783779 -0.045468412 0.04502153 0.19320937
0.08748079 -0.09793146 -0.10845101 -0.026344929 -0.044401854 0.08072365 0.044801474 0.035844546
0.057768717 -0.126939 0.09572868 -0.019257238 0.027386947 0.054036118 0.0792155 -0.07579388
0.09423639 0.12843406 0.08953704 0.06499382 0.091647945 0.033282332 0.08668236 -0.11222422
-0.1459649 0.018151296 0.049603064 0.027329925 0.028091192 -0.044773795 -0.10689193 0.10903181
0.030215358 0.0554647 -0.013341949 -0.104853615 0.0040320456 -0.07404627 -0.04740097 -0.14979169
-0.064305395 -0.08357821 -0.030328626 0.018621178 0.057764098 0.019005775 -0.0037652953 0.10937918
-0.16284524 -0.05026846 -0.020387925 -0.11354258 0.04018023 -0.007019619 -0.026999597 0.10977392
-0.05728522 -0.10619763 -0.04958022 -0.033331316 -0.033462673 -0.08785851 -0.029883862 -0.11945772
0.01486133 0.04994589 0.043839086 -0.11983843 0.025354706 -6.1139974e-05 -0.069234416 0.08014692
0.106900364 0.10896164 0.007842869 -0.007987136 -0.093570694 0.07588384 -0.01692821 0.004655421
-0.060902715 0.08286544 -0.038294677 0.109083444 0.037574902 0.031711128 -0.06734134 0.020225303
0.049058944 -0.061452672 -0.04787819 -0.04206127 -0.10197214 -0.09735854 -0.015878364 0.07358547
0.0014854631 -0.071217 -0.02328378 -0.039790533 0.109413296 0.010553037 0.064233735 -0.091438025
0.107108586 -0.021379963 -0.074909724 0.056897044 -0.004125938 0.004942313 0.05396638 0.09252785
-0.059421677 -0.014553625 0.07533575 -0.055000965 -0.093925536 -0.1119727 -0.019608125 0.0059473813
-0.07859656 -0.059866816 0.040061504 0.066340074 0.032868028 0.09352267 0.027306437 -0.10075334
-0.09495847 0.0783353 -0.038270295 -0.012355506 0.08459364 -0.0010080785 -0.09443694 0.061863303
0.112577125 -0.101426244 0.057488278 0.027360812 -0.1174864 -0.04017365 0.026352972 0.08677676
0.105146095 0.12082459 -0.10853343 0.063642964 0.026571631 0.039738923 0.023076966 0.120920494
0.027353957 0.1245112 0.0019870847 0.09418084 -0.05345352 -0.11393547 0.0076089203 -0.114635035
-0.12351166 0.00039890409 -0.03692369 -0.07622136 0.118249744 -0.090339705 0.08351214 -0.050388277
-0.11542763 -0.09171513 -0.10048887 0.09980719 0.057410926 0.11117175 -0.08066319 -0.007663235
0.05626133 0.06564723 -0.07678926 0.05033548 0.04280913 0.05706346 -0.08443791 -0.031810835
-0.008422837 0.061918437 0.065817714 0.22596353 0.023623794 -0.12071937 -0.058829203 0.100296475
-0.054221258 -0.1267813 -0.09558021 -0.053132303 -0.23152855 -0.06721764 -0.083328344 -0.010279875
0.09754947 -0.15239026 -0.11337763 -0.010055168 -0.0068738963 -0.0039103525 0.04862739 -0.08646339
0.09354475 0.1365672 0.07952055 -0.117405124 -0.124044254 -0.076357104 0.028469741 -0.024394426
-0.08635706 -0.07595391 -0.06837786 -0.17179075 0.08843497 -0.065516084 0.02085559 -0.0075114965
-0.07526336 0.025868103 -0.038931757 -0.15437907 0.03961505 -0.083103314 0.12788948 0.07567662
0.1189021 0.03110341 -0.16234156 0.056676164 -0.11867954 -0.029957265 -0.18097612 0.099530645
0.013865948 -0.11317358 0.038487766 -0.04508495 -0.10974203 -0.13690366 -0.081283584 0.0051760925

hidden_layer_2.bias f4 [64]
00000000: f383 06bb f2a8 b4bd 9638 f4bd 1b31 da3b
00000010: 1623 f43d 096f c5bc 4a9f 0a3e ec5c 33bd
00000020: 1681 463d 357d 80ba 4e8f b6bc a475 153c
00000030: c63e debd 270d 983d e26f 0fbc 3953 1bbd
00000040: 30ac 08bd 7086 a83d 4a2f a9bd 9737 0dbe
00000050: e582 5e3e 6188 0abd be60 c53d 86a2 82bd
00000060: 7ab1 3f3e bc99 883c 5df4 023e 276b 323e
00000070: 645f 293e 98eb 11bd 426b b23d 9f70 323e
00000080: 345b b03d 2d29 033e 5e9d 56bd 14fc 1d3e
00000090: b4ae 5dbd 2e16 223e 92fc 0a3e 464b b7bd
000000a0: 3907 9c3d bcb2 b23d b016 303b d004 dabd
000000b0: a16d c83d 99bf 9d3d 592e 283e c608 8fba
000000c0: 9b91 423d f0b9 19bd 5cc0 393e 2673 603d
000000d0: de74 bebd 8114 573e f073 db3c 26fb 3c3e
000000e0: 7a58 68bd dee4 f0bd 67ed 183e c7a9 fabd
000000f0: 8b9a 683e cf67 663c b3c9 243e 07d1 c4bc
-0.0020525425 -0.08821286 -0.119248554 0.006658686 0.119207546 -0.024100797 0.13537326 -0.04378979
0.04846295 -0.000980294 -0.02228513 0.009122286 -0.10851817 0.074243836 -0.008754702 -0.037921164
-0.033367336 0.08228767 -0.08260973 -0.13790737 0.2172962 -0.033821467 0.09637593 -0.06378655
0.18720046 0.016674869 0.1278853 0.17423688 0.16540295 -0.03562507 0.08711864 0.17425774
0.086111456 0.12808676 -0.05239617 0.15428191 -0.054121688 0.15828773 0.1357291 -0.08949904
0.07618565 0.08725497 0.0026868992 -0.10645449 0.09786535 0.0770256 0.1642393 -0.0010912649
0.04750214 -0.03753084 0.18139786 0.054797314 -0.092996344 0.21003915 0.026788682 0.1845518
-0.056725003 -0.11762403 0.14934312 -0.12239414 0.22715203 0.014062836 0.16092567 -0.024025453

output_layer.weight f4 [2, 64]
00000000: d2b8 5fbe 6bdc b83b 3004 e13d 2190 bdbd
00000010: 05f0 c23d 1689 acbb 6097 fb3d e5b2 f93d
00000020: 7a09 5abd 6754 8e3c 3129 993d 5b43 ebbd
00000030: 609c 0f3c 535c e63d 2a9b 653c a8c6 fb3d
00000040: b4c1 28be 9e4c bcbe 40f5 653b 2e40 b5bd
00000050: 48e8 233e 98cb a9bd aec4 303e 70fa ca3c
00000060: bb5a 163e aa95 c8bd fdcf 5d3e 3fe2 1d3e
00000070: 3b76 0b3e 53d8 c7bd 4e40 973d 01d3 403e
00000080: 596e 0c3e 100c d93d 90e6 87bd 8a28 273e
00000090: e723 cbbd 63aa 843d 1d17 85be 1409 483d
000000a0: 2dbb babc 746f a73d a6cc eebd d81a d6bd
000000b0: 4a77 f13d dd3e 32bd 8c90 c33d 5ac5 043e
000000c0: 49ba 8ebd 5662 903d 6180 353e 5dd7 0ebe
000000d0: b0a6 edbd 3890 ea3d 1d7a c53d 7162 573e
000000e0: b5c1 24bd 52de 183d 0cbd 243e 9b10 0fbc
000000f0: 17d2 6a3e 6456 2abd 5be1 123e 532e 86bc
00000100: fa67 83bd e997 b8bd 14d7 cdbd fc7f 39be
00000110: 42e5 0c3e e682 1f3e 88d2 93be e670 383e
00000120: 003b d53d 27c2 303c b3ff 51be ad08 34bd
00000130: 783d 97bc 1537 b93e dbe6 c93d db5e f03d
00000140: 5200 4cbe 7a30 8ebe 2479 50bd e488 a03d
00000150: 01c1 793d e5da 9d3d e14b 8e3d 86c7 bdbd
00000160: b72e f6bd b018 373d b7b3 223d 65a8 933e
00000170: f3f1 223e 2859 8c3d e2bd 803d bf8e 0e3e
00000180: d50f 923d ac58 05be b03a cdbc 77a1 7c3d
00000190: 8c14 82bd 46c8 b63d aa3f 44bd 529a adbd
000001a0: 9d06 163c 22b9 273e e433 113e f051 05bd
000001b0: 6908 8dbe 579b a9bd d16c 9e3d 08a5 763e
000001c0: 6c2f ad3d d679 06be cc91 0abd b151 72be
000001d0: 382b 10bd 84b8 8d3d cfef df3e 1ccc 473d
000001e0: 33fa 8bbd e030 293d 485f 203e 9149 a1bd
000001f0: 6898 6a3e 0f27 0e3e 46e9 c23e 910b 9f3d
-0.21847847 0.0056415102 0.10987127 -0.09256006 0.09518436 -0.0052653654 0.12284732 0.121923245
-0.053231694 0.01737423 0.0747856 -0.114874564 0.00876531 0.11248078 0.014014045 0.1229375
-0.16480142 -0.36777204 0.0035088807 -0.08850132 0.16006577 -0.082907856 0.17262527 0.024777621
0.14683048 -0.09794171 0.21661372 0.15418337 0.1361932 -0.097580574 0.07385312 0.18830492
0.1371397 0.10598004 -0.06635773 0.16324058 -0.09918957 0.06477811 -0.25994197 0.048836783
-0.02279433 0.08175555 -0.11660127 -0.10454339 0.11790331 -0.043516982 0.095490545 0.12965909
-0.06969125 0.07050006 0.17724754 -0.13949342 -0.11604059 0.11453289 0.09642432 0.21033646
-0.040223796 0.037321396 0.1608774 -0.008731986 0.22931705 -0.041586295 0.14343779 -0.016379511
-0.06416316 -0.090133496 -0.100507885 -0.18115228 0.1375933 0.15577278 -0.2887156 0.18011817
0.10411644 0.010788477 -0.20507698 -0.043953586 -0.018461928 0.36174837 0.09858485 0.11736842
-0.19921997 -0.2777136 -0.05089678 0.0783861 0.06097508 0.077077664 0.069480665 -0.09266572
-0.12020629 0.04470128 0.03972217 0.28839412 0.15912609 0.06852943 0.06286217 0.13921641
0.07131926 -0.13022107 -0.025052398 0.061677422 -0.06351575 0.08924918 -0.047912277 -0.084767
0.00915685 0.16379216 0.14179951 -0.032548845 -0.2754548 -0.08281582 0.07735599 0.24086392
0.08456311 -0.13132414 -0.03383045 -0.23663975 -0.035197467 0.06919959 0.43737647 0.04877864
-0.06834831 0.041306376 0.15661347 -0.0787536 0.22909701 0.13882087 0.38068599 0.07765878

output_layer.bias f4 [2]
00000000: 0458 993d 6312 463d
0.07487491 0.04835738
