DQN - CartPole/data/Apprentice 4.pt (torch, 38460 bytes, 8 tensors)

input_layer.weight f4 [64, 4]
000000 d8 52 a1 be 2d fd 16 be 92 b6 e9 bc 95 cf 5d 3e
       -0.31508517 -0.14745016 -0.02852944 0.21661218
000010 b5 de 7f 3e 48 1f 37 3e 36 1b 69 bf 3e 31 39 be
       0.249873 0.17883027 -0.91057146 -0.1808519
000020 7e d5 ad bd 0e 27 9c 3d 94 fb 36 3f b0 62 60 3e
       -0.08487986 0.076246366 0.7147763 0.21912646
000030 8e a5 d8 be 18 ba 32 be 63 80 01 bf 9f 95 ba 3e
       -0.42313808 -0.17453802 -0.5058653 0.36442277
000040 b6 75 28 3e b4 31 06 3f ac 84 3d 3f 03 87 ca be
       0.16451153 0.5241959 0.74030566 -0.3955613
000050 16 62 d8 bd f6 60 5e 3d ba 09 53 bf a0 36 9d 3d
       -0.105655834 0.054291688 -0.82436717 0.076764345
000060 d3 7f ae be 00 21 a5 3e 45 25 d3 3e ad 9c 02 3f
       -0.34081897 0.3225174 0.41239372 0.5102032
000070 63 58 13 3f 10 75 b8 be 7d 6a 5d bf 72 0f fa be
       0.5755674 -0.36026812 -0.86490613 -0.4883991
000080 6a 15 cd 3d 9e 17 e4 3d 10 92 cf bd eb a4 13 bf
       0.1001385 0.11137317 -0.10135281 -0.5767352
000090 98 e0 0e be a4 60 bb 3e 4b 66 ff be 4a b2 3d be
       -0.13952863 0.36597168 -0.4988273 -0.18525043
0000a0 1a 81 ef be df 71 7d bc 39 24 11 3f 9d 18 b9 3e
       -0.46778184 -0.0154690435 0.56695896 0.3615159
0000b0 9d 61 fa be a4 1c b9 3e 21 d8 45 3f 8a 8d ab be
       -0.48902598 0.36154664 0.7728291 -0.33506423
0000c0 45 fc 0f be 05 7a ce be 1c ab 85 be 78 d6 51 3e
       -0.14061077 -0.4032747 -0.2610711 0.2049197
0000d0 a8 60 02 be f9 94 1f be f7 fd 35 3e 79 1d c3 be
       -0.12732184 -0.15584172 0.17772661 -0.38108423
0000e0 31 8e 66 3d 9c d2 48 bd 8f 8b de bd a4 10 3f be
       0.056287948 -0.049028978 -0.108664624 -0.18658692
0000f0 6d e0 28 3e 93 f1 17 be 6f 3f 58 bf 6d 3f ea be
       0.16491862 -0.14838247 -0.8447179 -0.45751515
000100 0c ef 9b 3e ca fe 3f bd 42 26 3c bd 45 c5 05 3f
       0.30455816 -0.046873845 -0.045934923 0.52254134
000110 85 05 02 3f 61 34 58 be e2 e8 4d bf d4 02 3d 3d
       0.5078967 -0.21113731 -0.80433476 0.046145275
000120 3f 58 db be 5a 94 a5 3e 9b a4 61 3f 1d 63 58 3d
       -0.42840764 0.32339746 0.88141793 0.052828897
000130 f9 40 d2 be 6e b3 d9 3e 05 ea 03 3f ac 08 4b 3e
       -0.41065195 0.42519706 0.5152896 0.19827527
000140 ee 97 b2 be e5 62 47 be 3e be 12 bf 72 d1 bd be
       -0.34881538 -0.19471319 -0.57321537 -0.37073857
000150 04 90 9c be d1 29 c2 be 78 8f 20 3f e7 66 ff 3e
       -0.30578625 -0.37922528 0.62718916 0.49883196
000160 42 65 1f 3e fb 1d 1b bf d7 b4 d3 3e 42 c5 49 be
       0.1556597 -0.6059262 0.41348907 -0.19704154
000170 57 83 c8 be fb 95 97 be 31 a7 8f 3d 69 a3 cb 3e
       -0.39162704 -0.29606614 0.07014311 0.3977311
000180 3e cb 2d 3f 00 eb 14 3e 44 96 90 be 7e 53 f3 3e
       0.6788825 0.1454277 -0.28239644 0.47524637
000190 48 a0 e9 3e d4 81 b5 be fe 90 fa bd 37 38 c4 3e
       0.45630097 -0.35450613 -0.12234686 0.3832414
0001a0 24 ce 86 be 64 e3 49 be 62 19 af 3e cf 38 e5 be
       -0.26329148 -0.19715649 0.34199053 -0.44769904
0001b0 3f f3 fd 3e 13 8c f1 3e 0f 8f 01 bf cc d3 e5 3d
       0.49599645 0.4717718 -0.50608915 0.11222038
0001c0 66 83 f7 bd 43 93 dc be a6 72 32 3f 69 6f 35 3d
       -0.12085609 -0.43081102 0.6970619 0.044295702
0001d0 98 9c 02 bf 1e e0 d5 3e e7 78 88 be 03 31 5d be
       -0.51020193 0.4177255 -0.2665474 -0.21600728
0001e0 43 c9 0e 3f 17 6b ef 3d 5a 6a 0a 3e 19 b3 be bd
       0.5577585 0.11690348 0.13517132 -0.09311504
0001f0 13 4e 1f 3f 1a b4 a6 3e 39 76 5b bf a9 87 62 bd
       0.62228507 0.32559282 -0.8572727 -0.055305157
000200 c1 72 16 be 03 dd fd 3d 27 1d 19 3f bd 4c fb be
       -0.14692213 0.1239567 0.5981011 -0.49081984
000210 c1 02 aa 3e 44 cb a4 bb 04 45 c6 3e 59 e3 38 3f
       0.33205226 -0.005029114 0.3872453 0.72221905
000220 2e 12 40 bd 39 69 2d 3e 3d 93 82 3f 05 2a 8b 3d
       -0.046892338 0.1693467 1.0201184 0.06795124
000230 90 ca e0 be ae 39 83 3e 58 1d 81 3f a1 f6 96 3e
       -0.43904543 0.25629944 1.008708 0.29485038
000240 c5 ad 13 3f c1 cf 9f bd 71 58 36 bf 39 61 50 3e
       0.57687026 -0.07803298 -0.712287 0.20349588
000250 cd 1a fa be 20 6d 51 3c 9b 0a 09 3f 81 e0 fd be
       -0.48848572 0.012782365 0.5353181 -0.49585345
000260 83 81 af 3d e0 0c d3 3e bb 24 96 bd 90 22 ec be
       0.08569624 0.4122076 -0.073312245 -0.4612012
000270 25 0b 54 be 71 db 4b be 8d 55 9e 3e c1 56 b3 3e
       -0.20707376 -0.19907929 0.30924645 0.35027125
000280 02 2b b1 be 36 b4 2d be 88 e8 e7 be 4e 7e 15 3e
       -0.34603125 -0.16963276 -0.45294595 0.14598963
000290 05 3d c2 3e 65 7e e5 3e c8 0e 01 3f d5 ce de be
       0.3793718 0.44822994 0.5041318 -0.43517175
0002a0 96 23 df bc fa d7 12 be 33 0a 55 3f 4f d6 78 3d
       -0.027238648 -0.14340201 0.8321869 0.060751256
0002b0 c9 37 cd 3e f9 99 09 3f 52 7e ef 3e 04 d7 be 3e
       0.40081623 0.5375057 0.46776062 0.3727342
0002c0 38 6c 3e be 29 ec 9f be bc be 42 bf 7f b1 07 bf
       -0.1859597 -0.31234863 -0.7607229 -0.5300521
0002d0 0f 51 51 bd d7 e4 88 3e 7d 40 65 3f f0 18 23 3e
       -0.051102694 0.2673709 0.89551526 0.15927482
0002e0 54 79 98 3e 53 cf 49 be 19 59 a8 be c5 53 b2 be
       0.29780066 -0.19707994 -0.32880476 -0.34829536
0002f0 25 37 8b be 4f ef 79 be c0 b9 3f 3f 41 3f f4 bd
       -0.2719051 -0.24407695 0.74892807 -0.11926127
000300 80 bb 4a 3d ea c7 6f 3e 5b 7b d4 3e b0 c2 98 be
       0.04949522 0.23416105 0.41500363 -0.29836035
000310 a9 a2 a5 3e e9 9d fb be 47 08 19 bf 4c 47 c6 be
       0.32350662 -0.49143913 -0.59778255 -0.3872627
000320 23 e8 07 bf b0 52 5e bd 11 c9 39 3f 17 b1 25 bd
       -0.5308859 -0.054278076 0.7257243 -0.04045209
000330 21 ad 04 bf 93 bf 5c 3e 46 ee b1 3f 53 74 44 3e
       -0.51826674 0.21557455 1.390084 0.19184999
000340 35 71 70 be a8 e5 55 bd c7 dc 19 3f 5a 89 e5 be
       -0.23480685 -0.05222097 0.60102504 -0.44831353
000350 2d 7b b1 3e b6 58 98 be 07 7f 0f bf 83 94 6b 3d
       0.34664288 -0.2975518 -0.56053203 0.05751468
000360 bc 86 99 3e 77 23 d8 3d b5 db 07 3f 08 82 0f 3e
       0.29985607 0.105536394 0.5306962 0.14014447
000370 0a c3 e2 3c cd 3d 95 3e 20 0e a6 bd c3 40 3e be
       0.027680892 0.29148713 -0.08108163 -0.18579392
000380 17 f8 30 be 25 08 08 bf 2f 04 88 bd fe 19 db 3e
       -0.17282139 -0.5313743 -0.06641423 0.42793268
000390 c7 a6 0f bd 3f 44 b6 bd b7 b5 29 bf 16 8a bd be
       -0.03507116 -0.08899736 -0.662929 -0.37019414
0003a0 72 f3 99 3e 21 24 c3 be f0 b9 20 bf d5 49 b5 be
       0.30068547 -0.38113502 -0.6278372 -0.35407892
0003b0 39 f1 8a 3c 8c b9 6f be f0 9d 42 be ee 05 33 3f
       0.016960727 -0.23410624 -0.19005561 0.69930923
0003c0 ad 68 9b bd 9e d3 86 be ed f5 3d bd 45 33 cb 3e
       -0.07588325 -0.26333326 -0.04637711 0.39687553
0003d0 a2 3f d3 be 1f a2 bc be 51 6f 3b bf ab 26 12 bf
       -0.41259485 -0.3684244 -0.7321673 -0.5709025
0003e0 66 0b 21 be 88 8c fe be 43 af b0 3e 43 dd 02 bf
       -0.15727004 -0.49716592 0.34508714 -0.5111887
0003f0 aa dd 87 3e cd d0 fa be 16 4b 54 3e a0 3e 05 3f
       0.26536304 -0.48987427 0.20731768 0.52048683

input_layer.bias f4 [64]
000000 e9 6d 19 3f 1f 79 ba be 9e d8 12 3f c9 74 dd be
       0.59933335 -0.36420533 0.5736178 -0.43253163
000010 b7 23 1a 3e 04 d4 ec 3e d0 85 e7 3e fa d7 72 bd
       0.15052687 0.46255505 0.45219278 -0.059288003
000020 e5 27 dd be 5a 74 ef be 98 d0 99 bd 5f 22 91 3e
       -0.431945 -0.46768457 -0.07510489 0.28346536
000030 7f de 26 be f1 4b ef bd 3c d6 d0 3e a2 27 5f 3e
       -0.16295813 -0.116844065 0.40788448 0.21792462
000040 2d c5 eb be 62 4c 83 3e e2 89 f1 3e a1 2c e3 3e
       -0.4604887 0.25644213 0.4717551 0.44369987
000050 0f 40 fc be 69 48 eb bd 58 12 2c bd 7d a3 99 3e
       -0.49267623 -0.114884205 -0.04200968 0.30007544
000060 88 d3 16 be ff 80 d6 be c3 a5 7a be 54 d8 9f be
       -0.1472913 -0.4189529 -0.24477296 -0.31219733
000070 be 24 20 be 40 33 b0 3c 87 f4 b5 3d 3b 99 89 be
       -0.15639016 0.021508813 0.088845305 -0.26874718
000080 0d a8 5c 3e 54 97 5c bd 3c 1a 34 3e a5 b5 97 3e
       0.21548481 -0.053855255 0.17588133 0.2963077
000090 a4 a6 d6 3e be 0e 55 be b3 64 37 3d 56 b2 2b bd
       0.41924012 -0.20806405 0.04477377 -0.04191812
0000a0 48 a5 e2 be 8a 2d 1f bd 4c d1 01 3f 31 eb 44 3e
       -0.44266725 -0.03886179 0.50709987 0.19230343
0000b0 47 09 45 3e 11 50 52 3e 4e 57 48 be cb d5 b1 3e
       0.1924182 0.20538355 -0.19564554 0.34733424
0000c0 78 83 b5 be 36 ce c0 3e f7 13 fb 3e 29 19 73 3e
       -0.35451865 0.37657326 0.4903867 0.23740067
0000d0 a5 54 bf 3e 4b 5a ff 3e c4 c9 d2 3d 15 c5 54 3e
       0.37369266 0.49873576 0.1029239 0.20778306
0000e0 7a 68 4f 3c 76 47 ec bd 35 39 e0 3d d1 79 5b 3e
       0.0126591865 -0.115370676 0.109484114 0.21433188
0000f0 db 3f 85 3e cf 96 2a be 2e 33 6d be 62 be fd be
       0.2602528 -0.16659091 -0.23164055 -0.49559313

hidden_layer_1.weight f4 [64, 64]
000000 c1 50 9a 3c b0 01 fe bd 3e 12 fa bb 4c ed 00 be
       0.018837335 -0.124026656 -0.007631569 -0.12590522
000010 87 26 ef 3d bb 74 40 bd 3e 3b 72 be 1f 66 27 bd
       0.116772704 -0.046986323 -0.23655412 -0.040868875
000020 ca 5e b9 bb a6 83 b0 3c 2f 4c d7 3d 20 2a 18 3e
       -0.0056570517 0.02154715 0.10512578 0.1485982
000030 15 ef 13 be 20 70 bf 3c b8 a3 79 3c 90 98 0c 3e
       -0.14446671 0.023368895 0.0152367875 0.13730073
000040 f2 99 9d bc b3 a4 fc bd a8 fa 43 3e f6 3a 4b 3e
       -0.019238446 -0.123361014 0.19138587 0.1984671
000050 40 9a 28 bf 82 48 a9 3c 67 6d 6a 3d 4e 13 fa bd
       -0.65860367 0.020664457 0.05723324 -0.12210713
000060 ef 4c 27 bf e5 4c 8d 3c fc 6c 54 3e 35 40 8b 3a
       -0.65351766 0.01724858 0.20744699 0.0010623994
000070 3b c3 6b ba 00 27 40 ba a3 b8 19 3e 36 db 11 bc
       -0.000899363 -0.000733003 0.1501184 -0.008902362
000080 c9 33 96 3d cc d1 78 bd e1 cc 55 3d 9f fe aa bd
       0.07334096 -0.060746953 0.05219734 -0.08349346
000090 5c 64 8a be b3 52 de 3d 20 98 20 3e 7e e8 48 3d
       -0.27029693 0.108556174 0.15683031 0.049049847
0000a0 9d ed 90 bd dd 19 fb 3d ca 89 63 bd 7b 3b b8 3d
       -0.07076571 0.122607924 -0.055551328 0.0899572
0000b0 90 db 96 3d 10 81 50 3e 3a 4a 35 bd fc a2 bb 3d
       0.07366097 0.20361733 -0.04426024 0.09161946
0000c0 ad 7e 7a b9 ce 53 6c 3d f8 9d f6 3d b0 69 5e be
       -0.00023889048 0.05769711 0.12041849 -0.21720004
0000d0 68 ea 29 3e 01 52 45 3b 12 9c d3 be 94 f8 bd bb
       0.16593325 0.0030108693 -0.4133001 -0.005797455
0000e0 42 97 0d bd 71 e0 4e 3b 81 11 1c 3e d3 26 a6 bd
       -0.03456808 0.0031566883 0.15241052 -0.08112874
0000f0 1e fc e7 bc 64 2f 85 3d 67 51 d6 3d 25 7f 82 3d
       -0.028318461 0.0650318 0.10464745 0.06371907
000100 06 bf c9 bd cb 43 d3 3d cd 5d 27 3d b7 b4 24 3e
       -0.09850888 0.10315665 0.04086094 0.16084562
000110 11 86 ed bc 8e 27 38 be 5d 12 b7 bc 0f a2 9b 3d
       -0.028994592 -0.17983839 -0.022347623 0.075992696
000120 df a4 21 3e c7 4a a3 3e df 68 86 3e 38 80 32 bd
       0.1578555 0.31892988 0.26251885 -0.04357931
000130 63 6e 86 3e e9 ce 2a 3c cc 5a 8f bc 61 ad 3c bd
       0.26256093 0.010425308 -0.01749935 -0.046063785
000140 1f ac 80 be 42 0f 87 be e2 22 b0 3d 62 fc 64 3d
       -0.25131318 -0.26378828 0.08600403 0.055904754
000150 7d 15 bb be bf 57 d3 3d 3d 1c 39 bd 52 d0 0c 3e
       -0.36539832 0.103194706 -0.045192946 0.13751343
000160 7f 5e bd 3c 9d ff f2 be 9c 3f 42 3e 79 cb 69 3e
       0.023116348 -0.47460642 0.18969578 0.22831525
000170 b3 1c 84 3d e4 9f d4 3d ce 2c 83 3d c6 6f 60 3e
       0.064507864 0.10382059 0.0640503 0.21917638
000180 dc c8 33 bd a1 a2 91 3e 73 d4 18 3e 87 85 36 be
       -0.043892726 0.28444389 0.14924793 -0.17824374
000190 94 06 07 be ad a1 af 3b 3d 8e 5b bd d8 18 68 3e
       -0.13186103 0.0053598494 -0.053602446 0.22665727
0001a0 50 ab 2f be 14 ff 55 3c 72 b0 39 bd 9f 8f 20 3e
       -0.17155194 0.013061304 -0.045334287 0.15679787
0001b0 65 af 28 3d f2 7a 5f bd 79 21 15 3e 72 19 97 bd
       0.041182894 -0.05456061 0.1456355 -0.073779
0001c0 e5 c8 82 3e b1 6b 11 be 22 b8 b0 bd 1c 8f 01 bf
       0.25543895 -0.14201237 -0.086288705 -0.5060899
0001d0 c8 ca c4 3d a8 ec 8e be 83 fc 4d 3d df 35 03 3e
       0.0960899 -0.2791493 0.050289642 0.12813519
0001e0 98 34 3e 3d 42 25 75 bb f0 9e 64 be d8 ea 3c 3e
       0.046436876 -0.003740624 -0.22326255 0.18448961
0001f0 6a 65 13 3e b2 5c d4 bd de 03 a7 be 51 21 f9 3e
       0.14394155 -0.10369243 -0.32620138 0.4865823
000200 7c 9a ee bd ba dc 80 3d f0 60 ad 3d 9b b0 8a be
       -0.11650559 0.062921 0.08465755 -0.27087864
000210 63 d9 64 3d df 23 5f bc d3 f9 60 be 41 67 67 3d
       0.05587138 -0.013619392 -0.219703 0.056494955
000220 1c 91 99 3c 2f be 36 bc ad 96 16 3e bd af ae 3d
       0.018745951 -0.011153742 0.14705916 0.08529613
000230 ff 25 af bd 5a 59 e9 3d 38 df 07 bd 9c f8 e7 3d
       -0.08552169 0.113939956 -0.033171862 0.11326715
000240 e7 a2 dd bd 46 b2 c6 3c 8d 4f 86 bd 98 01 92 bc
       -0.10822087 0.02425493 -0.06558142 -0.017823026
000250 7e 6f c6 bd f7 6e 72 3d f4 fe b0 3c 49 bc e3 3b
       -0.09689234 0.059187856 0.021605946 0.0069499356
000260 4d 64 74 be 70 3a 07 be db 9f 21 3e cd d5 14 3e
       -0.23866387 -0.13205886 0.15783636 0.14534684
000270 c0 4c 1e 3e 6f 30 f5 3d 6c fc bf 3d 1b b0 33 3d
       0.15458965 0.119721286 0.093743175 0.04386912
000280 20 24 f1 3d f6 79 65 3d 57 19 61 3c a1 3d a1 be
       0.117744684 0.056024514 0.013738952 -0.31492332
000290 14 10 ea bd 44 76 46 3d 19 73 f0 3d da cf 50 bd
       -0.11428848 0.04845263 0.11740703 -0.050979473
0002a0 04 59 fe be 93 bb 06 3e ab ef bb 3d ca d4 36 bb
       -0.4967729 0.13157491 0.091765724 -0.0027897828
0002b0 ea 78 35 3e 2f e6 22 bd 3d 82 53 3d f2 82 24 3e
       0.17721906 -0.0397703 0.051637877 0.16065577
0002c0 12 8b 9f bc 64 69 55 3c c8 75 cc 3d 75 3a 8b be
       -0.019475494 0.013025615 0.099834025 -0.27193037
0002d0 76 dc 32 bd e6 f6 18 be a9 7c c0 bd cb 5d c3 3d
       -0.04366728 -0.14937934 -0.09398777 0.09539374
0002e0 bd cd 98 3d ba f9 21 3e 8d 47 2c 3e 44 61 58 be
       0.074611165 0.1581792 0.1682417 -0.21130854
0002f0 ac 3b 70 bd 2a ff 45 36 87 c6 25 3e c9 be 11 bc
       -0.058650658 2.9503813e-06 0.16189013 -0.008895584
000300 9b d7 3f 3c b4 23 a3 bd 55 57 19 bc 5a 9a 09 3e
       0.011709119 -0.07965794 -0.0093592005 0.13437787
000310 aa 70 6d be 2e b3 d2 bd 26 09 cf 3d c3 df bb be
       -0.23187509 -0.10288082 0.10109167 -0.36694154
000320 a6 08 e6 3d 94 10 df bd 10 d5 8f 3d 32 a7 cc be
       0.11232118 -0.10891834 0.0702306 -0.3997131
000330 da d6 83 3e 69 e8 59 bd 00 4d c3 bd b7 9f bb be
       0.25749856 -0.05320016 -0.09536171 -0.3664529
000340 74 1b 01 3d f4 54 3b 3d 1a 61 ac bd df c6 2a 3c
       0.031520322 0.045735314 -0.08416958 0.010423391
000350 24 ed f5 bd 0a 69 37 3e b4 60 2a 3e b8 18 37 bd
       -0.120081216 0.17911163 0.16638452 -0.044701308
000360 d8 3b 19 3f 95 c4 1d bc bc 0e 23 3d e9 28 df be
       0.5985694 -0.009629388 0.039808974 -0.435859
000370 f4 4a a6 3d 3b b5 e0 ba 01 60 62 be e2 ea ed 3d
       0.08119765 -0.0017143855 -0.22106935 0.11617066
000380 21 1b e0 bd cf 1d 3f 3e 0a cd ce bd 84 9d 40 bd
       -0.109426744 0.18663715 -0.10097702 -0.04702522
000390 ff 1c 3e 3d 7f 53 e4 bc c2 d6 cc bd 97 f8 1a 3e
       0.04641437 -0.027871845 -0.10001899 0.15133892
0003a0 94 63 52 3c 67 22 4d bd 17 70 c7 bc 68 83 54 be
       0.012841124 -0.050081637 -0.02434544 -0.20753253
0003b0 18 86 81 bd 0d 58 0f 3c a8 b2 02 be 9d 4d 54 3d
       -0.063244045 0.00874902 -0.12763464 0.05183183
0003c0 34 85 f5 3d b5 f2 f3 bd a2 b6 2b be b4 76 ea bd
       0.11988297 -0.11911527 -0.16768888 -0.11448422
0003d0 36 fb a8 be 0e 16 a3 bd fb 59 37 be 50 df 5f be
       -0.3300416 -0.07963191 -0.17905419 -0.2186253
0003e0 17 3a 58 3e 4f 86 82 be b6 d8 c4 be 26 a7 58 3e
       0.2111591 -0.25493094 -0.38446587 0.21157512
0003f0 29 d6 70 3d 1e af 14 be e2 2b e2 bd 52 b6 58 3f
       0.05879799 -0.14519927 -0.11043526 0.846532

hidden_layer_1.bias f4 [64]
000000 30 6d 15 3e 1b f4 d6 bc 6e 9f 15 3c da 99 a4 bd
       0.14592433 -0.026239445 0.009132249 -0.08037157
000010 45 71 78 3d e8 58 a7 3c c4 6b a2 3d 12 4e dd bd
       0.060654897 0.020428136 0.07930711 -0.10805906
000020 8e 61 91 3d f0 f4 84 bc 3f aa 84 3d 78 c6 dc 3d
       0.07098685 -0.016230077 0.06477784 0.107800424
000030 d2 fb 0a be f6 97 3f bd 4b b7 95 bd 20 02 0c 3d
       -0.13572624 -0.04677578 -0.07310351 0.034181714
000040 bf 83 57 bc 1e c4 7b 3d 36 0b 90 3d 52 eb 46 3d
       -0.013153969 0.06146633 0.07033388 0.048564263
000050 e7 96 00 be 76 02 e1 3d fa fa 34 3e 67 f4 0b 3e
       -0.12557565 0.109867975 0.17673865 0.13667451
000060 15 a5 36 bd 49 c0 85 3d ab bd c9 3c 0f 5b 0b be
       -0.04459103 0.06530816 0.024626574 -0.13608955
000070 5f d6 2b 3c d4 e3 a2 bc f0 2a 6d bd d2 82 42 bd
       0.010488122 -0.019884028 -0.057902277 -0.04748804
000080 ea db 06 be fc 0c f8 bc 56 be d1 3c 24 8e f5 bd
       -0.13169828 -0.030279629 0.025603455 -0.11990002
000090 6c bb 1e bd bf 52 8e bd 22 df 34 be dc ed 98 3d
       -0.03875296 -0.06949376 -0.17663243 0.07467243
0000a0 5a ba eb bb a7 f3 1d be a1 7b 16 bd 20 fa 30 3e
       -0.0071938457 -0.15424977 -0.036738995 0.17282915
0000b0 a0 bb 88 bd e3 6c d9 bd 30 9f a2 bd 9b bc bc 3d
       -0.06676412 -0.106164716 -0.07940519 0.09215661
0000c0 23 10 fc 3d 27 cc 0b 3b c3 9c 07 be 0d 14 a9 bd
       0.12307765 0.00213314 -0.13243394 -0.082557775
0000d0 7e 49 ed bd ba 70 c6 bd 4f a4 e2 bd 5b 1f 59 bd
       -0.11586283 -0.0968947 -0.110664956 -0.05300842
0000e0 24 6a 07 3e b8 f2 45 bd 77 82 3b 3d 39 37 87 bd
       0.13224083 -0.048327178 0.045778718 -0.0660233
0000f0 8e 33 89 3d 86 60 7b 3b e8 fc b4 bd 56 19 8f 3d
       0.066992864 0.0038357093 -0.088373005 0.06987254

hidden_layer_2.weight f4 [64, 64]
000000 77 2e a6 3d d5 55 c1 3d 06 3d 4d 3d c9 96 7b 3e
       0.08114331 0.09440199 0.050107025 0.24569239
000010 34 c1 80 bb 53 d3 58 3e e8 2d ef bd 27 43 50 3c
       -0.0039292816 0.21174364 -0.11678678 0.012711323
000020 25 79 ef bc e1 50 a5 3d 7d ef e0 3d ee 6d 11 3e
       -0.02923257 0.08072067 0.10983179 0.14202091
000030 32 78 a2 bd 4e b4 58 3d 89 29 2a 3d d8 3f 63 3d
       -0.07933082 0.052906327 0.041543517 0.055480808
000040 fa e4 2a 3e 32 21 69 bd 28 75 c7 3d a0 93 80 3e
       0.1668891 -0.056916423 0.09739143 0.2511263
000050 13 bd 28 bd 88 ba bc be d8 98 97 be 0b 1e a5 be
       -0.04119594 -0.36861062 -0.29608798 -0.32249483
000060 47 5d 82 3b 95 4d 34 3e 6e 57 27 be e9 e9 53 3e
       0.0039784047 0.1760772 -0.16341946 0.20694698
000070 f4 ab 85 3e 5c 07 18 3e 98 a4 28 3d 63 f3 d9 3c
       0.26107752 0.14846557 0.041172594 0.026605314
000080 47 8e dc bd 42 94 0a bd 46 85 b8 3d 1a 03 45 3e
       -0.10769325 -0.033832796 0.09009795 0.19239464
000090 4c e0 52 3e f0 9a 5f be d8 7e 5b bf fb ce 56 3e
       0.20593375 -0.21836448 -0.85740423 0.20977394
0000a0 4c e4 e9 be 09 a5 01 3f 6b c0 27 3e 7b 60 78 be
       -0.4568199 0.5064245 0.16381995 -0.24255554
0000b0 49 cc 4d 3d 7c 27 91 3d 27 83 e6 bd 5f 9b eb 3d
       0.05024365 0.07087609 -0.11255484 0.11504244
0000c0 93 23 0b 3c 37 54 df 3d b2 0c 97 3d dc 0e a2 bd
       0.008492368 0.109047346 0.07375468 -0.079129905
0000d0 7c 80 a1 3d a7 5e 8f ba b9 18 ca 3d 45 64 95 bd
       0.078858346 -0.0010938243 0.09867997 -0.072945155
0000e0 39 58 63 bd ae 0e 29 3e c8 c4 fe 3c f8 3f 56 3e
       -0.055504058 0.16509506 0.031099692 0.2092284
0000f0 5c 4f 5e bd d1 ec 43 bf 94 45 d3 bd 5a dd ff 3d
       -0.0542749 -0.7653323 -0.10316005 0.12493391
000100 19 d3 d9 3d f6 74 fc 3d 1f b3 40 bd 5f e1 3d bd
       0.10635967 0.12326996 -0.047045823 -0.04635751
000110 4c e9 32 3e 4a 6f 9d 3d 64 f5 a4 bd b4 51 c9 3d
       0.17471808 0.07687242 -0.08054617 0.09830037
000120 e8 7e e1 3d 00 33 82 bd 0b a8 5e bc 54 2b 0a 3e
       0.110105336 -0.06357384 -0.013589869 0.13493091
000130 2c b0 f6 3d 5f 72 dc bd 08 c5 59 3e 43 14 dc bc
       0.12045321 -0.10764002 0.21266568 -0.02686513
000140 e1 ea 41 3e 57 71 b2 3d d6 f5 15 3e ce 37 09 bd
       0.18937255 0.08713024 0.1464456 -0.033500485
000150 a3 83 93 bb 04 27 b8 3c ff 18 07 bc b9 6c 02 be
       -0.0045017763 0.022479542 -0.008245706 -0.12736787
000160 7e a1 f3 bc 95 b1 ed 3d 92 fa 2b be e2 88 ad 3d
       -0.029740091 0.11606137 -0.16794804 0.08473374
000170 90 de fe bd 22 ed 6f 3d 08 8b 48 bd 7a e7 0c 3e
       -0.12444794 0.058575757 -0.048960716 0.13760176
000180 c2 0d d2 3d 9a 83 37 3e 2c 6b 33 3e 06 5d a5 3d
       0.1025653 0.17921296 0.17521352 0.080743834
000190 01 e2 b3 3d 5f 89 75 3c dd 9e 28 bf 7f 09 8f 3d
       0.08783341 0.014986365 -0.65867406 0.06984233
0001a0 00 25 e7 bd b8 ba 9d 3e 5f 8e 1a 3e e5 b1 f8 bd
       -0.11286354 0.30806518 0.15093373 -0.12143306
0001b0 f2 53 46 3e d3 6d de bd b7 c3 e3 bd 9f b1 4d 3e
       0.1936796 -0.10860791 -0.11121314 0.20087288
0001c0 cb df 0e 3e 23 ee c5 3d b8 8d d0 3d 30 cb 64 bd
       0.13952558 0.096645616 0.10183281 -0.055857837
0001d0 ac a8 ff 3d 78 dc 81 3d 97 cd c6 bd e2 40 3c 3b
       0.124833435 0.06340879 -0.09707182 0.0028725197
0001e0 5c ee 1b 3c 85 1f 8a 3b d9 c9 d7 3d 6d 28 92 bd
       0.0095172785 0.004215183 0.10536546 -0.07136617
0001f0 84 a8 b3 3a 2c 95 62 be 17 8a af bc 54 20 57 3e
       0.0013706838 -0.22127217 -0.021428151 0.21008426
000200 21 18 09 be 09 87 5b bd 89 87 c9 3c 3a 45 2d be
       -0.1338811 -0.053595576 0.024600761 -0.16920939
000210 46 7d 08 be 0d 3d 4a be f6 f2 c5 bd e2 96 26 3d
       -0.13329038 -0.19749852 -0.09665482 0.040671237
000220 f1 4b a7 3c 90 7f 1c 3d 81 bf 7c bd 79 82 f1 bc
       0.020421954 0.03820759 -0.06170607 -0.02948116
000230 60 46 a5 bd 16 0d a3 3d 1d 88 c3 bd 9e 62 18 3d
       -0.080700636 0.0796148 -0.09547446 0.037203424
000240 ac f7 6b be 15 5b 05 be 0d d6 9f bd 23 e2 19 3c
       -0.23043698 -0.13023026 -0.07804499 0.009392294
000250 a2 8f a5 bd 37 e2 1d be ce 70 7a 3d 41 d7 b6 3c
       -0.080840364 -0.15418325 0.061142735 0.022319438
000260 30 35 0d be b7 4c 83 bd 85 1f e2 bc 5c f6 b9 3c
       -0.1378982 -0.064111166 -0.02760292 0.022700481
000270 3e 16 2f be ef 88 9b bd f8 bf 85 bd 16 63 08 3d
       -0.17098328 -0.075944774 -0.06530756 0.03329762
000280 44 c4 64 bc 79 fd c1 bd 9d 2a 8b 3d aa 69 1b be
       -0.013962809 -0.09472174 0.06795237 -0.15177026
000290 de ca 11 be e6 39 43 3c 75 c7 59 bc 4f 2b 00 be
       -0.14237544 0.0119156595 -0.013292183 -0.12516521
0002a0 12 12 4f 3c 86 d4 e5 3a 0d 63 49 3d d6 df 82 bd
       0.012638586 0.001753465 0.049166728 -0.063903496
0002b0 72 64 3a 3d 20 80 78 bc 48 ac b7 bd 1f 9f 3f 3d
       0.04550595 -0.015167266 -0.08968407 0.04678261
0002c0 04 05 0a be e0 b8 87 bb a0 3d 70 bd da 11 ed 3d
       -0.13478476 -0.004141912 -0.05865252 0.115756705
0002d0 a0 fd c6 3c a0 43 bf 3d 05 cf c5 ba 96 28 b0 3b
       0.02429086 0.0933907 -0.0015091604 0.005375932
0002e0 95 26 43 bc 7d 93 75 3d a3 bd 36 3d 9b a7 b2 3c
       -0.011911054 0.05995511 0.044614445 0.021808436
0002f0 21 88 d4 bd 5b c0 60 3d 26 bd a2 bd c9 cb a0 bd
       -0.10377527 0.054870944 -0.079462335 -0.07851369
000300 33 41 b5 3c c3 2d 8b b9 c2 cc 21 bd fe b1 a7 3d
       0.022125816 -0.0002654624 -0.039501913 0.08188246
000310 c1 ac 03 bd 5b 7a 7c 3c b8 6b 83 3c 63 27 db bc
       -0.032147173 0.015410031 0.016042575 -0.02675218
000320 57 cd f9 bd ec c0 00 bd 75 3d 5d bd ef b2 80 bb
       -0.121973686 -0.031433985 -0.054013688 -0.0039275805
000330 30 3c 76 bc 38 66 d3 bd d2 75 d0 3d 38 9e d9 3d
       -0.015028998 -0.10322231 0.101787224 0.10625881
000340 59 2c fb bc c0 0e 6d 3d 1b cd 5a 3c d9 55 01 be
       -0.030660795 0.057875395 0.013354565 -0.12630405
000350 20 cf 86 bb c3 b7 f1 bd a8 2e ae bc 31 e0 c6 3d
       -0.0041140467 -0.11802628 -0.021262482 0.0971073
000360 0b d4 72 bd af ea 91 3d 61 9e 80 bd 57 92 ba 3d
       -0.05928425 0.071248405 -0.062802084 0.09109943
000370 aa 51 30 3c 31 dc ea bd 00 53 f7 3a 94 f3 e7 3c
       0.010761658 -0.114677794 0.001886934 0.02831439
000380 2e 1a b6 3d 80 fc 0c bd 93 2e 4b bd 11 11 f8 bc
       0.08891712 -0.03442049 -0.049604964 -0.030281575
000390 96 87 d1 3d 54 ae 71 bd 62 66 c6 bd 11 ad c5 3d
       0.10230939 -0.059004143 -0.09687497 0.096521504
0003a0 ab eb b5 3d d4 64 93 3d 7d 48 18 3d 84 ee e9 bc
       0.08882841 0.07196966 0.037178505 -0.028556116
0003b0 35 bb 73 bd 80 ff b7 3a b4 6b de 3d 9e be b3 bd
       -0.059504706 0.0014037937 0.108603865 -0.08776592
0003c0 4d 0d b5 3c 1e 95 97 3d fa 23 d9 bd 04 c0 0f bd
       0.022101069 0.07401489 -0.10602565 -0.03509523
0003d0 b8 29 9c bd 48 df 4f bd 38 6e 54 bd d8 a5 eb 3d
       -0.07625145 -0.050750047 -0.051862925 0.115062416
0003e0 0d 95 08 bd 7f f1 44 3d 53 60 ca 3b 26 03 ff 3a
       -0.03334527 0.04808187 0.0061760335 0.0019455894
0003f0 30 db c4 bd e5 2f 19 bd 68 98 3f 3d df c1 42 bc
       -0.09612119 -0.03739919 0.046776205 -0.011887043

hidden_layer_2.bias f4 [64]
000000 b5 a3 04 3d dd c3 1d 3d c1 e6 23 3d a2 19 87 bd
       0.032382686 0.038516868 0.040014986 -0.06596686
000010 d9 d8 4c 3e 9f 06 ab bc 08 47 26 bd 31 6a 01 be
       0.20004596 -0.02087718 -0.040595084 -0.12638165
000020 81 5b 9e 3d 82 04 aa bd c5 6b 25 be aa df 0b be
       0.07732297 -0.08301641 -0.16154392 -0.1365954
000030 26 0d 9d 3d 5a 2d bb 3d 72 87 b7 bd ec dd bd bc
       0.076685235 0.091395095 -0.08961381 -0.02317711
000040 c0 50 9c 3d 13 95 9b 3d 99 66 07 3e 1c 85 2d bd
       0.07632589 0.07596793 0.13222732 -0.04236327
000050 ad 89 20 3d 9c 99 c9 3d 42 61 fb 39 64 00 b0 3d
       0.039193798 0.09843752 0.00047946913 0.085938245
000060 13 dd 7b 3d 42 70 0c be cc c2 97 3c ef a3 46 be
       0.06149013 -0.13714698 0.018525504 -0.19398473
000070 1c d3 99 bd fc 7f 0d be ca e7 00 3a 88 d6 07 be
       -0.07510969 -0.13818353 0.0004917352 -0.13265431
000080 d2 0b 7e 3d d1 77 82 3c 1b a3 82 3d 04 cd 7a 3d
       0.06202299 0.015926274 0.06378766 0.061230674
000090 bb 94 86 bb 1f f2 c4 3d 30 35 1c 3e 43 a8 8b 3d
       -0.0041070855 0.096164934 0.15254664 0.06819203
0000a0 10 bc b5 3c ee 03 c8 bd 38 e8 f6 bd bf 18 5e 3e
       0.022184402 -0.097663745 -0.12056011 0.21689127
0000b0 7b 7b 23 bd c9 61 14 be 12 6c a7 bd 2d 30 92 bd
       -0.039912682 -0.14490427 -0.0817491 -0.07138095
0000c0 d2 2e 93 3b ec f2 1f 3d 35 00 ea 3c ce 3e 05 3e
       0.0044916654 0.039050028 0.028564552 0.1301224
0000d0 c1 94 0f be 71 c4 9b 3d 1d 44 03 3e 9b 90 0c be
       -0.14021589 0.076058276 0.12818952 -0.13727038
0000e0 2f c7 02 3d 9b 7f d8 bc 91 3c 13 3e f8 2a 26 3d
       0.031928238 -0.026428035 0.14378573 0.040568322
0000f0 2e df 03 be 90 70 9f 3d 96 88 31 3d 78 1b ea bd
       -0.12878105 0.077851415 0.04334315 -0.114310205

output_layer.weight f4 [2, 64]
000000 29 a4 8b be f4 7e 63 bd 20 ba 1b bb f2 a3 97 bc
       -0.27273682 -0.055540994 -0.0023762062 -0.018510792
000010 13 de 80 3c 52 12 db 3d dc b1 a5 bd 63 35 8b 3e
       0.015730893 0.10696854 -0.080905646 0.27189168
000020 c1 4d e7 3d 92 b3 8b 3b c5 58 40 3d ae 90 a9 3d
       0.11294127 0.00426335 0.046959657 0.082795486
000030 db a1 eb 3c d2 21 28 be b4 47 82 be 98 07 a8 be
       0.028763702 -0.16419151 -0.2544533 -0.32818294
000040 25 95 f3 3b b5 1b 24 3d a2 59 06 3e 18 0b bc bd
       0.007433551 0.040065486 0.1312013 -0.091818035
000050 a9 58 3b bd f6 66 02 3d 21 a0 57 be 49 6d 72 bc
       -0.04573885 0.031836472 -0.21057178 -0.014796563
000060 4d 45 78 3d 24 f2 fb 3d 2f e7 3f bc b2 a3 a6 be
       0.060612965 0.12302044 -0.011712833 -0.32546765
000070 df 72 b6 bd 56 3a cb 3d 52 90 55 be d4 54 74 be
       -0.08908629 0.09923236 -0.20855835 -0.23860484
000080 19 d0 00 3e 14 87 b8 bd ef db c0 3d ac bd a9 3d
       0.12579383 -0.09010139 0.09416949 0.0828813
000090 14 af c5 bd 07 3c e5 bd 51 5a 8c bd 2b 84 62 3e
       -0.09652534 -0.1119309 -0.06853164 0.2212073
0000a0 33 27 b8 bd 17 e3 68 be 38 ae d8 bd a7 80 c2 3d
       -0.08991852 -0.22742878 -0.105801046 0.09497195
0000b0 72 37 82 3d 87 6b 85 3b 06 e2 ec be f3 65 a7 bc
       0.063582316 0.004071656 -0.46266192 -0.020434355
0000c0 fa 03 63 be 62 bf 22 3e 23 ec 93 3d ee fd 2f bc
       -0.22169486 0.15893319 0.07222774 -0.010741694
0000d0 0f f3 c4 be a4 db 83 be 56 20 90 bd ee c5 00 bb
       -0.3846669 -0.2575351 -0.070374176 -0.0019649225
0000e0 7e 8f c1 3c 7c 00 38 bd 72 34 0c be 77 41 63 3e
       0.023627993 -0.044922337 -0.13691881 0.22192942
0000f0 83 4d 67 bd a0 7a 98 bd 05 40 3b 3d 2e 6a 44 3d
       -0.056470405 -0.07445264 0.04571535 0.047952823
000100 da fb 93 be df 61 54 be 8a 2a d7 3d 61 b9 da 3d
       -0.28903085 -0.2074046 0.105061606 0.106798895
000110 66 ed 25 be 7b c0 6d be 6a 1a c8 3c 64 75 9c 3e
       -0.16203842 -0.23217957 0.024426658 0.30558312
000120 e5 a6 67 3c f9 8d 31 3e a5 b8 de 3c 0b 03 11 3d
       0.014138912 0.17339315 0.027187655 0.035403293
000130 b4 c9 ef 3d fc 9e 79 be ba 0a 3b be e3 69 f5 bc
       0.11708394 -0.24377054 -0.1826581 -0.029957717
000140 8c 33 97 3d a1 f3 1f 3d 7d 6a a2 3b 88 5a d9 bd
       0.07382879 0.039050702 0.004956542 -0.106129706
000150 88 ed 6d be f5 e5 32 be 04 07 5b bd e7 33 bd 39
       -0.23235142 -0.17470534 -0.053473487 0.0003608756
000160 3c 94 ac 3d 55 c1 de 3d b4 b8 a6 3d c9 af 03 be
       0.08426711 0.10876719 0.08140698 -0.12860025
000170 36 c7 af 3d e4 c5 68 3d 30 61 b1 3b 10 1c 69 be
       0.08582918 0.05682935 0.005413197 -0.22764611
000180 09 44 19 bd 5b b0 54 be a8 2c 9e 3b 8e e4 92 3d
       -0.0374184 -0.207704 0.004827101 0.071724996
000190 cc 23 5e be da 66 3c be 5e bb 15 be fb 4b cc bc
       -0.21693343 -0.1839861 -0.14622256 -0.024938574
0001a0 d9 e4 f5 3d 18 b2 26 be b0 b7 e6 bd 0c aa 4d be
       0.1200654 -0.16278875 -0.11265504 -0.20084399
0001b0 db ec 63 bd d6 0a bd 3d c3 ed 03 bd a7 89 a9 3d
       -0.055645805 0.092305824 -0.03220917 0.08278208
0001c0 e1 1b 27 be d5 05 4c 3d ef fe e7 3d a4 5c 49 be
       -0.16319229 0.04981025 0.113279216 -0.19664246
0001d0 ed 5a 8f bd fb e7 0c 3e 5b 74 67 be 10 61 8a 3d
       -0.069997646 0.13760369 -0.2260298 0.067567945
0001e0 5e 08 e0 3c eb 58 16 3d e8 11 62 be fc 00 b0 bc
       0.02734774 0.036705893 -0.22077143 -0.021484844
0001f0 33 46 ac 3c 0e b5 2e be c0 69 48 3d 95 4d 05 bd
       0.021029567 -0.17061254 0.048928976 -0.03254469

output_layer.bias f4 [2]
000000 84 e8 2d bd 40 03 c3 bd
       -0.042458072 -0.09522104
