DQN - CartPole/data/Apprentice 9.pt (torch, 38460 bytes, 8 tensors)

input_layer.weight f4 [64, 4]
-0.20597775 0.33640262 1.0211545 -0.07957879 0.20368026 0.29776904 0.74734825 -0.20815796
0.083318755 0.3713701 0.6684353 0.06745317 -0.84063953 0.082591325 0.23115627 -0.29140028
-0.08121534 -0.09996522 -0.15079394 -0.2583506 0.59153146 -0.062196176 0.67715937 0.39749324
0.038669683 -0.111353904 0.38941634 0.7087423 -0.13631201 -0.017002912 -0.36502755 -0.223408
0.2522945 -0.13407217 -0.17780244 0.33498603 -0.6891741 0.49574322 0.95354843 -0.22684488
0.2842906 0.13414428 -0.3787246 -0.2724988 -0.55144334 0.38142645 0.8122363 0.050207086
-0.38915896 -0.17583226 0.9922956 0.59141976 0.72503895 -0.5043166 -0.76927894 -0.53068244
0.027335268 0.39028192 0.47056508 -0.04007503 -0.36680868 -0.18458456 0.44586593 -0.37659395
-0.2564763 -0.22803313 0.9491302 -0.27562755 0.22585118 -0.117194474 0.31455696 0.054139674
0.10707069 -0.22607878 0.30931628 -0.20729528 -0.13265342 0.598256 0.87794507 0.12802804
0.026042912 -0.58772415 0.22000167 0.20743258 -0.4904989 0.21586059 0.8566184 -0.120816395
0.5250358 0.1406725 -0.42113987 -0.18452685 0.3130992 -0.030087447 -0.6289772 -0.24785869
-0.36655366 -0.009114981 -0.26241928 -0.040362477 -0.057767984 -0.4539042 -0.7348743 -0.333466
0.4084334 -0.090139575 0.5488888 -0.110515356 0.30208147 -0.020209132 0.4540522 0.17475642
-0.4237501 0.4221693 1.605126 0.38157573 -0.61857796 -0.13403177 0.35361657 -0.23855592
0.09687578 -0.5358292 0.7392276 0.5492793 0.10244021 -0.69816196 -0.9288981 0.042670347
0.06888841 0.37119815 0.47621742 0.3192531 0.30200398 -0.18597914 -0.4679385 -0.15755089
0.3531918 -0.26745778 1.0129983 -0.19469517 -0.26573125 0.27979243 0.29805514 -0.10001799
-0.29086837 0.0029418315 0.5770931 0.023251744 0.17899099 0.021214936 -0.07403821 0.3799672
-0.1753509 -0.07736421 -0.45997822 -0.03979087 0.13652566 -0.1056068 0.782175 -0.47919497
-0.3103245 0.034014523 0.52412164 -0.5140677 0.107476436 -0.19682373 1.0458438 -0.101343274
-0.10485696 0.3728449 -0.65392125 -0.11481502 0.49747783 -0.39751706 0.249677 -0.38593027
0.4043721 -0.31170434 -0.8298192 -0.038031254 0.42294043 0.11983864 -0.7418307 -0.25737217
0.51273555 0.12226255 -1.0326691 -0.47114864 -0.16633311 0.42016017 0.1866151 0.43721047
-0.27479827 -0.06536199 0.6183331 -0.21274713 0.1565487 -0.30026162 0.75534123 -0.032886308
-0.15448156 0.2970195 0.8309129 -0.36528498 -0.2730523 0.0007355539 0.61198926 0.22455744
0.5759424 0.3384382 0.4001877 0.20501061 0.047767326 -0.15530895 -0.69994986 -0.31698886
-0.46843076 0.32085434 -0.057008564 -0.22918999 -0.49560946 0.24370493 1.5723273 0.21332914
-0.1813647 -0.23362441 -0.7090704 -0.49267435 0.29295203 -0.08611714 0.5111749 0.18362431
0.49742815 0.72400284 -0.5130172 0.5255334 0.102651946 0.41865823 0.36064652 -0.31772444
-0.77318925 0.14756739 0.18022099 -0.43398347 0.39481482 0.09428353 0.85878265 -0.34560353
-0.0841319 -0.2284773 -1.0486184 -0.36330488 -0.34696156 0.1307814 -0.8533434 -0.059176084
00000000: d5eb 52be f73c ac3e 31b5 823f 34fa a2bd
00000010: 8f91 503e 2f75 983e 3752 3f3f 5c27 55be
00000020: 06a3 aa3d 3924 be3e 931e 2b3f e324 8a3d
00000030: 2734 57bf a425 a93d 3bb4 6c3e 6b32 95be
00000040: 3a54 a6bd 91ba ccbd ba69 1abe 8846 84be
00000050: 9b6e 173f 6bc1 7ebd 515a 2d3f 3c84 cb3e
00000060: 1a64 1e3d 840d e4bd 9461 c73e 2370 353f
00000070: 6095 0bbe b149 8bbc e4e4 babe 11c5 64be
00000080: bf2c 813e 374a 09be d811 36be 4a83 ab3e
00000090: b76d 30bf 0ed2 fd3e c01b 743f 064a 68be
000000a0: 8a8e 913e 1e5d 093e 31e8 c1be f684 8bbe
000000b0: 642b 0dbf 544a c33e b8ee 4f3f f2a5 4d3d
000000c0: d83f c7be 5f0d 34be 1607 7e3f 4967 173f
000000d0: 279c 393f e51a 01bf 77ef 44bf ceda 07bf
000000e0: 36ee df3c 08d3 c73e e8ed f03e b725 24bd
000000f0: 59ce bbbe bc03 3dbe 8a48 e43e ecd0 c0be
00000100: dd50 83be 8481 69be 32fa 723f 0e1f 8dbe
00000110: 8845 673e a803 f0bd 9c0d a13e 90c1 5d3d
00000120: e147 db3d 3281 67be b45e 9e3e 3745 54be
00000130: 4cd6 07be 4e27 193f 02c1 603f c819 033e
00000140: f257 d53c 1775 16bf 1e48 613e 3569 543e
00000150: ac22 fbbe 8f0a 5d3e 584b 5b3f 966e f7bd
00000160: bf68 063f 740c 103e a59f d7be 9bf4 3cbe
00000170: 8a4e a03e f379 f6bc a604 21bf abce 7dbe
00000180: ecac bbbe 0057 15bc d25b 86be 2053 25bd
00000190: 1f9e 6cbd 2266 e8be b920 3cbf 0ebc aabe
000001a0: 2f1e d13e 199b b8bd fa83 0c3f e055 e2bd
000001b0: 6caa 9a3e 9f8d a5bc 8879 e83e 59f3 323e
000001c0: c6f5 d8be 9326 d83e c574 cd3f e55d c33e
000001d0: 205b 1ebf a03f 09be 3b0d b53e 0148 74be
000001e0: cf66 c63d 1a2c 09bf 053e 3d3f 919d 0c3f
000001f0: 2ccc d13d beba 32bf 44cc 6dbf 1ac7 2e3d
00000200: 5e15 8d3d af0d be3e c5d2 f33e 2475 a33e
00000210: 44a0 9a3e 5171 3ebe a395 efbe 0555 21be
00000220: 8ed5 b43e 3af0 88be eea9 813f 2c5e 47be
00000230: ed0d 88be f440 8f3e af9a 983e 3bd6 ccbd
00000240: b3ec 94be becb 403b 60bc 133f 717a be3c
00000250: 6a49 373e f2ca ad3c 58a1 97bd 108b c23e
00000260: 308f 33be 2071 9ebd 4482 ebbe c0fb 22bd
00000270: 62cd 0b3e 6148 d8bd 9f3c 483f 0b59 f5be
00000280: dae2 9ebe d052 0b3d d62c 063f f199 03bf
00000290: 9b1c dc3d 298c 49be 36de 853f 108d cfbd
000002a0: 3fbf d6bd 87e5 be3e 6267 27bf 2324 ebbd
000002b0: 6ab5 fe3e 5b87 cbbe 54ab 7f3e a798 c5be
000002c0: dc09 cf3e b697 9fbe 086f 54bf a9c6 1bbd
000002d0: a68b d83e f66d f53d 9ee8 3dbf 49c6 83be
000002e0: a342 033f ca64 fa3d 802e 84bf 653a f1be
000002f0: 3a53 2abe 3c1f d73e 0718 3f3e 0dda df3e
00000300: 5cb2 8cbe 82dc 85bd 144b 1e3f 62da 59be
00000310: 4d4e 203e e4bb 99be 0b5e 413f cbb3 06bd
00000320: 6a30 1ebe f112 983e b5b6 543f a206 bbbe
00000330: 83cd 8bbe 30d2 403a 54ab 1c3f 63f2 653e
00000340: f670 133f c647 ad3e 67e5 cc3e 4dee 513e
00000350: aca7 433d 4f09 1fbe ea2f 33bf 5d4c a2be
00000360: 28d6 efbe 0547 a43e d081 69bd c8b0 6abe
00000370: 86c0 fdbe c98d 793e 0542 c93f f472 5a3e
00000380: abb7 39be 3d3b 6fbe a385 35bf d03f fcbe
00000390: cffd 953e 2f5e b0bd 5cdc 023f 0308 3c3e
000003a0: e7ae fe3e 4058 393f 1855 03bf 5b89 063f
000003b0: 2f3b d23d 5f5a d63e a9a6 b83e c7ac a2be
000003c0: bbef 45bf e81b 173e da8b 383e 1533 debe
000003d0: 2b25 ca3e b917 c13d 2ed9 5b3f f2f2 b0be
000003e0: 584d acbd f4f5 69be 2139 86bf 1903 babe
000003f0: f2a4 b1be 8feb 053e b774 5abf 9f62 72bd

input_layer.bias f4 [64]
0.4627379 0.0313205 -0.32031283 -0.45022568 0.35847232 -0.3750574 0.14846164 -0.10730565
0.4960888 -0.23281768 -0.06740214 0.4237138 -0.49569225 0.32132518 -0.24413666 0.34484655
0.39219624 -0.45666403 0.21018262 -0.28497326 0.17576954 -0.322676 -0.6132413 -0.47903097
-0.49800003 0.019360963 0.21168014 0.2994656 0.24851787 0.09273292 -0.16203222 0.023171548
0.20397124 0.50014585 0.15976347 -0.43266305 0.3878372 0.30697924 -0.4433245 0.045865405
-0.3430296 0.48979482 -0.349916 0.2383165 0.026799778 -0.30161116 0.26179272 0.29745638
-0.12730531 0.31216353 0.29250568 0.40512943 -0.06590392 -0.19248673 -0.5865516 0.13837522
0.40633288 0.40238842 -0.19695765 -0.13005202 -0.5511995 0.14844301 0.1736646 0.083181664
00000000: fbeb ec3e ed49 003d 0b00 a4be fb83 e6be
00000010: af89 b73e 8607 c0be 5406 183e 11c3 dbbd
00000020: 5aff fd3e c267 6ebe 220a 8abd 04f1 d83e
00000030: 60cb fdbe bc84 a43e f6fe 79be ba8f b03e
00000040: f2cd c83e decf e9be 1d3a 573e 04e8 91be
00000050: eefc 333e ca35 a5be 62fd 1cbf 8c43 f5be
00000060: dcf9 febe e29a 9e3c aec2 583e 8e53 993e
00000070: 787b 7e3e c2ea bd3d c6eb 25be 42d2 bd3c
00000080: d6dd 503e 8f09 003f 0999 233e 0386 ddbe
00000090: 9992 c63e 622c 9d3e 6efb e2be 5ddd 3b3d
000000a0: 93a1 afbe 63c6 fa3e 3128 b3be 3e09 743e
000000b0: 358b db3c c76c 9abe b209 863e 344c 983e
000000c0: 535c 02be e6d3 9f3e 4ec3 953e 206d cf3e
000000d0: a2f8 86bd 3e1b 45be 3f28 16bf 3cb2 0d3e
000000e0: dd0a d03e db05 ce3e 44af 49be 5b2c 05be
000000f0: 691b 0dbf 7201 183e 22d5 313e 265b aa3d

hidden_layer_1.weight f4 [64, 64]
0.087695524 -0.020544063 -0.095996976 -0.051939182 0.18834455 -0.393036 0.07697131 0.030325951
0.05172974 0.15603553 0.014421215 -0.03317738 -0.11972834 0.10487803 0.08629224 0.13978077
0.17803085 -0.12119952 -0.034204546 -0.18970102 -0.044447906 -0.0039180457 -0.38416293 0.017240938
-0.06575924 -0.317557 0.16233917 0.11967998 -0.3001802 -0.0031543092 -0.030707857 0.11711251
-0.18604904 0.14379011 0.033529554 0.10603753 0.022840932 0.07000447 0.11815564 0.17295639
0.22967651 0.05676043 0.06424684 0.035041153 -0.028879452 0.1255533 0.03352638 -0.016109485
0.09632745 -0.06279548 0.13481095 -0.010178845 0.05382464 -0.08491824 -0.035698578 -0.45454308
0.024076212 0.03026946 0.051027775 -0.048216086 -0.055923622 -0.021894626 -0.05927589 0.036928713
0.10670112 0.104705185 -0.22670604 0.16334175 -0.05668297 -0.27873358 -0.06923234 0.045026746
0.041903768 0.109717734 -0.08195083 0.09233559 -0.24917246 -0.2040123 -0.020530425 0.0401744
0.04014758 -0.043167055 0.054346405 0.18977828 -0.0098828375 0.42806184 -0.23466466 -0.13384205
-0.017987728 -0.36669052 0.032641727 0.03408135 -0.29266715 -0.12785879 0.060898446 0.15791297
0.116335586 -0.07289796 0.11065393 0.3000434 -0.07666567 0.10516677 0.105866164 -0.01075633
0.025381252 0.08549813 -0.20066851 0.006119458 -0.08796528 -0.26372215 -0.15080054 0.08282348
0.046084296 0.12509263 0.014450278 0.06655434 0.43763903 -0.154781 0.050245065 -0.5190911
-0.16691636 0.009454085 0.40773392 0.0012821392 0.14084451 0.005873349 -0.17415403 -0.20708044
0.15153712 0.11119558 -0.06928396 0.08758468 0.054751717 -0.6463719 -0.031251214 -0.06516037
-0.004868762 0.031473726 0.024906127 0.17049536 -0.19726168 0.03928539 -0.06899822 0.18226898
0.14567956 0.09087071 0.0357819 0.002352238 -0.12825677 0.129863 -0.59370774 -0.18390712
0.07665956 -0.29801667 0.043721884 -0.015646791 -0.15515335 0.05274409 0.05937133 0.22043285
0.06618278 0.19460166 0.11270762 -0.016315427 0.12669247 0.14927445 0.00996238 0.13016361
0.14416006 0.054088708 0.03155539 -0.01508257 -0.044009067 -0.005983902 -0.12774031 0.16213454
0.17690234 0.04947751 0.19948392 0.19759277 0.10962658 -0.22576398 0.021658372 -0.29024523
0.088851586 0.026472291 0.088065155 -0.101710275 -0.09222556 0.013124721 -0.17721581 -0.08632919
0.09292915 -0.039192885 0.021178529 0.015966654 -0.0062950333 -0.040351316 0.05517779 0.027497992
-0.07429357 -0.047706667 -0.094099775 0.026231658 0.025177881 -0.038842544 0.05497195 -0.009752003
-0.11283455 0.012547165 -0.10235349 0.08566941 -0.1466607 -0.08717492 0.055136055 -0.065870404
-0.050915122 -0.040108025 0.017400034 -0.09763837 -0.027757429 0.013589178 -0.05583853 -0.075632125
-0.066921055 -0.10441306 -0.05347543 -0.03766267 0.014397325 -0.07490825 -0.036451787 0.009897479
-0.11045885 -0.1386797 0.091970384 -0.004354943 -0.03562063 -0.0923405 -0.12329438 -0.14034125
-0.038237795 0.080685265 -0.13996302 -0.06341795 -0.007421449 0.020330563 0.08169533 0.053266775
-0.017360298 0.03704312 -0.022547573 -0.1060043 -0.032265857 -0.06572226 0.093938336 0.06400636
00000000: b699 b33d 064c a8bc 109a c4bd 2ebe 54bd
00000010: 65dd 403e 043c c9be 22a3 9d3d 216e f83c
00000020: 90e2 533d c7c7 1f3e f646 6c3c 01e5 07bd
00000030: 2234 f5bd 4bca d63d fcb9 b03d b122 0f3e
00000040: b84d 363e 7437 f8bd 111a 0cbd fc40 42be
00000050: 020f 36bd f362 80bb 01b1 c4be de3c 8d3c
00000060: c8ac 86bd d596 a2be 3d3c 263e c71a f53d
00000070: 38b1 99be 87b8 4ebb 0b8f fbbc afd8 ef3d
00000080: a483 3ebe b73d 133e 4956 093d 342a d93d
00000090: e81c bb3c 815e 8f3d 96fb f13d 7b1b 313e
000000a0: 5230 6b3e a07d 683d d993 833d 5087 0f3d
000000b0: 9a94 ecbc 0b91 003e f552 093d 0af8 83bc
000000c0: 5347 c53d eb9a 80bd e20b 0a3e 2cc5 26bc
000000d0: 3a77 5c3d 9de9 adbd ac38 12bd dfb9 e8be
000000e0: 7a3b c53c a9f7 f73c 8002 513d 3b7e 45bd
000000f0: 2b10 65bd 5c5c b3bc 47cb 72bd 9042 173d
00000100: 1e86 da3d ac6f d63d a125 68be 0f43 273e
00000110: 672c 68bd 2bb6 8ebe afc9 8dbd f76d 383d
00000120: 49a3 2b3d b1b3 e03d d6d5 a7bd 711a bd3d
00000130: 1127 7fbe 9ae8 50be 6c2f a8bc e98d 243d
00000140: ca71 243d f0cf 30bd 569a 5e3d 3d55 423e
00000150: a0eb 21bc ec2a db3e ef4b 70be e40d 09be
00000160: 005b 93bc dcbe bbbe 55b3 053d e398 0b3d
00000170: 78d8 95be 6aed 02be a670 793d f0b3 213e
00000180: 5a41 ee3d 874b 95bd 879e e23d 4a9f 993e
00000190: e402 9dbd ad61 d73d 5cd0 d83d 513b 30bc
000001a0: 58ec cf3c a519 af3d 0c7c 4dbe bc85 c83b
000001b0: 2427 b4bd 9706 87be 756b 1abe 5b9f a93d
000001c0: e3c2 3c3d 4818 003e dcc0 6c3c a44d 883d
000001d0: 3912 e03e e97e 1ebe c5cd 4d3d 28e3 04bf
000001e0: 1fec 2abe 4ee5 1a3c 80c2 d03e 740d a83a
000001f0: 8b39 103e 3975 c03b 6f55 32be e50c 54be
00000200: 8c2c 1b3e 82ba e33d c0e4 8dbd 995f b33d
00000210: 5643 603d a178 25bf 4601 00bd cd72 85bd
00000220: 238a 9fbb 98ea 003d ef07 cc3c 5696 2e3e
00000230: f7fe 49be b8e9 203d f04e 8dbd b8a4 3a3e
00000240: 062d 153e 6c1a ba3d 0b90 123d 0128 1a3b
00000250: be55 03be cefa 043e 3bfd 17bf 2652 3cbe
00000260: b0ff 9c3d a495 98be b815 333d b32d 80bc
00000270: 85e0 1ebe 300a 583d 5a2f 733d 26b9 613e
00000280: d68a 873d a845 473e 41d3 e63d eea7 85bc
00000290: acbb 013e 67db 183e 4039 233c 9c49 053e
000002a0: b29e 133e 1f8c 5d3d 3a40 013d e21c 77bc
000002b0: da42 34bd 9c14 c4bb 5bce 02be 9906 263e
000002c0: e325 353e eea8 4a3d 8345 4c3e c255 4a3e
000002d0: e683 e03d ac2e 67be e66c b13c 069b 94be
000002e0: d2f7 b53d 6bdc d83c 815b b43d 7a4d d0bd
000002f0: c1e0 bcbd 1209 573c 1078 35be 5ccd b0bd
00000300: a351 be3d b888 20bd 987e ad3c 80cc 823c
00000310: 9146 cebb 6c47 25bd 1b02 623d 7843 e13c
00000320: 3a27 98bd 1168 43bd 62b7 c0bd c6e3 d63c
00000330: d841 ce3c 5c19 1fbd 442a 613d ddc6 1fbc
00000340: cd15 e7bd a092 4d3c b59e d1bd 7273 af3d
00000350: 392e 16be c488 b2bd 58d6 613d 10e7 86bd
00000360: 608c 50bd 5048 24bd 848a 8e3c a0f6 c7bd
00000370: 8c63 e3bc 25a5 5e3c f1b6 64bd 04e5 9abd
00000380: e80d 89bd 84d6 d5bd 0d09 5bbd 2c44 1abd
00000390: c2e2 6b3c 7f69 99bd 784e 15bd 0929 223c
000003a0: 4038 e2bd 0d02 0ebe f85a bc3d e9b3 8ebb
000003b0: f0e6 11bd 041d bdbd c481 fcbd 9eb5 0fbe
000003c0: 3c9f 1cbd 513e a53d 7752 0fbe 45e1 81bd
000003d0: a02f f3bb 488c a63c e24f a73d 432e 5a3d
000003e0: 2f37 8ebc 87ba 173d b0b5 b8bc c818 d9bd
000003f0: 3429 04bd 6499 86bd be62 c03d c415 833d

hidden_layer_1.bias f4 [64]
0.14588355 -0.010425938 0.040306102 0.0046123997 -0.035784263 -0.13063298 -0.11594934 0.08287918
0.028850429 -0.15799393 0.16194431 0.05099619 0.060148995 -0.099054664 0.17843333 0.034879997
0.10275938 0.11976256 -7.586612e-05 0.006940988 -0.07142986 -0.08336039 -0.06337973 0.026991295
-0.13327065 0.13944258 0.07068773 0.04471721 0.07201696 -0.059830442 0.13715933 0.076150596
-0.095711865 0.029097484 0.05194966 0.018203152 0.011698329 -0.09625162 0.09940313 0.15126257
0.07949387 -0.011509136 -0.019959083 0.14710516 0.0093035605 0.0022098576 -0.12886116 0.1329416
0.27876014 -0.19315553 0.071032934 0.13201368 0.08848634 0.14989613 0.012347424 0.10410073
-0.13192888 0.088438064 -0.036878463 -0.12647554 0.119225025 0.124607235 -0.10248551 -0.048397694
00000000: 7f62 153e 8ed1 2abc 0318 253d 9d23 973b
00000010: 8592 12bd a7c4 05be d976 edbd 8fbc a93d
00000020: bc57 ec3c 29c9 21be bbd4 253e 62e1 503d
00000030: cb5e 763d 2cdd cabd 3ab7 363e 54de 0e3d
00000040: 8373 d23d 1346 f53d 501a 9fb8 3a71 e33b
00000050: d249 92bd dab8 aabd 3bcd 81bd d91c dd3c
00000060: 1a78 08be 09ca 0e3e bbc4 903d 6529 373d
00000070: a17d 933d c410 75bd 7f73 0c3e d8f4 9b3d
00000080: 9504 c4bd d95d ee3c 2bc9 543d c71e 953c
00000090: 59aa 3f3c 921f c5bd de93 cb3d 93e4 1a3e
000000a0: afcd a23d d190 3cbc 3b81 a3bc bca2 163e
000000b0: f66d 183c 42d3 103b 2ef4 03be d821 083e
000000c0: a6b9 8e3e 90ca 45be b779 913d 982e 073e
000000d0: 5438 b53d 5f7e 193e da4c 4a3c c332 d53d
000000e0: 5d18 07be 041f b53d df0d 17bd ce82 01be
000000f0: 402c f43d 1432 ff3d ece3 d1bd a93c 46bd

hidden_layer_2.weight f4 [64, 64]
-0.1182971 0.011054937 -0.10561638 -0.011562258 0.051731676 0.08105951 0.08519974 0.11718613
0.0930468 0.09913188 -0.084765464 0.023720138 -0.019723022 -0.015988892 0.0035970216 0.02556685
0.001833623 0.036987737 0.074046925 0.088195235 -0.05505286 -0.01424548 -0.037212983 0.0899731
-0.061641514 -0.05634771 0.04339977 0.09336197 -0.10479711 -0.044105172 -0.08581209 0.022976562
-0.11836895 0.0747587 -0.101448596 0.09943385 0.013644692 -0.06767818 -0.109069824 -0.1270901
0.09650508 0.008758053 -0.096578166 0.045787066 0.05046849 -0.01382117 0.044941053 -0.03516004
-0.010685533 -0.14149483 -0.084330365 0.029924832 -0.092223614 -0.09059013 -0.0547862 0.06527194
-0.012291383 -0.03249121 -0.043151423 -0.13221838 0.025855318 -0.07292468 0.052827936 -0.028350398
0.04329837 -0.14284204 -0.037945185 -0.032190368 -0.10575096 0.04472059 0.004843706 0.092821136
-0.04716593 0.08113928 -0.07340306 -0.15895884 -0.06413189 -0.089847095 -0.10415289 -0.0859388
-0.10687348 0.041230995 0.022468168 0.07011047 0.11347252 -0.060140386 0.0025035432 0.095516734
-0.11831139 -0.17096753 -0.1303476 0.07155331 -0.17230016 0.053296447 -0.12417315 0.051952314
0.08711216 0.01655548 0.053491384 -0.130781 -0.10903196 0.07910594 0.08531684 -0.059781905
0.0699204 -0.11271793 -0.034718007 -0.04264496 -0.15904704 -0.11336846 0.100515395 -0.025952116
-0.021512736 -0.05725404 -0.024973836 0.058406103 -0.09598091 0.009117265 -0.12753737 -0.010820965
-0.11983936 -0.04500432 0.028747281 0.043748684 0.08648279 -0.038277462 0.02622764 0.0022801734
0.060496047 0.29585692 0.20732065 -0.13756633 -0.051492408 0.09708898 -0.267518 -0.40891746
-0.26565593 0.0077386424 0.120786585 -0.033094425 -0.10526864 -0.32028317 -0.054814436 0.041437965
-0.3262481 -0.08387065 -0.2919331 0.3090839 -0.13306148 0.0597002 -0.10651731 -0.38167936
-0.083142735 0.17143899 0.0005132577 0.13680352 0.24283238 0.07658127 -0.5637501 -0.19578853
-0.1951373 0.09448599 0.13501857 -0.4885394 -0.032343574 -0.022424027 0.03607411 0.24479738
-0.34849194 0.0757059 -0.33225104 0.048809793 0.06731126 0.08104103 0.07374197 0.12867415
0.2767307 0.1681136 0.105993986 0.22615266 -0.11157209 0.15648828 -0.06937197 -0.0937738
-0.06158561 -0.529493 0.07457373 0.16194198 -0.080085754 -0.0045162435 0.10225022 0.18102871
-0.010127506 0.3193047 0.17124543 -0.056692358 0.078562535 0.2193223 -0.33818364 -0.28063673
-0.95757395 -0.11916529 0.093222626 0.2213825 0.1764378 -0.117670774 0.16716151 0.0022278375
0.055351596 0.15270223 0.013132778 0.22216478 0.1336966 0.013059592 0.38630494 -0.3872859
-0.056038108 0.11485861 0.14266588 0.26129553 0.18005028 0.011616379 -0.30256906 0.1484022
-0.025157634 0.0836229 0.022362392 0.040845167 0.24058749 0.004124686 -0.30212426 0.2049824
-0.021092243 0.0017407248 -0.9051388 -0.30923405 0.33287516 0.38254952 -0.0022844523 -0.02128174
-0.20531341 -0.23936263 0.1769269 0.20403787 0.11680247 0.24546607 -0.51891863 0.11869926
-0.12288613 -0.15719001 -0.16397472 0.18819372 -0.21424438 0.16778067 -0.09391939 0.27477184
00000000: c045 f2bd c41f 353c 674d d8bd a06f 3dbc
00000010: 98e4 533d 8702 a63d 347d ae3d 48ff ef3d
00000020: 528f be3d a805 cb3d 8499 adbd bc50 c23c
00000030: 2d92 a1bc 23fb 82bc 02bc 6b3b 9271 d13c
00000040: 2e56 f03a 7480 173d eaa5 973d b49f b43d
00000050: 1c7f 61bd e065 69bc a46c 18bd d143 b83d
00000060: d07b 7cbd dbcc 66bd f5c3 313d 8f34 bf3d
00000070: de9f d6bd a0a7 34bd 40be afbd 5839 bc3c
00000080: 6c6b f2bd 171b 993d 48c4 cfbd f9a3 cb3d
00000090: fc8d 5f3c dc9a 8abd 0060 dfbd e823 02be
000000a0: 75a4 c53d f07d 0f3c c6ca c5bd 388b 3b3d
000000b0: 0cb8 4e3d 3072 62bc 1c14 383d f903 10bd
000000c0: 6012 2fbc 05e4 10be 66b5 acbd ec24 f53c
000000d0: bcdf bcbd 5187 b9bd 7f67 60bd 4bad 853d
000000e0: cc61 49bc 8115 05bd 8cbf 30bd 4164 07be
000000f0: 88ce d33c 8959 95bd 1b62 583d 183f e8bc
00000100: a259 313d 2f45 12be 696c 1bbd 0cda 03bd
00000110: f693 d8bd f02c 373d f3b7 9e3b 0219 be3d
00000120: 1031 41bd 5a2c a63d 5854 96bd 1bc6 22be
00000130: 9557 83bd c101 b8bd 1c4e d5bd ae00 b0bd
00000140: 7ce0 dabd d5e1 283d 2a0f b83c 1496 8f3d
00000150: 4864 e83d c455 76bd 7c12 243b 479e c33d
00000160: 3e4d f2bd 1d12 2fbe d779 05be 8b8a 923d
00000170: 746f 30be 604d 5a3d 7e4e febd f3cb 543d
00000180: dc67 b23d 5c9f 873c c819 5b3d 74eb 05be
00000190: 264c dfbd 4c02 a23d 98ba ae3d dfdd 74bd
000001a0: 6d32 8f3d a8d8 e6bd 7834 0ebd 7bac 2ebd
000001b0: 3add 22be b92d e8bd 04db cd3d 8899 d4bc
000001c0: 7a3b b0bc 3683 6abd ee95 ccbc 3d3b 6f3d
000001d0: a491 c4bd 9560 153c 2899 02be 6b4a 31bc
000001e0: 576e f5bd 7356 38bd 6b7f eb3c d231 333d
000001f0: e41d b13d d4c8 1cbd 59db d63c f66e 153b
00000200: b4ca 773d 8f7a 973e dd4b 543e 30de 0cbe
00000210: b4e9 52bd 96d6 c63d 1ff8 88be a15d d1be
00000220: 0e04 88be 7094 fd3b f55e f73d 058e 07bd
00000230: 1697 d7bd 28fc a3be 1a85 60bd dbba 293d
00000240: fe09 a7be 60c4 abbd 4178 95be 3f40 9e3e
00000250: 4541 08be 3288 743d bf25 dabd 7a6b c3be
00000260: bd46 aabd b48d 2f3e 248c 063a 3916 0c3e
00000270: 0da9 783e a4d6 9c3d ed51 10bf ca7c 48be
00000280: 13d2 47be df81 c13d 4f42 0a3e d621 fabe
00000290: b27a 04bd 98b2 b7bc 72c2 133d 2aac 7a3e
000002a0: 896d b2be b20b 9b3d cf1c aabe c7ec 473d
000002b0: 7cda 893d d7f8 a53d 0806 973d 28c3 033e
000002c0: a5af 8d3e f925 2c3e 6013 d93d 9094 673e
000002d0: e87f e4bd 773e 203e e412 8ebd 7a0c c0bd
000002e0: 3141 7cbd da8c 07bf 1dba 983d 1ed4 253e
000002f0: 0004 a4bd fffc 93bb 9068 d13d 975f 393e
00000300: d7ed 25bc e87b a33e f65a 2f3e 3f36 68bd
00000310: 65e5 a03d 0696 603e 6826 adbe 9eaf 8fbe
00000320: 9123 75bf ee0c f4bd 81eb be3d 18b2 623e
00000330: 1cac 343e 60fd f0bd 632c 2b3e e900 123b
00000340: 5bb8 623d f95d 1c3e dd2a 573c 2a7f 633e
00000350: c3e7 083e e6f7 553c c3c9 c53e 564a c6be
00000360: 3788 65bd fe3a eb3d 0117 123e 87c8 853e
00000370: 1a5f 383e a052 3e3c 55ea 9abe bff6 173e
00000380: 6217 cebc 7c42 ab3d 5631 b73c 434d 273d
00000390: 915c 763e 6028 873b 08b0 9abe e8e6 513e
000003a0: a4c9 acbc 0829 e43a 2db7 67bf ed53 9ebe
000003b0: 9d6e aa3e 88dd c33e c0b6 15bb 0b57 aebc
000003c0: ae3d 52be 7a1b 75be 532c 353e 4eef 503e
000003d0: 2236 ef3d 755b 7b3e dad7 04bf 9918 f33d
000003e0: b9ab fbbd 6bf6 20be fde8 27be dbb5 403e
000003f0: e162 5bbe b2ce 2b3e cf58 c0bd e5ae 8c3e

hidden_layer_2.bias f4 [64]
-0.102664806 -0.17328066 0.049159437 0.0516746 0.030021193 0.12772994 -0.11908788 0.0549703
-0.022108188 0.054866023 0.07883704 0.053657483 -0.028973235 -0.13535684 0.105409645 -0.07306125
-0.03842511 0.042968575 -0.034959845 -0.09266188 0.019619916 -0.022441605 -0.03139359 -0.007234617
0.19823527 0.15412828 0.18419315 0.05114452 0.0051792753 0.08089398 -0.14294538 0.08288499
-0.12016586 0.16897471 0.05903051 0.0896425 -0.033264294 0.12219666 -0.14217277 0.012518637
-0.12328606 -0.1064705 -0.026110075 0.03761743 -0.08225587 0.0912637 0.009411158 -0.007122265
0.15870404 0.08476085 -0.1674872 0.07147081 -0.07098601 0.18050894 0.14196727 -0.13666928
-0.028505223 -0.14899717 -0.10906122 -0.15437816 0.1888767 -0.060971692 0.13597983 -0.13274574
00000000: ed41 d2bd 7c70 31be 685b 493d bfa8 533d
00000010: 01ef f53c a3cb 023e 59e4 f3bd 8a28 613d
00000020: 3b1c b5bc 32bb 603d 5075 a13d f3c7 5b3d
00000030: 4759 edbc fc9a 0abe 03e1 d73d 23a1 95bd
00000040: a663 1dbd d1ff 2f3d 0e32 0fbd 83c5 bdbd
00000050: f2b9 a03c 75d7 b7bc 9196 00bd 5e10 edbb
00000060: 30fe 4a3e ced3 1d3e 219d 3c3e eb7c 513d
00000070: e9b6 a93b beab a53d 4660 12be 9bbf a93d
00000080: 8519 f6bd b507 2d3e fac9 713d 7d96 b73d
00000090: 2440 08bd 3e42 fa3d bd95 11be f81a 4d3c
000000a0: 677d fcbd 350d dabd cce4 d5bc bc14 1a3d
000000b0: c475 a8bd 76e8 ba3d 4231 1a3c e461 e9bb
000000c0: 5083 223e 1997 ad3d c481 2bbe 4a5f 923d
000000d0: 1d61 91bd 56d7 383e de5f 113e 08f3 0bbe
000000e0: c983 e9bc b792 18be 7d5b dfbd 4f15 1ebe
000000f0: e568 413e 74bd 79bd 4c3e 0b3e 80ee 07be

output_layer.weight f4 [2, 64]
-0.00091656373 -0.1313939 -0.35800317 0.573849 -0.31498072 -0.20644712 -0.0702631 0.09422169
0.110303424 1.0036482 0.03168846 0.031321213 0.27518097 0.19944258 -0.16891003 -0.03598445
0.10562791 0.2672946 0.19563046 -0.054467373 0.09014559 0.0053837593 -0.30803394 0.04588379
-0.213285 -0.21763125 -0.25036782 -0.13030623 0.3719316 0.19802509 0.054371383 0.090757236
0.017701533 0.30831823 0.086559914 0.07385827 -0.10326821 -0.2560788 0.017399138 -0.08293188
-0.08270782 0.020333963 0.031293347 -0.227526 0.03529613 -0.062335063 0.10695684 -0.43916786
-0.25570887 -0.04387082 -0.060280655 0.009990391 -0.030640228 -0.2754882 -0.16325685 -0.047049988
-0.030769657 -0.013117515 0.023229294 0.07887962 -0.26345223 -0.19506137 -0.33591548 -0.08767991
0.036021896 0.033384487 -0.038331173 -0.11855521 -0.25531104 -0.1478684 -0.18703152 -0.32327154
-0.008835518 0.2220553 0.03629578 0.033623412 -0.021118734 0.49055713 -0.1952119 -0.25436792
0.0673258 -0.3737425 -0.38099328 -0.15187797 0.05453383 0.113061234 -0.043940064 0.00038527497
-0.4486621 -0.14086235 -0.13081975 -0.199584 -0.15828946 0.44015965 0.05617395 0.0060593397
0.023052717 -0.28124312 0.010653727 0.01216843 -0.19389108 -0.14126243 -0.020322932 -0.2213995
0.017249526 0.08377224 -0.021104867 -0.11582984 -0.08379029 -0.18147501 0.022042831 0.21598673
-0.08131437 -0.2335223 -0.009014442 0.0058589242 -0.00023214355 -0.0707824 -0.19412142 -0.037942436
0.014319028 -0.04350793 0.09270521 -0.8031463 -0.037345648 -0.3352614 -0.36275238 0.06567301
00000000: 8d45 70ba 1f8c 06be 314c b7be c5e7 123f
00000010: 2745 a1be e066 53be 1ae6 8fbd 4df7 c03d
00000020: c3e6 e13d 8b77 803f c2cb 013d ac4a 003d
00000030: 85e4 8c3e ad3a 4c3e c0f6 2cbe 6e64 13bd
00000040: 7253 d83d d6da 883e 5a53 483e 2e19 5fbd
00000050: 409e b83d 3f6a b03b a0b6 9dbe a4f0 3b3d
00000060: 6267 5abe bada 5ebe 3630 80be ff6e 05be
00000070: d26d be3e 17c7 4a3e 87b4 5e3d eede b93d
00000080: ce02 913c e3db 9d3e 5346 b13d 0143 973d
00000090: 497e d3bd c31c 83be a388 8e3c 31d8 a9bd
000000a0: b862 a9bd 6993 a63c 742d 003d 93fc 68be
000000b0: ad92 103d 0d53 7fbd 300c db3d 9cda e0be
000000c0: 46ec 82be e4b1 33bd d9e8 76bd bdae 233c
000000d0: 3701 fbbc ca0c 8dbe ce2c 27be 7db7 40bd
000000e0: a610 fcbc d8ea 56bc 5c4b be3c a38b a13d
000000f0: 36e3 86be 2bbe 47be 1dfd abbe 8691 b3bd
00000100: b28b 133d 2cbe 083d 2601 1dbd 13cd f2bd
00000110: 21b8 82be d06a 17be 3185 3fbe d983 a5be
00000120: d9c2 10bc 7762 633e e2aa 143d b4b8 093d
00000130: 3201 adbc 4e2a fb3e a1e5 47be 833c 82be
00000140: 1ce2 893d 2d5b bfbe 8d11 c3be e685 1bbe
00000150: de5e 5f3d a68c e73d 7ffa 33bd bbfe c939
00000160: 0ab7 e5be 383e 10be 9df5 05be c05f 4cbe
00000170: a216 22be 9b5c e13e a816 663d 6d8d c63b
00000180: 0dd9 bc3c 19ff 8fbe f88c 2e3c 185e 473c
00000190: 628b 46be 19a7 10be 477c a6bc 8db6 62be
000001a0: e14e 8d3c c890 ab3d 1de4 acbc 3238 edbd
000001b0: 3e9a abbd 96d4 39be 2b93 b43c a02b 5d3e
000001c0: 2688 a6bd 7820 6fbe 4fb1 13bc 38fc bf3b
000001d0: 8f6b 73b9 5df6 90bd c4c7 46be 8769 1bbd
000001e0: 5b9a 6a3c 5f35 32bd 3bdc bd3d ff9a 4dbf
000001f0: c0f7 18bd 62a7 abbe aeba b9be 927f 863d

output_layer.bias f4 [2]
-0.22177859 -0.17576474
00000000: ed19 63be acfb 33be
