DQN - CartPole/data/Apprentice 8.pt (torch, 38460 bytes, 8 tensors)

input_layer.weight f4 [64, 4]
000000 52 97 b2 3e c3 66 24 be a6 67 07 3f 72 79 a7 3e
       0.34881073 -0.16054825 0.5289253 0.32709843
000010 21 30 6b 3e b2 36 fb be dc 73 5b 3f af 8f 8d be
       0.22967578 -0.49065167 0.8572366 -0.27648684
000020 26 2a de be 7b b4 e8 3e e2 ef 2e 3e ec 1f 08 3f
       -0.43391532 0.45450196 0.17083696 0.5317371
000030 cb d5 f0 3e 8a ea 97 3e cf a5 fe 3c 2c 2e b6 3d
       0.4703811 0.29671127 0.031084923 0.08895525
000040 41 c7 e7 be 01 b4 29 be e4 da 61 3e 8f f9 96 be
       -0.45269206 -0.16572572 0.22056156 -0.29487273
000050 04 e9 7b 3e f5 d3 d9 bb da 5e fa be c4 47 c6 3e
       0.24600607 -0.0066475817 -0.4890049 0.38726628
000060 3b 34 c3 bd c7 05 53 3c 24 75 75 3d 24 99 f9 3d
       -0.095314465 0.012879795 0.059926167 0.121874124
000070 28 14 f3 3d e4 b3 51 3e e8 19 b8 3e 6c 5d 60 3e
       0.11869079 0.20478779 0.35957265 0.21910638
000080 3b 48 44 bd bb 0c 30 3e 6a ff 78 3e 94 15 71 3e
       -0.047920447 0.17192356 0.24316183 0.23543388
000090 6c da 98 be 4d 16 66 3e 20 56 07 3f 4a ed b9 bd
       -0.29854143 0.22469445 0.5286579 -0.090784624
0000a0 1a 2b de bd 7d 3e 0e bf 22 69 e2 be 9d 0d ea 3d
       -0.10848065 -0.555641 -0.44220835 0.11428378
0000b0 17 2a a3 be a7 a2 2a 3e e9 8e f3 be 70 72 ac 3e
       -0.3186805 0.1666361 -0.4756997 0.3368106
0000c0 ba 94 ee be 77 0d 99 3e 54 23 3c bf eb 74 d2 be
       -0.46597844 0.29893085 -0.73491406 -0.41104826
0000d0 dd f0 e6 3d eb 76 07 be f5 62 9c 3e d4 43 2c bb
       0.1127641 -0.13228957 0.30544248 -0.0026285546
0000e0 28 14 dc be c5 4f 63 3d dc fd c9 3e c3 22 85 3d
       -0.42984128 0.055495996 0.39451492 0.06500771
0000f0 84 e5 b0 3d c0 9f b1 3b e9 b7 70 3f c9 45 7c 3e
       0.08637527 0.005420655 0.94030625 0.24635996
000100 29 19 05 3e 58 70 75 3d 5a 11 43 3e dd 8d 3d be
       0.12997879 0.059921592 0.19049588 -0.18511148
000110 cf 82 64 be bd dc 37 be ca 43 d4 be fc 11 1d 3e
       -0.22315525 -0.17955299 -0.4145797 0.15338892
000120 8d 04 17 3e aa 0c 84 3e b2 08 cc be d1 88 7a be
       0.1474783 0.25790912 -0.39850384 -0.24466254
000130 77 a1 ac be 4b 64 d6 3c fa 09 e1 bd 51 db f6 3e
       -0.33716938 0.02617087 -0.10988231 0.482142
000140 b7 3b ab bd 37 d0 fe 3e 9a 51 0a 3f 4a 13 b4 3e
       -0.08360999 0.4976823 0.54030764 0.35170966
000150 54 ab aa 3e 11 5b 46 3d 5d 6c a8 3e fd 6b 96 be
       0.33333838 0.04842669 0.32895175 -0.29379264
000160 b3 7f 22 bf f1 02 7c 3e d0 1d d6 3e fb 50 e4 3c
       -0.63476104 0.24610497 0.4181962 0.027870646
000170 fd 08 f5 bd 33 13 f7 be c6 49 ad 3d 32 6b 99 be
       -0.11964605 -0.48256835 0.08461337 -0.29964596
000180 77 fc e9 be 51 71 07 3f a1 21 5f 3e c6 9d b0 3e
       -0.45700428 0.5290728 0.21790172 0.34495372
000190 eb 7e 3c 3e 74 18 87 be 0e b7 4a bf e3 71 95 3e
       0.1840779 -0.26385844 -0.7918557 0.2918845
0001a0 64 3c f6 be b4 f0 51 3e 6e 17 75 3f c8 c9 96 bd
       -0.4809295 0.20501977 0.95738876 -0.073627055
0001b0 a5 c3 c1 bd 3c 04 d7 be 04 0e e9 be 3e eb 60 be
       -0.09461144 -0.41995418 -0.45518506 -0.21964738
0001c0 5e 2b 80 3e 26 5f 87 be cc 1f d2 be 4a a0 fa bc
       0.25033087 -0.2643978 -0.41039884 -0.03059401
0001d0 5c ff 90 3e 48 49 23 3e 8a 73 7c 3f 33 bf 26 be
       0.28319824 0.15945923 0.986138 -0.16283874
0001e0 2a 67 97 3e 32 65 8d 3e ae 42 67 bf 00 12 1b be
       0.29570895 0.27616268 -0.9033612 -0.15143585
0001f0 0a ff 8a be 6b c0 bf be 6e aa 61 3f a4 83 d3 be
       -0.27147704 -0.3745149 0.8815068 -0.4131137
000200 23 e8 5d bd e0 b0 44 be 67 fe 8a 3e 53 ba 0b 3f
       -0.05417646 -0.19208097 0.2714722 0.54581183
000210 fa 91 e8 3e b7 32 47 3c e4 39 1a bf 2f 31 d4 be
       0.4542387 0.012158087 -0.60244584 -0.41443774
000220 36 1d 14 3e 9b 6c 45 bc b0 52 5f bf a3 4e 49 be
       0.14464268 -0.012049819 -0.87235546 -0.19658904
000230 7e bd ff 3d 78 a7 eb be 70 a5 1f bf cf a1 ec 3d
       0.12487315 -0.46026206 -0.6236181 0.115543
000240 d8 a9 20 3c 5d fe d5 bd 28 d8 5e be 62 a4 3e bc
       0.009806119 -0.104489066 -0.21762145 -0.011635872
000250 6e a3 28 3e db e7 78 be 36 ba 81 3f 1b a1 dc be
       0.16468593 -0.24307196 1.0134952 -0.43091664
000260 15 67 d9 3e de 30 4f 3c 7c 88 27 bf 57 7d ca be
       0.42461458 0.012645928 -0.65442634 -0.39548752
000270 ca ae be 3e 18 2d 9f bd ac e3 ef be c0 9d b2 3e
       0.37242728 -0.07772273 -0.46853387 0.3488598
000280 55 2d 55 3e dd fc 93 3e cb 9d 70 3f df d6 60 bd
       0.20818074 0.28903857 0.9399077 -0.054892417
000290 b8 ed b6 3e 11 f2 a1 be 18 35 96 3e d4 8f 90 3e
       0.3572824 -0.31629995 0.29337382 0.28234732
0002a0 b9 ac 75 3e 33 3c eb 3d 8d 8f 98 3e 43 44 f6 be
       0.2399167 0.114860915 0.2979702 -0.48098955
0002b0 08 a9 41 be 1b 6a a4 bd ab f3 39 3d 65 3f 83 3d
       -0.18912137 -0.080280505 0.045398396 0.06408576
0002c0 35 7e ac bd 4e 7a dd 3e 89 85 15 3b d7 7a 62 3e
       -0.084225096 0.43257374 0.002281519 0.22117172
0002d0 17 33 db 3e 00 06 ca be 10 2a 7f be 81 95 01 bf
       0.42812416 -0.39457703 -0.2491839 -0.5061875
0002e0 ea cb 9d be 14 00 6f 3e b4 fb d5 3e ac 4a cd 3e
       -0.30819637 0.23339874 0.41793597 0.40096033
0002f0 c1 7c 80 be 92 18 21 3c e7 fe 8a bd 85 60 00 be
       -0.2509518 0.009832518 -0.067869 -0.1253682
000300 b2 49 82 3e 17 9f 4a be 98 a7 69 bf e0 1a a6 be
       0.2544685 -0.1978725 -0.9127135 -0.3244238
000310 1a 50 bc 3e 81 e9 cd be 52 12 a3 3e 80 6a 4f 3e
       0.36779863 -0.40217212 0.31849915 0.2025547
000320 1f e3 ab be 6a 6a 2b be 8d 00 d2 be 69 5a 17 be
       -0.33571717 -0.16739812 -0.41016045 -0.14780582
000330 5e ca 0a 3e 56 d4 dc 3d a8 1c ee 3e 0e 99 67 3e
       0.1355376 0.10782687 0.46506238 0.2261698
000340 19 a9 5a 3e 9f a2 6b be 43 2d a3 3c 18 16 e4 3e
       0.21353568 -0.23011254 0.019919043 0.44548106
000350 76 80 72 bd cf fb 8c 3e 7b 56 e0 3e 69 c2 37 3e
       -0.05920454 0.27535865 0.4381598 0.17945255
000360 18 77 d1 bc c9 96 cd 3e a8 68 49 bd 3a 2c 0a 3f
       -0.025569484 0.40154102 -0.049172074 0.53973734
000370 90 a8 b6 bd 72 be af bd c2 f6 84 3e 56 c5 27 3e
       -0.089188695 -0.085812464 0.2596951 0.16383871
000380 43 a0 93 3e 2e 9c d7 3e 9b b3 54 3f 81 29 89 3e
       0.28833207 0.42111343 0.83086556 0.26789477
000390 cb 48 52 3d d6 bf d8 bd 05 dc 91 3e c5 d2 c4 bd
       0.051338952 -0.10583465 0.28488174 -0.096105136
0003a0 e4 e0 bd 3e 72 2a 8d 3e 9a f6 24 3e 27 ff 0f 3f
       0.3708564 0.27571446 0.16109696 0.56248707
0003b0 22 d1 e9 3e 25 1e a9 be a6 f7 34 3f 01 71 94 be
       0.45667368 -0.3303081 0.7069038 -0.28992465
0003c0 ef cb 0a bf 79 d0 27 3e 2b 3b df 3f c5 9f d2 3e
       -0.5421743 0.1638812 1.7439932 0.4113752
0003d0 3b 68 cd 3b 08 63 a1 bd b0 10 6b 3d 58 c7 ad bc
       0.0062685288 -0.07880217 0.05738896 -0.021213219
0003e0 3d 9f 0a bd 86 f6 95 bd 3b c1 8f 3f bb cc 91 3d
       -0.033843268 -0.07322411 1.1230844 0.07119127
0003f0 94 05 86 be 7b c2 ac 3e e0 0d 45 3f 0f 7a b4 be
       -0.2617613 0.33742127 0.76974297 -0.35249373

input_layer.bias f4 [64]
000000 bc 74 9f 3e 68 73 24 3e 83 ef 8b 3e 66 b0 58 be
       0.3114375 0.16059649 0.2733117 -0.2116104
000010 28 37 77 be 71 ee 44 3e ff 8b 07 3e 26 40 69 3e
       -0.24142134 0.19231583 0.13236998 0.22778377
000020 f0 2d b2 3e e3 81 f1 3e 36 7f 66 3d fe e5 c4 be
       0.34800673 0.47169408 0.05627366 -0.3845672
000030 37 3e 00 bf d8 96 98 be 24 29 b7 3e 8f 00 af 3e
       -0.5009493 -0.29802585 0.35773575 0.34180114
000040 b1 6d b4 be 45 10 10 be 66 28 09 bf ed 6c 2c be
       -0.35239938 -0.14068706 -0.5357727 -0.16838427
000050 36 ac 89 3d 22 ff 0a bf 05 3b 01 bf da 4d 3e be
       0.067223 -0.5429555 -0.5048068 -0.18584386
000060 ee b6 9a 3e 4c d0 08 be c3 0e c2 be 6c 45 c7 bb
       0.3021769 -0.13360709 -0.37901887 -0.006081274
000070 5e ea 03 bf e5 d3 59 3e f5 e7 95 3d 7f 37 d0 3d
       -0.5152949 0.21272238 0.07319633 0.10166835
000080 42 c1 be be a0 26 25 bd 23 59 69 bd 29 b9 85 bd
       -0.3725682 -0.04032004 -0.056969773 -0.06529457
000090 c1 f9 10 bf 30 45 e1 3e 75 5e ae 3e b2 fd db bd
       -0.56631094 0.43998098 0.3405644 -0.10741748
0000a0 d8 f1 96 3d 41 90 1a bf 41 e2 14 be 8c 75 0c bf
       0.07370347 -0.60376364 -0.14539434 -0.5486686
0000b0 8e ab 75 be c2 a5 64 be 65 7b 6a be 29 0b ac be
       -0.23991224 -0.22328857 -0.22898634 -0.33602265
0000c0 d9 e7 c4 bd ca ad 58 3d 6b 4c a0 bc 66 c5 07 bf
       -0.09614534 0.052900113 -0.019567689 -0.5303558
0000d0 c9 38 d8 bd 2a 75 8c 3e 28 30 a6 be 2f 58 60 ba
       -0.10557706 0.2743314 -0.32458615 -0.0008558062
0000e0 69 b6 84 3e ed 38 3d be 7c 0a 45 be 11 48 cb 3e
       0.25920418 -0.18478747 -0.1924228 0.3970342
0000f0 57 ae 07 3e 1c 75 96 be 40 a5 9c 3e 3d 51 b0 3e
       0.13250099 -0.29386222 0.30594826 0.3443698

hidden_layer_1.weight f4 [64, 64]
000000 88 79 b8 bd 74 c3 88 bd 29 43 3b 3d df a3 07 3d
       -0.09007555 -0.06677905 0.045718346 0.033115264
000010 88 b2 a0 3d 42 83 f5 bc 61 c1 a8 bd 38 f4 1e 3e
       0.07846552 -0.029969815 -0.08240009 0.1552285
000020 01 19 f7 bd 74 df 75 bd c4 1d 0d 3e d2 af 15 3e
       -0.12065316 -0.060027555 0.13780886 0.14617851
000030 29 18 0c bc 4a b1 30 be 0a a3 34 3d 79 90 37 be
       -0.008550682 -0.1725513 0.0441008 -0.17926206
000040 eb 37 4f 3e ce a7 2f bd 48 6b 1a 3e 0d 04 03 3e
       0.20236175 -0.04288464 0.15079987 0.12794514
000050 c8 c7 50 be 0c b9 89 3e 4a 1c 93 3e c7 3e 1b 3d
       -0.2038871 0.26898992 0.2873252 0.037901666
000060 7e de 25 3e 59 b8 64 3d 75 a4 1b 3e c6 98 fc 3d
       0.16198155 0.05583987 0.15199454 0.12333827
000070 42 f9 90 3c 1c c3 19 be 26 2b 14 3c ca 92 27 be
       0.01769698 -0.15015835 0.0090434905 -0.1636459
000080 21 a9 0c 3e 19 f3 da 3c 61 f1 92 3e 10 c5 1d 3e
       0.13736393 0.026727246 0.28699782 0.15407205
000090 56 50 08 3e f2 69 98 bd 00 49 d4 3d b8 3a 4c 3e
       0.13311896 -0.074420825 0.10365486 0.19944274
0000a0 23 68 d0 bc 17 20 0e be 5e da 0c 3c 90 fb 9f 3e
       -0.025440281 -0.13879429 0.008596985 0.31246614
0000b0 b1 91 0f 3e 22 52 10 3e 33 48 ba 3e 3f cf 6e bd
       0.1402042 0.14093831 0.3638321 -0.058303114
0000c0 42 0a a0 3e 80 70 65 bd c4 a0 30 3e 80 46 d9 3b
       0.31257826 -0.05601549 0.17248827 0.0066307187
0000d0 46 10 ab 3d cf c0 28 bd 9b 2a ba be 9f 92 44 3e
       0.08352713 -0.0411995 -0.3636063 0.19196557
0000e0 a4 22 16 be 75 b4 11 3d 74 b4 4c be c5 9b 29 be
       -0.14661652 0.035572488 -0.19990712 -0.16563328
0000f0 30 c7 d8 3c 29 a7 e2 3c cb e3 8b be a1 6c 2d 3c
       0.026462168 0.027667599 -0.2732223 0.010584981
000100 ca ae 6b 3e 50 72 9a 3b 5d b1 9c 3d 4a 66 ba bd
       0.23015895 0.004713334 0.07651017 -0.09101541
000110 46 74 a0 be eb f2 97 bd 82 36 b6 bd 9c 26 bb 3d
       -0.3133871 -0.0741938 -0.08897115 0.091382235
000120 92 46 93 bd 09 61 28 3c d0 bd 0f 3e 3b 89 a9 bc
       -0.071911946 0.010277041 0.14037251 -0.02069532
000130 88 e6 11 be ce b3 bd bd 98 de 1d bd 76 82 ea 3d
       -0.14248097 -0.09262811 -0.03854236 0.11450665
000140 08 ee 65 be 85 26 b8 bc 6a 9c 9e 3e e7 0b 8f 3d
       -0.22454083 -0.022479305 0.3097871 0.06984692
000150 49 c5 f8 bc f3 fc 82 3e f2 a4 6d 3d cc cb 91 bd
       -0.03036751 0.2558361 0.058018632 -0.07118949
000160 63 b7 87 3d f8 02 6f 3e b3 65 ba 3d ba 9c 8f 3c
       0.06626775 0.23340976 0.09101429 0.017530788
000170 2d ab 52 3d b4 3e 1f 3e a0 aa 83 bd 99 91 82 be
       0.051432777 0.15551263 -0.064290285 -0.25501707
000180 89 3c 4e 3e 5a 20 42 3d 75 92 09 bd d4 55 c3 3c
       0.2014028 0.047394134 -0.033586938 0.023844637
000190 9d 31 96 3d ba ff b9 3b e5 e0 8e bd 44 7e ac 3e
       0.07333682 0.005676237 -0.06976489 0.33690083
0001a0 28 d2 0a 3e 46 16 a1 be 1f 29 2c 3e ab f3 9a 3e
       0.13556731 -0.31462306 0.16812561 0.3026403
0001b0 5c fd e2 bd 8f be 01 3e 74 80 71 be f6 77 64 3e
       -0.11083481 0.12670349 -0.23584157 0.22311386
0001c0 26 c3 b8 bd cd f6 16 3c 52 89 f1 3c 67 10 14 bf
       -0.090215966 0.009214115 0.029484425 -0.5783753
0001d0 cf 65 90 3c b0 48 e5 bd 54 50 be bd 5b 03 77 3e
       0.017626671 -0.11195505 -0.09292665 0.24122374
0001e0 f7 5b 9f bc b1 de b9 3d 20 18 f8 bd 24 29 a1 bb
       -0.019453032 0.09075678 -0.121139765 -0.0049182344
0001f0 98 82 57 3e 60 9c e6 3d e6 9b 50 3d 92 72 c5 3d
       0.21045911 0.11260295 0.050929926 0.09640993
000200 95 2c 83 bd 60 46 36 be e7 79 83 3e 01 8b db 3e
       -0.06404988 -0.17800283 0.25678942 0.4287949
000210 47 53 c0 be de 93 26 3e c9 1f da bc 89 dc 67 3d
       -0.37563536 0.16267344 -0.026626484 0.056606803
000220 03 88 0d 3e 22 6f 10 3e c6 d2 d6 3d dc 2f 5a 3d
       0.13821416 0.14104894 0.104894206 0.0532683
000230 52 81 ae bd 97 6a db bd da e5 7b bd c4 fb 7a bd
       -0.0852076 -0.1071369 -0.0614985 -0.06127526
000240 a6 bc 69 be d8 e4 a7 3d ed 33 81 be 2f 4c bd 38
       -0.2282587 0.08197945 -0.2523493 9.0264126e-05
000250 d1 7d 54 bd ee 49 fb bd a5 7e 89 be 87 7e 74 be
       -0.0518778 -0.1226996 -0.26854435 -0.23876391
000260 75 cb 88 3e 2d 36 f8 3e e2 df e5 bd fb 15 a7 be
       0.26717725 0.48478833 -0.11224343 -0.32633957
000270 a4 5d 18 be f2 da 67 3c 5a e8 39 3e 34 19 b8 be
       -0.14879471 0.014151322 0.18155041 -0.35956728
000280 ab 18 ef bb a7 8c 25 bd 4f 87 3e bd 78 2e d2 3e
       -0.007296642 -0.04041734 -0.04651576 0.41051078
000290 b0 f6 31 bd f2 db 1c bd 1f c3 3a 3d fe ce 06 be
       -0.04344815 -0.038295694 0.04559624 -0.13164899
0002a0 a2 44 ab 3c aa 6f 1b 3e 11 5b af 3d 24 03 bd bd
       0.02090675 0.15179315 0.085622914 -0.09229115
0002b0 d0 e4 95 3e 04 f3 80 be 3c bb fe 3e 48 35 e5 3d
       0.29276133 -0.25185406 0.49752223 0.11191803
0002c0 f0 4d 1d be d3 80 9e bc 45 38 07 bf be 84 eb be
       -0.15361762 -0.019348538 -0.52820235 -0.45999712
0002d0 71 e3 df bc bd 76 1a 3d c7 65 16 3e 68 b9 8f be
       -0.027330132 0.037710894 0.14687262 -0.2807114
0002e0 fd ea 81 3e 7e a8 b2 bd f9 7c e9 3e b6 71 83 3d
       0.25374594 -0.087235436 0.4560316 0.06418173
0002f0 b2 3a 92 3d 44 e0 a4 bd 02 d5 2c bd 40 62 04 3e
       0.071401015 -0.08050588 -0.042195328 0.12928104
000300 4a 60 46 be ff aa 4a bd 97 58 0b 3d b3 3f 19 3e
       -0.19372669 -0.04947948 0.034020033 0.14965706
000310 c9 0f 9d 3c a5 de f7 3d 30 d3 b9 bd 80 f6 a5 bb
       0.019172566 0.12103013 -0.09073484 -0.0050647855
000320 25 17 fa bd 71 2a da 3d 5e 9f 9f 3e 5c df 72 3e
       -0.12211446 0.10652626 0.31176275 0.23718017
000330 b8 ea 4e 3e cb e0 5d 3d 72 ec 9a 3d 76 5e fa be
       0.20206726 0.054169457 0.075646296 -0.48900193
000340 01 83 6e 3e c5 25 84 3d b6 d5 a9 3d cc 5e d3 bb
       0.23292162 0.064525165 0.08292715 -0.0064505097
000350 59 4b 7a be f4 b8 14 3e 23 bd e1 3e 1c 81 52 bd
       -0.24442805 0.14523679 0.44089612 -0.05139266
000360 f9 54 7d bc aa 25 56 3e ea 96 83 3e 2c 74 46 3e
       -0.015462154 0.20912805 0.25701076 0.19380254
000370 49 f1 e7 bc 76 4a 01 be ac 16 64 3e 83 ed 2a be
       -0.028313296 -0.12626061 0.22274274 -0.16692166
000380 bd 4c 87 3b 93 c0 dd 3d 8a ad 25 3e 7e 36 10 3e
       0.004129021 0.10827746 0.16179481 0.14083287
000390 d3 88 8c bc 9f a3 d6 bd 6d 01 6c 3d 6e 08 43 3d
       -0.017155087 -0.10480427 0.057618547 0.04761546
0003a0 76 38 b7 bd 5b 4d 23 3e 98 55 9e 3b e6 3e 89 3e
       -0.08946316 0.15947478 0.004831981 0.268058
0003b0 8e a6 9a bd 64 6f 0c bc 2b 49 7e 3e 7c 9c ef bd
       -0.07551299 -0.0085714795 0.24832599 -0.11699769
0003c0 bb 5f a1 3e 18 ea 8b bd b7 9d d7 3d 09 38 c3 3d
       0.3151835 -0.06831759 0.105281286 0.09532172
0003d0 ce 91 46 3e a9 22 cb 3d ed b8 b3 be 02 09 3e 3d
       0.19391558 0.0991872 -0.35102025 0.04639531
0003e0 33 26 b0 bd 20 60 dd 3c e0 7c 2e be e8 1e 61 bd
       -0.08601036 0.027023375 -0.17039824 -0.054961115
0003f0 9d 3c af 3d 67 8f fb bc 00 35 9a be f9 ae c0 bc
       0.08556483 -0.030708028 -0.3011856 -0.023520933

hidden_layer_1.bias f4 [64]
000000 9d eb da 3d 6d 5e 84 3c 87 3c 7b 3c ab f8 0b be
       0.10689471 0.016158307 0.015334255 -0.13669078
000010 3f 09 e7 3d 99 8b 05 3e c8 87 58 3d bb 29 ec 3d
       0.112810604 0.13041534 0.052863866 0.11531397
000020 ca 75 dd 3d ee b6 1e 3d da 3b ac 3d de 3b 4a 3d
       0.10813482 0.038748674 0.08409853 0.0493735
000030 fc d0 f2 bd c5 ff eb bc 68 3b d2 bd 9d 00 f8 3d
       -0.11856267 -0.028808484 -0.10265237 0.12109492
000040 bb 10 d9 3d 35 eb c6 bd 56 ef 1b 3e e2 1b 11 3e
       0.10598894 -0.09712831 0.15228018 0.14170793
000050 09 b7 0d be 90 48 ef bc f2 85 d3 3d 06 5a 9d 3d
       -0.13839354 -0.029209405 0.103282824 0.07683186
000060 8f 91 ec bb 86 98 ad bd 9f c8 91 bd 86 76 f1 bd
       -0.0072195004 -0.08476357 -0.071183436 -0.11790185
000070 15 4e 98 bc 62 2a 34 bc 40 eb 8a bd a0 da 0e bd
       -0.01859192 -0.010996433 -0.067831516 -0.034876466
000080 c3 3a ee bd 4e fd 77 3d 54 21 3d bd 7f de e9 bd
       -0.11632302 0.060544305 -0.046174362 -0.11419391
000090 2a 3d e8 3d 6b db 22 bd 78 e7 41 3d e2 7a f8 3a
       0.11339791 -0.039760035 0.047339886 0.001895752
0000a0 36 7b 42 be 52 a2 fe 3c 24 ee 12 3e 73 e8 eb 3d
       -0.18992314 0.03108326 0.14348656 0.115189455
0000b0 56 ae 26 bd 53 c0 2b 3e ff 46 7f 3d c0 18 c9 3d
       -0.040693603 0.16772585 0.062323567 0.09819174
0000c0 0e 4b d1 bd e7 ca 1c 3e 19 e3 2b 3d 96 03 be bd
       -0.10219394 0.15311776 0.041964624 -0.09278028
0000d0 ee 58 8b 3d a4 72 fa 3d 10 2d a4 bd 40 bc 96 bd
       0.06804071 0.12228897 -0.080164075 -0.073601246
0000e0 f0 27 1a 3d 22 f7 a7 3c 54 08 6d bd be 09 84 bd
       0.037635744 0.020503584 -0.05786927 -0.06447171
0000f0 2c f5 c8 bd 88 3f 57 bd 26 6d 0b 3d 42 cd 8a 3d
       -0.09812388 -0.052550822 0.03403964 0.06777431

hidden_layer_2.weight f4 [64, 64]
000000 4a 89 a1 3d c4 74 7c bd 73 35 db 3c d4 e0 c1 bd
       0.07887514 -0.061634794 0.026758885 -0.09466711
000010 a4 a9 ab bd 30 d6 4a bd c0 1d 12 3d 80 f6 28 bd
       -0.08381966 -0.04952067 0.035672903 -0.041250706
000020 00 46 91 39 59 cf 04 3d 39 57 d8 3d 3e 79 08 bc
       0.0002770871 0.032424305 0.105635114 -0.008329688
000030 ce 9b ba 3d 64 b2 9a 3d 92 10 96 3d 14 d5 ef 3d
       0.09111749 0.075535566 0.07327379 0.11710563
000040 2a 11 c7 3b 40 fd 4c 3b d0 6e 88 bc 1a 7e 61 bd
       0.006075044 0.0031278878 -0.016654402 -0.0550519
000050 20 19 f5 bc 18 dd b3 3d f9 cc c9 bc f0 f4 03 3d
       -0.029919207 0.08782405 -0.024633871 0.032216012
000060 0d a0 e6 3d da 34 9e 3d ee 9f 07 bd 00 cd 4c 3d
       0.11260996 0.077249244 -0.033111505 0.05000019
000070 ae 56 a7 bd 0c 69 58 bd d2 91 e6 3d 86 85 a2 bd
       -0.0817083 -0.052834556 0.11258282 -0.07935624
000080 1c 95 01 bd 80 8d 8b 3b 13 f3 48 bd c2 a2 b2 3d
       -0.031636342 0.0042588115 -0.04905994 0.0872245
000090 6c cb e3 bb e2 78 0b be 98 71 92 bd 1c e0 c0 bd
       -0.00695174 -0.13620332 -0.071505725 -0.094177455
0000a0 c8 01 c9 3b ba ab 14 bd 44 55 91 bd ba 41 8a bd
       0.0061342455 -0.036296584 -0.07096341 -0.067508176
0000b0 8e 68 cc 3d 2c 52 df bd dd 30 0d bd 1a fb f6 bc
       0.0998088 -0.10904345 -0.034470428 -0.030149031
0000c0 80 8e 17 3c 60 37 52 3d f8 4e e6 3c 98 bb bd 3c
       0.009250283 0.05132234 0.028113827 0.02316074
0000d0 30 a1 fa 3c 8f 52 67 3d 00 66 63 bb a0 78 be bd
       0.030594438 0.05647522 -0.0034698248 -0.09300351
0000e0 75 85 00 3d 04 21 18 bd 36 a0 9a 3d bc 64 35 bd
       0.031377275 -0.03714086 0.07550089 -0.04428552
0000f0 d0 cc fc bc 78 90 ee bd 80 64 10 bd 98 ad 8f bd
       -0.030859381 -0.11648649 -0.035252094 -0.07015532
000100 29 2f 99 3e 40 c7 6b 3d 09 09 9a 3e b9 b2 d0 3e
       0.29918793 0.057563066 0.30085018 0.40761355
000110 da cd c7 3d 38 2a 54 3e 0c 9f e4 3d e3 de 17 3e
       0.0975606 0.2071923 0.11163148 0.14831118
000120 d4 1a cb bd e2 7d e5 3c e3 6b 1b be 27 fd c4 be
       -0.099172264 0.028014127 -0.15177874 -0.3847439
000130 9d 41 bb 3d 69 bc 55 3c e0 ab 14 bc ea f3 ca 3e
       0.09143374 0.013045409 -0.009074181 0.39639217
000140 be 81 c0 bb 0b 0c 4f 3e 31 9e a8 3c 35 ae 0d be
       -0.0058748415 0.20219438 0.020583244 -0.13835986
000150 40 16 d3 bc c4 3c 95 bd 40 19 98 be 4f 80 90 bf
       -0.025767446 -0.07286981 -0.29706764 -1.1289157
000160 f2 20 9f be 90 af 07 3c 0b bc 0d 3f d4 4a 06 bd
       -0.31079823 0.008281603 0.55365056 -0.032786205
000170 0a 6d ef bd 65 54 36 3e 58 16 97 bc 65 fa dd 3e
       -0.116907194 0.17805631 -0.018443272 0.43355098
000180 d2 77 c5 3d ad 62 c4 bc 4c 7d b6 be 99 23 2e bd
       0.096419945 -0.023972834 -0.3564247 -0.042514417
000190 4e 17 09 bf f8 44 04 bf 9d 20 1a be ce 7b e7 bc
       -0.53551185 -0.5166774 -0.15051503 -0.028257277
0001a0 e1 da 49 3e 3c 64 c9 bf 7b 3e e9 bd 5f f7 91 3d
       0.19712402 -1.5733714 -0.1138887 0.071272604
0001b0 a0 e2 28 bd 9d 53 46 be 23 c4 3e be a3 d9 15 bf
       -0.04123175 -0.19367833 -0.18629508 -0.5853521
0001c0 60 df 81 3b 0d 23 3b be 9c 4b 0b be c8 bf d4 bd
       0.003963396 -0.1827509 -0.13603061 -0.10388142
0001d0 b8 9e ea bd 7c 93 01 bd ea 13 45 bc 56 68 20 3e
       -0.114560544 -0.031634793 -0.012028674 0.15664801
0001e0 e5 30 d6 bd 74 b7 f3 bd 7e a3 42 bb 60 34 89 3c
       -0.10458545 -0.11900225 -0.00296995 0.016748607
0001f0 78 ea 9e bc a8 8f ee 3d 8d 23 83 bd 9e 62 3b bf
       -0.019398913 0.11648494 -0.06403265 -0.7319735
000200 b3 23 92 3d be 8d 80 bd 88 d8 2f 3d 32 6b 05 be
       0.07135715 -0.06277035 0.04293111 -0.13029173
000210 52 95 43 3e 78 26 f8 bd 1e 18 ba bd 0f 78 2a 3e
       0.1909993 -0.12116712 -0.09086631 0.16647361
000220 43 b5 eb 3d a4 00 9e 3c 57 37 6d 3c 29 e4 81 3d
       0.11509182 0.019287415 0.014478526 0.06342346
000230 5f a4 d9 bc 49 90 43 bc 18 50 83 3c 40 46 aa 3d
       -0.026567636 -0.011936256 0.016029403 0.083141804
000240 d6 e4 6c bb cb 62 0a be 68 b4 5f 3d ca 93 8b 3c
       -0.003614714 -0.13514249 0.05461541 0.017038245
000250 4b d0 b5 3b 04 fc cf 3d 95 0e e8 3c 98 af 3f 3e
       0.005548512 0.1015549 0.028327266 0.18719327
000260 0f df 5e 3e 48 5e df bd 4d b4 73 bc ae 02 2c bd
       0.21764778 -0.109066546 -0.01487453 -0.041994743
000270 bc 9e 9a 3c 35 d4 05 bd 30 9e 8d 3c 70 54 86 bd
       0.018874519 -0.03267308 0.017287344 -0.06559074
000280 a0 0e 4a bc f9 8d 4a bd ee b8 65 3e 1e 2c c9 3d
       -0.012332588 -0.049451802 0.22433826 0.09822868
000290 6d 4c 36 3e 8f 89 40 3e f4 4a 27 3e 93 b0 44 3d
       0.17802592 0.18802474 0.16337186 0.048019957
0002a0 29 ab 83 bc a8 85 82 3e a1 be 3d 3e 2b 8b 25 3e
       -0.016072826 0.25492597 0.1852975 0.1616637
0002b0 b5 66 08 3e 67 db f8 bc 68 0b 59 3e 97 7f d8 3d
       0.1332043 -0.030378057 0.21195757 0.10571211
0002c0 80 5c f7 3b 9c 0c 82 3e 39 64 0e 3d ad 61 24 3d
       0.0075488687 0.25400245 0.03476355 0.040132213
0002d0 46 86 f5 3b b3 59 eb bb 95 21 3b 3e 58 67 b3 3d
       0.0074928133 -0.007182324 0.1827453 0.08759946
0002e0 10 8e 00 3d 11 9d 95 3d e0 b3 36 bd f0 c1 44 3d
       0.03138548 0.07305349 -0.044605136 0.048036516
0002f0 89 d2 67 3d 9f 3e 16 3e eb 48 84 bd 9e ba 0c 3e
       0.056597266 0.14672326 -0.064592205 0.13743064
000300 6b c3 68 3d ab 32 39 bd e1 ac d4 3d 7b 89 24 be
       0.05682699 -0.045214336 0.103845365 -0.1606807
000310 a9 6f 67 3d 11 33 09 be 00 0c 61 bd c1 8d 85 3d
       0.05650297 -0.13398387 -0.054943085 0.06521178
000320 bd d4 e7 bc 14 57 7e bc ee 71 dd 3d 48 1f 38 3e
       -0.028299684 -0.015523691 0.10812746 0.17980683
000330 d7 25 39 3b 38 83 9c bd 1c d6 53 3d 16 cd 74 3d
       0.0028251314 -0.076422155 0.051717862 0.059765898
000340 e2 4d e8 3d 46 cb 83 bd a0 09 20 3e 5e 3c 42 3e
       0.1134298 -0.06435256 0.15628672 0.18968341
000350 7e 13 29 3d 1a c3 c8 3d fd a3 c7 3d c5 d9 6d 3e
       0.041278355 0.09802838 0.09748075 0.23227604
000360 7b e0 45 3e 08 4e 08 bd a8 10 c6 3d a1 92 ae 3d
       0.19323914 -0.03327754 0.09671146 0.08524061
000370 9a c6 c5 bd e5 f7 1a bb f1 c9 7e bd d3 70 3e be
       -0.09657021 -0.0023646292 -0.062204305 -0.18597727
000380 f0 3e 8c 3d bc 35 3b 3d 96 fb 53 3d 49 ce 7a bc
       0.06847942 0.045705542 0.051753603 -0.015307971
000390 08 b3 bd 3c 8b 98 81 3d 75 56 5e 3e fd 59 0e be
       0.023156658 0.063279234 0.21712668 -0.13901515
0003a0 c4 15 14 be 56 f6 17 3e 31 2e 0e 3e ae f2 d6 3d
       -0.14461428 0.14840063 0.13884808 0.10495506
0003b0 78 1d f0 bc 81 7d 02 3e 9c 56 05 3e 56 fc f5 3d
       -0.029310927 0.12743188 0.1302132 0.1201102
0003c0 80 94 8d 3b 67 43 95 3d bd e9 c5 bd 68 9b b6 bc
       0.004320681 0.072882466 -0.09663723 -0.0222909
0003d0 b6 70 8f 3d bd 35 cc bc e2 ec 38 be 69 43 59 3d
       0.0700392 -0.024927968 -0.18059114 0.053042803
0003e0 b5 21 2f 3e b8 84 3a 3d 38 05 be bc f4 ce 81 bd
       0.17102702 0.045536727 -0.023195848 -0.06338301
0003f0 35 16 b9 bd 56 b3 c6 3d 6b 4d 07 3d 58 df 51 3e
       -0.09037439 0.09702174 0.033032816 0.20495355

hidden_layer_2.bias f4 [64]
000000 20 09 66 bd 18 ba e9 3b d8 84 d1 3d 0b 0b 43 3e
       -0.056161046 0.00713278 0.10230416 0.19047181
000010 5a 83 4f bd 32 60 5f bd 66 0b 68 3b 61 8d d1 bd
       -0.050662376 -0.0545351 0.0035407185 -0.10232044
000020 2c 04 1a 3e fc ef cb ba 26 72 e3 3d 43 96 c5 3d
       0.15040654 -0.0015559192 0.111057565 0.09647801
000030 15 e4 b7 3d 88 9d 16 be c5 f1 35 3e 60 c3 a0 3d
       0.0897905 -0.14708531 0.17768009 0.07849765
000040 c7 6c e2 3c f5 38 39 bd 14 34 e3 bd b9 65 72 bc
       0.02763976 -0.045220334 -0.110939175 -0.01479476
000050 ce f3 01 bd 10 f6 ba bd 00 40 00 3e 06 e9 3c 3d
       -0.03172665 -0.09128964 0.12524414 0.046120666
000060 0f 40 a6 3d b1 ad 1a be 5c 96 b5 bd f4 09 d8 bd
       0.08117687 -0.1510532 -0.088665694 -0.105487734
000070 62 96 a0 bd 1d 79 c6 3d 6e 0e 21 be 34 a7 2a 3e
       -0.07841183 0.09691069 -0.1572816 0.16665345
000080 b9 73 50 3e a1 d3 91 3d 5d c2 b1 3d 82 de 49 3c
       0.20356645 0.07120443 0.0867965 0.012321116
000090 b8 4b 36 3c 00 25 08 be 6a 00 e3 bd 5b aa 9a bd
       0.011126451 -0.13295364 -0.11084063 -0.07552024
0000a0 31 0d c1 3d 7b dd 68 3d 33 a8 31 3e fc bd 0b 3d
       0.09426344 0.056851845 0.17349319 0.03411673
0000b0 67 34 f8 bd 44 10 c0 3d 96 27 13 3e 88 4f 39 3e
       -0.1211937 0.093781024 0.1437057 0.18096745
0000c0 e6 f1 0c 3e 56 32 3f 3e d1 8a 6a 3d e1 01 f6 bd
       0.13764152 0.18671545 0.057261292 -0.12012077
0000d0 f0 67 32 3e eb af 06 3d c3 e1 0c 3e 72 ef 45 bb
       0.17422462 0.032882612 0.13757996 -0.0030202535
0000e0 41 5e b8 3d c3 20 a7 3d 01 64 04 3e 6e 45 1d 3e
       0.090023525 0.08160546 0.12928773 0.15358517
0000f0 22 da eb 3d ab f5 e6 3d e4 ce d1 bd 0b 16 97 3d
       0.11516215 0.11277326 -0.102445394 0.07377251

output_layer.weight f4 [2, 64]
000000 20 e6 0f 3d 1c a8 11 3f 8e 16 42 3e 4e 5c 31 3e
       0.035131574 0.5689714 0.18953916 0.17320368
000010 45 fd 8b bc 05 2a 05 bd 05 6d c7 3d 4e 36 c3 bd
       -0.017088542 -0.032510776 0.09737591 -0.09531842
000020 4a 37 77 bf 9d 49 17 bf f7 6b dd 3d c1 b8 09 3e
       -0.9656874 -0.590967 0.10811608 0.13449384
000030 a6 9c 6e 3d 9a 49 a9 3d 62 72 f6 3d 90 a4 5b 3e
       0.05825486 0.082659915 0.120335355 0.21449494
000040 74 48 15 3e b5 31 06 bd 75 4d 63 3d fb 05 f3 bc
       0.1457842 -0.032762248 0.05549379 -0.029665938
000050 06 77 1a bd 49 d5 13 3c 19 3f c8 3d ff 7f 9d be
       -0.037711166 0.009023019 0.0977766 -0.30761716
000060 0b cf 4c 3e 02 b0 8c bd 5f 58 10 be cf f3 a4 bd
       0.20000856 -0.06869508 -0.14096211 -0.08054315
000070 c8 88 04 bd 92 58 48 3e 41 df 9e bc ff 3f f6 3d
       -0.032357007 0.19565037 -0.019393565 0.12023925
000080 fe 2d 3e 3e dd 6e 83 bd 27 4b 7a bf 05 4f 07 3e
       0.18572232 -0.0641763 -0.97770923 0.13213737
000090 6a 53 e1 be 41 70 99 bd 00 1d 82 bb 45 30 d1 bd
       -0.44008952 -0.07492114 -0.003970742 -0.10214285
0000a0 77 bd e4 3d 28 8e 2d bd 02 30 01 3e 06 f6 67 be
       0.1116895 -0.0423719 0.1261597 -0.22652444
0000b0 f0 72 38 bd 6f 63 de 3c 21 bb 32 3e b8 1b 73 3e
       -0.045031488 0.027147023 0.17454197 0.23741043
0000c0 e2 61 0a 3e b9 42 da 3d d3 6c 03 bd 6b 13 94 bd
       0.13513902 0.106572576 -0.032086205 -0.07230266
0000d0 7a 87 49 3e ff d7 52 3e a9 15 31 3e 6b 87 c1 bd
       0.19680586 0.20590208 0.17293419 -0.09449657
0000e0 82 b4 48 3e 57 ff 0c 3e 15 cc a2 bd 58 af d6 3d
       0.19600108 0.1376928 -0.07949082 0.10482663
0000f0 9d a5 2c 3e 99 d6 28 bd c8 95 fd 3c 35 46 36 bf
       0.16860051 -0.04122028 0.03095521 -0.7120088
000100 ba 15 d6 3d 12 0b 2d 3f 53 7b 24 3e 45 e6 3a 3e
       0.10453363 0.67595017 0.1606267 0.18251903
000110 72 ab 38 bd 63 57 02 3c 4a 14 eb 39 cc a6 8a bd
       -0.045085378 0.007955405 0.0004483781 -0.06770095
000120 7f b8 03 3f cb ff 18 be 59 7d d8 3d 14 82 1d 3e
       0.51453394 -0.14941327 0.10570783 0.15381652
000130 a4 dd 1f 3e ac ed 33 bd f0 68 e4 3c f5 77 e4 3d
       0.15611893 -0.043927833 0.02788207 0.111556925
000140 08 75 06 bf 2a 4a 94 bb fc ab 92 bd 50 1a b0 bd
       -0.52522326 -0.0045254426 -0.0716171 -0.08598769
000150 12 34 9f bc 18 8a 7b bc 81 89 51 3e 1d 42 c7 be
       -0.019434009 -0.015352748 0.2046261 -0.38917628
000160 0f 66 35 3d eb f6 4f bd 73 99 a9 3d 6a d2 5d 3c
       0.044286784 -0.05077259 0.08281221 0.013538936
000170 e4 1c 03 3c 67 1b df 3c ac 10 e5 3c 8c a1 18 3e
       0.0080024935 0.027234746 0.027962051 0.14905375
000180 0d 9f 3d 3e 6b 81 5f 3e 50 13 b7 3e cb 2d 80 3d
       0.18517704 0.21826713 0.35756922 0.06258734
000190 24 53 f9 3d 6d a9 50 3e a2 f4 c8 3d e3 6e 6a bb
       0.12174061 0.20377131 0.09812285 -0.003577166
0001a0 6c 1e 66 3e 68 ab 37 3e c2 4a 58 3e 44 9c d1 be
       0.22472543 0.1793648 0.21122268 -0.40939534
0001b0 e7 d4 a9 3c 1f d9 bb be 79 d4 ff 3d 3c c8 2a 3e
       0.020731403 -0.36689088 0.12491698 0.16677946
0001c0 58 0a 2b 3e 17 c9 38 3e 96 43 54 bd 96 4a 5e 3c
       0.16703165 0.1804546 -0.051822267 0.013567587
0001d0 23 b6 27 3e a2 c7 83 be bd 4e 0c 3e 09 c9 cb 3d
       0.16378073 -0.25738245 0.13701911 0.09950454
0001e0 a4 37 51 bd f6 e3 aa bd 81 69 36 bf 4a 83 60 3e
       -0.051078454 -0.08344261 -0.71254736 0.21925083
0001f0 32 cb 6b 3d a6 6d 91 3e 98 1a b5 3c e6 8a 0d 3f
       0.05756683 0.28403968 0.022107407 0.5529007

output_layer.bias f4 [2]
000000 6e 4f 9e 3d 35 10 07 3e
       0.07729994 0.13189776
