DQN - CartPole/data/Apprentice 2.pt (torch, 38460 bytes, 8 tensors)

input_layer.weight f4 [64, 4]
000000 11 4f 06 bf f1 b4 c8 3e 4f 0d 81 3e 06 38 b9 be
       -0.52464396 0.39200547 0.25205466 -0.36175555
000010 d0 45 7a 3d 65 66 21 bf b5 6f 8d be d9 fc b5 3d
       0.061101735 -0.63046867 -0.27624288 0.088861175
000020 f6 81 ca 3e 92 08 eb 3e bb 55 28 3f 39 54 e6 3e
       0.39552277 0.45904976 0.65755814 0.44986132
000030 af 1d 2a be 26 53 a8 be 67 3e bf be 8a a3 e7 3d
       -0.16612886 -0.32875937 -0.37352297 0.113104895
000040 59 6c 50 3e a3 d1 48 3d 96 10 dc 3e b8 14 02 3e
       0.20353831 0.04902805 0.42981404 0.12703216
000050 f6 ff 09 3f 35 a3 ee 3e b6 d9 c5 be aa 37 bc 3d
       0.5390619 0.46608892 -0.38642663 0.091903046
000060 7f 5d a5 bd 35 05 e8 3e 75 4a 1a 3f d5 9f d1 3e
       -0.080744736 0.45316473 0.6026986 0.40942255
000070 02 3b d6 3e bd 41 a9 bd b6 5a 33 bd 48 b5 ee be
       0.41841894 -0.08264492 -0.04378768 -0.46622682
000080 7c f7 03 be 06 f6 a2 be 46 d3 50 3f 16 f8 34 be
       -0.12887377 -0.31828326 0.8157238 -0.17672762
000090 1e cc b5 be 60 09 9c bd 03 2e 0e 3f e8 81 57 bc
       -0.35507292 -0.07618976 0.5553896 -0.013153531
0000a0 fc 88 56 3e cc 2b ce be 76 97 8d 3e 26 f5 cd be
       0.20950693 -0.4026779 0.27654618 -0.40226096
0000b0 9c bf 9e 3d 33 25 7b be 77 c2 41 be d7 5a cf 3e
       0.0775139 -0.24525909 -0.18921839 0.40498993
0000c0 b1 f6 06 3f d2 06 c9 3e b0 50 c8 be 0c 6d 0a be
       0.5272017 0.39263016 -0.3912406 -0.1351816
0000d0 38 a4 b3 be 1d 03 e8 bd f5 fe 2f 3f b9 21 07 be
       -0.35086226 -0.11328719 0.6874841 -0.13196458
0000e0 89 28 ef 3e 6b 85 8e 3e 3c 95 16 3f 6b ff f9 3e
       0.46710613 0.27836165 0.58821464 0.4882768
0000f0 48 65 3e 3d 57 17 fa 3e 30 63 1c 3f dd 76 d5 3d
       0.046483308 0.48845932 0.6108885 0.10423062
000100 8f be 78 be 1a f8 c2 be 40 4d c7 be 80 8c 93 3e
       -0.24291442 -0.3807991 -0.38926125 0.2881813
000110 c3 c4 25 be e7 56 eb 3e 85 fe 80 3e 05 32 90 3d
       -0.1618834 0.4596474 0.25194183 0.070407905
000120 89 b6 8a bc ca 91 48 3e bc b9 83 3f c6 26 a0 3e
       -0.016932743 0.19586864 1.0291057 0.31279582
000130 3e 15 6d 3e ed 8c 02 3e d3 84 3f 3f d3 55 00 bf
       0.23152635 0.12749071 0.7481205 -0.5013096
000140 84 f7 08 3e a1 16 b0 3d e0 53 43 3f 65 2c 47 bc
       0.1337567 0.08598066 0.7629986 -0.012156581
000150 90 21 de 3e 33 ef 02 3f 28 4b 9a 3e b3 80 ca be
       0.4338498 0.5114624 0.30135465 -0.39551315
000160 d2 c6 eb be 44 46 fb 3e e8 05 b4 3e a1 0c 7b 3e
       -0.46050125 0.49077046 0.35160756 0.24516536
000170 1c f4 1e bd c0 38 fc 3e 53 01 68 3f 2d 7c dd bd
       -0.03880702 0.49262047 0.9062702 -0.108147
000180 5d b4 14 3e 1a f9 96 be 88 21 ab 3d 7b 82 92 3e
       0.14521928 -0.29486924 0.08356005 0.28615174
000190 fe 6e 2e 3e 4e 67 bf 3e 6a b1 4d bf 1a a9 ca 3c
       0.17034528 0.37383503 -0.8034884 0.024738837
0001a0 35 09 e0 bd 12 75 51 bd 90 75 44 bf dd 9a eb be
       -0.10939256 -0.051137038 -0.76741886 -0.4601659
0001b0 51 2d 00 3f bd 8b 1c bd 99 38 0d 3d 01 f9 df 3e
       0.5006915 -0.038219202 0.034477804 0.43744662
0001c0 e0 51 0b bf c4 9b ff 3e 4d 71 5c 3f 26 f6 34 3e
       -0.54421806 0.49923527 0.86110383 0.17672023
0001d0 5d 30 b1 3e c0 3a 02 3f 89 3e 00 3f 16 d8 f7 bd
       0.3460721 0.50870895 0.5009542 -0.12101762
0001e0 6a c9 47 3f 23 f3 19 3f b4 b9 43 3f 01 db d3 3e
       0.7804171 0.6013662 0.76455235 0.41378024
0001f0 42 cb 40 3e 97 d0 a8 be 31 47 71 bf d4 54 83 be
       0.18827537 -0.3297164 -0.94249254 -0.25650656
000200 db 58 a3 be 99 a0 a3 3e e8 07 ca 3c ae a0 df 3e
       -0.3190373 0.31958464 0.024661973 0.43677276
000210 a3 c7 17 bd 27 a5 03 bf 54 72 2e 3d 88 16 e9 3c
       -0.037055623 -0.5142388 0.0425895 0.028453127
000220 25 ee 68 3e 84 44 ea be 21 6d 0c bd fe 09 c5 be
       0.22747095 -0.45755398 -0.03428376 -0.38484186
000230 60 72 8d bc 98 2c b3 be 22 41 b7 3e 90 7b 1d bd
       -0.017266452 -0.3499496 0.3579188 -0.038447917
000240 4b 24 5a 3e 88 fa 00 3f 96 fd 1d 3f 6a e9 a9 3e
       0.21302907 0.5038228 0.61715066 0.33185893
000250 1c 3e 96 be 24 06 39 3e 91 cf 15 3d ec 1c d1 3e
       -0.2934426 0.18068749 0.036574904 0.40842378
000260 aa 19 fe 3e 7a c9 c9 bd ac f2 9c bf 0e 34 cb bd
       0.49628955 -0.09852882 -1.2261558 -0.09922038
000270 f1 68 aa be cc b8 c8 3e ae 30 99 bf 92 c7 83 bd
       -0.3328319 0.3920349 -1.1967981 -0.064345494
000280 c5 df 19 3d f6 2a 0b 3f a3 6b 70 bf 96 29 5c be
       0.03756692 0.5436243 -0.9391424 -0.21500239
000290 98 aa e0 be bc 8b 57 3e 3a 5d 85 bf 46 fb aa bd
       -0.43880153 0.21049398 -1.0419075 -0.08348708
0002a0 01 e8 01 be 8f 9b ee be 8e 29 7a be 6d be 79 3d
       -0.12686159 -0.46603057 -0.24429914 0.06097262
0002b0 32 b0 ae bd 1b 17 7d bd 0b 4f e8 3e 18 41 8e 3e
       -0.085297 -0.061789613 0.45372805 0.27784038
0002c0 9a 2b 99 3e ec 2d 7d 3e 25 ca f0 3e f2 04 07 3b
       0.29916078 0.24724549 0.47029224 0.0020602313
0002d0 b5 1a 9a 3e 14 63 45 3c fe 40 90 be b7 0e 76 3c
       0.300985 0.012047548 -0.28174585 0.015018157
0002e0 d1 91 97 be de a3 d1 be c7 d6 99 3e 7a 88 92 bc
       -0.29603437 -0.40945333 0.30046675 -0.017887343
0002f0 80 ab a1 3d 36 84 b7 be 00 b8 82 3d dc 13 57 be
       0.07894039 -0.35843056 0.063827515 -0.2100367
000300 9e 96 82 3e d7 37 b0 bc 08 dd 90 3d 7c ff 9b be
       0.25505537 -0.021511002 0.07073408 -0.30468357
000310 c9 c6 4e bd 44 7c 68 bd 33 8a 23 bf ab 26 d1 be
       -0.050482545 -0.056759134 -0.6388275 -0.40849814
000320 18 a8 ec bd fb ab f9 3e 88 6d 08 bf a8 d4 66 be
       -0.11555499 0.48764023 -0.5329213 -0.2254206
000330 3b 11 be 3e 7d d3 06 3f 6a 6a 18 3f 72 60 bd 3a
       0.3712252 0.52666456 0.59537375 0.0014448299
000340 fc a5 20 bf 7d 16 9a be 5b 56 6f 3f 06 32 b7 be
       -0.6275327 -0.30095282 0.93491143 -0.35780352
000350 b8 7b 08 bf 75 4a f8 bd 7d 4c 90 3e 4e fd 25 bc
       -0.5331378 -0.121235766 0.28183356 -0.010131193
000360 a9 7b cc be 07 b4 db be ac 86 22 3e ed 1a cd 3e
       -0.39938095 -0.42910787 0.15871686 0.40059605
000370 d1 eb 63 3d a6 16 21 bf f3 06 0a 3e 9d 91 98 3d
       0.055644814 -0.62925184 0.13479213 0.074496485
000380 03 b8 1a 3e ed d2 c2 3e c3 2a 43 3d 6a 95 4a 3e
       0.15109257 0.3805155 0.047648203 0.1978356
000390 8b aa 16 bf bc 22 6a be 91 15 5e 3f 04 e1 8e be
       -0.5885398 -0.22864813 0.8675166 -0.27906048
0003a0 8f 20 c7 bc 61 0a 18 3f 1e 3f 51 3f 2a e1 e3 3e
       -0.024307517 0.59390837 0.81736934 0.44507724
0003b0 8b 5f e8 3d 45 53 b4 be a9 ae 44 3e cc 7e bf be
       0.113463484 -0.3521978 0.19207253 -0.37401426
0003c0 83 d5 8e be f9 e2 c1 be aa 53 39 bd 60 29 c0 3e
       -0.27897272 -0.3786848 -0.045245804 0.37531567
0003d0 a7 69 18 bf 18 4d e6 bd 0e 5e 46 3f 96 1d 4e be
       -0.5953621 -0.11245173 0.77487266 -0.20128474
0003e0 3b de 41 3b 05 08 1a be 14 53 05 3f 5b d2 ed be
       0.0029581923 -0.15042122 0.5207989 -0.4644955
0003f0 a5 ef ea bd 66 ad 1c 3d 0b 08 46 3f 4f 65 14 be
       -0.1147149 0.038251303 0.7735602 -0.14491771

input_layer.bias f4 [64]
000000 64 3e 87 3e 19 13 a2 3c d9 6c 2e bd ec 38 91 be
       0.26414788 0.019784497 -0.042584274 -0.2836374
000010 c2 e8 cc 3e 5b 67 1c 3d 35 cf 7b 3e 13 c2 15 bc
       0.4002133 0.038184505 0.24590762 -0.009140509
000020 d2 68 39 3e c1 a5 14 3f c7 fd c1 3e 51 58 ba be
       0.18106392 0.5806542 0.3788893 -0.36395505
000030 3c f5 cc be 45 9a 56 3e 7e 61 4b be 09 ce ff 3d
       -0.4003085 0.20957287 -0.19861409 0.1249047
000040 39 d9 00 bf 8d a2 e3 3e a7 9b c4 3c f6 69 26 3e
       -0.50331455 0.44459954 0.024000002 0.16251358
000050 9a f8 28 3e 42 62 03 bd c9 54 ad 3d 68 17 84 be
       0.16501084 -0.032076128 0.08463437 -0.25799108
000060 c2 32 a9 be 64 80 f1 bc 67 06 3f be 26 6e 1c 3e
       -0.33046538 -0.029480167 -0.18654786 0.15276393
000070 c6 d2 b4 3e b8 1d bd 3e 72 e7 45 bd 3d 27 fb 3b
       0.35317057 0.36936736 -0.048316427 0.0076645897
000080 a2 c8 64 bd df 9f 8f 3c 7d d0 b1 3e 6a 98 af be
       -0.0558554 0.017532287 0.34729376 -0.3429597
000090 98 58 4c 3e 3d 4c cd be 6e 06 a2 bc a5 a1 f3 be
       0.19955671 -0.40097228 -0.019778457 -0.47584262
0000a0 de 87 5f be 2d 93 cb 3c 4e c9 ab 3e ec 80 ea 3e
       -0.21829173 0.024850452 0.3355202 0.45801485
0000b0 65 79 f9 3e e6 8e e3 be eb f0 80 be 75 7e 43 3a
       0.4872543 -0.4444496 -0.25183806 0.0007457503
0000c0 a5 a9 df 3d 3d 66 b9 be e2 00 9b 3d 1c 67 dc 3e
       0.10921029 -0.36210814 0.07568528 0.43047416
0000d0 c2 cb 78 3e e4 89 2d be fa 14 69 be 91 ee 0c 3e
       0.24296477 -0.16947132 -0.22761908 0.13762881
0000e0 b4 46 00 bf 21 98 0d 3f ac 18 2f bd 7f d8 00 3f
       -0.50107884 0.55310255 -0.04274814 0.50330347
0000f0 e7 57 5d be 04 fd a8 3d b4 29 a4 3e 6c a1 f5 3d
       -0.21615563 0.08251384 0.32063067 0.119936794

hidden_layer_1.weight f4 [64, 64]
000000 87 04 e0 bd d0 13 08 3c 8b 79 34 bc aa 8b cd 3d
       -0.109383635 0.008305505 -0.011015306 0.100364044
000010 1b d2 89 3b 1f b1 a8 bd c5 43 5b bd 60 89 ac 3d
       0.0042059547 -0.08236908 -0.053531427 0.0842464
000020 da 91 05 bd 49 1e 05 bd ca 1a 88 3d 53 ec 60 3d
       -0.032609798 -0.032499585 0.066457346 0.054912876
000030 90 fe b5 bd 46 3f ca 3d ea e3 76 3d a9 93 f6 bd
       -0.088864446 0.0987535 0.06027595 -0.12039883
000040 13 9b 41 bd 3b 08 15 be af 1f 90 bd 9e 3b 80 3c
       -0.04726703 -0.14553921 -0.07037293 0.015653428
000050 6e 70 13 bd b1 0b 7e 3d 8d 4d 6b 3d f4 fd 63 3d
       -0.035995893 0.06202287 0.057447005 0.05566211
000060 0f 85 07 3b 53 13 84 bc c8 fd a5 bd 47 a5 c8 bc
       0.0020678674 -0.016122496 -0.081050456 -0.024492873
000070 5f f0 c8 bd 6b 45 05 be 10 30 15 3d e7 35 5c 3d
       -0.09811472 -0.13014762 0.03642279 0.053762343
000080 71 bd ea 3b b8 af 1f be 47 67 8d bd 4c e1 49 bd
       0.0071636965 -0.15594375 -0.06904464 -0.049287125
000090 f4 7c 25 bd 71 6d c3 3d e7 71 07 be e8 fd 3c bd
       -0.040402368 0.09542359 -0.13227044 -0.04614058
0000a0 d0 1a bf 3c e4 4d 38 bd 8e 82 30 3d 5a ad a2 3d
       0.023328215 -0.044996157 0.043093257 0.079432204
0000b0 ab cf 0f 3d 94 cf d2 3d 36 55 b2 bd e0 cc 1b bd
       0.035110157 0.10293499 -0.08707659 -0.03803718
0000c0 fc 12 68 bd ec 81 28 3d 84 1d 4c bd 17 78 c5 3d
       -0.05665873 0.04113953 -0.049832836 0.09642046
0000d0 66 a8 f6 bc b4 14 c7 3d e4 62 22 be 04 60 c4 bc
       -0.030109596 0.09720746 -0.15858036 -0.023971565
0000e0 da 53 da 3d 56 ad ac bd f4 24 e8 bd 0a 08 4d bd
       0.10660525 -0.08431499 -0.11335173 -0.050056495
0000f0 34 4b 75 bd ff d4 19 bd e0 97 01 bc 4e cd c1 bd
       -0.059886172 -0.037556645 -0.007909745 -0.09462987
000100 a8 88 82 bd e4 af dc 3d 4b c8 38 be 10 6b 73 be
       -0.06373721 0.10775736 -0.18045156 -0.2377131
000110 91 39 a5 3d 18 f8 2f 3d 8a 91 8c 3d 8f 23 a6 3c
       0.080676205 0.04296121 0.06863697 0.020280628
000120 c0 19 5e 3c b4 12 f2 3d 07 fe 85 bd be d2 2c be
       0.013555944 0.118199736 -0.065425925 -0.16877267
000130 e7 22 1a be 2f 57 2d 3e 95 ab 40 be 93 36 37 3e
       -0.15052377 0.16927789 -0.18815453 0.17891912
000140 10 22 25 3d f2 76 a4 3d 97 8d 4b be 96 27 92 3d
       0.040315688 0.080304995 -0.19878231 0.07136457
000150 cc 7e d3 bb e6 ce 54 bd 37 e9 2c 3e 68 66 b7 3c
       -0.0064543243 -0.051955126 0.1688584 0.022387698
000160 4c 98 35 be f4 31 2c be 28 18 02 be cf c2 bd 3c
       -0.17733878 -0.1681593 -0.12704527 0.023164181
000170 93 92 12 3e ed e3 3b bc b2 b2 9d be 26 6b 24 bf
       0.14313726 -0.011467916 -0.30800396 -0.64225996
000180 50 aa e0 bd 6f 6e b8 3d d5 9d a7 39 40 a8 a3 bc
       -0.109699845 0.090054385 0.00031970316 -0.019977689
000190 3d 09 e7 3d 3c 37 d1 3d 43 5c 5e bf 72 32 c0 be
       0.11281059 0.10215613 -0.8685953 -0.37538487
0001a0 75 b2 16 be 15 98 4b be 1b 6d 74 3e 9e 26 73 3e
       -0.14716513 -0.19882233 0.23869745 0.237452
0001b0 f7 d6 7a 3d f0 c4 97 bd 81 ea b1 bd c5 5d 2a bd
       0.061240163 -0.0741061 -0.08687306 -0.04159333
0001c0 6b ed 11 3c 13 09 45 be 07 59 a0 bd c3 45 ae 3d
       0.0089067025 -0.19241743 -0.078294806 0.085094
0001d0 fc d9 ff 3d 10 c5 9a 3d 79 ee 35 be 90 65 65 3e
       0.12492749 0.07557118 -0.17766751 0.22402024
0001e0 de e9 a5 bc 5e 25 e3 3d 3f c6 78 be f6 73 fb 3d
       -0.020253118 0.110911116 -0.24294375 0.12277977
0001f0 c7 39 85 bd b1 6c 06 3e a7 09 f5 3d fc 6a 57 bc
       -0.06505161 0.131274 0.11964732 -0.013148066
000200 dc 29 e4 3d 09 dd b8 3d a2 c7 81 bd e8 c8 74 bd
       0.111407965 0.09026534 -0.06336905 -0.05976191
000210 37 9e 94 3d 29 e9 3b 3d 3b 78 e9 bd b4 c3 e6 3d
       0.072567396 0.045876656 -0.11399885 0.11267796
000220 a7 44 ad bd e2 5f 71 bb 07 b9 b9 3d 80 5e 89 3c
       -0.0846036 -0.0036830832 0.09068494 0.016768694
000230 50 8f a4 3d 05 5a 71 3d 75 ad 67 3c df 71 86 3d
       0.08035147 0.05892374 0.0141404765 0.06564688
000240 07 86 e9 3d 20 b4 cd bd 36 e3 2f 3c a4 2d 31 3d
       0.11402517 -0.10044122 0.010735324 0.043256417
000250 84 ae 65 bc 20 b9 a3 3c db e9 b2 3d 98 c9 a6 bc
       -0.014018659 0.019985735 0.08736011 -0.0203598
000260 33 0a 17 bd 00 a8 a9 ba 06 4f e8 bd d5 43 14 3d
       -0.03687496 -0.0012943745 -0.113431975 0.036197502
000270 14 dc 4e bd dd d6 c8 bd 35 69 1f 3d 7f a7 93 3d
       -0.05050285 -0.09806607 0.038918693 0.07209682
000280 fa 5a d4 bd 50 c6 c8 3d c9 c0 1f bd 40 74 10 bb
       -0.10368915 0.0980345 -0.039002214 -0.0022041947
000290 75 13 93 bd 85 8e 25 3c ee 85 e6 bd 98 49 ee 3c
       -0.071814455 0.01010478 -0.11256014 0.029087827
0002a0 34 ac ae bd 94 f5 82 3d 4f fa 81 bd cf cd fb 3c
       -0.08528939 0.063944966 -0.06346571 0.030737786
0002b0 2a 5c 34 bd e0 67 12 bd be 7d 96 3d ef 0b 88 bc
       -0.044033207 -0.035743594 0.07348202 -0.016607253
0002c0 44 fc 14 3d 4c 5e 37 3d 4c a3 0d 3d 0d 4f 83 bd
       0.03637339 0.044767663 0.03457956 -0.06411562
0002d0 a9 fe 7a bd de 9e f2 3d d3 3b aa 3d 49 b9 32 bd
       -0.06127802 0.11846708 0.08312192 -0.043633733
0002e0 ae bc e9 bd 72 f3 f6 bd 46 07 81 bc 19 e9 7f bd
       -0.11412941 -0.12058152 -0.015750539 -0.06247816
0002f0 1e eb 1b 3d d6 a1 eb 3d ac 02 bb bd 3c 48 05 bd
       0.038066022 0.11505477 -0.09131369 -0.03253959
000300 2c 6e 02 3e b1 1c 79 3c ae bc f0 bd 09 7e 4a be
       0.1273734 0.0152045945 -0.11754738 -0.19774641
000310 c2 ac 6e 3e 3d af 84 3c 64 1c 74 3d ee 11 e8 3d
       0.2330809 0.016196841 0.059597388 0.11331545
000320 85 85 39 3e 21 83 57 3e 1b cf ff 3d 75 5f 0b bd
       0.1811734 0.21046115 0.12490674 -0.03402658
000330 fb 71 97 bd d6 e9 80 3d 78 ac 8b be a2 af 7d 3d
       -0.07394787 0.06294601 -0.2728002 0.061935075
000340 8c 4a b3 bd c8 fd 77 3d 34 f2 d0 bd 91 3f 44 bc
       -0.08754453 0.06054476 -0.102024466 -0.011978046
000350 1b 2c 22 3e 64 fe 26 3d e1 c7 08 3e f3 da cd 3d
       0.15837137 0.04076995 0.13357498 0.10051527
000360 72 9c bf bc a8 c0 aa bd d5 ad 1c be 78 a6 40 bd
       -0.023390029 -0.083375275 -0.15300687 -0.047033757
000370 e6 7a 1a 3e 79 d2 8b bc 46 32 b3 be 73 0a 12 bf
       0.15085945 -0.017068135 -0.34999293 -0.57047194
000380 f2 29 45 3c ce 16 fb 3d 8d b0 27 bd c8 bb 82 bd
       0.012033926 0.12260209 -0.040939856 -0.06383473
000390 00 8f ee 3d aa 07 9c bd 6e b2 4f bf 18 87 70 be
       0.11648369 -0.07618649 -0.8113164 -0.23489034
0003a0 87 30 94 3d f0 ec a9 bd 22 14 87 3e f1 18 04 3d
       0.07235818 -0.08297145 0.26382548 0.03225035
0003b0 f7 e6 2d 3d f3 5c ab bc 78 76 04 bd e2 45 96 3d
       0.042456593 -0.020918345 -0.032339543 0.07337548
0003c0 91 97 67 3d 94 38 71 be 91 34 6b 3d d5 db 1b 3e
       0.05654103 -0.23556739 0.057423178 0.15220578
0003d0 c1 5e 35 3e e0 7a c3 3d 75 09 d5 bd 63 27 48 3e
       0.17711927 0.09544921 -0.104021944 0.19546275
0003e0 3f 7e 21 bd 2c e0 77 3d 73 02 63 be e0 2f f3 3c
       -0.03942704 0.06051652 -0.22168903 0.029685915
0003f0 75 47 4d bd 81 80 47 3e 74 e8 2a 3e fe 5d 8f 3d
       -0.050116975 0.19482614 0.16690236 0.070003495

hidden_layer_1.bias f4 [64]
000000 a1 61 f2 3b 46 71 46 3e 4e d0 b3 bb 13 f8 38 3e
       0.007396892 0.19379148 -0.0054874783 0.18063383
000010 f0 15 58 3e 9f 88 88 3e 01 02 81 3d c0 4e 63 3e
       0.21102118 0.26666734 0.0629921 0.2219801
000020 92 da 88 bb c0 02 80 3d e6 eb 55 bd 76 97 ee bd
       -0.0041764462 0.062505245 -0.052226923 -0.11649983
000030 23 39 12 be 3c 92 4c 3e d0 eb 75 bd 0a 5b 9c bd
       -0.14279608 0.19977659 -0.06003934 -0.07634552
000040 8e 92 1a be e5 2d 68 3e bc ce 93 bc b1 98 66 bd
       -0.15094969 0.22673757 -0.018042915 -0.05629796
000050 a1 20 97 3d c3 2b 0d 3e e4 ee e1 3c 8a a7 e4 bd
       0.0737927 0.13786225 0.027579732 -0.11164768
000060 85 72 61 3e 43 a1 0c bd 58 da 49 3e 45 b6 1f 3e
       0.22016342 -0.03433348 0.19712198 0.15596874
000070 3d f9 82 3d 6b 35 6b 3e c2 58 1f 3c 4a d0 b3 3d
       0.06395195 0.22969596 0.009725751 0.08779962
000080 0f de 93 bd 91 61 1b 3d 08 65 58 bc 1c 23 92 bb
       -0.07220089 0.037934843 -0.0132076815 -0.004459752
000090 7a bd 02 3e 08 71 1a 3d c3 65 8f bd ac ee fd bd
       0.12767592 0.03770545 -0.070018314 -0.12399039
0000a0 fd 56 c0 bd 84 d3 6a 3e 20 91 0e 3e d8 e6 a7 bd
       -0.09391592 0.2293225 0.13922548 -0.08198327
0000b0 70 5b 22 3e 72 29 b1 bd 0a 80 f4 bc 24 8b aa 3d
       0.15855193 -0.08650483 -0.02984621 0.0832732
0000c0 27 fd 0a 3c cb d8 d6 3d 99 7d 1c 3e 18 70 30 3e
       0.008483208 0.10490569 0.15282287 0.1723026
0000d0 16 94 5c 3e e6 d4 92 bd 60 46 96 3c 7a 79 fc bd
       0.21540865 -0.071695134 0.018344104 -0.12327857
0000e0 73 5b 3c 3d 1a 74 4e 3c 71 bd c3 3d 32 73 24 3e
       0.04598565 0.012600923 0.095576175 0.16059569
0000f0 d3 d1 36 3e 5a cb 61 3e d6 df 14 3c c0 96 63 3b
       0.17853479 0.22050229 0.00908657 0.0034727305

hidden_layer_2.weight f4 [64, 64]
000000 d0 10 95 bd 9f a9 ed bd 54 ec 75 3d 79 6d a4 3b
       -0.07278597 -0.11604618 0.060039833 0.005017933
000010 ff 7f 6e 3d ab 41 20 bd 3e dc f5 bd d2 6b c6 bd
       0.058227535 -0.039125126 -0.120048985 -0.09688534
000020 9a 66 07 bc b5 02 29 3e 84 2f dd 3d 0e f7 d1 bd
       -0.008264208 0.16504939 0.108000785 -0.102522
000030 6b 10 65 3e 0a f7 10 be 78 e2 05 3d 00 43 e2 bd
       0.22369544 -0.14156738 0.03268668 -0.110479355
000040 f4 f0 ce 3c 07 08 58 bc ae bd 5f 3d 18 fd 26 3d
       0.02526138 -0.013185508 0.054624252 0.040768713
000050 58 bc b7 bc 21 19 bb bc eb 2f 91 3d cc 4a 6b bd
       -0.022428676 -0.02283913 0.07089218 -0.05744438
000060 87 ab 2a 3e 48 01 91 bd 2b 77 80 be 85 c4 d6 3d
       0.16666995 -0.070803225 -0.25090918 0.10486702
000070 67 58 34 3c 95 90 9c bc 34 2c 40 bd 61 68 75 3d
       0.011007405 -0.01911191 -0.046917155 0.059913997
000080 b4 71 a5 bd 48 4c c4 3c 43 08 94 be 8f e1 b2 38
       -0.08078328 0.023962155 -0.28912553 8.529715e-05
000090 f8 62 6a be 30 94 15 3c d3 b4 58 bc 78 80 b5 3d
       -0.22889316 0.009129569 -0.013226706 0.08862394
0000a0 7c d3 16 bd 3e 72 fa 3b 8b b6 29 3d 0c 1b 27 bd
       -0.03682278 0.0076430133 0.041433852 -0.04079728
0000b0 1d 67 b4 bd 74 c0 f8 3d 36 6d f1 3d f8 b3 1d 3d
       -0.0880873 0.121460825 0.117884085 0.03850171
0000c0 57 68 24 bc ec 74 43 3d 00 e2 4f 3e 3b e3 a0 bd
       -0.010034642 0.047718927 0.20301056 -0.07855841
0000d0 64 6a f5 3d e6 40 a1 3d 68 d8 82 3d 22 de a6 bd
       0.11983183 0.078737065 0.063889325 -0.08147837
0000e0 c4 41 a8 bd 7f 5b d7 3c 5e 24 b9 3d 8b bc 2a bc
       -0.08215669 0.026288746 0.090401396 -0.010420929
0000f0 2a 39 ee 3d 9b b7 ec bd 1d da 26 3e f4 df d6 bd
       0.11631997 -0.115584575 0.16294141 -0.104919344
000100 1a 5c e5 3d 78 97 8a 3d b4 21 a8 3d f8 41 e7 3d
       0.111992076 0.067671716 0.08209553 0.112918794
000110 10 08 f1 bc 64 95 b6 bd 40 71 71 3c 50 91 be bd
       -0.02942279 -0.08915213 0.014736474 -0.0930506
000120 fc d2 69 3d c6 03 a1 bd a4 da 74 bd e8 40 52 3d
       0.057085976 -0.07862048 -0.059778824 0.05133143
000130 a0 81 0a 3d 84 21 75 bd f6 d3 ac bd 40 07 e4 bb
       0.033815026 -0.059846416 -0.08438866 -0.006958872
000140 c4 94 0b 3d 34 78 c2 3d 78 38 e6 bd 92 0b 93 3d
       0.03407742 0.09495583 -0.11241239 0.07179941
000150 60 1c 3b bc 26 59 e9 3d d4 dd 06 3d 9e 3c 97 bd
       -0.011420339 0.11393957 0.032926396 -0.07384609
000160 18 d3 70 3d d0 80 30 3d c2 65 94 bd 2c 8d c3 3d
       0.058795065 0.043091595 -0.07245971 0.09548411
000170 a0 6c f8 bd b4 4e 4e bd a8 f5 60 bd 70 78 5f 3d
       -0.121300936 -0.050368026 -0.054921776 0.054558218
000180 1a 08 c4 3d 58 a2 88 bd e0 5f 8b bb 0a ea cc bd
       0.09571858 -0.066715896 -0.0042533726 -0.10005577
000190 dc 37 b1 bd e6 a3 d9 bd 04 05 92 3d 58 d2 e4 3c
       -0.086532325 -0.10626964 0.07129863 0.027932331
0001a0 38 49 0b 3d 54 df 50 3d c0 18 ea bc 40 1c dd 3d
       0.034005374 0.050994232 -0.028576255 0.10796404
0001b0 b4 92 5d 3d 6c cb d4 bd f0 8f 46 3c f0 bb a7 bc
       0.054094985 -0.10390362 0.012119278 -0.020475358
0001c0 ec 6e 66 3d fc 22 ae bd 10 11 fd bc d0 3d 24 3c
       0.056258127 -0.085027665 -0.030891925 0.010024503
0001d0 60 c3 54 3c a0 1e 87 bd 44 6f 60 3d b0 f6 b8 3c
       0.012986034 -0.06597638 0.05479361 0.022578567
0001e0 80 91 96 3c 02 3d a4 3d a4 90 99 bd d8 6f c9 bd
       0.018379927 0.08019449 -0.07498291 -0.098357856
0001f0 20 a6 75 bd 04 2e 38 3d 06 90 fd bd ac 7b 01 3d
       -0.059972882 0.04496576 -0.12380986 0.031612083
000200 0e 31 d7 3c d7 89 a6 3d e7 58 c5 3d 96 c0 5b 3e
       0.026268508 0.081317596 0.096360974 0.21460184
000210 42 60 6f 3e fa 9a b0 bc 72 c1 f9 3c 8e d5 59 ba
       0.23376563 -0.021558274 0.03048775 -0.0008309715
000220 2e 4e aa 3d d3 6f ee 3d e5 c5 55 bd 1d c3 75 3d
       0.08315693 0.116424225 -0.05219068 0.060000528
000230 e0 16 a4 be 5d f0 14 3e 78 ee 0b 3d 2b 4d 03 3c
       -0.32048702 0.14544816 0.03416297 0.008014004
000240 be 3d 30 bc 32 cc 41 3e 0b 96 97 3c 13 f4 8d 3d
       -0.010756908 0.1892555 0.018504163 0.06931319
000250 c5 9b ec bd fd ab 17 bb 72 3c 8b 3d e3 12 5b bd
       -0.11553148 -0.0023143284 0.067986384 -0.05348481
000260 f5 ec 31 3c d2 0a f2 3d d1 1c 0f be 7b e9 1f 3e
       0.010859718 0.1181847 -0.13975836 0.1561641
000270 a4 e1 84 3d af 28 61 3e 48 82 b0 3c c1 77 61 3e
       0.0648835 0.21988176 0.021546498 0.22018339
000280 5a ac 7a 3d 79 e1 db bd 86 67 03 be ce 56 55 3e
       0.061199524 -0.10736365 -0.1283246 0.20833895
000290 b6 af f7 3c f7 87 5e bd 76 d8 4b bc 48 68 2f 3d
       0.030235153 -0.054328885 -0.012441745 0.04282406
0002a0 97 eb 0b 3d 5b f8 31 3e af 42 1e 3e cc b6 1d 3d
       0.034160223 0.17379896 0.15455125 0.038504407
0002b0 70 33 13 3e a1 e4 ce 3d ee 92 01 3b af 52 c7 3d
       0.1437509 0.10102201 0.0019771415 0.097325675
0002c0 f0 27 3f 3e 63 7f 4b 3e 3a 39 8c bd 2f 4f 74 3e
       0.18667579 0.19872813 -0.068468526 0.23858331
0002d0 1e 1b 63 3e c9 96 92 bd 6a 68 bc 3d 5e a4 c1 bd
       0.22178313 -0.07157666 0.09199603 -0.09455179
0002e0 58 25 52 3e 9e 58 12 3d f0 fb 01 3e 54 71 18 3e
       0.20522058 0.035729043 0.12693763 0.14886981
0002f0 b3 0e 59 3b 27 b2 70 3d 6b 98 18 3d d4 d8 72 3d
       0.0033120334 0.05876365 0.037254732 0.059288815
000300 13 60 ad bc 1a 8e 46 3e 90 1d d9 bd 9c 4a 38 3e
       -0.021163976 0.19390145 -0.10601342 0.17997211
000310 b7 3f da 3d 88 ed 1c bd fd 68 d7 3d 35 1b 49 3e
       0.10656684 -0.038312465 0.10518072 0.19639285
000320 9e f3 08 3e f5 6d 51 3d 5b e5 0b 3e a6 80 72 3d
       0.13374183 0.051130254 0.13661711 0.05920472
000330 b4 69 38 bf 28 f4 64 3d 58 14 94 bc d0 8a 82 bc
       -0.7203629 0.055896908 -0.018076107 -0.015935332
000340 5e 47 2a 3c d0 35 47 3e fb 5f 0c be df 3e 5b 3d
       0.010392992 0.19454122 -0.13708489 0.053526755
000350 30 99 30 bc ab dc a0 3c b0 8c 87 3e 32 79 81 3d
       -0.01077871 0.019636473 0.26474524 0.06321944
000360 54 02 9b 3d f8 4a d2 3c e8 49 37 bd f6 ba 92 3d
       0.075688034 0.025670514 -0.044748217 0.07164566
000370 a0 2a fd 3d 42 cb 44 3e 5c b6 47 3d 6e bf 98 3a
       0.12361646 0.19218162 0.048757896 0.001165373
000380 70 fd 64 bd d0 23 f1 bd d3 f0 22 be c6 ec 10 3d
       -0.05590576 -0.11774409 -0.1591218 0.035382055
000390 0c 02 2d bd d4 d3 ad 3d c1 f1 eb bd 12 55 e2 bd
       -0.04223828 0.08487669 -0.1152072 -0.11051382
0003a0 80 71 be ba d8 f2 5d 3d c2 9d e9 3d 30 57 89 3d
       -0.0014529675 0.054186672 0.11407043 0.06706083
0003b0 aa b6 62 3e ab fc 8e 3c 40 ce 90 bd 53 36 97 3d
       0.22139993 0.017454466 -0.07070589 0.073834084
0003c0 9a 15 ba 3c c8 08 6f 3e f5 a3 db be 94 3c fd 3d
       0.022715379 0.23343194 -0.42898527 0.1236507
0003d0 18 28 e8 3d 95 64 1a bf ac e4 22 3d 96 72 80 3d
       0.11335772 -0.60309726 0.03976886 0.062718555
0003e0 5d 5c 2c bb df 8b 73 3d bb 36 54 3e bb ab 42 3e
       -0.002630017 0.059459563 0.20724003 0.19010822
0003f0 42 ac 1b 3e bc 18 52 3e be 77 90 bd b8 7c 80 bc
       0.1520243 0.20517248 -0.07054089 -0.01568447

hidden_layer_2.bias f4 [64]
000000 3d dd 6b be 48 3b ea bd 10 de 15 3e d7 93 b9 3c
       -0.23033614 -0.11437088 0.14635491 0.022653503
000010 db db 5d 3d de 68 e1 3d c6 97 67 3d 31 aa bd 3d
       0.05416475 0.1100633 0.056541227 0.09260977
000020 3c f6 7a 3d 10 b3 96 3c 90 5b 6d 3e cd b7 32 3c
       0.061269984 0.01839593 0.2317946 0.010908079
000030 fa 0f 35 3e 8f d3 5c bd 00 cc 69 bd b6 93 7a 3d
       0.17681876 -0.053912695 -0.057079315 0.061176024
000040 03 b1 34 3d 75 1d c9 bd 50 f2 ac 3d 55 d0 9d 3d
       0.044114124 -0.098200716 0.08444655 0.07705752
000050 22 af e9 3d 7f f9 f1 bd 23 98 b1 be 10 90 a6 3d
       0.11410357 -0.11815166 -0.34686384 0.081329465
000060 5b 40 13 3e d6 c3 84 bd 05 bb ac 3b ee 37 9c 3d
       0.14380018 -0.06482665 0.005271318 0.07627855
000070 bf 69 33 3c 06 2b 34 3d 28 9d c0 bd ec 33 1e 3d
       0.010950505 0.043986343 -0.09404975 0.038623735
000080 f6 c5 78 bc e3 8f 05 3d 9a 53 23 3e 00 35 a4 3d
       -0.015183916 0.032607924 0.1594986 0.080179214
000090 f1 f2 87 3d 05 31 47 3d c2 bb 4a 3e a4 82 95 3e
       0.06638134 0.048630733 0.19798186 0.29201233
0000a0 e4 29 a5 bc df 8e 1f 3e a0 d5 12 bd f4 8d 8c bc
       -0.020161577 0.15581845 -0.03584826 -0.017157532
0000b0 30 bf e6 3d f6 b7 fa 3d 20 58 36 3d 52 b7 4c 3e
       0.11266935 0.12242119 0.044517636 0.19991806
0000c0 3a 69 08 3e ae 91 50 3e 47 2d 04 bc 7c 65 10 bd
       0.13321391 0.20368072 -0.008067436 -0.035253033
0000d0 55 7d a3 bd 66 b7 ee 3d 1f f4 21 3e a0 a6 ae 3d
       -0.079828896 0.11656074 0.15815781 0.08527875
0000e0 da 29 dd bd 1d 42 5a bd a6 ca 2d 3c ee f9 db 3c
       -0.10798998 -0.053285707 0.010607397 0.026852574
0000f0 f0 d5 8b bd 96 c5 6b bd 31 2b 06 3e fb 3f 1a be
       -0.06827915 -0.05756148 0.13102414 -0.15063469

output_layer.weight f4 [2, 64]
000000 6d b6 29 3d 40 66 10 bb 04 1d 22 3e 67 fa aa 3d
       0.04143374 -0.0022033602 0.15831381 0.08348542
000010 43 ee 26 3e a1 0c 2f 3c 0e 94 3f bd 5b 7f 38 3d
       0.16301827 0.010684163 -0.046772055 0.04504333
000020 28 00 65 3d a9 0c 2e bd 5d d4 e3 3d 9e 0d a2 3e
       0.055908352 -0.042492542 0.111244895 0.31651014
000030 45 c6 44 3e 57 76 05 bd 9a 82 66 bd 20 a1 59 3e
       0.19216259 -0.03258356 -0.056276895 0.2125287
000040 c6 44 bf 3e d9 ca da 3e 66 61 91 bd 51 f3 41 3e
       0.37357157 0.42732885 -0.070986554 0.18940474
000050 73 4e 92 3e 53 29 93 bd 11 71 fe 3e 7e 21 be 3d
       0.28575477 -0.07185616 0.49695638 0.09283732
000060 ed f9 61 3e 10 10 d5 3c 72 6c 84 3e 4c 50 86 bc
       0.22067995 0.026008636 0.25863987 -0.01639571
000070 82 e7 7a bc 7b 30 a4 3c 8a 52 e8 3d 24 5c 7a 3e
       -0.015313985 0.020042649 0.11343868 0.24449211
000080 ff 09 4b bd 3a c9 c8 3d 4a 3f 0e 3e 7e a2 78 3e
       -0.04957008 0.09804006 0.1389133 0.24280736
000090 81 5f 6a bd f5 7a c0 bd 2a 06 a7 3d 1f 12 b7 be
       -0.057219986 -0.09398452 0.081554726 -0.35756013
0000a0 2c 2b 81 3d 85 dd eb bc 60 7d 81 bd 8f a8 e5 bd
       0.063070625 -0.028792152 -0.063227415 -0.112137906
0000b0 c2 bb b1 3e d7 cd df 3d a7 8f 09 bd b1 f6 6d 3e
       0.3471356 0.10927933 -0.033584263 0.23238637
0000c0 a4 58 71 3e 68 58 8f 3e be b4 c4 3d f0 8f 56 bc
       0.2356897 0.27997136 0.09604786 -0.013095841
0000d0 83 07 03 be f8 7f 26 3e 1e 84 14 3e 61 cf ab be
       -0.12795834 0.16259754 0.14503524 -0.33556655
0000e0 c9 47 b7 bd a2 32 0b bd 42 97 4c 3d d1 48 2c bd
       -0.08949239 -0.033983834 0.04994894 -0.04206163
0000f0 f0 a8 d4 3d 33 e3 91 3d 65 4e 84 3e 9e 90 bb bd
       0.10383785 0.07123413 0.2584106 -0.09158443
000100 c1 52 08 3e a8 ab 18 3d e9 f4 3e 3e 18 99 3a 3e
       0.13312818 0.03727308 0.18648113 0.18222463
000110 58 b7 5e 3e 4b 86 58 3e af a2 e1 bc 6e 19 19 3e
       0.21749628 0.21144979 -0.027543394 0.14951107
000120 90 10 7e bd a3 91 9b bd 97 32 6c 3e 2a 1a 63 3e
       -0.062027514 -0.075961374 0.23066173 0.2217795
000130 b9 8a 42 3e 43 d4 9f bd 91 13 a9 bd fc 7c 5a 3e
       0.18998231 -0.078041576 -0.08255685 0.2133674
000140 f9 0d 53 3e a7 01 e0 bd 49 b6 f2 bc 50 68 5e 3e
       0.20610799 -0.10937815 -0.029627936 0.2171948
000150 71 f0 4b 3e 54 d4 95 bc 64 60 4f bd e8 62 47 3e
       0.1991594 -0.018289723 -0.050629035 0.19471323
000160 31 56 05 3e 54 c3 d8 bd 3d 92 ae 3d af 18 c4 bc
       0.1302116 -0.10584131 0.085239865 -0.023937551
000170 fa 79 98 bd df db 33 bd a8 60 77 bd b6 3d af 3d
       -0.0744514 -0.043910857 -0.060394913 0.08556692
000180 28 2b a1 3d 1e e3 bb bd 0a 9b 59 3e 3a ac 40 3e
       0.078695595 -0.091741785 0.21250549 0.18815699
000190 7a 0f 57 3e 55 f6 86 3e 17 31 2a 3e 26 a0 6e 3e
       0.21001998 0.2635981 0.16620289 0.2330328
0001a0 27 5a cc bd 41 40 74 3e c4 d6 72 bd 76 47 8c bd
       -0.09978133 0.23852636 -0.059286848 -0.068495676
0001b0 79 b8 ae bd e8 ef 36 3e 0f 44 2c bd 48 be 20 3e
       -0.08531279 0.17864954 -0.042057093 0.15697587
0001c0 2d a9 6d 3e 01 e5 56 3e b8 8f d0 bd 2e 38 b1 3d
       0.23209067 0.20985796 -0.10183662 0.086532936
0001d0 d2 d6 8c 3d bf d9 6b 3e a8 06 3f 3e f6 30 14 3d
       0.06876911 0.23032282 0.18654883 0.036179505
0001e0 16 88 fd 3d 98 c1 cf bd f1 6e 33 bc b2 c7 66 be
       0.12379472 -0.10144347 -0.010951743 -0.22537115
0001f0 19 1a cd 3c 94 67 07 bd 0c d0 24 3e 75 f4 31 3d
       0.025036858 -0.033057764 0.16094989 0.043446023

output_layer.bias f4 [2]
000000 e7 29 ac bd b9 7c cd 3d
       -0.0840643 0.100335546
