DQN - CartPole/data/Apprentice 10.pt (torch, 38472 bytes, 8 tensors)

input_layer.weight f4 [64, 4]
0	0x3fb50c5f	1.41444
1	0xbdd332ce	-0.103124246
2	0xbf2bf48f	-0.6717004
3	0xbe94262a	-0.28935367
4	0x3e862666	0.2620117
5	0x3d21834a	0.039431848
6	0xbf97fef2	-1.1874678
7	0x3ea1f651	0.31633237
8	0x3c1f2c95	0.009715219
9	0xbdc3c32c	-0.095587105
10	0x3f371aed	0.7152546
11	0x3e99a0a0	0.3000536
12	0xbed8fb1b	-0.42379078
13	0x3e236177	0.15955149
14	0x3fa3a177	1.278365
15	0x3e80b0b4	0.25134814
16	0xbda3ea58	-0.08003682
17	0x3d8f5c35	0.07000009
18	0xbe7c6e97	-0.24651562
19	0xbdbde9b1	-0.09273089
20	0xbe0dc506	-0.1384469
21	0xbee85489	-0.45376995
22	0x3f3e8a16	0.7442945
23	0xbc379905	-0.011205916
24	0x3f2c9916	0.6742109
25	0x3ee8917d	0.454235
26	0x3f5c6d9d	0.86104757
27	0x3eb883d3	0.36038074
28	0xbf29c3d6	-0.66314447
29	0xbe1908f6	-0.14944825
30	0xbf833ae0	-1.0252342
31	0x3e824ba0	0.25448322
32	0xbe7d314a	-0.24725834
33	0x3e82f398	0.25576472
34	0x3fd2c8dd	1.6467549
35	0x3ee99f83	0.4562951
36	0xbf5216e0	-0.82066154
37	0xbd8dca3f	-0.06923341
38	0xbf8aa70d	-1.083223
39	0xbcaeaa9d	-0.02132159
40	0xbde5eb46	-0.112265155
41	0x3cb469e9	0.022023158
42	0x3fb89517	1.4420499
43	0xbd9a439b	-0.07532426
44	0x3e849e86	0.25902194
45	0x3f0f60ca	0.56007063
46	0x3f16d215	0.5891431
47	0x3dfdf698	0.1240055
48	0x3dad847a	0.084725335
49	0x3e186f44	0.14886194
50	0xbfbceabc	-1.4759135
51	0xbef0d156	-0.4703471
52	0x3ec3c8ac	0.38239038
53	0xbe804df7	-0.25059482
54	0xbf18ccfa	-0.5968777
55	0xbeb0a355	-0.34499612
56	0x3e9d7a23	0.30757245
57	0xbe62ba13	-0.22141294
58	0x3e78220d	0.2423174
59	0xbd0f16e4	-0.03493394
60	0x3d92d14e	0.07168828
61	0xbe06bfa7	-0.13159047
62	0xbe7d60d4	-0.24743968
63	0xbe2d7ac1	-0.16941358
64	0x3ef76fcc	0.48327482
65	0x3ef6e03a	0.48217946
66	0xbede5e8d	-0.43431512
67	0x3e703007	0.23455821
68	0x3f7ace1e	0.9797076
69	0x3e479681	0.19491006
70	0xbeab89e7	-0.3350365
71	0xbd9280ed	-0.07153497
72	0x3ecb0660	0.396533
73	0x3e938079	0.28808954
74	0xbe5cf854	-0.21579105
75	0x3dee3b14	0.11632362
76	0xbe2a6ae4	-0.16642338
77	0xbe8a35cc	-0.2699417
78	0xbf615c6c	-0.8803165
79	0xbdd1ca27	-0.102436356
80	0x3c177976	0.009245267
81	0xbc9a221b	-0.01881509
82	0x3e94b6d4	0.29045737
83	0x3e56d507	0.20979701
84	0xbd913d65	-0.07091788
85	0x3d2c3b14	0.04204853
86	0xbfe2c233	-1.7715515
87	0xbe49649b	-0.19667284
88	0x3ed67712	0.41887718
89	0x3e8b42be	0.27199358
90	0x3f15aaa6	0.58463514
91	0xbddbb9f8	-0.1072883
92	0xbd3faec5	-0.046797533
93	0xbe18b39d	-0.14912267
94	0xbf376801	-0.7164307
95	0xbddc01c0	-0.10742521
96	0x3ef1df50	0.47240686
97	0xbe9c24b4	-0.30496752
98	0xbf7dcf72	-0.9914466
99	0xbedfb452	-0.4369226
100	0xbe39130a	-0.18073669
101	0xbcd20c62	-0.02564067
102	0x3f38d649	0.72201973
103	0x3e08e7b1	0.13369633
104	0x3e7f6bb2	0.24943426
105	0xbe8eda64	-0.27900994
106	0xbfffd5e0	-1.9987144
107	0xbefe0b99	-0.49618223
108	0xbea48006	-0.32128924
109	0xbe96a1c0	-0.2942028
110	0x3f37f1fc	0.71853614
111	0xbd3e7c51	-0.046505276
112	0x3f1477d3	0.5799534
113	0x3ec027a4	0.37530243
114	0xbee4b77b	-0.44671234
115	0xbe22a3b9	-0.15882768
116	0x3e7b983d	0.24569793
117	0x3e1e9c9c	0.15489429
118	0xbdb9b624	-0.09067944
119	0xbedc6b02	-0.4305039
120	0xbe90935d	-0.2823743
121	0xbd55afd2	-0.05216963
122	0x3e9c9102	0.30579382
123	0x3e93dd9c	0.28880012
124	0xbe9c8686	-0.30571383
125	0x3e846be0	0.25863552
126	0x3dc5a6d6	0.09650962
127	0x3dfdda89	0.12395198
128	0x3eff6e48	0.49888825
129	0xbe1df80e	-0.15426657
130	0x3f829cc5	1.0204092
131	0x3e3bf7c9	0.18356241
132	0xbdb3bb53	-0.08775964
133	0x3ec3e8cb	0.38263544
134	0xbf478a91	-0.7794581
135	0x3eb992a4	0.3624469
136	0xbebebb3c	-0.37252223
137	0xbdf86f0f	-0.12130558
138	0x3f94e8b9	1.1633521
139	0x3ded2b68	0.11580545
140	0x3e66b445	0.22529705
141	0xbe8ff4f1	-0.28116563
142	0xbedb38a9	-0.42816666
143	0xbcf45b0f	-0.029828576
144	0x3e0f2ee1	0.13982727
145	0x3ea08c09	0.31356838
146	0x3fb82666	1.4386718
147	0x3eca81d4	0.39552176
148	0xbefee3d9	-0.4978321
149	0x3debe66c	0.11518559
150	0xbf1839da	-0.59463274
151	0x3f04feec	0.5195148
152	0xbe066b00	-0.13126755
153	0x3efd67f6	0.49493378
154	0xbd2d5cf8	-0.04232499
155	0xbe119e28	-0.14220488
156	0x3ea06576	0.3132741
157	0xbee2fcbf	-0.44333455
158	0xbf8522fb	-1.04013
159	0xbe554a3c	-0.208291
160	0xbecbed1b	-0.39829335
161	0xbe50c564	-0.20387799
162	0x3ead4775	0.3384358
163	0x3e064747	0.13113128
164	0xbdb56f15	-0.08859078
165	0xbe83da24	-0.25752366
166	0x3f1a8fa8	0.6037545
167	0x3d17df8c	0.037078425
168	0x3e491fce	0.19641039
169	0x3e3fdf74	0.18737584
170	0xbf121431	-0.5706206
171	0x3e9250c7	0.28577253
172	0xbe26b7e3	-0.16281085
173	0xbdd5a939	-0.10432667
174	0xbe924182	-0.28565603
175	0xbd35a063	-0.04434241
176	0xbd05600b	-0.032562297
177	0xbd6a0046	-0.057129167
178	0xbe773abf	-0.24143504
179	0xbeb78a8c	-0.3584789
180	0x3ecb96c6	0.39763469
181	0x3d2a2f7e	0.0415492
182	0xbf3bef9e	-0.734125
183	0x3f00b4c9	0.50275856
184	0x3f222f09	0.6335302
185	0xbe58af0a	-0.21160522
186	0x3f690b57	0.9103293
187	0x3f0a5ed5	0.5405095
188	0x3e8bda9f	0.27315232
189	0x3f0f24cf	0.5591554
190	0x3f663181	0.89919287
191	0x3ef059e1	0.46943572
192	0xbe814165	-0.25245205
193	0xbea620ba	-0.32446843
194	0x3e33106b	0.17486732
195	0x3edc332d	0.43007794
196	0x3e5080f7	0.20361696
197	0xbdf3705d	-0.11886666
198	0x3fb81384	1.4380956
199	0x3ce76558	0.028246567
200	0x3f1a3985	0.6024402
201	0x3ea3981e	0.31951994
202	0x3f58dfe0	0.84716606
203	0x3e836c52	0.2566858
204	0x3e868cd0	0.26279306
205	0xbdd571a5	-0.104220666
206	0xbfb394d2	-1.4029791
207	0x3ebed42d	0.37271252
208	0xbe7f165a	-0.2491087
209	0xbdcdfba7	-0.100577645
210	0x3f227078	0.63452864
211	0x3e2aa30b	0.16663758
212	0x3ef5f539	0.48038653
213	0x3d9f56fa	0.07780261
214	0x3e1c1460	0.15242147
215	0xbef270d1	-0.47351697
216	0x3eb59b25	0.35469928
217	0xbe78653b	-0.24257366
218	0xbfebf2c3	-1.843346
219	0xbedd942e	-0.43277115
220	0xbe4c413d	-0.19946761
221	0x3eabc7c2	0.3355084
222	0xbeaa50a3	-0.33264646
223	0xbda7482c	-0.081680626
224	0x3dc3e6b8	0.095654905
225	0xbd6e57f8	-0.058189362
226	0xbff3d8c4	-1.9050527
227	0xbe85bd61	-0.26121047
228	0xbf4624c4	-0.7739985
229	0xbd160073	-0.036621522
230	0xbf043190	-0.51638126
231	0xbd9a6336	-0.07538454
232	0xbd935b5a	-0.07195158
233	0x3d207095	0.039169867
234	0x3fb95e73	1.4481949
235	0x3e525527	0.20540296
236	0xbe726bd1	-0.23673941
237	0xbe3df45c	-0.18550247
238	0x3f360068	0.7109437
239	0x3e7025fc	0.2345199
240	0x3f15e4aa	0.5855204
241	0xbe09998f	-0.13437484
242	0xbe4a78b0	-0.19772601
243	0xbe74b5d8	-0.23897493
244	0x3f3350b4	0.7004502
245	0x3ebb687a	0.36603147
246	0x3f19e659	0.6011711
247	0x3e84ef6b	0.2596391
248	0xbec0278a	-0.37530166
249	0xbef36b7b	-0.4754294
250	0xbf63ff60	-0.89061546
251	0x3d023761	0.031791095
252	0x3e092ab0	0.1339519
253	0xbdad0239	-0.084476896
254	0xbf8b797e	-1.0896451
255	0xbdc14a27	-0.094379716

input_layer.bias f4 [64]
0	0xbe4d1a45	-0.20029552
1	0xbe03a5af	-0.12856172
2	0xbe8b60c9	-0.2722228
3	0x3b8621da	0.004093391
4	0x3f28adcb	0.6589019
5	0xbecb6bf2	-0.39730793
6	0x3ba134a4	0.0049196053
7	0x3e43742c	0.19087285
8	0xbecff685	-0.40617767
9	0x3e026590	0.12734056
10	0x3e47f7cd	0.19528122
11	0xbe0ab588	-0.13545811
12	0xbf2e80f9	-0.68165547
13	0x3e8cae99	0.27476957
14	0x3f0ac502	0.5420686
15	0xbe973a22	-0.2953654
16	0x3d9d14de	0.07669996
17	0xbda0e6b5	-0.07856504
18	0x3f158fa0	0.5842228
19	0x3ebf7729	0.373956
20	0x3f201549	0.6253248
21	0xbed950e4	-0.42444527
22	0xbf264d8f	-0.64962095
23	0x3e495a5d	0.19663377
24	0x3ea50c74	0.32236063
25	0xbcf2715f	-0.029595075
26	0xbef0b3f0	-0.4701228
27	0xbea1f412	-0.31631523
28	0xbe8bb8cb	-0.27289423
29	0x3edf68bd	0.43634596
30	0x3f0be45a	0.5464531
31	0xbf013226	-0.50467145
32	0x3dff3b9d	0.12462542
33	0x3f0acef1	0.5422202
34	0xbdf99473	-0.121865176
35	0x3f09fada	0.53898394
36	0xbe590972	-0.2119501
37	0xbe3b36e9	-0.18282665
38	0xbd83df3d	-0.06439064
39	0xbb808a89	-0.0039227647
40	0x3e2a99d3	0.16660242
41	0xbf23dfa2	-0.6401311
42	0x3c5ae6df	0.013360708
43	0x3f29ecd2	0.66376984
44	0x3e5cf938	0.21579444
45	0x3e5c004d	0.2148449
46	0xbef982b3	-0.48732528
47	0xbe2641d9	-0.16236056
48	0xbf0976e7	-0.53697056
49	0xbe62f6b3	-0.22164421
50	0xbe5850f7	-0.21124636
51	0x3ec164f3	0.3777233
52	0x3da33e1b	0.0797083
53	0x3e256ead	0.161555
54	0xbf06eaf1	-0.5270224
55	0x3f08c9e3	0.53433055
56	0x3ea36ffd	0.31921378
57	0xbe98ace9	-0.2981942
58	0xbe922f9d	-0.2855195
59	0xbe2694dc	-0.16267723
60	0x3eb72e4f	0.35777518
61	0xbe39fad6	-0.18162093
62	0xbedfe1b6	-0.4372689
63	0x3ea7f327	0.32802698

hidden_layer_1.weight f4 [64, 64]
0	0x3dfaa82a	0.12239106
1	0x3bbdd0c3	0.0057927086
2	0x3d694cc7	0.056957986
3	0xbd7a809e	-0.061157815
4	0x3ce3a923	0.027790612
5	0x3cb14900	0.021641254
6	0xbcbab100	-0.022789478
7	0xbe0b9d03	-0.13634114
8	0xbdc1157f	-0.09427928
9	0xbca631a7	-0.020287348
10	0xbd173ff6	-0.036926232
11	0x3d49b9b0	0.04924935
12	0xbcc81480	-0.024423838
13	0x3d3612b4	0.04445143
14	0xbe06f430	-0.13179088
15	0x3df6da1e	0.12053321
16	0xbdbecfec	-0.09317002
17	0xbdff48f7	-0.12465089
18	0x3d19f214	0.03758438
19	0xbdd16fad	-0.102263786
20	0x3d16e6cc	0.0368412
21	0xbbcd9a40	-0.0062744915
22	0xbc610f10	-0.013736501
23	0xbd0226c9	-0.03177527
24	0xbdb66cf0	-0.08907497
25	0x3d8180d0	0.06323397
26	0xbca8b500	-0.02059412
27	0xbdbbccbe	-0.09169911
28	0xbe036c60	-0.1283431
29	0xbda6a603	-0.08137133
30	0xbd87454c	-0.06605014
31	0xbda9a8c8	-0.082841456
32	0xbdb59f80	-0.08868313
33	0x3c8f300a	0.017478961
34	0x3b828174	0.003982717
35	0xbb47480b	-0.0030407931
36	0xbd96a6c6	-0.07356028
37	0x3c372f05	0.011180644
38	0x3d052109	0.032502208
39	0x3d225d9d	0.039640058
40	0xbc4c45fa	-0.012467856
41	0xbdb77068	-0.08956987
42	0xbdb6870c	-0.08912477
43	0xbb546751	-0.0032410214
44	0x3c64c00b	0.013961802
45	0xbdb86291	-0.09003175
46	0x3c8ad298	0.016946122
47	0x3cf96c68	0.0304472
48	0x3d98b862	0.07457043
49	0x3db22e38	0.08700222
50	0x3dc64ff8	0.096832216
51	0xbb939a13	-0.004504451
52	0x3dabad08	0.083826125
53	0xbdb8c1dc	-0.09021351
54	0xbc864ec8	-0.016394988
55	0x3bdb91e1	0.0067007397
56	0x3dcbe095	0.09954945
57	0xbdaf525c	-0.08560631
58	0xbca1bbe0	-0.019742906
59	0xbd300015	-0.04296883
60	0xbcc1fd74	-0.023680426
61	0xbd7d44a4	-0.06183304
62	0xbd7fe370	-0.06247276
63	0x3dcdca7e	0.10048388
64	0xbe410a2d	-0.18851538
65	0x3e16d165	0.14728315
66	0x3e7b1658	0.24520242
67	0x3de42c59	0.11141271
68	0x3d95ea24	0.073200494
69	0xbec5e719	-0.38652876
70	0x3e392a44	0.1808253
71	0xbe96851c	-0.2939843
72	0xbc1f2496	-0.009713313
73	0xbec2cbf1	-0.3804622
74	0x3e8193bb	0.25308022
75	0xbecd6b84	-0.4012109
76	0xbe1fda01	-0.15610506
77	0xbf9f40fc	-1.2441707
78	0x3b30d7ea	0.0026984164
79	0x3d4fb720	0.05071175
80	0xbc375420	-0.011189491
81	0xbf104875	-0.5636056
82	0x3c94f3d0	0.018182665
83	0xbeb54fce	-0.3541245
84	0x3d8f5bb3	0.06999912
85	0xbe463168	-0.19354784
86	0x3d8745c4	0.066051036
87	0xbed2a192	-0.41138893
88	0xbeace342	-0.33767134
89	0x3d8cf073	0.068817995
90	0x3e99621d	0.29957667
91	0xbe143462	-0.14473107
92	0xbf37e99f	-0.7184085
93	0xbda14a76	-0.078755304
94	0x3da4f435	0.08054391
95	0xbdeec7c6	-0.116591975
96	0x3e312623	0.17299704
97	0x3ddec251	0.10876907
98	0xbe2c2621	-0.1681142
99	0xbd3d7d60	-0.046262145
100	0x3ec58e6d	0.38585225
101	0x3cef869a	0.029238988
102	0x3e904319	0.2817619
103	0xbef92c80	-0.48666763
104	0xbe0eda56	-0.13950476
105	0x3d251ea4	0.040312424
106	0x3e1b496b	0.15164725
107	0xbdd9fa70	-0.1064347
108	0xbe3d56b2	-0.18490103
109	0x3d929ac8	0.071584284
110	0x3d21a428	0.039463192
111	0x3e32c941	0.17459585
112	0x3e017732	0.12643126
113	0xbee73fae	-0.4516577
114	0xbdc2ac11	-0.09505475
115	0x3c8a352a	0.016871054
116	0xbc5a285d	-0.013315287
117	0xbe9c1fce	-0.30493015
118	0xbed705bb	-0.4199656
119	0x3cb493f0	0.022043198
120	0xbfc38e61	-1.5277826
121	0x3c22a7d5	0.00992771
122	0xbf8db4d6	-1.1070812
123	0x3cbcffdd	0.023071224
124	0xbda37ab9	-0.07982392
125	0x3da3edcf	0.08004343
126	0xbd567c58	-0.052364677
127	0xbe691309	-0.22761168
128	0x3dbbf78d	0.09178076
129	0xbde3e086	-0.11126809
130	0x3f215fe0	0.6303692
131	0xbf234582	-0.63777936
132	0xbd04faf3	-0.032465886
133	0xbe97bfdc	-0.29638565
134	0xbf14435e	-0.57915294
135	0x3d892d42	0.06698085
136	0xbfc9390f	-1.5720538
137	0xbd621a13	-0.055200648
138	0xbeaf8b05	-0.3428575
139	0xbd284950	-0.04108554
140	0xbd454646	-0.04816272
141	0x3eda8f6b	0.42687544
142	0xbdab905d	-0.083771445
143	0x3c8fe797	0.017566485
144	0xbe85abe6	-0.2610771
145	0x3e07f54e	0.1327717
146	0xbdef4664	-0.11683348
147	0x3e960489	0.29300335
148	0x3df6c38f	0.120490186
149	0x3e2f0a2b	0.17093723
150	0xbd3d33c7	-0.046191957
151	0x3f0c2b9d	0.5475405
152	0x3d987189	0.0744353
153	0x3e42c3ad	0.19019957
154	0x3ef568bb	0.47931466
155	0xbe5179aa	-0.20456567
156	0x3bcc1004	0.006227495
157	0x3dd43d94	0.103633076
158	0x3df551c4	0.11978486
159	0xbdac2d74	-0.08407107
160	0x3e95f546	0.2928869
161	0x3da56f88	0.080779135
162	0x3eb87b08	0.36031365
163	0xbe80bc9d	-0.251439
164	0xbf9f6806	-1.245362
165	0xbe788aaa	-0.24271646
166	0xbd7c9749	-0.061667714
167	0x3eb13bd3	0.34615955
168	0xbe2351ed	-0.15949221
169	0xbf99dd05	-1.2020575
170	0xbdcd2d0f	-0.1001836
171	0x3dea14ba	0.114297345
172	0x3deb7ef6	0.11498825
173	0x3e0eb53e	0.13936326
174	0xbf0207ee	-0.5079335
175	0x3d9ec371	0.07752121
176	0x3ddfb5bc	0.10923335
177	0xbfedd104	-1.8579412
178	0x3e0c3f96	0.13696131
179	0xbce3ca7e	-0.027806517
180	0x3e0d5188	0.13800633
181	0x3d897777	0.06712239
182	0xbd445bb3	-0.047939014
183	0x3d62fbcd	0.055415917
184	0x3e62272a	0.22085252
185	0xbe151a41	-0.14560796
186	0xbf90e8ce	-1.1321046
187	0xbe0074d6	-0.1254457
188	0x3b81f605	0.0039660954
189	0xbc5e9139	-0.0135844285
190	0xbe68b2c3	-0.22724442
191	0x3e93029d	0.2871293
192	0xbde54783	-0.111952804
193	0x3b4ceea8	0.003127018
194	0xbdcf96ae	-0.10136162
195	0xbec71f0a	-0.38890868
196	0x3e39c3b5	0.18141063
197	0xbe7b7bcf	-0.24558948
198	0xbee1d231	-0.44105676
199	0x3db7ba8a	0.089711264
200	0xbf8f0be2	-1.1175501
201	0xbdfc9134	-0.12332383
202	0x3df4e682	0.119580284
203	0xbc2ed93a	-0.010671908
204	0xbe323fa0	-0.17407084
205	0xbe769cff	-0.24083327
206	0x3e32e89b	0.17471544
207	0xbdca0e85	-0.09866051
208	0xbc8a65a7	-0.016894175
209	0xbe74c7e5	-0.23904379
210	0x3dbb7193	0.09152522
211	0x3dd4f82b	0.10398897
212	0x3e2f921f	0.17145585
213	0xbf1198db	-0.56873864
214	0xbde854d0	-0.11344302
215	0x3e3f0973	0.18655948
216	0x3d869c5b	0.06572791
217	0xbdd9f8b1	-0.10643137
218	0xbedca407	-0.43093893
219	0xbd8a7df2	-0.067623034
220	0xbdade94a	-0.08491762
221	0x3dbe194b	0.09282168
222	0x3d400c6c	0.046886846
223	0xbc84cbec	-0.016210519
224	0x3d48c8f6	0.049019776
225	0x3e2e7ea0	0.17040491
226	0xbe597c31	-0.21238782
227	0xbcae220b	-0.021256467
228	0xbf1ab415	-0.60431033
229	0x3db726c7	0.08942943
230	0x3e2edf5e	0.17077395
231	0x3dea5d3e	0.11443566
232	0xbe04af8a	-0.12957588
233	0xbda92605	-0.08259205
234	0xbd7763bd	-0.060397852
235	0x3e6f78b0	0.23385882
236	0x3ddc6a7d	0.107624985
237	0x3ba9fb09	0.0051873964
238	0xbd320844	-0.043464914
239	0xbf00672b	-0.5015742
240	0xbd1682cc	-0.03674583
241	0xbf79c3a0	-0.97564125
242	0xbf63c447	-0.8897137
243	0x3d96973c	0.073530644
244	0x3d45c697	0.048285093
245	0x3e8067bd	0.25079146
246	0xbf8d1a65	-1.102368
247	0x3d2ffa70	0.042963445
248	0xba769f90	-0.0009407932
249	0xbd7b0495	-0.061283667
250	0xbf96091a	-1.1721528
251	0xbd2d5938	-0.042321414
252	0x3cbaa68c	0.022784494
253	0xbf2c91ca	-0.67409956
254	0xbe6f0452	-0.23341492
255	0x3d9b1874	0.075730234

hidden_layer_1.bias f4 [64]
0	0x3d786c5b	0.06065021
1	0xbdf8e0c0	-0.12152243
2	0x3db3ab8e	0.08772956
3	0x3e3da975	0.18521674
4	0xbdd8f54d	-0.105936624
5	0x3e89953f	0.26871678
6	0xbd83a08e	-0.06427108
7	0x3d10e861	0.035377864
8	0x3d38731b	0.045031648
9	0x3e0f8f64	0.14019543
10	0xbdc8b5a6	-0.09800272
11	0x3e81f653	0.25383243
12	0x3e58f6bf	0.21187876
13	0x3e8c1cb9	0.27365664
14	0x3e6de371	0.23231293
15	0x3bebfb3d	0.007201581
16	0xbe955d38	-0.29172683
17	0xbe8abbae	-0.27096313
18	0xbd84b015	-0.064788975
19	0x3e3b5838	0.18295372
20	0xbdee378e	-0.1163169
21	0xbe1816d3	-0.14852457
22	0x3e931f4d	0.28734818
23	0x3e635c8a	0.2220327
24	0x3df1a6d6	0.117993996
25	0x3e06d4b5	0.13167079
26	0x3dd7f960	0.105456114
27	0x3d4f6388	0.05063203
28	0x3ddd81e0	0.10815787
29	0xbd7f93bc	-0.06239675
30	0xbe0f31a8	-0.13983786
31	0x3c5dd5ef	0.013539775
32	0x3ea76e85	0.32701507
33	0xbcf6553d	-0.030069942
34	0xbe755321	-0.23957492
35	0x3e514940	0.20438099
36	0x3e9af312	0.30263573
37	0x3e3cfb6f	0.1845529
38	0xbe06c342	-0.13160422
39	0xbe82f427	-0.25576898
40	0x3e852551	0.26005033
41	0xbe926802	-0.28594977
42	0x3e96d7fe	0.29461664
43	0xbdc58407	-0.09644323
44	0x3e07db64	0.13267285
45	0x3c93ffea	0.018066365
46	0xbdfb467b	-0.122693025
47	0xbd8ebe95	-0.069699444
48	0xbcffc3ec	-0.031221353
49	0x3d8c81f4	0.06860724
50	0x3e2a3b95	0.16624291
51	0x3b946e86	0.004529777
52	0x3d8b9a37	0.068165235
53	0x3e35c346	0.17750272
54	0xbe0382fa	-0.12842932
55	0x3e763d77	0.24046884
56	0xbe80dbe8	-0.25167775
57	0x3e17166c	0.14754647
58	0xbd84feac	-0.06493887
59	0xbe834e5c	-0.2564572
60	0x3cdf5a19	0.027264642
61	0xbdfed4a8	-0.12442905
62	0xbe02da75	-0.12778647
63	0x3e8b0de8	0.27159047

hidden_layer_2.weight f4 [64, 64]
0	0xbdb9a554	-0.09064737
1	0x3d31aaaa	0.04337565
2	0x3dc10c2f	0.09426152
3	0xbdb75a9e	-0.08952831
4	0x3d9e4880	0.07728672
5	0x3d3a1e45	0.045439024
6	0x3cab4e30	0.020911306
7	0x3c0316a9	0.008001008
8	0x3d380d36	0.044934474
9	0x3ca566a3	0.020190543
10	0xbcdb07e8	-0.026737168
11	0xbda8b0dd	-0.08236859
12	0xbdffb1ab	-0.12485059
13	0x3c77cbe4	0.015124295
14	0x3b790074	0.0037994655
15	0xbd2d1e10	-0.042264998
16	0xbdf5e59d	-0.12006686
17	0xbc83ce4a	-0.016089577
18	0x3d1690d4	0.036759213
19	0xbd6aa86b	-0.057289522
20	0xb9df9800	-0.00042647123
21	0xbdcf30d8	-0.10116738
22	0x3b960f20	0.0045794398
23	0xbc187217	-0.009304545
24	0x3d29d8e0	0.041466594
25	0xbd972836	-0.073807165
26	0xbdd2725c	-0.102757186
27	0xbbd06ea0	-0.006360844
28	0x3bad5ac9	0.0052903634
29	0x3d7e63e8	0.062106997
30	0xbc678e30	-0.014133021
31	0x3ce90a84	0.028447397
32	0xbd9bcacc	-0.0760704
33	0x3d8681e8	0.065677464
34	0xbd11ef64	-0.03562869
35	0xbd3047f2	-0.043037362
36	0xbcd1a53e	-0.025591489
37	0xbd240a66	-0.04004898
38	0x3c564180	0.01307714
39	0x3d9be83f	0.07612657
40	0x3dbae960	0.09126544
41	0xbdbd0590	-0.092295766
42	0x3d46b88a	0.048515834
43	0x3db8f540	0.09031153
44	0xbe09dc54	-0.13462955
45	0x3d363ef4	0.04449363
46	0x3dd20d14	0.10256401
47	0xbe0580bf	-0.13037394
48	0xbd9deaf6	-0.07710831
49	0x3bee1203	0.0072653308
50	0x3d4220bb	0.047394495
51	0xbdf63dca	-0.12023504
52	0x3d186a49	0.037210736
53	0xbc85b84b	-0.01632323
54	0x3db190e6	0.08670215
55	0xbcb2f925	-0.021847317
56	0x3dc39a6d	0.09550939
57	0xbc4ffc6c	-0.012694459
58	0x3db7a654	0.089672714
59	0x3de521fd	0.111881234
60	0xbdce77e4	-0.10081461
61	0x3cdebba0	0.027189076
62	0xbd618c39	-0.055065367
63	0xbd935dc4	-0.07195619
64	0x3d80a148	0.06280762
65	0x3ccde1c9	0.025132077
66	0xbe0ff3e1	-0.14057876
67	0xbdb66718	-0.08906382
68	0xbdf597f4	-0.119918734
69	0x3dbf5f35	0.09344331
70	0xbc043f50	-0.0080717355
71	0xbcc79a00	-0.024365425
72	0xbdb7664e	-0.0895506
73	0xbb520164	-0.0032044286
74	0x3dd119e4	0.10210016
75	0x3d3eb633	0.046560477
76	0xbc3695f0	-0.011144146
77	0xbe1b5e81	-0.15172769
78	0x3d92f0c0	0.07174826
79	0x3c499c79	0.012305372
80	0x3ce60fa9	0.02808364
81	0xbdd2c378	-0.10291189
82	0xbdd4e904	-0.10396007
83	0x3d11faee	0.035639696
84	0xbd866db4	-0.06563893
85	0x3c18ba60	0.009321779
86	0xbded6444	-0.1159139
87	0xbd36685f	-0.04453313
88	0xbe05b8fc	-0.13058847
89	0x3da73c5b	0.08165809
90	0xbc7981d7	-0.01522871
91	0xbd84e2ec	-0.064885944
92	0xbc0353cc	-0.008015584
93	0x3d4ffa58	0.050775856
94	0xbc1a98b0	-0.009435818
95	0xbd3c3698	-0.045950502
96	0xbdca3b21	-0.09874559
97	0x3dee9b3a	0.11650701
98	0xbd854510	-0.06507313
99	0xbbad4758	-0.005288046
100	0x3d91bf75	0.07116596
101	0xbdfca354	-0.1233584
102	0xbdb463d2	-0.08808102
103	0x3d3eb517	0.04655942
104	0xbcdf302f	-0.027244655
105	0x3d40d3c8	0.04707697
106	0xbe1b975a	-0.15194455
107	0xbd9a3aca	-0.075307444
108	0xbe19bc86	-0.15013322
109	0xbd2ebeee	-0.042662553
110	0xbd128707	-0.035773303
111	0x3d3c46aa	0.045965828
112	0xbd9632a2	-0.07333876
113	0x3d9ffbfa	0.078117326
114	0xbd36d63a	-0.044637896
115	0xbded92d6	-0.11600272
116	0x3cc11a83	0.023572212
117	0x3d61b007	0.055099513
118	0xbd5610c4	-0.052262083
119	0xbca03333	-0.019555664
120	0xbc7e06a3	-0.015504512
121	0x3d5b8037	0.053589072
122	0xbc8efa7f	-0.01745343
123	0xbdf97f74	-0.12182513
124	0x3d47e34c	0.04880075
125	0xbdb1193b	-0.086473905
126	0x3d8a53fd	0.06754301
127	0xbd1457d5	-0.036216576
128	0xbcf21906	-0.029552948
129	0xbedf33be	-0.43594164
130	0xbf0087d8	-0.5020728
131	0x3e81c0c9	0.25342396
132	0xbf08f5ef	-0.53500265
133	0x3dd3c51c	0.1034033
134	0x3c9be921	0.019032063
135	0xbdc86149	-0.09784181
136	0x3e7f2ff7	0.24920641
137	0x3d2de31b	0.042452913
138	0x3d6221ea	0.055208124
139	0x3e1d7f6b	0.15380637
140	0x3e7b7384	0.24555784
141	0x3ea9816e	0.3310656
142	0x3c46d82f	0.012136503
143	0x3d141250	0.036150277
144	0xbf8fd109	-1.1235667
145	0xbf1659ad	-0.58730584
146	0xbdff2e7c	-0.12460038
147	0x3d3d4295	0.046206076
148	0xbd466acb	-0.04844169
149	0xbbab5813	-0.005229005
150	0x3debfeb9	0.11523194
151	0x3e09a4ef	0.13441823
152	0x3cf7df52	0.030257855
153	0x3e2908be	0.16507241
154	0x3e3e96ca	0.18612209
155	0xbbf7fd4b	-0.0075680367
156	0xbdc2133c	-0.09476325
157	0xbdcd0544	-0.1001077
158	0x3d3a9340	0.045550585
159	0x3e002c1b	0.12516825
160	0x3e41a0be	0.18908975
161	0xbc1ec192	-0.009689705
162	0xbf24df73	-0.64403456
163	0xbe08d415	-0.13362153
164	0x3e747bee	0.238754
165	0xbe2a3e0f	-0.16625236
166	0xbdccd09a	-0.10000725
167	0xbf06c01a	-0.52636874
168	0x3d99b707	0.07505613
169	0xbfc5a3f2	-1.5440657
170	0x3e0c496b	0.13699882
171	0x3da9dcc0	0.08294058
172	0x3e025985	0.12729461
173	0xbb4ab770	-0.0030932091
174	0x3dfc239a	0.12311478
175	0xbd8be007	-0.06829839
176	0x3d0402be	0.032229178
177	0x3e2acdcc	0.16680068
178	0x3e0b103c	0.13580412
179	0x3dc11950	0.09428656
180	0x3d7b546d	0.06135981
181	0x3e4e0a3d	0.20121093
182	0xbc4e5b68	-0.012595035
183	0x3e4462e8	0.19178355
184	0xbfbbeb09	-1.4681102
185	0x3da25a33	0.079273604
186	0xbdbf4698	-0.093396366
187	0xbe9976ab	-0.2997335
188	0x3e1d9da4	0.15392166
189	0x3de51bce	0.11186944
190	0xbd07dfc9	-0.033172403
191	0x3db25fe8	0.08709699
192	0x3da6a047	0.08136039
193	0x3f4b1357	0.79326385
194	0x3e6fef8d	0.23431225
195	0x3e71b0bb	0.23602574
196	0x3e29ad0e	0.16569921
197	0x3d05c0e0	0.032654643
198	0xbbfe6126	-0.007763046
199	0x3ebd8412	0.37014824
200	0x3dd558ee	0.104173526
201	0xbcf1ca2a	-0.029515345
202	0xbd938e7b	-0.0720491
203	0x3e16e39b	0.14735262
204	0x3e2588da	0.16165486
205	0x3e2dac13	0.16960172
206	0xbe566da0	-0.20940256
207	0x3e3d5e70	0.18493056
208	0x3f92439a	1.142688
209	0xbfc8d859	-1.5691024
210	0x3c81f23b	0.015862575
211	0x3e537ccf	0.2065308
212	0xbc593337	-0.0132568395
213	0xbe05c2ad	-0.13062544
214	0xbe12cc45	-0.14335735
215	0x3cd497ff	0.025951384
216	0x3e8e7fd8	0.27831912
217	0x3e8389e2	0.25691134
218	0x3d41f573	0.04735322
219	0x3c58e35e	0.013237802
220	0x3e94894f	0.29011008
221	0xbc42a280	-0.011879563
222	0x3dcc92f2	0.09988965
223	0x3ea5bbaf	0.32369754
224	0xbdf2dd3a	-0.11858602
225	0xbdf81ca2	-0.12114836
226	0xbf0fc1c4	-0.5615504
227	0x3ea88fe7	0.3292229
228	0xbd8374cb	-0.06418761
229	0x3eb2e1fd	0.3493804
230	0x3d0938fe	0.033501618
231	0xbf994686	-1.1974647
232	0x3d0d51f9	0.034502003
233	0xbf2978a2	-0.66199696
234	0x3dd4bd46	0.103876635
235	0x3cc7e47e	0.024400946
236	0x3e5936c1	0.21212293
237	0x3db2d6c8	0.087323725
238	0x3cc8181c	0.024425559
239	0x3e89ccc6	0.26914042
240	0xbd56189a	-0.052269556
241	0x3e1bbbe2	0.1520839
242	0x3eaf2de3	0.34214696
243	0xbe3d97df	-0.18514965
244	0xbe2ccc38	-0.16874778
245	0x3d9d22cf	0.07672655
246	0xbd29afae	-0.041427307
247	0x3df26955	0.11836497
248	0xbf9b17c4	-1.2116628
249	0x3e40677e	0.18789479
250	0x3d04c3f2	0.03241343
251	0xbdc4ea4f	-0.09615003
252	0xbd76ff16	-0.060301863
253	0xbdc72e5f	-0.097256415
254	0xbd9664be	-0.07343434
255	0xbe1b13f0	-0.15144324

hidden_layer_2.bias f4 [64]
0	0xbd9b7a4d	-0.075916864
1	0xbe0d9bd4	-0.13828975
2	0x3e166bf9	0.14689626
3	0xbcd3f0c8	-0.02587165
4	0xbe00f991	-0.12595202
5	0xbe09e9ab	-0.13468044
6	0xbe0abd0c	-0.13548678
7	0x3e79691c	0.24356502
8	0x3e15128c	0.14557856
9	0x3eb7dea6	0.35912055
10	0x3e97d154	0.29651892
11	0x3d2dcc9d	0.042431463
12	0x3df93e4d	0.12170086
13	0x3e66de13	0.22545652
14	0x3e8309c9	0.25593403
15	0x3e89ccf0	0.26914167
16	0x3de40a8c	0.11134824
17	0x3e1a31de	0.15058085
18	0x3ea4d4f9	0.32193735
19	0x3ed45989	0.4147456
20	0x3e50ff57	0.20409904
21	0x3e869e5d	0.26292697
22	0x3e3fb317	0.18720661
23	0x3e0f8280	0.14014626
24	0xbda3c4cd	-0.07996521
25	0x3ecbbcd0	0.3979249
26	0x3e0c57cd	0.13705368
27	0x3dda8a05	0.106708564
28	0x3e1c4580	0.15260887
29	0x3e6e4502	0.23268512
30	0x3e1e7ef5	0.15478118
31	0x3c2e9bcb	0.010657261
32	0x3e24d24c	0.16095847
33	0xbddf9c3d	-0.10918472
34	0xbbc7f878	-0.006102618
35	0x3e8f37b9	0.279722
36	0x3b85f65d	0.0040882067
37	0x3e001689	0.12508596
38	0xbe0ee16f	-0.13953184
39	0x3ec2350e	0.37931103
40	0xbd9677e6	-0.073470876
41	0x3d0a29ee	0.033731394
42	0xbcb225cd	-0.02174654
43	0xbc27cbc4	-0.010241453
44	0x3de26a71	0.11055458
45	0x3eb24015	0.34814516
46	0xbde09e80	-0.109677315
47	0x3ea029ef	0.31281993
48	0x3e2cdbe7	0.16880761
49	0xbe30b945	-0.17258175
50	0x3c2e5629	0.010640659
51	0xbdf656a8	-0.12028247
52	0x3df22b7f	0.118247025
53	0xbdcd1bfe	-0.10015105
54	0x3e925219	0.2857826
55	0x3e8774b7	0.26456234
56	0xbe807ad1	-0.250937
57	0xbe2e50fa	-0.17023078
58	0xbdef08bf	-0.1167159
59	0xbd8ec021	-0.069702394
60	0x3dc40852	0.095718995
61	0x3dd219f0	0.102588534
62	0x3ec0d279	0.37660578
63	0x3eaf3c4f	0.342257

output_layer.weight f4 [2, 64]
0	0x3d0f5424	0.034992352
1	0x3d33af9a	0.04386864
2	0x3e277593	0.16353445
3	0x3c11e728	0.00890521
4	0xbde1c200	-0.11023331
5	0xbc8f201a	-0.017471362
6	0xbdfe0ebc	-0.12405154
7	0x3e4073b7	0.18794142
8	0x3e1ea4cd	0.15492554
9	0x3e3c1bd9	0.18369998
10	0x3e6431ac	0.22284573
11	0x3e44bdcd	0.19213028
12	0xbd23ac27	-0.0399591
13	0x3f12ad2f	0.5729551
14	0x3e37a374	0.17933446
15	0x3d719a34	0.05898495
16	0x3e82c1de	0.25538534
17	0x3f0775f5	0.52914363
18	0x3e763a3f	0.24045657
19	0x3e16b569	0.1471764
20	0x3e0588f7	0.13040529
21	0x3cf596cd	0.029979134
22	0x3e5d5eb9	0.21618165
23	0x3e7a6404	0.24452215
24	0xbcaf07de	-0.021366056
25	0x3e8cbdce	0.2748856
26	0xbeee2061	-0.46509078
27	0x3e76e876	0.24112114
28	0x3e8feaa2	0.28108698
29	0x3e95e513	0.29276332
30	0x3e2ae683	0.16689496
31	0xbf6f6cb0	-0.9352522
32	0x3e730914	0.23733932
33	0x3d173454	0.03691514
34	0xbf38c2fc	-0.7217252
35	0x3d8464bd	0.06464527
36	0xbd95d802	-0.07316591
37	0x3d867938	0.065660894
38	0x3d46b099	0.04850826
39	0x3e315984	0.17319304
40	0x3c6ebf9e	0.014572052
41	0x3eb0c1d4	0.3452288
42	0x3dc5e889	0.09663493
43	0xbef9a581	-0.48759082
44	0x3e8f9ed2	0.28050858
45	0x3e8ca559	0.274699
46	0x3ee58cc0	0.44833946
47	0x3e78d154	0.24298602
48	0x3db32a43	0.08748295
49	0x3d494d18	0.049145788
50	0xbdcef513	-0.10105338
51	0x3dabdf47	0.08392196
52	0x3dff4f53	0.12466302
53	0x3d2bde4c	0.041960046
54	0x3e8ef5d7	0.27921936
55	0x3e8856ad	0.26628628
56	0xbbbd491a	-0.0057765367
57	0xbe8b7c65	-0.27243343
58	0x3ce495c8	0.027903453
59	0xbd5c64cc	-0.053807065
60	0xbfdacda1	-1.7094003
61	0x3f85d563	1.0455745
62	0x3e373515	0.17891343
63	0xbff778c7	-1.9333733
64	0xbd34bf51	-0.044127766
65	0xbc9b6167	-0.018967343
66	0x3ea360f8	0.3190992
67	0xbed8ff08	-0.42382073
68	0xbd4687e6	-0.048469447
69	0x3c55dba1	0.013052852
70	0x3ca69b41	0.020337703
71	0x3e42a043	0.19006447
72	0x3db4c3d9	0.088264175
73	0x3e901292	0.28139168
74	0x3e6f841c	0.2339024
75	0xbfdc93ff	-1.7232665
76	0xbffa1a15	-1.953921
77	0x3f2005da	0.6250893
78	0x3e442550	0.19154859
79	0xbfeefe55	-1.8671366
80	0xbe11d7e2	-0.14242509
81	0x3e05d4bb	0.13069431
82	0x3e3a8240	0.18213749
83	0x3ebf1297	0.3731887
84	0x3eae2288	0.3401072
85	0xbfda9def	-1.7079448
86	0x3df8b41c	0.12143728
87	0x3ea9c3ec	0.3315729
88	0x3da850d8	0.08218545
89	0x3eb74b77	0.35799763
90	0x3fc13073	1.509291
91	0xbd67f0d3	-0.056626152
92	0x3d0edd99	0.0348793
93	0x3df5968e	0.11991607
94	0x3ed0c638	0.4077623
95	0x3e350e6f	0.17681287
96	0x3dff0f28	0.12454063
97	0x3dd09958	0.10185498
98	0xbbdd9dec	-0.0067632105
99	0x3eace593	0.337689
100	0x3baf4d0f	0.0053497623
101	0x3e935401	0.28775027
102	0xbed16c3e	-0.40902895
103	0x3e6f96a5	0.2339731
104	0xbd2bda0f	-0.041956004
105	0xbf5af61a	-0.8553177
106	0x3bb6e2b9	0.0055812267
107	0xbf89486b	-1.0725225
108	0xbdb7a710	-0.089674115
109	0x3e70a04d	0.2349865
110	0xbd9c79f2	-0.07640447
111	0x3e876eae	0.2645163
112	0xbf411792	-0.7542659
113	0xbe99a31d	-0.30007258
114	0x3db52690	0.08845246
115	0xbd75dced	-0.060025144
116	0x3e857afa	0.26070386
117	0xbca94850	-0.020664364
118	0xbd24b383	-0.04021026
119	0x3dbfedc7	0.09371524
120	0xbebcb824	-0.36859238
121	0xbeace0d4	-0.3376528
122	0xbbd26318	-0.0064205043
123	0xbac45e9d	-0.001498181
124	0x3de537dd	0.11192296
125	0xbffef24e	-1.9917696
126	0x3e51e481	0.20497324
127	0x3dac8c54	0.08425203

output_layer.bias f4 [2]
0	0x3e3527cc	0.17690963
1	0x3e92e162	0.28687578
