DQN - CartPole/data/Apprentice 3.pt (torch, 38460 bytes, 8 tensors)

input_layer.weight f4 [64, 4]
0.49903482 0.3361401 -0.99701494 0.3656508 -0.33194655 0.13511911 0.72737515 0.27361608
0.46658075 -0.2666464 0.236805 0.3934803 -0.10544043 -0.21336529 -0.2812422 0.264945
0.015081804 0.38945913 -0.20313688 0.1368975 -0.3280585 -0.24942948 0.36234778 0.0003359854
-0.1618714 -0.32369345 0.614635 0.095844425 0.19854487 -0.16889597 0.7528434 -0.39744073
-0.2526991 -0.09291565 -0.2650232 0.36024824 0.3444765 -0.25770026 -0.514603 0.554785
0.8004525 0.20625682 0.34420153 0.4109052 0.47219053 -0.46397015 0.2582233 -0.445377
0.1463405 0.27778217 -0.1382688 -0.49804872 8.587477e-05 -0.22204597 0.13348785 0.0253249
-0.289937 0.24942212 0.35917443 -0.41914716 -0.32429868 -0.0081772255 0.56356394 0.45292744
0.25208628 0.014953825 0.10319289 0.27240267 0.056093648 0.36821526 0.60230607 -0.013008138
0.22370683 -0.011817099 0.5751583 0.17457898 -0.25089118 -0.03526944 -0.20747752 -0.41036612
-0.089442775 0.20609574 0.68690723 -0.12969323 -0.37808 0.42417264 0.22477728 -0.1365462
0.4259044 0.0962438 -0.5914699 0.12709805 0.27794373 0.29357892 0.23138806 0.37112474
0.4186479 -0.52743506 -0.74080807 -0.44593978 -0.06331808 -0.14863417 0.71124667 -0.4677801
-0.73282933 0.43443418 1.0610706 0.3034704 -0.35376048 -0.4297784 0.74966127 0.30905083
-0.28830442 0.37523052 0.77981603 0.29179707 -0.6415242 0.32095218 -0.3209572 -0.045140766
-0.2912095 -0.18641917 0.5358812 0.26002836 0.35919034 0.20478898 -0.20852938 0.41453597
-0.033124615 -0.14183907 -0.72294563 -0.15731107 0.059490893 0.46139672 0.6979781 0.30757573
-0.29579514 0.028752565 0.45564806 -0.026582599 -0.3843973 -0.5525922 0.7763081 0.12205583
-0.26833534 -0.29855615 -0.15073057 0.018297102 0.27824143 -0.26642334 -0.62924206 -0.33366454
-0.23725966 -0.1600077 -0.7805171 -0.45744684 -0.74223334 0.3281731 0.74055505 0.45564803
-0.60304904 -0.35435438 0.511279 -0.08042013 -0.51959723 -0.38882712 0.30972528 0.097970806
-0.34175137 0.124798924 -0.36582217 -0.020420235 0.32004964 0.4790749 0.2541604 0.20806956
0.16119511 -0.19279799 -0.29198164 -0.17027315 0.27874756 0.24409185 0.23071964 -0.3244174
0.38991728 -0.4746114 0.11764205 -0.0022779126 -0.19859374 -0.20289828 0.022239428 0.4414775
0.31386727 0.5256585 0.24774982 -0.15462154 0.044768497 -0.2583139 -0.45850283 0.15425846
-0.5585447 -0.19477405 0.010260511 0.500557 -0.13939506 -0.047541082 -0.2343275 -0.11869258
-0.63661265 -0.28495625 0.46260384 0.05283018 0.20700304 -0.041602798 0.38822797 -0.21049432
0.3097522 0.30765367 -0.85360837 -0.1366169 -0.40804708 -0.051178098 0.27130878 0.0014711618
0.16117525 -0.023826297 0.73309135 -0.0066194227 -0.05475669 -0.08688539 0.52894366 0.16906889
0.20403348 -0.25967366 0.62250197 0.31321707 -0.03904821 -0.58990544 -1.0364485 -0.45715353
-0.23158127 -0.23736148 0.32857054 0.29087514 0.49844155 -0.36749592 -0.8442651 -0.34219864
-0.84082496 0.27011532 0.92580736 0.33869585 0.14129323 0.3275355 -0.44742048 0.18458116
00000000: 7e81 ff3e 8e1a ac3e 5f3c 7fbf 9536 bb3e
00000010: e6f4 a9be aa5c 0a3e 4235 3a3f 6817 8c3e
00000020: ace3 ee3e e085 88be 037d 723e 4076 c93e
00000030: 27f1 d7bd 6e7c 5abe fafe 8fbe dfa6 873e
00000040: ac19 773c 3067 c73e 1d03 50be dc2e 0c3e
00000050: 49f7 a7be 716a 7fbe a685 b93e 3227 b039
00000060: 9ec1 25be 26bb a5be b858 1d3f 154a c43d
00000070: 594f 4b3e 11f3 2cbe 58ba 403f 5a7d cbbe
00000080: c761 81be 8f4a bebd 1fb1 87be 7572 b83e
00000090: 395f b03e 4af1 83be 06bd 03bf 6406 0e3f
000000a0: 74ea 4c3f fd34 533e 2f3b b03e 2b62 d23e
000000b0: f5c2 f13e 7f8d edbe d835 843e 7408 e4be
000000c0: 49da 153e 7739 8e3e 5696 0dbe 3e00 ffbe
000000d0: ab17 b438 0560 63be 0ab1 083e 2a76 cf3c
000000e0: 9f72 94be 8368 7f3e b6e5 b73e 759a d6be
000000f0: 7a0a a6be c5f9 05bc ba45 103f 1be6 e73e
00000100: 7411 813e e300 753c cb56 d33d 5d78 8b3e
00000110: 74c2 653d b686 bc3e bb30 1a3f 1620 55bc
00000120: 6713 653e 819c 41bc 933d 133f d5c4 323e
00000130: cf74 80be b076 10bd fd74 54be 821b d2be
00000140: c62d b7bd c30a 533e 27d9 2f3f 4dce 04be
00000150: b493 c1be 282d d93e 042c 663e c4d2 0bbe
00000160: 2410 da3e 781b c53d 926a 17bf fe25 023e
00000170: a44e 8e3e fa4f 963e fef0 6c3e 1004 be3e
00000180: 0459 d63e fc05 07bf 99a5 3dbf 3852 e4be
00000190: e9ac 81bd 8e33 18be 4314 363f e080 efbe
000001a0: b49a 3bbf 286e de3e 29d1 873f 7960 9b3e
000001b0: 1820 b5be ea0b dcbe cde9 3f3f e93b 9e3e
000001c0: a39c 93be 371e c03e 06a2 473f 6d66 953e
000001d0: ee3a 24bf d853 a43e 8154 a4be 86e5 38bd
000001e0: 6919 95be abe4 3ebe 832f 093f 7022 853e
000001f0: cce7 b73e 34b4 513e ba88 55be 0f3e d43e
00000200: adad 07bd 433e 11be f712 39bf 2716 21be
00000210: b9ac 733d 313c ec3e b1ae 323f 917a 9d3e
00000220: 7672 97be 808a eb3c b44a e93e c0c3 d9bc
00000230: b9cf c4be af76 0dbf 21bc 463f 68f8 f93d
00000240: 4063 89be 5adc 98be 1d59 1abe cee3 953c
00000250: a975 8e3e a468 88be 0216 21bf 14d6 aabe
00000260: 32f4 72be 0fd9 23be f8cf 47bf 7936 eabe
00000270: 0103 3ebf 4e06 a83e 0495 3d3f b34a e93e
00000280: 6c61 1abf f06d b5be 2ee3 023f 4fb3 a4bd
00000290: 5304 05bf 5914 c7be 5094 9e3e eba4 c83d
000002a0: 09fa aebe 9496 ff3d 0b4d bbbe 5648 a7bc
000002b0: 8cdd a33e 4e49 f53e 5021 823e 3010 553e
000002c0: 5510 253e d66c 45be 9e7e 95be 165c 2ebe
000002d0: 00b8 8e3e 37f3 793e c541 6c3e 0a1a a6be
000002e0: 3da3 c73e 4400 f3be 51ee f03d 0849 15bb
000002f0: 285c 4bbe 91c4 4fbe 762f b63c 5709 e23e
00000300: 36b3 a03e 8e91 063f 21b2 7d3e 1c55 1ebe
00000310: 2c5f 373d b841 84be e2c0 eabe eef5 1d3e
00000320: c9fc 0ebf d972 47be b41b 283c 8124 003f
00000330: 94bd 0ebe 70ba 42bd 8cf3 6fbe 1815 f3bd
00000340: 0cf9 22bf c9e5 91be 69da ec3e 7564 583d
00000350: 9bf8 533e b267 2abd d1c5 c63e d38b 57be
00000360: d797 9e3e c884 9d3e 1486 5abf 4de5 0bbe
00000370: 8ceb d0be 20a0 51bd fce8 8a3e 00d4 c03a
00000380: 200b 253e 5e2f c3bc e0ab 3b3f bee7 d8bb
00000390: 8d48 60bd f8f0 b1bd da68 073f 6520 2d3e
000003a0: 27ee 503e f2f3 84be 4a5c 1f3f fd5d a03e
000003b0: 04f1 1fbd 0b04 17bf 58aa 84bf 0710 eabe
000003c0: a423 6dbe e30e 73be 663a a83e 96ed 943e
000003d0: bb33 ff3e 6d28 bcbe c221 58bf a934 afbe
000003e0: 4e40 57bf 8e4c 8a3e b601 6d3f 8b69 ad3e
000003f0: 2caf 103e bcb2 a73e 4c14 e5be d802 3d3e

input_layer.bias f4 [64]
0.058307443 -0.03825293 0.24370512 0.39681613 0.53051525 0.23934844 0.5523503 0.13222472
0.37688982 -0.109130226 0.23921184 -0.5106546 0.30694982 0.4771437 0.024735278 -0.4046285
0.31217846 0.17372748 -0.3869823 -0.390963 0.4899884 0.15485261 0.15651871 0.09937043
0.07471661 0.092441216 -0.08577876 -0.053437583 0.39191505 0.14601655 -0.5646069 0.2740562
0.46424642 0.38085324 -0.11382896 -0.38281387 0.047954757 -0.0012576261 0.041893736 -0.046243604
-0.033155587 -0.39821917 -0.3278053 -0.44954306 0.5454334 -0.086778685 0.10224692 0.3088373
0.3156118 0.095347784 -0.039366197 -0.48196054 -0.14166623 0.022610648 -0.0421514 -0.2744375
0.13840698 0.41636312 -0.12127082 0.14607036 0.10371309 0.08416105 -0.05373846 -0.289508
00000000: c9d3 6e3d 1baf 1cbd d68d 793e 7c2b cb3e
00000010: d9cf 073f c217 753e d466 0d3f eb65 073e
00000020: b4f7 c03e ab7f dfbd f3f3 743e 43ba 02bf
00000030: 8728 9d3e 2e4c f43e a3a1 ca3c 772b cfbe
00000040: dbd5 9f3e 9ee5 313e 8b22 c6be 4d2c c8be
00000050: c2df fa3e af91 1e3e 7146 203e b982 cb3d
00000060: 0605 993d d251 bd3d c6ac afbd 5ee1 5abd
00000070: 17a9 c83e 5d85 153e 148a 10bf 1851 8c3e
00000080: b5b1 ed3e 32ff c23e 281f e9bd 2e00 c4be
00000090: 356c 443d eed6 a4ba c498 2b3d ef69 3dbd
000000a0: 27ce 07bd 62e3 cbbe 19d6 a7be 822a e6be
000000b0: 86a1 0b3f 06b9 b1bd d566 d13d ec1f 9e3e
000000c0: df97 a13e b345 c33d 733e 21bd 88c3 f6be
000000d0: f410 11be f739 b93c f2a6 2cbd 1283 8cbe
000000e0: 8fba 0d3e 8c2d d53e d65c f8bd 7893 153e
000000f0: 8767 d43d a15c ac3d dc1c 5cbd 643a 94be

hidden_layer_1.weight f4 [64, 64]
-0.0036101674 -0.12691578 0.09906497 0.16139911 0.04511067 0.09239419 -0.057460405 0.20544076
0.03032305 0.11693676 0.002839767 -0.016076012 -0.011346076 -0.039802067 -0.0258939 -0.18412071
0.062281437 0.11071153 -0.27884933 0.036554486 0.15849963 0.076867014 0.016374057 0.09341397
-0.14913525 0.018007271 -0.53709674 0.114280775 0.042270944 -0.12794957 -0.3269868 0.030520746
0.051840413 0.17654648 -0.045491397 -0.04832333 0.017329527 -0.33603513 0.01980953 -0.24522951
-0.20746815 -0.26241887 0.007549147 -0.097865775 -0.07047155 -0.07496959 0.031969253 -0.07735535
0.052378245 0.10606951 -0.09176662 -0.04156269 -0.1746282 0.18735324 -0.018992314 -0.072217956
0.018053323 0.015857365 -0.025414579 -0.058383107 0.11892308 -0.16242802 -0.082474254 -0.0906502
0.03760937 -0.014854512 0.11288482 0.14556605 0.17946795 -0.036140624 0.054698948 -0.13144091
-0.021507056 0.044555493 -0.006499406 0.094878495 -0.39868003 0.026613714 0.29282838 -0.13294487
0.07973861 -0.06635483 -0.4157483 -0.05640416 0.109260716 -0.25279263 0.018619843 -0.085159
-1.2044938 -0.004591673 -0.25795445 -0.05837519 -0.085438445 -0.24989821 -0.3229096 0.035087664
-0.0135946395 -0.043194298 -0.10882203 -0.18857725 0.015202662 -0.4314364 -0.2973669 -0.2188154
-0.23013377 -0.20641084 -0.11496277 0.07112692 0.11347907 0.20343633 0.054470874 0.12995301
-0.2339627 0.15026361 0.0008595878 0.03985186 -0.31220013 -0.0018778074 -0.2899877 0.115956575
-0.014184501 0.11028287 -0.07602608 -0.47711614 0.116117105 -1.2717739 -0.014236108 -0.046357393
0.03897316 0.087829664 -0.07806807 0.17458273 -0.010826144 0.06718349 0.08705317 0.23473074
0.0074933614 -0.124491565 -0.09935153 -0.028265655 0.04955595 0.08643452 -0.117987365 -0.1133893
0.02372336 0.12372878 0.061336707 -0.2841959 0.11473183 -0.027009005 0.13596596 0.058422226
0.49849325 0.11273319 0.18273471 -0.21797732 0.014593821 0.14324117 -0.20641144 0.13550079
0.14694749 -0.03902468 -0.081832364 0.1039169 -0.009427527 0.33771908 0.09005696 -0.10541873
-0.11176683 -0.18775278 -0.11330928 0.00018396974 0.2343393 -0.015631836 -0.10885777 -0.05627435
0.16732599 -0.119682446 -0.20675752 -0.08512659 -8.045783e-05 0.005197648 -0.0063628764 -0.03204882
0.20945588 0.14817393 0.01419689 0.19958258 0.0012589148 0.41979933 0.047235012 0.099184066
0.13797769 0.07981294 -0.07801269 0.03257371 -0.045289163 0.049780276 0.17411003 0.11674617
0.1257691 -0.022005217 -0.08113774 -0.12150656 -0.14093585 -0.055929385 0.044779003 -0.23000413
-0.05879969 -0.049019884 -0.29156718 -0.009962842 -0.055494186 -0.13424405 0.11435338 0.015840827
-1.1150467 0.052422166 -0.38637394 0.07452209 0.012186049 -0.20613888 -0.20475866 0.08039995
0.074526004 -0.015833478 -0.12310198 -0.09384827 0.00418809 -0.39079118 -0.46505427 -0.18041557
-0.1693669 -0.076155595 -0.10765335 -0.001864016 0.12362657 -0.008849786 0.045023765 0.15003358
-0.030674817 0.07143989 -0.041879866 0.018517718 -0.26207197 0.16648218 -0.19604695 0.08823134
0.046512317 -0.028729526 -0.090053774 -0.18049446 0.1359361 -0.9856291 -0.15019299 0.024570376
00000000: 8f98 6cbb 36f6 01be 93e2 ca3d cf45 253e
00000010: f7c5 383d 2a39 bd3d 9a5b 6bbd 105f 523e
00000020: 0c68 f83c 8a7c ef3d 621b 3a3b d7b1 83bc
00000030: e4e4 39bc 7e07 23bd 721f d4bc 248a 3cbe
00000040: d21a 7f3d babc e23d 57c5 8ebe 28ba 153d
00000050: ba4d 223e 746c 9d3d e322 863c d34f bf3d
00000060: e9b6 18be fc83 933c 2c7f 09bf 0a0c ea3d
00000070: 4c24 2d3d 3605 03be d06a a7be a506 fa3c
00000080: 9d56 543d 9ac8 343e 3055 3abd afee 45bd
00000090: a7f6 8d3c cc0c acbe 9847 a23c 721d 7bbe
000000a0: 8872 54be c45b 86be d65e f73b da6d c8bd
000000b0: 6353 90bd a889 99bd 31f2 023d 7b6c 9ebd
000000c0: 928a 563d f93a d93d 23f0 bbbd a43d 2abd
000000d0: bcd1 32be 87d9 3f3e c595 9bbc 02e7 93bd
000000e0: 90e4 933c 4ee7 813c 3c32 d0bc 2023 6fbd
000000f0: f28d f33d 8853 26be 43e8 a8bd d0a6 b9bd
00000100: 480c 1a3d 5760 73bc 2830 e73d 440f 153e
00000110: 72c6 373e 3108 14bd 010c 603d 7298 06be
00000120: 912f b0bc d27f 363d f8f8 d4bb a84f c23d
00000130: ca1f ccbe 0105 da3c 9aed 953e b322 08be
00000140: ff4d a33d 0be5 87bd f6dc d4be 0c08 67bd
00000150: 15c4 df3d 096e 81be a488 983c d767 aebd
00000160: da2c 9abf bf75 96bb 9b12 84be d31a 6fbd
00000170: 5afa aebd 51e5 7fbe 6854 a5be 15b8 0f3d
00000180: 0dbc 5ebc 81ec 30bd 16de debd 651a 41be
00000190: 9614 793c 3be5 dcbe 7940 98be 2511 60be
000001a0: 30a8 6bbe 5d5d 53be 9a71 ebbd feaa 913d
000001b0: b767 e83d 9d51 503e da1c 5f3d 6712 053e
000001c0: eb93 6fbe b4de 193e f655 613a b43b 233d
000001d0: b2d8 9fbe c320 f6ba 4579 94be a47a ed3d
000001e0: 1c66 68bc fcdb e13d 90b3 9bbd 9148 f4be
000001f0: cece ed3d 7dc9 a2bf 913e 69bc 40e1 3dbd
00000200: 52a2 1f3d 0ae0 b33d 27e2 9fbd d1c5 323e
00000210: 2460 31bc 7f97 893d ef48 b23d 415d 703e
00000220: df8a f53b 6ff5 febd d178 cbbd 608d e7bc
00000230: 2efb 4a3d 9504 b13d 5ca3 f1bd a638 e8bd
00000240: 7e57 c23c 8465 fd3d 333c 7b3d 2082 91be
00000250: 86f8 ea3d fd41 ddbc a93a 0b3e 254c 6f3d
00000260: 823a ff3e a9e0 e63d cf1e 3b3e 7235 5fbe
00000270: ec1a 6f3c d0ad 123e 855d 53be b8c0 0a3e
00000280: 6779 163e 58d8 1fbd ba97 a7bd 62d2 d43d
00000290: ea75 1abc 84e9 ac3e c96f b83d c6e5 d7bd
000002a0: 02e6 e4bd 4442 40be b20e e8bd 00e8 4039
000002b0: a4f6 6f3e 560e 80bc d3f0 debd ef7f 66bd
000002c0: 8157 2b3e 121c f5bd 3eb8 53be da56 aebd
000002d0: 78bb a8b8 0851 aa3b ad7f d0bb a045 03bd
000002e0: 9a7b 563e e8ba 173e 139a 683c 605f 4c3e
000002f0: 2c02 a53a f0ef d63e 8079 413d 0421 cb3d
00000300: 064a 0d3e f774 a33d 1ec5 9fbd 036c 053d
00000310: 2181 39bd 67e6 4b3d e649 323e 9e18 ef3d
00000320: 9dc9 003e 4944 b4bc 8b2b a6bd 6ed8 f8bd
00000330: 7d51 10be 3616 65bd 306a 373d 3486 6bbe
00000340: f2d7 70bd 13c9 48bd 4b48 95be 303b 23bc
00000350: df4d 63bd 4677 09be 1b32 ea3d 9fc4 813c
00000360: dab9 8ebf a0b8 563d ced2 c5be 0a9f 983d
00000370: fea7 473c 1216 53be 41ac 51be bba8 a43d
00000380: 17a1 983d 36b5 81bc e41c fcbd 8633 c0bd
00000390: 3f3c 893b c815 c8be 981b eebe dcbe 38be
000003a0: 846e 2dbe 77f7 9bbd 5c79 dcbd 0052 f4ba
000003b0: ed2f fd3d b1fe 10bc d76a 383d 67a2 193e
000003c0: c149 fbbc 144f 923d 398a 2bbd 78b2 973c
000003d0: 4c2e 86be 4e7a 2a3e 88c0 48be a2b2 b43d
000003e0: b383 3e3d 2f5a ebbc 1d6e b8bd 8ad3 38be
000003f0: d532 0b3e 3052 7cbf 31cc 19be d047 c93c

hidden_layer_1.bias f4 [64]
0.17126323 0.10999401 0.2632365 0.17403272 -0.050382927 0.09633721 -0.024223978 0.02048811
0.12625504 0.17637262 0.09655069 0.11403715 0.030745339 0.05169875 -0.018139962 0.03367635
0.041890055 0.13468611 -0.014030965 -0.017072683 0.1374685 0.0846251 -0.132623 0.05760619
-0.05946368 0.058102783 0.041693263 0.13326605 0.039211944 0.06762356 0.13314173 -0.12585062
0.060863513 0.019581888 0.12638083 -0.085562184 0.18593742 -0.07023512 0.17024118 -0.011552392
0.03196896 0.019192394 -0.089795545 0.23871577 0.11149542 -0.124158576 -0.057949144 0.103699
0.0034303274 0.063233994 0.045655716 0.0028895694 -0.085911095 0.037178386 -0.013927327 0.0018613879
0.09992492 0.1116583 -0.046289057 0.053097483 -0.07467522 0.17356773 0.09142572 0.16811834
00000000: a15f 2f3e 8a44 e13d efc6 863e a235 323e
00000010: 545e 4ebd 714c c53d 5d71 c6bc aed6 a73c
00000020: 0049 013e 069b 343e 5ebc c53d 4f8c e93d
00000030: a6dd fb3c 12c2 533d 429a 94bc 36f0 093d
00000040: e894 2b3d 28eb 093e 22e2 65bc 03dc 8bbc
00000050: 8bc4 0c3e ed4f ad3d 53ce 07be 78f4 6b3d
00000060: 3090 73bd 2ffd 6d3d 8ec6 2a3d e576 083e
00000070: b49c 203d 397e 8a3d 4e56 083e fcde 00be
00000080: 054c 793d 326a a03c fa69 013e 3a3b afbd
00000090: 6166 3e3e 6ed7 8fbd b453 2e3e 3e46 3dbc
000000a0: e2f1 023d 5e39 9d3c bae6 b7bd e871 743e
000000b0: b657 e43d da46 febd 155c 6dbd 2460 d43d
000000c0: 58cf 603b d380 813d 7d01 3b3d ee5e 3d3b
000000d0: 28f2 afbd 5d48 183d 712f 64bc d0f9 f33a
000000e0: 70a5 cc3d 1bad e43d 9899 3dbd bf7c 593d
000000f0: 52ef 98bd bdbb 313e 683d bb3d 3727 2c3e

hidden_layer_2.weight f4 [64, 64]
-0.04779619 0.4562844 -0.22380345 0.24874325 -0.09556456 0.10097 0.07745704 -0.100580454
-0.015862774 0.13865206 0.09135155 0.08247016 0.06109151 -0.14533377 -0.12440612 -0.027331466
0.068404436 -0.10067065 -0.0010632438 0.07097484 0.06853503 0.03818231 0.09888071 -0.012881005
0.09146103 0.15986273 -0.15317571 0.009809885 0.018019902 -0.014482084 0.09881092 0.08048606
-0.00054553285 0.024275947 -0.7325354 0.09429081 0.04117986 0.054754164 0.05011404 0.26014462
-0.015486955 -0.06829504 0.015741438 -0.5634409 0.041596275 0.110481665 -0.33918005 0.10830533
0.20997424 -0.040461686 0.080110654 0.01706472 0.034640614 -0.029704476 -0.19719736 -0.013397864
0.08048519 -0.36182705 -0.04579355 0.09299658 -0.011849374 0.078308314 0.08741941 -0.07187111
0.050649703 0.3360911 -0.41124803 0.19118185 0.08841263 0.1891021 0.105402894 -0.071597144
-0.07749736 -0.0433755 0.10159368 -0.008057853 -0.03512081 -0.012677922 -0.02006615 0.18431818
0.16845311 -0.016902277 0.07067372 0.03295547 0.16755302 -0.04994458 0.0785505 -0.017798483
0.0068266243 -0.019512381 -0.09179523 -0.036484905 0.1431703 0.09325666 0.054473504 -0.12687102
0.01490548 -0.10854508 -0.72952247 -0.118094385 0.06619762 0.009466496 0.06434009 0.13983312
-0.005231714 -0.040828392 -0.029429048 -0.35464555 -0.12402249 -0.091998726 -0.7866923 -0.018444687
0.110382766 0.028858796 0.06125992 0.08220568 -0.119610935 -0.18498687 -0.25797376 -0.12353988
0.074817136 -0.2638723 -0.07062779 0.07130836 -0.059558794 0.0076754214 0.10460618 0.044092443
-0.053161193 0.08816136 0.022526084 0.04099034 -0.07038987 0.09480373 -0.1007491 0.0018266006
0.11329712 0.0078046024 0.05555389 0.10437971 0.06605745 -0.08039332 -0.0521157 -0.10113356
0.06590317 -0.089531764 -0.04861253 -0.086814284 -0.024757061 -0.025245458 -0.07890986 0.089012735
0.03162673 0.07647204 0.08754274 -0.10800271 -0.07037331 0.015790757 -0.040412217 -0.00048516292
-0.10094892 0.0922122 -0.080803476 -0.1100986 0.019198738 -0.1292017 -0.041148983 0.024445584
-0.10832722 -0.07682426 0.011281624 -0.030271318 0.10998298 0.09752646 0.040972665 0.083592296
-0.034223214 -0.037084002 -0.005954653 -0.011332991 0.0718464 0.019742506 0.06359282 -0.004201154
0.04283672 0.00887088 0.036384642 -0.07112604 0.030400097 0.038796645 0.08809983 0.053493552
0.05929018 -0.065542504 0.06876162 0.032825857 0.0068048686 -0.084510945 -0.00692565 -0.12454261
0.06795517 -0.12574813 -0.1373822 -0.05160975 0.11210782 -0.031339355 0.041548837 -0.09156504
-0.059656493 -0.11714362 -0.11332336 -0.052253194 -0.09139024 0.01157567 -0.11164823 -0.081855364
-0.05247943 -0.07867236 -0.03676205 0.07151519 -0.14042918 -0.11788193 0.03262057 -0.10383221
-0.14066942 -0.08154271 -0.08431387 0.03265401 0.0053066523 0.06642182 0.04085503 0.013379282
0.01386723 0.016967222 -0.07659738 -0.15457143 -0.12298432 -0.04239957 -0.053726874 0.058684126
-0.1234734 0.06256197 -0.10607016 0.106742255 -0.08108368 -0.07291744 0.08788396 -0.011763215
-0.03944364 0.009027285 -0.08707568 -0.07565566 0.101704836 0.09165617 -0.057369314 -0.1220516
00000000: f0c5 43bd 1c9e e93e bb2c 65be 8db6 7e3e
00000010: 5ab7 c3bd 5cc9 ce3d cca1 9e3d 20fd cdbd
00000020: a6f2 81bc cefa 0d3e 8516 bb3d 1ee6 a83d
00000030: 173b 7a3d 60d2 14be a3c8 febd 3de6 dfbc
00000040: a017 8c3d 6a2c cebd 8b5c 8bba 425b 913d
00000050: 185c 8c3d 0e65 1c3d f881 ca3d da0a 53bc
00000060: ec4f bb3d 0eb3 233e 18da 1cbe a4b9 203c
00000070: 799e 933c 4346 6dbc 615d ca3d e0d5 a43d
00000080: 1702 0fba 5ade c63c 7187 3bbf 8a1b c13d
00000090: 36ac 283d e745 603d 6144 4d3d ad31 853e
000000a0: ffbc 7dbc 45de 8bbd 30f4 803c aa3d 10bf
000000b0: db60 2a3d 3644 e23d 02a9 adbe 2fcf dd3d
000000c0: 7d03 573e 27bb 25bd 0e11 a43d 50cb 8b3c
000000d0: 51e3 0d3d cd56 f3bc 1bee 49be b782 5bbc
000000e0: 6bd5 a43d 6541 b9be 0492 3bbd fe74 be3d
000000f0: e023 42bc 1c60 a03d f308 b33d 2931 93bd
00000100: 1076 4f3d 2214 ac3e 1a8f d2be 2dc5 433e
00000110: ae11 b53d fba3 413e 79dd d73d 86a1 92bd
00000120: f0b6 9ebd 82aa 31bd 5910 d03d 1605 04bc
00000130: d7da 0fbd 0fb7 4fbc c461 a4bc e8bd 3c3e
00000140: f97e 2c3e a576 8abc 62bd 903d 51fc 063d
00000150: 0593 2b3e b092 4cbd 16df a03d 20ce 91bc
00000160: e0b1 df3b 6ed8 9fbc 23ff bbbd 3271 15bd
00000170: 3c9b 123e 59fd be3d 9c1f 5f3d 7aea 01be
00000180: 1d36 743c e24c debd fcc1 3abf 78db f1bd
00000190: 9e92 873d 5d19 1b3c bdc4 833d 6a30 0f3e
000001a0: cc6e abbb ac3b 27bd 3015 f1bc 1a94 b5be
000001b0: 81ff fdbd d469 bcbd ab64 49bf 5019 97bc
000001c0: 5c10 e23d 4869 ec3c afeb 7a3d 745b a83d
000001d0: 94f6 f4bd 336d 3dbe 2315 84be 7a02 fdbd
000001e0: ba39 993d 451a 87be 4ea5 90bd 1e0a 923d
000001f0: ecf3 73bd 1a82 fb3b c43b d63d 479a 343d
00000200: 8dbf 59bd f18d b43d 9f88 b83c 7de5 273d
00000210: 9028 90bd 7528 c23d 8b55 cebd 8c6a ef3a
00000220: 5208 e83d c0bd ff3b 7a8c 633d 08c5 d53d
00000230: 2149 873d 41a5 a4bd 4677 55bd 1d1f cfbd
00000240: 3ef8 863d 6e5c b7bd ef1d 47bd b0cb b1bd
00000250: 52cf cabc 90cf cebc 7e9b a1bd 4f4c b63d
00000260: 088b 013d 5f9d 9c3d 9c49 b33d 8630 ddbd
00000270: e21f 90bd 9e5b 813c 4887 25bd 775d feb9
00000280: 4fbe cebd c0d9 bc3d 4b7c a5bd 607b e1bd
00000290: ac46 9d3c 734d 04be d68b 28bd 1b42 c83c
000002a0: a9da ddbd 0a56 9dbd 90d6 383c 8efb f7bc
000002b0: c23e e13d f4bb c73d f4d2 273d 7032 ab3d
000002c0: a42d 0cbd 65e5 17bd 401f c3bb 02ae 39bc
000002d0: 3524 933d 09bb a13c f43c 823d d6a9 89bb
000002e0: 8e75 2f3d 2b57 113c 1008 153d 87aa 91bd
000002f0: a009 f93c 3be9 1e3d af6d b43d 0e1c 5b3d
00000300: 43da 723d 263b 86bd e4d2 8c3d 6874 063d
00000310: 60fb de3b 1314 adbd 90f0 e2bb 3210 ffbd
00000320: 152c 8b3d 1ec4 00be ebad 0cbe bf64 53bd
00000330: c998 e53d b25d 00bd 1d2f 2a3d 7486 bbbd
00000340: 5e5a 74bd ffe8 efbd 1416 e8bd 7207 56bd
00000350: ce2a bbbd e1a7 3d3c d4a7 e4bd c9a3 a7bd
00000360: acf4 56bd f91e a1bd ce93 16bd 8e76 923d
00000370: abcc 0fbe 156c f1bd 269d 053d fba5 d4bd
00000380: a50b 10be ddff a6bd c0ac acbd 36c0 053d
00000390: 6de3 ad3b 2a08 883d 9b57 273d c734 5b3c
000003a0: 6133 633c d8fe 8a3c 16df 9cbd f947 1ebe
000003b0: 34df fbbd 2cab 2dbd b610 5cbd c45e 703d
000003c0: 9fdf fcbd 7d20 803d 503b d9bd af9b da3d
000003d0: 330f a6bd bd55 95bd 81fc b33d 80ba 40bc
000003e0: a78f 21bd 2de7 133c bc54 b2bd 5bf1 9abd
000003f0: a04a d03d 3bb6 bb3d 16fc 6abd 30f6 f9bd

hidden_layer_2.bias f4 [64]
0.032819554 0.018999899 -0.11243512 0.049136147 -0.06646827 -0.061745554 0.106129326 0.0005094742
0.07671152 -0.04163155 0.122869916 -0.04314889 -0.05100646 0.0846989 0.12787619 0.0028793565
-0.060961816 0.017611252 0.12384889 0.012267419 -0.027919138 -0.13508603 0.0016397274 -0.13909896
-0.09843276 -0.010322735 -0.0047140014 -0.0077269585 0.04933879 0.108867 0.09475082 -0.056565396
-0.029372994 0.18084474 -0.13462053 0.074557245 -0.04440863 -0.009978195 -0.027041974 -0.12512948
0.15350012 0.124010384 0.011961862 -0.053457707 0.2124722 0.06820172 -0.0089139 0.10125073
-0.1346036 0.18984197 0.0894433 0.1730915 0.14065263 -0.12163877 -0.017979454 -0.05123082
0.050277524 0.03832535 0.026153661 0.0867968 0.05581253 0.06935424 -0.09245098 -0.05048456
00000000: cc6d 063d ada5 9b3c 6244 e6bd fc42 493d
00000010: 8420 88bd e8e8 7cbd 555a d93d 3c8e 053a
00000020: ee1a 9d3d d885 2abd 39a3 fb3d e4bc 30bd
00000030: 26ec 50bd 9e76 ad3d faf1 023e 96b3 3c3b
00000040: 19b3 79bd 7945 903c 7da4 fd3d 49fd 483c
00000050: adb6 e4bc fe53 0abe 1fec d63a f56f 0ebe
00000060: 1d97 c9bd b020 29bc e977 9abb 6d32 fdbb
00000070: 7917 4a3d a9f5 de3d b80c c23d 1eb1 67bd
00000080: a29f f0bc 5d2f 393e f7d9 09be 78b1 983d
00000090: d3e5 35bd 957b 23bc 2187 ddbc f121 00be
000000a0: 232f 1d3e 28f9 fd3d b0fb 433c 78f6 5abd
000000b0: 5092 593e 58ad 8b3d 9b0b 12bc 8b5c cf3d
000000c0: 87d5 09be ef65 423e 0d2e b73d e63e 313e
000000d0: 3e07 103e bf1d f9bd a649 93bc 69d7 51bd
000000e0: ceef 4d3d 0bfb 1c3d 3440 d63c 85c2 b13d
000000f0: ae9b 643d 9909 8e3d f056 bdbd e6c8 4ebd

output_layer.weight f4 [2, 64]
0.10649437 -0.024594296 0.06897138 0.0079546375 -0.114829585 0.48666352 -0.06077412 -0.19406977
-0.21832463 0.093250796 0.09715337 -0.023681596 0.13424283 -0.25213835 0.08233735 -0.14545421
0.085256085 0.06534699 -0.16087013 0.033153206 0.05718967 0.04196496 -0.06555444 -0.01483731
0.08342024 -0.083149284 -0.10120163 -0.14731586 -0.21950398 -0.09825283 -0.14026931 -0.10759995
-0.24179474 -0.11518863 -0.05679936 -0.113661654 0.10126288 -0.17973231 -0.06631751 0.32998255
-0.16865164 -0.17386639 0.03976458 0.120908305 -0.35232612 -0.04509065 -0.22092809 -0.11484087
0.09607748 -0.09080627 -0.10521449 -0.10856135 -0.032848984 -0.0910153 0.071064495 -0.07971689
-0.05062476 -0.093479164 0.09312632 0.080284216 -0.15511255 0.24894904 -0.09309536 0.09925149
-0.31314093 -0.33010915 0.069532454 -0.005113673 0.021934599 0.19203807 0.10036981 -0.14908515
-0.11095532 0.026135534 -0.18508053 0.11459267 0.27584085 0.04859321 -0.07150208 -0.20470038
0.045219295 0.4159325 -0.035841983 0.05772241 -0.04280491 -0.059615392 -0.20187742 0.048552513
-0.033148542 -0.08780411 -0.15964861 -0.16851513 0.07336861 -0.10499203 0.2783286 -0.11297002
-0.1764876 -0.10254843 0.041408353 -0.16718927 -0.08135726 -0.08728653 0.13974416 0.1095851
-0.21445243 -0.01659485 -0.25704905 0.10248852 0.18683131 0.091387 0.036753554 -0.3088386
-0.09724312 -0.18871658 -0.1334114 -0.14121845 -0.17891812 -0.031972203 0.07952794 0.093365125
0.23298559 -0.16403724 -0.023770794 -0.080215506 -0.02126353 0.13045931 -0.045317903 0.10779775
00000000: b819 da3d fa79 c9bc de40 8d3d 2b54 023c
00000010: c62b ebbd f62b f93e 49ee 78bd 3aba 46be
00000020: 7e90 5fbe 46fa be3d 59f8 c63d e8ff c1bc
00000030: f476 093e 4718 81be 7ca0 a83d f3f1 14be
00000040: be9a ae3d a5d4 853d 24bb 24be a8cb 073d
00000050: b73f 6a3d 73e3 2b3d 6841 86bd 3018 73bc
00000060: 3bd8 aa3d 2c4a aabd cd42 cfbd f8d9 16be
00000070: a7c5 60be c838 c9bd c2a2 0fbe 5d5d dcbd
00000080: 0a99 77be 04e8 ebbd 72a6 68bd 71c7 e8bd
00000090: ea62 cf3d bf0b 38be 7ad1 87bd 79f3 a83e
000000a0: 04b3 2cbe 080a 32be 2fe0 223d c69e f73d
000000b0: 1764 b4be f9b0 38bd f93a 62be b131 ebbd
000000c0: 45c4 c43d a3f8 b9bd b27a d7bd 6a55 debd
000000d0: a88c 06bd 3b66 babd 438a 913d 9c42 a3bd
000000e0: e95b 4fbd 0172 bfbd 03b9 be3d 0d6c a43d
000000f0: d3d5 1ebe 7fec 7e3e c8a8 bebd 5d44 cb3d
00000100: 0254 a0be 1104 a9be 0867 8e3d 9990 a7bb
00000110: 30b0 b33c a1a5 443e b08e cd3d c7a9 18be
00000120: 8b3c e3bd 301a d63c c085 3dbe 90af ea3d
00000130: 033b 8d3e ac09 473d af6f 92bd fa9c 51be
00000140: de37 393d 1bf5 d43e 0bcf 12bd 556e 6c3d
00000150: 3454 2fbd 452f 74bd f4b8 4ebe 00df 463d
00000160: c4c6 07bd a4d2 b3bd ed7a 23be 3b8f 2cbe
00000170: 4842 963d 1006 d7bd 1681 8e3e d35c e7bd
00000180: 2ab9 34be e904 d2bd ce9b 293d aa33 2bbe
00000190: a39e a6bd 48c3 b2bd 1819 0f3e 276e e03d
000001a0: 6b99 5bbe ecf1 87bc ef9b 83be 80e5 d13d
000001b0: b550 3f3e 1c29 bb3d e58a 163d 1820 9ebe
000001c0: 6727 c7bd eb3e 41be ff9c 08be 929b 10be
000001d0: 5036 37be 49f5 02bd 8bdf a23d 3736 bf3d
000001e0: c693 6e3e 61f9 27be f8ba c2bc 0748 a4bd
000001f0: db30 aebc 2097 053e 449f 39bd 11c5 dc3d

output_layer.bias f4 [2]
-0.11600012 -0.097752035
00000000: 7991 edbd 3832 c8bd
