DQN - CartPole/data/Apprentice 7.pt (torch, 38460 bytes, 8 tensors)

input_layer.weight f4 [64, 4]
0	0x3e4ec725	0.20193155
1	0x3ee06402	0.438263
2	0x3f000ca4	0.5001929
3	0x3e098e79	0.13433255
4	0x3e797424	0.2436071
5	0x3ec3de2c	0.3825544
6	0xbe119125	-0.14215524
7	0xbeebe5f7	-0.46073887
8	0x3e0b7af5	0.13621123
9	0xbe3adae8	-0.18247569
10	0x3e84b84b	0.25921854
11	0xbf09e678	-0.5386729
12	0x3e9287bc	0.28619182
13	0xbdce0647	-0.10059791
14	0xbed0e4e4	-0.4079963
15	0xbd1bfd8e	-0.038083605
16	0xbf1396f0	-0.5765219
17	0x3e9fd5d1	0.31217816
18	0xbdec7aa9	-0.11546833
19	0xbea664ee	-0.32498878
20	0x3e9f5fff	0.31127927
21	0xbe828230	-0.2548995
22	0x3da6a27c	0.0813646
23	0xbe88f805	-0.26751724
24	0xbedf1ccc	-0.43576658
25	0xbd9cba50	-0.07652724
26	0xbe045898	-0.12924421
27	0xbe5850d8	-0.2112459
28	0xbec74b4f	-0.38924643
29	0x3e183bbc	0.14866537
30	0x3eb24d9a	0.3482483
31	0x3f0eb30b	0.5574195
32	0xbd0596f9	-0.032614682
33	0xbdc9e869	-0.09858782
34	0x3f0ea270	0.5571661
35	0xbe870021	-0.26367286
36	0xbe55c40b	-0.20875566
37	0xbe68b71b	-0.22726099
38	0xbf1565b3	-0.58358306
39	0x3ee32da2	0.44370753
40	0xbf0170be	-0.50562656
41	0xbe2a0ac8	-0.16605675
42	0x3f0d949d	0.5530489
43	0xbf11bb06	-0.56926
44	0xbf013419	-0.5047012
45	0xbcf5e8d4	-0.030018248
46	0x3db7d7ca	0.08976705
47	0xbeefae8b	-0.46812853
48	0x3ba192b4	0.0049308185
49	0x3efc89f0	0.49323988
50	0xbda429f0	-0.080158114
51	0x3bc0a4dd	0.0058790282
52	0xbe86e968	-0.2634995
53	0xbeb8aed2	-0.36070877
54	0xbe2f9ddc	-0.17150062
55	0xbe0f3f40	-0.13988972
56	0xbea6bb46	-0.32564753
57	0x3ed6f94d	0.41987076
58	0xbea5eee6	-0.32408828
59	0xbe0b44d6	-0.13600478
60	0xbe4c043c	-0.1992349
61	0xbd9f5dd8	-0.07781571
62	0x3e4ebba8	0.20188773
63	0xbdc2aa10	-0.09505093
64	0x3e8b8c21	0.27255347
65	0x3edcf462	0.431552
66	0x3e9e9d80	0.30979538
67	0xbeecc8f5	-0.46247068
68	0xbf1d7407	-0.6150517
69	0xbeee2c4b	-0.46518168
70	0x3f4e9539	0.80696446
71	0x3e2ff1f7	0.17182146
72	0xbf13e7a1	-0.5777531
73	0x3ec0b648	0.3763907
74	0xbe345a27	-0.17612515
75	0xbeee4d58	-0.46543384
76	0xbf006c31	-0.50165087
77	0x3eb76c63	0.3582488
78	0x3ed73242	0.4203053
79	0xbece9b97	-0.4035308
80	0x3f03723d	0.5134619
81	0xbe4dc14b	-0.20093267
82	0x3ceaf6a3	0.028682059
83	0x3dad2325	0.08453969
84	0x3f12acd4	0.57294965
85	0xbeb36d74	-0.35044444
86	0x3e95f509	0.2928851
87	0x3f372edc	0.71555877
88	0xbf368596	-0.71297586
89	0xbf08b901	-0.53407294
90	0x3e503770	0.20333648
91	0xbcd73197	-0.026268763
92	0x3e6a64ed	0.22890063
93	0x3d37f266	0.044908904
94	0x3e0ad60a	0.13558212
95	0x3d143edb	0.036192756
96	0xbd46bc45	-0.04851939
97	0x3edc76ef	0.4305949
98	0xbe371303	-0.17878346
99	0xbeec916c	-0.46204698
100	0xbe49f7f8	-0.19723499
101	0xbeef5589	-0.46744946
102	0xbd88be9d	-0.066769816
103	0x3f36dfa1	0.7143498
104	0xbebadbd0	-0.3649583
105	0xbe5fb74e	-0.21847269
106	0x3e2d685f	0.16934346
107	0xbe928029	-0.28613403
108	0xbe89fa39	-0.26948717
109	0xbe72775e	-0.23678347
110	0x3e83836a	0.25686198
111	0x3f1420f0	0.5786276
112	0x3ee84b5f	0.45370004
113	0xbf497913	-0.7870037
114	0xbe319d6e	-0.17345211
115	0x3f431b9b	0.76214
116	0x3e3e77a8	0.18600333
117	0x3db028fe	0.08601569
118	0x3e8ead02	0.2786637
119	0xbed333e9	-0.41250542
120	0xbebbe0b9	-0.36694887
121	0xbedca130	-0.43091726
122	0xbd637ca2	-0.05553878
123	0x3f125f86	0.5717701
124	0x3dcd4af3	0.10024061
125	0x3d0344de	0.0320481
126	0x3ebcffbe	0.36913866
127	0xbe0e2c2f	-0.13884042
128	0xbe621eea	-0.22082105
129	0x3eb52f71	0.35387757
130	0xbe92ef21	-0.28698066
131	0xbf12c241	-0.5732766
132	0xbe0b31f8	-0.1359328
133	0x3e2fc393	0.1716445
134	0x3ed70892	0.41998726
135	0xbecd9745	-0.40154472
136	0x3db11ce0	0.086480856
137	0x3efb9e52	0.49144226
138	0xbceb29e0	-0.028706491
139	0x3e8bcc7c	0.27304447
140	0xbed3e035	-0.41381994
141	0xbe26864b	-0.16262166
142	0x3e3d5916	0.18491015
143	0xbf051edb	-0.52000207
144	0xbeb2cd84	-0.3492242
145	0xbed01d1f	-0.40647218
146	0xbeb43a18	-0.35200572
147	0x3ea55cf7	0.3229749
148	0xbea6f424	-0.3260814
149	0x3e16a0e0	0.14709806
150	0x3cffe580	0.031237364
151	0x3e49c5b8	0.1970433
152	0x3e61dfde	0.22058055
153	0xbe63ef55	-0.22259267
154	0x3f2c9c7f	0.67426294
155	0x3e3a89eb	0.18216674
156	0xbf229dfd	-0.6352232
157	0x3ee88cb2	0.45419842
158	0xbec4c2ca	-0.38429862
159	0xbde82b93	-0.11336436
160	0x3e8fdc3a	0.28097707
161	0x3ec76bdd	0.3894948
162	0x3e8528cc	0.26007688
163	0x3dcf35e5	0.101177014
164	0xbd955406	-0.07291417
165	0x3e47c3b9	0.19508256
166	0x3f0cf153	0.5505573
167	0x3f13aa92	0.57682145
168	0x3f23ba71	0.6395636
169	0xbe32eace	-0.17472383
170	0xbfaa2ee6	-1.3295562
171	0x3edcae0a	0.4310153
172	0x3e18a197	0.14905392
173	0xbe8414de	-0.2579717
174	0xbed0d54e	-0.4078774
175	0x3ee43268	0.44569707
176	0xbf2382f3	-0.6387169
177	0xbe98ee35	-0.29869238
178	0xbdfc96bf	-0.1233344
179	0xbee1d1ae	-0.44105285
180	0xbeac38b3	-0.33637008
181	0xbf03e5cc	-0.5152252
182	0x3f38a405	0.72125274
183	0x3efacb8d	0.48983422
184	0xbde6441a	-0.11243458
185	0xbc04a800	-0.008096695
186	0x3f12d821	0.57361037
187	0x3f474f5a	0.77855456
188	0x3e93e4f1	0.28885606
189	0x3ee31095	0.4434859
190	0x3f16d043	0.5891153
191	0xbeaf6f97	-0.34264824
192	0xbf066bec	-0.52508426
193	0x3d2132de	0.03935515
194	0x3eacfb96	0.33785695
195	0x3ee0ff79	0.4394491
196	0xbe15dbdc	-0.14634651
197	0x3df0270f	0.117262
198	0xbe1f3dd7	-0.15550934
199	0xbe95ea32	-0.2928024
200	0xbc0592a3	-0.008152637
201	0x3f09c4a6	0.53815687
202	0x3e5fb9d8	0.21848238
203	0xbedac86c	-0.42731035
204	0xbee92918	-0.45539165
205	0xbf2a4d4c	-0.66524196
206	0xbdd8ce38	-0.10586208
207	0x3f3b79cc	0.7323272
208	0xbe5f22d5	-0.21790631
209	0x3ed1a563	0.40946493
210	0xbeb1a94a	-0.3469947
211	0xbe037a4f	-0.12839626
212	0xbef30c7c	-0.47470462
213	0xbeee77d0	-0.46575785
214	0x3d3c60e1	0.04599083
215	0x3f2d7834	0.6776154
216	0xbad0e800	-0.0015938282
217	0x3e45defc	0.19323343
218	0xbe9c44b6	-0.30521172
219	0x3e7cd4a4	0.24690491
220	0xbbd0b82a	-0.0063696103
221	0xbe143953	-0.14474992
222	0xbc7b3389	-0.015332111
223	0x3b9f3e56	0.004859726
224	0xbc04a5bc	-0.008096155
225	0x3eabecfc	0.33579242
226	0x3e24c291	0.16089846
227	0x3f165349	0.58720833
228	0xbeb90c50	-0.36142206
229	0xbec3a685	-0.38212982
230	0xbd047374	-0.032336667
231	0xbe697dc6	-0.22801885
232	0x3e1ccd04	0.15312582
233	0x3ee9d730	0.45671988
234	0xbe73dc10	-0.23814416
235	0x3e918442	0.28421217
236	0xbecd38da	-0.40082437
237	0x3ee595de	0.44840902
238	0xbeb3e9e4	-0.35139382
239	0x3ea987b5	0.3311135
240	0xbd9c0815	-0.07618729
241	0x3e3905e5	0.18068655
242	0xbe16f5b4	-0.14742166
243	0x3e1a7798	0.15084684
244	0x3e9c7c8d	0.30563775
245	0x3eae44ed	0.3403696
246	0xbeaca38d	-0.3371853
247	0xbdffa8fe	-0.124834046
248	0x3cba5d00	0.022749424
249	0x3b930080	0.0044861436
250	0xbec1dacc	-0.3786224
251	0x3e1e2be0	0.15446424
252	0xbe3245dc	-0.17409462
253	0x3ecba6f8	0.39775825
254	0xbd03a344	-0.032138124
255	0xbf143685	-0.5789569

input_layer.bias f4 [64]
0	0x3e2b2dea	0.16716734
1	0x3e1522c6	0.14564046
2	0x3f1106a8	0.5665078
3	0xbe07b745	-0.13253506
4	0x3dc762a3	0.0973561
5	0x3f337adf	0.7010936
6	0xbee525f8	-0.4475553
7	0xbeadfbba	-0.33981115
8	0x3f227668	0.63461924
9	0x3c742d71	0.014903412
10	0x3e97e56a	0.29667217
11	0x3ed69f30	0.41918325
12	0x3e45f3ea	0.19331327
13	0x3f2b32ad	0.668742
14	0x3e933161	0.2874861
15	0xbe39b760	-0.18136358
16	0xbe6c31fe	-0.23065946
17	0x3ae20197	0.0017242905
18	0xbea2675c	-0.31719482
19	0xbe9fbf11	-0.3120046
20	0x3f333491	0.70002085
21	0xbd194385	-0.037417907
22	0xbeabe166	-0.33570403
23	0x3ef94013	0.48681697
24	0x3e84280c	0.25811803
25	0x3ba5cef4	0.005060071
26	0x3e6c7962	0.23093179
27	0xbc27a35f	-0.010231822
28	0x3c4c23ff	0.012459754
29	0x3ccaa5e4	0.024737306
30	0x3b2b11f8	0.002610324
31	0x3eb4bb7d	0.35299292
32	0xbe248604	-0.16066748
33	0x3e29b882	0.1657429
34	0xbe8fcd20	-0.28086185
35	0x3f38c044	0.72168374
36	0x3d71f264	0.059069052
37	0xbec6045e	-0.38675207
38	0xbea34abe	-0.3189296
39	0x3f0e04e1	0.55476195
40	0x3f38e4fd	0.7222441
41	0xbea8f344	-0.32998097
42	0x3ef45eb5	0.47728506
43	0x3d034530	0.032048404
44	0x3f26f9ea	0.6522509
45	0x3d2f9b25	0.042872567
46	0x3abbeeff	0.0014338194
47	0xbe7d5b07	-0.24741755
48	0xbe5d9ace	-0.21641085
49	0x3f0c3749	0.5477186
50	0x3f2a6d8e	0.6657342
51	0x3d7d0bef	0.06177896
52	0xbeca72d6	-0.39540738
53	0xbccf080a	-0.025272388
54	0xbe91c9e8	-0.28474355
55	0x3ee54957	0.44782516
56	0xbe70dc83	-0.23521619
57	0x3e5bad15	0.21452744
58	0xbed977d8	-0.42474246
59	0xbdc73c7d	-0.09728334
60	0x3eaf2a3f	0.3421192
61	0xbe1e5a5f	-0.15464161
62	0xbef16000	-0.47143555
63	0xbdb8f072	-0.09030236

hidden_layer_1.weight f4 [64, 64]
0	0xbe0ec2aa	-0.13941446
1	0x3c1bb9f0	0.00950478
2	0xbdb1a01c	-0.086731166
3	0x3da50842	0.08058216
4	0xbdd57668	-0.10422975
5	0xbdeb90a7	-0.115021996
6	0xbd4f8e18	-0.05067262
7	0xbd1e2c67	-0.038616564
8	0xbc691532	-0.014226245
9	0x3dd8bb17	0.105825596
10	0xbdb69724	-0.089155465
11	0xbd2b7d7f	-0.04186773
12	0x3d4157c4	0.04720284
13	0xbdf58349	-0.11987931
14	0xbdf6cbb1	-0.1205057
15	0xbc1f4c90	-0.009722844
16	0x3db70378	0.089362085
17	0xbd601b18	-0.05471334
18	0x3defcd22	0.11709048
19	0x3a23f000	0.00062537193
20	0xbd58b2c4	-0.05290486
21	0xbd27e7a9	-0.040992413
22	0xbd471113	-0.048600268
23	0x3b1b5772	0.0023703245
24	0xbcb2a590	-0.021807462
25	0xbc5ec8ec	-0.013597708
26	0x3d32c7fc	0.04364775
27	0x3d37b64b	0.044851582
28	0xbdf652e1	-0.12027527
29	0xbd4e3764	-0.050345793
30	0x3dae8b07	0.08522611
31	0xba38393b	-0.0007027571
32	0xbca812a8	-0.020516708
33	0xbd90ff1c	-0.07079908
34	0x3df7a388	0.12091738
35	0xbd8a4925	-0.067522325
36	0xbc7d4f2c	-0.015460771
37	0x3de2f65a	0.11082144
38	0xbdb21775	-0.0869588
39	0xbde3401d	-0.11096213
40	0xbbcf5779	-0.006327566
41	0x3df68020	0.12036157
42	0xbd4c3403	-0.04985429
43	0x3d677260	0.05650556
44	0xbd66cd4b	-0.056348126
45	0x3dec94ce	0.1155182
46	0xbdac8b9e	-0.08425067
47	0x3cf49098	0.029854104
48	0x3de50196	0.11181943
49	0x3d86dbaf	0.0658487
50	0xbda9161f	-0.082561724
51	0x3d6f0d09	0.05836204
52	0xbd5f0e9c	-0.054457292
53	0xbd3a8f77	-0.045546975
54	0x3da80186	0.082034156
55	0x3c4a8295	0.012360235
56	0x3d5c7b69	0.05382863
57	0xbde7f681	-0.11326314
58	0x3dc9876a	0.09840281
59	0x3de35088	0.110993445
60	0x3d458833	0.048225593
61	0xbd218edc	-0.039442882
62	0xbdbeddfc	-0.09319684
63	0xbdc4fe74	-0.096188456
64	0x3e6afd4a	0.22948185
65	0x3e2a3129	0.16620316
66	0x3e48aa01	0.19596101
67	0xbb78739a	-0.00379107
68	0x3e5b4eb4	0.21416742
69	0x3e484226	0.19556484
70	0xbdfa044e	-0.12207852
71	0xbe86bdcb	-0.26316676
72	0x3d93cc2c	0.07216677
73	0x3e219120	0.15778017
74	0x3d82b463	0.06382062
75	0x3e7134a3	0.23555236
76	0x3def426a	0.11682589
77	0x3e998c2a	0.2998975
78	0x3d273904	0.04082586
79	0x3d5b61e0	0.053560138
80	0xbc5344cb	-0.0128948195
81	0x3e34afaf	0.17645143
82	0x3dc1a1e7	0.094547085
83	0xbd5a86f5	-0.05335136
84	0x3e486989	0.19571508
85	0x3e05b074	0.13055593
86	0xbec37ec4	-0.38182652
87	0x3d70ca34	0.058786586
88	0x3e575ba3	0.2103105
89	0x3e6b5bd1	0.22984244
90	0x3e104899	0.14090194
91	0x3e8ec43a	0.27884084
92	0x3ef70655	0.48247018
93	0x3e6e41af	0.23267244
94	0x3ea1bed6	0.3159091
95	0x3e17170b	0.14754884
96	0x3c46a646	0.012124604
97	0x3e232532	0.15932158
98	0x39339400	0.00017125905
99	0x3e849551	0.2589517
100	0xbd31d139	-0.04341242
101	0xbc9cd330	-0.01914367
102	0xbe92a2a5	-0.28639713
103	0x3dd5525b	0.10416099
104	0x3e32f1c5	0.1747504
105	0xbe8b0357	-0.27150986
106	0x3e18fc94	0.14940101
107	0x3ec4ef0e	0.38463634
108	0x3e54d0a0	0.20782709
109	0x3e408410	0.18800378
110	0x3d41bbe1	0.047298316
111	0x3d9c66d1	0.07636798
112	0xbecd55d4	-0.40104544
113	0x3e7518bb	0.23935215
114	0x3d7f93af	0.0623967
115	0x3e456ea8	0.19280493
116	0x3dc6a3f2	0.09699239
117	0x3e8c080e	0.27349895
118	0x3d67f8fc	0.056633934
119	0x3e0af67c	0.13570589
120	0xbdcd5cfe	-0.100275025
121	0x3e4a44f8	0.19752872
122	0xbdde66ca	-0.10859449
123	0x3dfafedd	0.122556426
124	0x3e1bcfb3	0.1521595
125	0x3d130287	0.035891082
126	0xbdeb3d24	-0.11486271
127	0x3e4209c7	0.18949042
128	0xbbf39000	-0.0074329376
129	0xbdb19adc	-0.08672115
130	0xbda35f0c	-0.07977113
131	0x3d3e624c	0.046480462
132	0x3d8670ee	0.065645084
133	0xbe0c62bd	-0.1370954
134	0x3ded14ac	0.115762085
135	0x3c40cd0d	0.011767638
136	0x3da66c3a	0.08126111
137	0x3d8dd629	0.069256134
138	0x3d789388	0.06068757
139	0xbced75f8	-0.028986916
140	0x3dc350e6	0.095369145
141	0xbb727e06	-0.0037001385
142	0xbd248c98	-0.040173143
143	0x3db88eec	0.09011635
144	0x3bcce180	0.0062524676
145	0xbd92f85b	-0.07176276
146	0xbd90e20a	-0.070743635
147	0xbd2aa950	-0.041665375
148	0xbd4a8922	-0.049447186
149	0x3d0a0f6f	0.033706125
150	0xbcedb7d4	-0.02901832
151	0x3c0738b6	0.008253267
152	0xbd9f810a	-0.07788284
153	0xbd911d24	-0.07085636
154	0x3d89996a	0.067187145
155	0x3db068f4	0.08613768
156	0xbdfc1bb8	-0.123099744
157	0x3d66c7fc	0.056343064
158	0x3d1c180a	0.038108863
159	0x3dcc5068	0.09976274
160	0xbd5eed10	-0.0544253
161	0x3dd0af9c	0.10189745
162	0x3cee6ff0	0.02910611
163	0x3d6fec1c	0.05857478
164	0x3d704bc0	0.05866599
165	0xbdd9c750	-0.10633719
166	0x3dc2f08e	0.095185384
167	0x3d98acb4	0.074548155
168	0xbe0b729e	-0.13617942
169	0xbd3c44a4	-0.0459639
170	0xbd1b8614	-0.037969664
171	0xbd242bda	-0.040080883
172	0xbd4ed850	-0.05049926
173	0xbdef7998	-0.11693114
174	0xbc4a4dba	-0.012347633
175	0x3d3295c0	0.043599844
176	0x3d66ef6c	0.056380674
177	0x3dbac0d0	0.09118807
178	0xbdb8fb56	-0.090323135
179	0x3d4c871a	0.04993353
180	0xbdf9d216	-0.12198274
181	0x3d65fc71	0.05614895
182	0x3cb796c0	0.02241075
183	0xbe0a6b2f	-0.1351745
184	0x3db745f3	0.08948889
185	0xbdc2bca6	-0.09508638
186	0xbd12d688	-0.035849124
187	0xbd2c78db	-0.042107444
188	0xbd70a06f	-0.05874675
189	0x3c91fc38	0.017820463
190	0xbc9c9768	-0.019115165
191	0x3db2ba32	0.0872692
192	0x3e0b7b5c	0.13621277
193	0x3d664611	0.056219164
194	0x3e994fd7	0.29943725
195	0x3c54b39e	0.012982277
196	0x3c908d57	0.017645521
197	0x3ead4795	0.33843675
198	0x3ca62110	0.020279437
199	0xbe9f7fed	-0.31152287
200	0x3e80641c	0.25076377
201	0x3e8db3c3	0.2767621
202	0x3e303f49	0.17211641
203	0x3e8641d3	0.26222095
204	0x3da92f7b	0.08261009
205	0x3e7a715b	0.24457304
206	0x3e365b4b	0.17808263
207	0x3dd0463a	0.10169645
208	0x3cd91f3c	0.026504152
209	0xbd87f240	-0.066380024
210	0xbbb0d032	-0.0053959126
211	0xbdae27f7	-0.085037164
212	0x3ea2208b	0.31665453
213	0x3ece0ad2	0.4024263
214	0xbeb17e2a	-0.34666568
215	0x3eaa8357	0.3330333
216	0x3e769e27	0.24083768
217	0x3e28b335	0.16474612
218	0x3d8be60a	0.06830986
219	0x3dd92e40	0.106045246
220	0x3e94d321	0.2906733
221	0x3d9ded7e	0.07711314
222	0x3e9767ac	0.29571283
223	0x3e68f53f	0.22749804
224	0xbda7c2d2	-0.08191456
225	0x3d175995	0.036950666
226	0xbcd5b1e0	-0.026085794
227	0x3e18bfaa	0.14916864
228	0x3dda124f	0.10648023
229	0xbdef5ff2	-0.11688222
230	0xbdf065bf	-0.117381565
231	0x3e56dd29	0.20982803
232	0x3eb83762	0.35979754
233	0xbed2d234	-0.41175997
234	0x3ea207fa	0.3164671
235	0x3e65ecd4	0.22453624
236	0x3df2633a	0.11835332
237	0xbc87a5cf	-0.016558556
238	0x3e163f5b	0.14672606
239	0x3ccf8666	0.02533264
240	0xbeed9063	-0.4639922
241	0x3e5ded73	0.21672611
242	0x3da0206f	0.07818686
243	0x3e42ca58	0.190225
244	0xbe37ba96	-0.1794227
245	0x3d180c02	0.037120827
246	0xbda31afe	-0.07964133
247	0x3e9216d7	0.2853305
248	0xbe5f813a	-0.2182664
249	0x3e81287b	0.25226197
250	0x3dacb496	0.084328815
251	0xbd97d3f2	-0.07413472
252	0x3e4c03a8	0.1992327
253	0xbd90a6bb	-0.07063051
254	0x3da63984	0.08116439
255	0xbd34d93e	-0.04415249

hidden_layer_1.bias f4 [64]
0	0xbdf4ec29	-0.119591065
1	0x3dd6eb31	0.10494078
2	0xbdabef34	-0.08395234
3	0x3e9831ae	0.29725403
4	0xbdd99978	-0.10624975
5	0x3e9f3818	0.31097484
6	0x3dfd74e4	0.12375811
7	0x3e8acb2c	0.27108133
8	0x3e84fd19	0.25974348
9	0x3e642e92	0.2228339
10	0x3e96ac76	0.29428452
11	0x3e631bbb	0.22178547
12	0xbdfc7551	-0.12327064
13	0xbe03b574	-0.12862188
14	0x3e69e4f6	0.22841248
15	0x3e951dc7	0.2912428
16	0x3e4165a4	0.18886429
17	0x3e9a8471	0.3017917
18	0xbb70217c	-0.0036641052
19	0xbb8db17b	-0.004324136
20	0x3ea66b56	0.32503766
21	0x3eb3db03	0.3512803
22	0x3beb9383	0.0071892156
23	0x3e5d9133	0.2163742
24	0x3eb51637	0.3536851
25	0x3e4b4473	0.1985033
26	0x3eb099ea	0.34492427
27	0xbd86e176	-0.06585972
28	0xbc4ba6c0	-0.012429893
29	0x3e6d0ce2	0.23149446
30	0x3e658478	0.22413814
31	0x3d10faaf	0.03539532
32	0xbde5ad47	-0.11214691
33	0x3e6d4202	0.23169711
34	0xbd479e74	-0.048735097
35	0x3e442f23	0.19158606
36	0x3ebfac0b	0.37435946
37	0x3e4e8dfa	0.20171347
38	0x3dfc2cac	0.12313208
39	0x3d1e56cd	0.038657
40	0x3e4eda84	0.20200545
41	0xbdf9e827	-0.12202483
42	0x3eb7084b	0.35748515
43	0x3e315532	0.17317656
44	0x3e05209c	0.1300072
45	0xbcc50889	-0.024051921
46	0x3db46623	0.088085435
47	0x3eaa7670	0.33293486
48	0xbc8ab108	-0.016930118
49	0x3ce2f739	0.027705776
50	0xbdd054ee	-0.10172449
51	0xbd04d3a4	-0.0324284
52	0x3eb1b46d	0.34707966
53	0xbdd1afed	-0.10238633
54	0x3ec00c86	0.37509555
55	0x3e9d5518	0.30728984
56	0x3d8d3af6	0.068960115
57	0x3c72ff6a	0.014831403
58	0x3ea0e630	0.3142562
59	0x3e386806	0.18008432
60	0x3e98630b	0.29763064
61	0x3daf9b52	0.08574547
62	0x3eba95a6	0.36442298
63	0x3e7d22f7	0.2472037

hidden_layer_2.weight f4 [64, 64]
0	0xbc7dad00	-0.015483141
1	0xbd7c85e4	-0.061651126
2	0xbd569c7c	-0.05239533
3	0x3dc3b317	0.09555643
4	0x3de27d20	0.11059022
5	0x3d1c9fab	0.03823821
6	0xbd083cd3	-0.03326113
7	0xbc98d311	-0.018655332
8	0x3d9cea46	0.076618716
9	0xbc7eba2a	-0.015547315
10	0xbdc2455c	-0.094858855
11	0x3979256e	0.00023760434
12	0xbdc11358	-0.09427518
13	0x3cb203c8	0.021730319
14	0x3dbda8ae	0.09260689
15	0xbdac4493	-0.08411517
16	0xbced32ee	-0.02895495
17	0xbdb6ec64	-0.08931807
18	0x3d61ca6f	0.055124696
19	0x3d6bb37a	0.05754421
20	0xbd3675a7	-0.044545796
21	0x3d495b2f	0.049159225
22	0x3ce2ac51	0.027670057
23	0xbc8727a3	-0.016498392
24	0xbd3c2c81	-0.04594088
25	0x3db752fe	0.089513764
26	0xbda102e9	-0.07861883
27	0x3d929cae	0.071587905
28	0x3d353eb8	0.044249266
29	0x3dc8fc24	0.09813717
30	0x3d8f08c8	0.06984097
31	0xbd2a7938	-0.04161951
32	0xbdf0a42c	-0.11750063
33	0xbd220776	-0.039557897
34	0xbddad758	-0.10685605
35	0xbd85afd1	-0.06527675
36	0xbd88137f	-0.066443436
37	0xbc54b52f	-0.012982651
38	0x3cc5da34	0.024151899
39	0xbcc11313	-0.023568666
40	0xbdc6bc34	-0.09703866
41	0x3aba2e00	0.0014204383
42	0xbdeae6fe	-0.114698395
43	0xbd5e533f	-0.05427861
44	0x3d15d7b2	0.036582656
45	0x3db0a50e	0.08625232
46	0xbc663e66	-0.014052963
47	0x3ca19b15	0.01972727
48	0xbd9b8d49	-0.075953074
49	0xbdd31f6c	-0.103087276
50	0x3da77858	0.081772506
51	0xbcb5c520	-0.022188723
52	0xbe006a9a	-0.12540665
53	0xbd74b829	-0.05974594
54	0xbda0a7ff	-0.07844543
55	0x3dc75c20	0.09734368
56	0x3d94eb4b	0.07271441
57	0x3db22a47	0.0869947
58	0xbce0aaac	-0.027425133
59	0x3d9aaf57	0.07552975
60	0xbe0d3360	-0.1378913
61	0xbb9a8f20	-0.004716769
62	0xbd5f4a50	-0.05451423
63	0x3dbcdf91	0.092223294
64	0xbd33dfd0	-0.043914616
65	0x3d40731f	0.046984788
66	0x3ded512c	0.11587748
67	0x3da3baba	0.079946
68	0x3d64ebf4	0.055889085
69	0xbc7dd80d	-0.015493405
70	0x3cb425da	0.021990705
71	0xbc1b90f7	-0.0094950115
72	0xbcc73a95	-0.024319926
73	0x3d9aaba2	0.075522676
74	0x3dbc7ee3	0.09203889
75	0xbcad3197	-0.02114181
76	0x3d9a3dca	0.075313166
77	0xbceaf3d0	-0.028680712
78	0xbe03a0a1	-0.12854244
79	0x3d6af4f8	0.057362527
80	0xbd963a67	-0.07335358
81	0x3d3ef6cd	0.046622086
82	0xbdbb7d75	-0.091547884
83	0x3c377f07	0.011199719
84	0xbc1d2b5a	-0.009592855
85	0xbdf50230	-0.11963308
86	0x3d5d523a	0.054033495
87	0xbd6eebdb	-0.058330398
88	0xbd93f424	-0.072243005
89	0x3cc0961b	0.023509076
90	0x3d5b5c49	0.053554807
91	0x3df60afc	0.12013814
92	0x3c8b1390	0.016977102
93	0xbdaf5afc	-0.08562276
94	0x3d86c922	0.06581332
95	0x3c61ac50	0.013773993
96	0xbd5631f0	-0.052293718
97	0x3cd83be3	0.026395744
98	0x3cfda4e8	0.030962422
99	0xbd95c87a	-0.073136285
100	0x3b7112a1	0.0036784785
101	0xbdd8d8bb	-0.10588213
102	0x3bef990b	0.0073119453
103	0xbd2a0304	-0.041506782
104	0x3dbac579	0.09119696
105	0x3dc9d734	0.098555
106	0xbd9df5c3	-0.07712891
107	0x3d0b5cb4	0.034023955
108	0x3a8c943f	0.0010725333
109	0x3dd15baf	0.102225654
110	0xbe00ca53	-0.1257718
111	0xbd52ad22	-0.051434644
112	0xbd75528b	-0.059893172
113	0x3dcb8084	0.09936622
114	0x3cc274cf	0.02373734
115	0x3d121b2c	0.035670444
116	0xbe0ceb55	-0.13761647
117	0x3dc82df3	0.09774389
118	0x3dbb08c4	0.09132531
119	0x3dadf1ae	0.08493362
120	0xbd8f5252	-0.06998123
121	0x3d92fa65	0.07176665
122	0xbded2c6b	-0.11580738
123	0x3da52b9e	0.0806496
124	0xbda18594	-0.07886806
125	0xbc4d1ed0	-0.012519553
126	0xbe12508d	-0.1428854
127	0x3ca5a158	0.020218536
128	0xbd5d1ab8	-0.05398056
129	0x3e0bc054	0.13647586
130	0x3d200ed0	0.039076626
131	0x3e2e79bd	0.17038627
132	0xbd0ad57c	-0.033895
133	0x3dc758a5	0.097337045
134	0x3dea393b	0.11436697
135	0x3d8f8820	0.07008386
136	0xbc395f5e	-0.011314241
137	0x3d5c457d	0.053777207
138	0xbd8854db	-0.0665681
139	0x3dfc6b0a	0.123251036
140	0x3bf8cdda	0.007592899
141	0xbdd928c9	-0.10603482
142	0x3d3bb57e	0.04582738
143	0x3dbd2029	0.0923465
144	0x3c57f620	0.013181239
145	0x3d8d6ccd	0.06905518
146	0xbcda7252	-0.02666584
147	0x3e109dca	0.14122692
148	0x3cefe443	0.029283648
149	0x3c2e4a2f	0.010637804
150	0x3cd39da8	0.025832012
151	0xbd9271fd	-0.07150648
152	0xbc172998	-0.009226225
153	0x3e1ffb98	0.15623319
154	0x3dfba47d	0.12287233
155	0xbd3e1fb8	-0.046416968
156	0xbdc138c6	-0.09434657
157	0x3d08b5af	0.033376392
158	0xbc139321	-0.009007246
159	0x3a949174	0.0011334852
160	0x3bacbe78	0.005271729
161	0x3de4c637	0.11170619
162	0xbdb0cb42	-0.08632518
163	0x3d978096	0.07397573
164	0x3dbdfa31	0.09276236
165	0x3e2d38e1	0.16916229
166	0x3e7a6f13	0.24456434
167	0xbd3de2b0	-0.046358764
168	0xbb429c81	-0.0029695334
169	0xbd8e6d60	-0.069544554
170	0x3db9289f	0.09040951
171	0xbd92e738	-0.07173008
172	0x3e286403	0.16444401
173	0x3e00b54f	0.12569164
174	0x3dda9007	0.10672002
175	0x3d1875c5	0.03722169
176	0xbd999743	-0.07499554
177	0x3c54dbb0	0.012991831
178	0xbdb21466	-0.08695297
179	0x3da79f48	0.08184677
180	0x3e66776a	0.2250649
181	0x3db7ac74	0.0896844
182	0xbcc7c57b	-0.024386158
183	0x3e088e31	0.13335492
184	0x3c41c790	0.011827365
185	0x3dc88fce	0.097930536
186	0x3d5adfc7	0.053436067
187	0xbd98e3b9	-0.0746531
188	0x3d122545	0.035680074
189	0x3b9c6280	0.0047724843
190	0xba6084a4	-0.0008564687
191	0xbda6aba9	-0.0813821
192	0x3e0631ce	0.13104936
193	0xbc0ee3b0	-0.008721277
194	0xbe006f13	-0.12542371
195	0x3e0f4c69	0.13993992
196	0xbdfa9aac	-0.122365326
197	0x3e86a670	0.26298857
198	0x3e29f3bb	0.16596882
199	0x3e421214	0.18952209
200	0x3e6ebbc7	0.23313819
201	0x3e4e6a09	0.20157637
202	0x3e3e5610	0.18587518
203	0x3ce26556	0.027636211
204	0xbc4ef7bf	-0.012632309
205	0x3d23b693	0.03996904
206	0x3e6e3bc7	0.23264991
207	0x3e1919eb	0.14951293
208	0x3db6d285	0.08926872
209	0x3e5f9972	0.21835878
210	0x3da97255	0.0827376
211	0x3e03b83d	0.1286325
212	0x3e818a07	0.2530062
213	0x3da6c415	0.081428684
214	0xbda29f6a	-0.07940562
215	0x3e13e7ff	0.14443968
216	0x3e884779	0.2661703
217	0x3e045f2a	0.12926927
218	0x3df1b2a3	0.118016504
219	0xbc0cedc0	-0.008601606
220	0x3c8c6c98	0.017141625
221	0x3e5c9e5d	0.21544786
222	0x3dc04f06	0.093900725
223	0x3dc0185a	0.09379645
224	0x3da60502	0.08106424
225	0x3dce30ba	0.100678876
226	0xbdf87360	-0.12131381
227	0x3e31aa6b	0.17350166
228	0x3e4e6db8	0.20159042
229	0x3dba581c	0.09098837
230	0x3d89178a	0.06693943
231	0xbd29ff41	-0.041503195
232	0x3e3c0f2c	0.18365163
233	0x3d305607	0.043050792
234	0x3e861ba7	0.26192972
235	0x3e5d868b	0.21633355
236	0x3e33bdf3	0.17552929
237	0x3da1632c	0.07880244
238	0x3dac8c66	0.084252164
239	0x3e613e18	0.21996343
240	0x3e1d5095	0.15362771
241	0xbcdec058	-0.027191326
242	0xbdd974e5	-0.10617999
243	0x3db7d964	0.08977011
244	0x3e83299c	0.25617683
245	0x3d82d2a3	0.06387832
246	0x3d444f30	0.04792708
247	0x3e2db64c	0.16964072
248	0x3db16d1c	0.08663389
249	0xbdedd529	-0.11612923
250	0x3e5dbb24	0.2165342
251	0x3e787511	0.24263407
252	0x3e301c3d	0.17198272
253	0xbd72dd30	-0.059292972
254	0x3dfe366f	0.12412726
255	0x3e148f84	0.14507872

hidden_layer_2.bias f4 [64]
0	0x3d9ed2f8	0.07755083
1	0x3d14853c	0.036259875
2	0x3e5b30d1	0.2140534
3	0x3e099297	0.13434826
4	0x3e871094	0.26379836
5	0xbc704690	-0.014665261
6	0xbddc616e	-0.10760771
7	0xbd727070	-0.05918926
8	0x3dc9f049	0.09860284
9	0xbdbe45ea	-0.09290679
10	0xbd5622db	-0.052279335
11	0xbdf19ceb	-0.11797508
12	0xbd3cab48	-0.046061784
13	0x3e88c996	0.26716298
14	0x3d4ed974	0.05050035
15	0x3e00c4a4	0.12575012
16	0x3e4dd988	0.20102513
17	0x3e4d2da0	0.20036936
18	0x3e91e59c	0.2849549
19	0xbb5051fc	-0.0031787148
20	0x3d7ce52a	0.061741985
21	0xbcb46d49	-0.022024767
22	0x3e2c1760	0.16805792
23	0x3c44f5e3	0.012021515
24	0xbd41cd6a	-0.04731504
25	0x3e52e64f	0.20595668
26	0x3e3891d8	0.18024385
27	0x3e5fc65b	0.2185301
28	0x3e48a746	0.1959506
29	0x3d9ef1c6	0.077609584
30	0x3e835813	0.25653133
31	0x3ea505ea	0.32231075
32	0x3e9d4cfe	0.30722803
33	0xbdc4d046	-0.096100375
34	0x3daeeb2d	0.0854095
35	0x3de597de	0.11210607
36	0xbdb1cdbc	-0.08681819
37	0xbda73558	-0.081644714
38	0x3e474e17	0.19463383
39	0x3dbf5d9d	0.09344027
40	0xbc179aa1	-0.009253175
41	0xbde49e88	-0.1116305
42	0xbdff1aa7	-0.124562554
43	0xbdfe63c8	-0.124213755
44	0x3dd65cf8	0.10466951
45	0xbc8a921b	-0.016915372
46	0x3ec0bafc	0.37642658
47	0xbd858050	-0.06518614
48	0xbd885968	-0.06657678
49	0x3d5011a3	0.05079807
50	0x3ec8ec89	0.39242962
51	0xbdbd4ea6	-0.092435166
52	0x3e9b6e13	0.30357417
53	0x3ec11d23	0.37717542
54	0xbd604016	-0.054748617
55	0xbf1d174c	-0.61363673
56	0xbd30bbe0	-0.04314792
57	0xbd865008	-0.065582335
58	0xbda9ecdd	-0.08297131
59	0x3e09c95c	0.13455719
60	0x3ede39f3	0.43403587
61	0x3e9a1a7e	0.30098337
62	0x3d077162	0.033067115
63	0x3e8abc4a	0.27096778

output_layer.weight f4 [2, 64]
0	0xbdc28d35	-0.09499589
1	0x3d64ebb4	0.055888847
2	0x3e956d1b	0.29184803
3	0x3dff3683	0.12461569
4	0x3e10765f	0.14107655
5	0x3d76da54	0.060266808
6	0xbb8fc32a	-0.004387279
7	0x3d92d9ba	0.07170434
8	0x3d32c4c2	0.043644674
9	0x3c985422	0.018594805
10	0xbd515c9b	-0.051113706
11	0x3c987f03	0.018615251
12	0xbdf6316a	-0.12021144
13	0x3e8e447e	0.2778663
14	0x3e3cb147	0.18427001
15	0x3e8e0233	0.27736053
16	0x3e924f4e	0.2857613
17	0x3e8367af	0.25665042
18	0x3ed25d60	0.41086864
19	0x3d50fa13	0.05101974
20	0x3e6f9965	0.23398359
21	0xbd071db9	-0.03298733
22	0x3e9ccf0d	0.30626717
23	0xbd285f9c	-0.041106805
24	0xb9e4b850	-0.00043624872
25	0x3dfbeb0c	0.12300691
26	0x3ebcd54a	0.36881477
27	0x3efd1bc7	0.49435255
28	0x3e907ba5	0.28219333
29	0x3c71151c	0.0147145055
30	0x3d046778	0.032325238
31	0x3e3eb016	0.18621859
32	0x3e35df35	0.17760928
33	0xbd66aa72	-0.056314893
34	0xbd6000a0	-0.054688096
35	0x3e603ce3	0.21898226
36	0xbb219540	-0.002465561
37	0xbdf95646	-0.121746585
38	0x3e685335	0.22687991
39	0xbd79c9f2	-0.060983606
40	0x3d774069	0.06036416
41	0xbdfcc452	-0.12342133
42	0x3c578cb6	0.013156107
43	0x3da9fabe	0.082997784
44	0x3e8716b7	0.26384518
45	0xbd369484	-0.04457523
46	0x3d75e3aa	0.06003157
47	0xbd07cf5a	-0.03315673
48	0xbd53d7f0	-0.051719606
49	0xbd8ad239	-0.06778378
50	0x3d91c0a2	0.0711682
51	0x3d80adae	0.06283127
52	0x3dd871e0	0.10568595
53	0x3d246870	0.04013866
54	0xbb8965c0	-0.0041930377
55	0x3f5d5641	0.8645974
56	0xbd74f094	-0.059799746
57	0xbdf0ea96	-0.11763494
58	0xbd6ab99c	-0.057305917
59	0x3e82d61b	0.25553975
60	0x3d0b87ab	0.03406493
61	0x3e075f24	0.13219887
62	0xbd432bcd	-0.047649194
63	0x3d1e8231	0.03869838
64	0xbdd72af9	-0.10506243
65	0xbd3594b6	-0.044331275
66	0x3dd7b826	0.105331704
67	0x3e4bd21e	0.19904372
68	0x3e6b3e9e	0.22973105
69	0xbdd4ae3b	-0.10384794
70	0x3b874fb7	0.004129376
71	0x3d0b97a0	0.034080148
72	0xbdcd1461	-0.100136526
73	0xbda4b84d	-0.08042965
74	0xbdb72a4e	-0.08943616
75	0xbde4c190	-0.111697316
76	0xbd3194e0	-0.04335487
77	0x3e4800e1	0.19531585
78	0x3e10beca	0.1413528
79	0x3e90c34c	0.28274
80	0x3ca14fe2	0.019691411
81	0x3e70f962	0.23532632
82	0x3d261bfb	0.040554028
83	0xbdb8e61a	-0.090282634
84	0x3e11476e	0.14187405
85	0xbd246dc2	-0.040143736
86	0x3e8b75b4	0.27238238
87	0xbd967fb7	-0.073485784
88	0xbd721a37	-0.05910703
89	0x3e46b981	0.19406702
90	0x3c47a4f7	0.012185327
91	0x3bf14ed0	0.0073641315
92	0x3d30c8a3	0.043160092
93	0xbd82f1ee	-0.06393801
94	0x3e82cfc6	0.25549144
95	0x3e5f168b	0.21785943
96	0x3e7d71f2	0.24750498
97	0xbc01b3ee	-0.007916434
98	0x3d18e108	0.03732398
99	0x3e6fb166	0.23407516
100	0xbdbac440	-0.09119463
101	0x3d36c398	0.044620126
102	0x3e2e196e	0.17001888
103	0xbdb335b4	-0.087504774
104	0xbd90957c	-0.07059762
105	0xbdd339e6	-0.103137776
106	0xbcf60138	-0.030029878
107	0x3dc1032c	0.09424433
108	0x3dd72fbc	0.105071515
109	0x3d165fae	0.03671234
110	0x3e916454	0.28396857
111	0x3cdb7e3f	0.026793597
112	0x3d6ca090	0.05777031
113	0x3c99b5f0	0.018763512
114	0x3e9203cb	0.2851852
115	0x3cddb770	0.027065009
116	0x3e631386	0.22175416
117	0x3e6a3d29	0.22874893
118	0xbd5ab6de	-0.053397052
119	0xbdb6b84c	-0.089218706
120	0x3d2ded3c	0.042462572
121	0x3cf76988	0.030201688
122	0x3cc89125	0.024483273
123	0x3e0e1c4d	0.13877983
124	0x3e51d41e	0.20491073
125	0x3e679861	0.22616722
126	0xbd84e20f	-0.0648843
127	0x3e36835b	0.17823546

output_layer.bias f4 [2]
0	0xbe8141f5	-0.25245634
1	0x3e8e145b	0.27749905
