DQN - CartPole/data/Apprentice 7.pt (torch, 38460 bytes, 8 tensors)

input_layer.weight f4 [64, 4]
-0.1881689 0.086651936 -0.7068501 0.4439818 -0.12144821 0.035265032 0.7402351 0.49126938
0.13442205 -0.05450748 0.2563419 0.4936704 0.2668949 0.4696698 0.81929284 -0.17067033
0.5659764 -0.3014851 0.24850033 -0.11475628 -0.25167894 0.32685882 1.4337859 0.27678955
0.0743294 0.39996156 0.029924626 -0.18543711 -0.06434126 0.17279522 0.22502351 0.11384724
-0.023845362 0.09266236 1.1437093 0.44673285 0.48586747 0.43574023 -0.6488863 0.18561561
-0.20802593 0.00259897 -0.23719026 0.5791037 -0.103742614 0.07177628 0.1349467 -0.058940344
-0.456154 -0.2500551 -0.186371 -0.021204961 -0.14301482 -0.14928216 0.4108964 0.39692813
0.027402623 0.183802 0.40732542 0.12281705 0.08198595 0.2833956 0.63869834 -0.41324955
-0.18256363 -0.40367588 -0.7875141 -0.33375525 -0.07133194 -0.45324594 -0.17977501 -0.21352948
0.18475525 -0.03730072 -0.72703385 -0.04338818 0.5188887 0.18478452 0.034137134 0.34729254
0.3023221 -0.075371295 0.64052594 -0.28854463 -0.28769338 -0.27013534 -0.4425506 0.6993862
-0.4929428 -0.33835432 0.10204877 -0.30192044 -0.6158289 -0.26091447 -0.1715768 -0.25898796
0.25922316 0.30532566 0.2755037 -0.12400483 0.001402565 0.14256236 0.8655357 0.37105948
-0.06273925 0.39887586 -0.24312246 0.18813421 0.31454313 -0.21955623 0.75151026 0.557394
-0.11955827 -0.15282328 0.87170005 -0.21635592 -0.36989027 0.117235355 0.11989441 0.06471123
-0.34006697 -0.23964623 -0.024082813 -0.3738992 -0.4968699 0.4432576 0.35743108 0.017768756
0.5060382 -0.3857297 0.40372443 -0.070431076 0.38494056 0.41181037 -0.6314586 0.3635412
0.007801919 0.117391 0.30212635 -0.2711974 -0.0934434 0.04986423 0.7894485 0.72543794
0.18129334 -0.18678552 0.19598691 -0.53116894 -0.45122105 0.2687376 1.2938819 0.30752072
-0.25657195 -0.017970046 0.82667375 -0.34449962 0.3057961 0.1753798 0.35218036 0.112746365
0.4054752 -0.09312001 -0.28364888 -0.50379515 -0.48953786 -0.44368073 0.1574824 -0.30682516
-0.104308374 -0.44258347 0.4656581 -0.25989977 -0.17746286 0.29188913 0.06609617 -0.35471517
-0.2246312 -0.09034443 0.01477938 -0.3161163 0.025659781 -0.06709184 1.1230782 0.18546942
0.0138362255 0.12557131 0.6050473 -0.012640355 0.24122168 0.31189936 0.43863365 -0.08092104
0.29583716 0.09156159 0.7925443 -0.1935389 -0.41039088 0.07033887 -0.22074766 -0.29978728
-0.067224406 0.24971095 0.48154777 -0.16732036 -0.18195106 -0.43486878 -0.5631437 0.062687166
-0.14452143 -0.13998915 0.20538114 -0.23374997 0.07525867 0.113183975 -0.40828127 0.12168535
0.1968954 -0.33083832 -1.0397063 -0.47822502 0.05519613 -0.37011546 0.44253805 0.6347759
-0.20932995 0.24556275 0.08174704 -0.28536487 -0.3182006 0.17007086 -0.091078326 0.4010695
0.35823125 -0.36040914 -0.32047668 0.1559167 -0.35182205 0.16562727 -0.35619432 0.69170344
0.18857747 -0.15615296 0.62082946 0.10710807 -0.48913452 0.33312294 -0.44484046 0.074681744
-0.271625 -0.27647644 -0.068522245 -0.08712216 -0.04187464 -0.3855207 0.15638846 -0.28151983
00000000: 59af 40be 9276 b13d 21f4 34bf 9551 e33e
00000010: d7b9 f8bd 1172 103d 0c80 3d3f a987 fb3e
00000020: efa5 093e 3c43 5fbd 3f3f 833e 5ec2 fc3e
00000030: 73a6 883e 8f78 f03e 2dbd 513f 34c4 2ebe
00000040: d4e3 103f 415c 9abe df76 7e3e 5705 ebbd
00000050: 10dc 80be 0a5a a73e 4c86 b73f 5cb7 8d3e
00000060: 033a 983d c3c7 cc3e 7d24 f53c 3ae3 3dbe
00000070: 5ac5 83bd 3bf1 303e 906c 663e be28 e93d
00000080: 5957 c3bc c3c5 bd3d 1165 923f 2bba e43e
00000090: 9fc3 f83e 5819 df3e 6a1d 26bf 0512 3e3e
000000a0: c004 55be 7b53 2a3b 01e2 72be 2440 143f
000000b0: 0277 d4bd 71ff 923d 782f 0a3e 6e6b 71bd
000000c0: 048d e9be 3907 80be 0ad8 3ebe 07b6 adbc
000000d0: 7a72 12be 6cdd 18be 0361 d23e 2a3a cb3e
000000e0: 777b e03c 9736 3c3e f58c d03e 8187 fb3d
000000f0: 40e8 a73d 3a19 913e bc81 233f 7295 d3be
00000100: f6f1 3abe 9bae cebe 869a 49bf f8e1 aabe
00000110: 7b16 92bd da0f e8be f116 38be 79a7 5abe
00000120: 7b30 3d3e a4c8 18bd e41e 3abf ceb7 31bd
00000130: e4d5 043f 2738 3d3e 61d3 0b3d 54d0 b13e
00000140: f6c9 9a3e 445c 9abd 82f9 233f 1fbc 93be
00000150: 8c4c 93be 2e4f 8abe fe95 e2be f90a 333f
00000160: 0063 fcbe c73c adbe f2fe d03d 5195 9abe
00000170: f6a6 1dbf 9596 85be d4b1 2fbe 129a 84be
00000180: e6b8 843e a553 9c3e d20e 8d3e 3ff6 fdbd
00000190: 46d6 b73a defb 113e bf93 5d3f 82fb bd3e
000001a0: 707d 80bd 7539 cc3e 18f5 78be 41a6 403e
000001b0: cc0b a13e 59d3 60be fa62 403f 60b1 0e3f
000001c0: f7da f4bd b57d 1cbe bc27 5f3f 688c 5dbe
000001d0: 4262 bdbe 1719 f03d 338b f53d 5287 843d
000001e0: 421d aebe d265 75be 5249 c5bc b76f bfbe
000001f0: bb65 febe a9f2 e23e 3501 b73e c88f 913c
00000200: b88b 013f 5d7e c5be f8b4 ce3e 2b3e 90bd
00000210: ee16 c53e cfd8 d23e 45a7 21bf 1222 ba3e
00000220: 3da7 ff3b b16a f03d 4eb0 9a3e 63da 8abe
00000230: 415f bfbd 6f3e 4c3d 4c19 4a3f 4db6 393f
00000240: f6a4 393e b444 3fbe cbb0 483e b0fa 07bf
00000250: 7206 e7be fa97 893e ec9d a53f 5b73 9d3e
00000260: 665d 83be eb35 93bc e4a0 533f 4162 b0be
00000270: 4e91 9c3e c396 333e fc50 b43e 91e7 e63d
00000280: 729a cf3e b4b5 bebd 6d3a 91be b8f8 00bf
00000290: b5a4 fabe 1f2a e3be 1143 213e 3018 9dbe
000002a0: a19f d5bd 4d9a e2be bd6a ee3e 9511 85be
000002b0: d3b8 35be 7e72 953e 6e5d 873d 3a9d b5be
000002c0: b905 66be 8006 b9bd 3625 723c ffd9 a1be
000002d0: 7634 d23c 7267 89bd 07c1 8f3f b2eb 3d3e
000002e0: 56b1 623c c495 003e 61e4 1a3f 7e19 4fbc
000002f0: d102 773e 46b1 9f3e 9794 e03e eeb9 a5bd
00000300: f877 973e a584 bb3d 2fe4 4a3f 102f 46be
00000310: c11e d2be d30d 903d ad0b 62be b87d 99be
00000320: f3ac 89bd 3ab4 7f3e 6e8d f63e 0756 2bbe
00000330: 6151 3abe 1fa7 debe 2f2a 10bf 2162 803d
00000340: 6dfd 13be 5159 0fbe 6f4f 523e 275c 6fbe
00000350: 3821 9a3d 00cd e73d 3e0a d1be 2b36 f93d
00000360: f39e 493e a463 a9be 1915 85bf e9d9 f4be
00000370: 5615 623d c67f bdbe 5994 e23e ac80 223f
00000380: 975a 56be cd74 7b3e fe6a a73d 581b 92be
00000390: 30eb a2be 0e27 2e3e 4687 babd fb58 cd3e
000003a0: 166a b73e 8c87 b8be 8515 a4be a1a8 1f3e
000003b0: 0522 b4be 329a 293e 1a5f b6be 7a13 313f
000003c0: 741a 413e 90e6 1fbe aeee 1e3f 7a5b db3d
000003d0: d76f fabe 178f aa3e 21c2 e3be bef2 983d
000003e0: 6f12 8bbe 528e 8dbe 6455 8cbd 1a6d b2bd
000003f0: be84 2bbd f862 c5be 4c24 203e 5e23 90be

input_layer.bias f4 [64]
0.064688504 0.062545106 0.04242001 0.075601704 -0.12633687 0.1363171 -0.4975347 0.071983464
0.06086991 -0.34436756 -0.052643217 -0.08577135 -0.08176905 -0.26422185 0.15746823 0.01888294
-0.11331107 0.2770307 -0.08297411 -0.28473082 -0.06551507 -0.30245477 -0.057167493 -0.111133814
-0.30381197 0.4323971 -0.32766724 -0.12977217 0.02586429 -0.25022018 -0.42422506 -0.36918414
0.3312472 0.24526985 -0.3486919 -0.07707304 -0.5186432 0.28743306 0.18561462 -0.22904846
-0.46022713 0.0052569024 0.19572338 0.4549975 -0.137745 0.3689703 0.06468633 -0.24548167
0.39438108 -0.3902538 0.25943196 -0.014150197 -0.4756721 -0.40928537 -0.67536014 -0.20973086
-0.48119766 0.29627508 -0.43133202 -0.2892386 0.468757 -0.47353563 0.2775433 -0.23831305
00000000: 687b 843d a617 803d 9bc0 2d3d 11d5 9a3d
00000010: 745e 01be b696 0b3e debc febe 116c 933d
00000020: ba52 793d f250 b0be 6aa0 57bd e4a8 afbd
00000030: 8876 a7bd 1648 87be 5a3f 213e 65b0 9a3c
00000040: a20f e8bd f8d6 8d3e 55ee a9bd 3dc8 91be
00000050: c42c 86bd 5adb 9abe 7628 6abd 209a e3bd
00000060: 3e8d 9bbe 2763 dd3e 00c4 a7be ffe2 04be
00000070: 59e1 d33c dc1c 80be 0734 d9be b405 bdbe
00000080: 3c99 a93e 0528 7b3e bf87 b2be 78d8 9dbd
00000090: cdc5 04bf 6d2a 933e c211 3e3e ae8b 6abe
000000a0: e4a2 ebbe 1842 ac3b b66b 483e 6ff5 e83e
000000b0: 060d 0dbe ade9 bc3e 447a 843d 8c5f 7bbe
000000c0: 51ec c93e 59cf c7be 44d4 843e 3ad6 67bc
000000d0: 4b8b f3be da8d d1be 67e4 2cbf b0c3 56be
000000e0: 8a5f f6be 5eb1 973e 8dd7 dcbe 1517 94be
000000f0: eb00 f03e 4373 f2be 281a 8e3e 5608 74be

hidden_layer_1.weight f4 [64, 64]
-0.11112267 -0.08365503 -0.02354823 0.049190372 0.022228256 -0.0680874 0.073212385 -0.044280738
0.021365643 -0.059105918 -0.053705737 -0.09615971 -0.12426083 0.106924415 -0.02526252 -0.06580764
-0.05406131 -0.04526794 0.0068385154 0.08134095 -0.09827319 0.02562967 -0.030402005 -0.079222366
-0.09253989 0.03154275 -0.01879558 -0.062285498 -0.08677186 0.10661441 -0.037204072 -0.04936257
-0.05182393 -0.054995388 -0.11531618 -0.040772468 0.066423506 -0.009633422 -0.032471612 -0.0035384
0.071571186 -0.05921802 -0.052997768 -0.09414226 -0.106218785 0.0055480152 0.06980184 -0.047752783
0.046129465 -0.05277486 0.089533135 -0.05397038 0.083517686 0.029301032 0.008649826 -0.07243301
-0.10069783 -0.016763732 -0.023061186 -0.042300686 -0.020421743 -0.107569486 0.10494855 -0.01390323
-0.1859229 0.016822042 -0.04458584 -0.11093812 0.08977849 -0.24609949 0.03283988 0.002348017
-0.262772 -0.121747956 -0.066584006 -0.063452534 -0.108484246 -0.0988215 -0.08712559 -0.05192681
0.1931083 0.15452163 0.29713753 -0.031943437 0.018451186 0.011804731 -0.11513169 0.010887178
-0.22317022 -0.025242243 0.07810745 -0.25874805 -0.076454036 0.0220853 -0.113491654 0.08485839
0.08608407 0.105895676 0.012722895 -0.09403336 0.19699308 -0.27501526 -0.20550892 0.027005479
-0.076720655 -0.1699726 0.14190027 0.034875866 0.040254943 -0.070820116 -0.111163236 -0.47721356
-0.017960614 -0.09392777 -0.11523466 0.13060662 -0.025104478 -0.12445824 0.4131441 0.041695874
-0.024353713 -0.2679824 -0.10835012 0.062185943 -0.0056111286 -0.04813662 -0.1804141 0.21870202
-0.06088252 -0.17374502 -0.0041149384 0.14184777 -0.07635492 -0.34077525 0.1502885 0.041546196
0.027341893 -0.47188315 -0.052386757 -0.037447482 -0.0012923157 -0.05797247 -0.018076468 0.14804938
0.033707336 0.11781785 -0.15593939 0.09030396 -0.05668579 -0.067664996 0.050901692 0.06432044
0.09201297 0.023777742 0.15928319 -0.1257174 0.09579509 0.012128886 -0.02775182 0.09921759
0.10471402 -0.2910335 0.17448899 -0.18617456 0.13743962 -0.22259064 0.0145670315 -0.009218797
0.05343989 0.021849204 -0.023514679 -0.024572168 0.0030555455 -0.101973444 -0.06268404 0.19442385
0.06451951 0.13333496 0.0038166756 -0.04081255 0.31138906 -0.07684079 -0.8770417 -0.040570844
0.18033342 -0.108817756 -0.0651256 0.13323179 -0.1347749 0.4682421 0.12269043 -0.1903944
0.034322094 -0.11476861 -0.092269875 0.093145676 -0.08319767 0.106888376 0.042058274 -0.042681836
-0.07949155 0.069830194 -0.099504836 0.11100056 0.10371058 0.06932589 -0.12790042 0.05925336
-0.075579055 0.07703655 -0.088343896 -0.106546775 -0.06723824 -0.011844279 -0.10549488 0.08530999
-0.019527616 -0.018092884 0.08494937 0.011707127 0.048747838 0.07739943 -0.08562626 -0.10389039
0.015188345 0.078834 -0.02801133 0.10542205 -0.10476056 -0.08592839 -0.041445326 -0.112848505
-0.12225061 0.041272324 0.009162034 -0.029839166 0.034236602 0.006435997 0.0129535105 -0.08738203
0.11063258 0.03462547 -0.11852718 -0.03838756 -0.08592854 -0.0718181 0.09977487 0.11353189
-0.087649025 -0.1515056 -0.063363224 -0.003302306 -0.09147181 -0.015841693 0.020184044 0.008863952
00000000: 4894 e3bd 5453 abbd 38e8 c0bc d87b 493d
00000010: 0818 b63c 6871 8bbd 60f0 953d b85f 35bd
00000020: 0007 af3c 0c19 72bd 8cfa 5bbd 62ef c4bd
00000030: 767c febd 30fb da3d 58f3 cebc 28c6 86bd
00000040: 646f 5dbd e06a 39bd a015 e03b 1696 a63d
00000050: 7443 c9bd 50f5 d13c a00d f9bc 563f a2bd
00000060: 8e85 bdbd f832 013d 30f9 99bc 141f 7fbd
00000070: 72b5 b1bd a858 da3d 4c63 18bd 6830 4abd
00000080: 5445 54bd d842 61bd e42a ecbd 0801 27bd
00000090: 0c09 883d 80d5 1dbc f400 05bd 80e4 67bb
000000a0: ea93 923d 988e 72bd 3014 59bd a8cd c0bd
000000b0: 3c89 d9bd 20cc b53b 44f4 8e3d 6c98 43bd
000000c0: 40f2 3c3d 742a 58bd 265d b73d 0c10 5dbd
000000d0: 520b ab3d b808 f03c 00b8 0d3c c257 94bd
000000e0: aa3a cebd 1854 89bc d0ea bcbc 7c43 2dbd
000000f0: 804b a7bc 644d dcbd 44ef d63d 60ca 63bc
00000100: 9362 3ebe 61ce 893c a49f 36bd 8633 e3bd
00000110: c9dd b73d 8101 7cbe 1c83 063d 30e1 193b
00000120: 0d8a 86be fe56 f9bd 325d 88bd 67f3 81bd
00000130: fd2c debd ed62 cabd e76e b2bd 35b1 54bd
00000140: 2fbe 453e eb3a 1e3e 6922 983e 1fd7 02bd
00000150: f126 973c a168 413c 2aca ebbd 2260 323c
00000160: bc86 64be d2c8 cebc ccf6 9f3d a07a 84be
00000170: ef93 9cbd 3bec b43c 506e e8bd 3cca ad3d
00000180: d84c b03d d5df d83d b073 503c 9094 c0bd
00000190: 8eb8 493e cdce 8cbe ee70 52be 983a dd3c
000001a0: b81f 9dbd 4c0d 2ebe 4e4e 113e ffd9 0e3d
000001b0: 5ee2 243d 230a 91bd 8da9 e3bd 5655 f4be
000001c0: 2322 93bc 345d c0bd 2600 ecbd bebd 053e
000001d0: e8a7 cdbc f6e3 febd a087 d33e 4bc9 2a3d
000001e0: 7081 c7bc fd34 89be abe6 ddbd b0b6 7e3d
000001f0: 8fdd b7bb e82a 45bd 79be 38be 6cf3 5f3e
00000200: f35f 79bd 37ea 31be 9bd6 86bb 8b40 113e
00000210: f85f 9cbd 187a aebe 3be5 193e 582c 2a3d
00000220: 1bfc df3c ab9a f1be 7f93 56bd 8862 19bd
00000230: eb62 a9ba 8a74 6dbd 1a15 94bc 429a 173e
00000240: b410 0a3d 7c4a f13d 93ae 1fbe 48f1 b83d
00000250: 5c2f 68bd f293 8abd 4b7e 503d 6fba 833d
00000260: 4c71 bc3d 8ac9 c23c 221b 233e 10bc 00be
00000270: 3730 c43d 3cb8 463c c957 e3bc 9832 cb3d
00000280: 4e74 d63d 5802 95be 3ead 323e 8ba4 3ebe
00000290: f9bc 0c3e cdee 63be 8faa 6e3c 700a 17bc
000002a0: c9e3 5a3d 1afd b23c dba1 c0bc 924b c9bc
000002b0: 8c3f 483b 74d7 d0bd 7d60 80bd 0c17 473e
000002c0: ce22 843d f688 083e 3121 7a3b 0f2b 27bd
000002d0: 636e 9f3e b45e 9dbd ce85 60bf 9d2d 26bd
000002e0: 53a9 383e d8db debd 9260 85bd ea6d 083e
000002f0: 6e02 0abe 6ebd ef3e 1f45 fb3d c0f6 42be
00000300: 5395 0c3d ce0b ebbd fdf7 bcbd 29c3 be3d
00000310: 8a63 aabd 4be8 da3d 4c45 2c3d 26d3 2ebd
00000320: 77cc a2bd 2203 8f3d 31c9 cbbd 4354 e33d
00000330: 3666 d43d bbfa 8d3d 54f8 02be a7b3 723d
00000340: 31c9 9abd 57c5 9d3d a5ed b4bd 3235 dabd
00000350: 34b4 89bd 820e 42bc b30d d8bd 01b7 ae3d
00000360: 61f8 9fbc 8737 94bc eff9 ad3d 40cf 3f3c
00000370: d0ab 473d 9883 9e3d d25c afbd 7cc4 d4bd
00000380: 89d8 783c b873 a13d 0478 e5bc 84e7 d73d
00000390: b48c d6bd 39fb afbd 93c2 29bd 1e1d e7bd
000003a0: 875e fabd 2b0d 293d 5b1c 163c 4471 f4bc
000003b0: ae3b 0c3d 0ee5 d23b f63a 543c 5af5 b2bd
000003c0: 5693 e23d 70d3 0d3d 61be f2bd 463c 1dbd
000003d0: 4dfb afbd 5e15 93bd c456 cc3d 6883 e83d
000003e0: 5581 b3bd 4924 1bbe 94c4 81bd 806b 58bb
000003f0: 9355 bbbd 70c6 81bc 0259 a53c 1c3a 113c

hidden_layer_1.bias f4 [64]
-0.0666357 0.0715646 -0.082161985 -0.065014735 0.12852944 0.09454169 0.099442944 -0.007737056
-0.0744135 -0.18193224 0.12534021 0.064595796 0.10606265 0.062613696 -0.046381135 -0.08582135
-0.040056814 0.03367485 -0.055513684 0.22045898 0.095093176 0.100738816 -0.09400351 0.050988365
-0.01979597 0.096538536 0.13400634 -0.13444407 0.022342524 -0.07543392 -0.047079466 0.007092014
-0.0789567 0.103868224 -0.12869824 0.17029154 0.02618469 0.05328875 0.13390997 -0.03239949
0.07682979 0.029103348 -0.031773254 0.13849488 -0.24001114 0.088124044 0.032003254 0.032314964
-0.099800825 -0.06846684 0.031091815 -0.015027453 -0.07975431 -0.1809427 0.0782496 -0.049782228
-0.07926771 -0.14520289 0.11131086 0.12950183 0.00766399 0.056348555 0.041354652 -0.017141765
00000000: 4c78 88bd 7690 923d 8b44 a8bd 7226 85bd
00000010: 399d 033e 139f c13d bea8 cb3d 2187 fdbb
00000020: 1b66 98bd 724c 3abe 2f59 003e cd4a 843d
00000030: 6037 d93d 9c3b 803d 25fa 3dbd 1bc3 afbd
00000040: 9d12 24bd a4ee 093d 5162 63bd 00c0 613e
00000050: 36c0 c23d 2750 ce3d ea84 c0bd 2dd9 503d
00000060: 282b a2bc ffb5 c53d f538 093e b5ab 09be
00000070: ab07 b73c 197d 9abd 66d6 40bd 2064 e83b
00000080: 0db4 a1bd ddb8 d43d 79c9 03be e860 2e3e
00000090: 4681 d63c 4e45 5a3d b21f 093e 54b5 04bd
000000a0: f058 9d3d 256a ee3c ac24 02bd 9ad1 0d3e
000000b0: 7bc5 75be 617a b43d d815 033d b25c 043d
000000c0: 6064 ccbd 5838 8cbd 43b4 fe3c b535 76bc
000000d0: 3a56 a3bd 0b49 39be 5441 a03d 73e8 4bbd
000000e0: 1c57 a2bd 11b0 14be f3f6 e33d 219c 043e
000000f0: 3522 fb3b becd 663d 7f63 293d e36c 8cbc

hidden_layer_2.weight f4 [64, 64]
0.03196892 -0.04671124 0.019247852 -0.07526086 -0.112788685 0.09722066 0.05079489 -0.09802428
-0.09558385 -0.121342435 0.07790927 0.029251546 -0.09399618 -0.09854255 0.05208814 -0.08229515
0.07891651 -0.026502013 -0.0023033554 0.09501428 -0.110909455 0.07843847 -0.014752105 0.08016143
-0.009841612 0.057229534 -0.07401986 -0.0014326572 -0.07298984 -0.091705926 0.008291385 0.06315568
0.013791277 -0.12834008 0.11374575 0.09250465 -0.003525602 0.093741305 0.010500764 -0.09635973
-0.044595525 -0.03274476 -0.110511005 0.08613854 -0.12192139 0.10793485 0.024411336 -0.015386726
0.026304558 0.004678898 -0.134357 0.1023727 0.082016334 -0.0793622 -0.051647827 -0.0541411
-0.011492029 0.11444637 -0.008631911 -0.0970722 -0.02341859 0.07429593 -0.0110096065 -0.13079184
-0.024037838 0.0852143 0.0057132975 -0.03315652 -0.16001298 -0.1067602 -0.12664688 0.09153904
0.03862101 0.013140134 0.12827869 -0.09262708 -0.031329945 0.06269228 -0.10466944 -0.012716388
0.0588017 -0.11685753 -0.04641083 -0.08293046 0.11904895 -0.0076507805 -0.047016937 0.1849736
-0.05138715 0.14437237 0.17771041 -0.036103923 -0.1063158 0.06552897 -0.036304265 -0.0049841255
0.21276857 -0.00592758 -0.090637885 0.11253773 -0.051157214 0.18175991 -0.20734364 0.093627214
-0.054549392 0.15302455 -0.022755057 -0.24061729 -0.20151033 0.18338968 -0.03008394 -0.03643659
-0.07018879 -0.08947673 -0.0009271343 0.10974077 -0.095514074 -0.030973362 -0.013344863 0.12982485
-0.021480178 0.0052550957 0.13685092 -0.04796196 -0.093354955 -0.057142176 0.05795902 0.14057252
-0.048807546 0.0011206865 0.03291636 -0.03495212 0.052356347 -0.024076536 -0.02596853 0.00838294
0.10809744 -0.02334468 -0.05882132 -0.009036437 0.08347267 0.022207387 -0.03081806 -0.0033126622
0.09251383 -0.091925666 0.108443476 -0.056959435 -0.0375572 -0.053912222 -0.10731293 -0.06657336
0.041529562 -0.010390895 0.080949925 0.11359744 0.007995337 -0.10459695 0.050629035 -0.0016736388
-0.07094531 0.026040316 0.020023197 0.09288905 -0.09322968 0.050352413 0.07341972 -0.033413872
0.06703341 -0.09714367 0.06380217 -0.031289443 -0.08429311 0.109869 0.0522411 0.03128155
-0.106952116 0.00017534196 -0.105041854 -0.12944148 0.043539062 0.037654355 -0.048666447 0.013623017
-0.027557075 0.047583565 -0.12557895 -0.009727605 0.04462023 0.1240672 0.040650163 0.050431747
-0.12051135 0.10575627 -0.10540206 -0.05950533 -0.09544173 0.026267726 0.105264455 0.08722245
-0.2024252 -0.30429864 0.08249722 0.010401069 0.19112483 0.07339597 -0.042875364 0.081079334
0.06825528 0.118012264 -0.05847901 -0.033885542 0.024844892 0.123007886 -0.06449482 0.1580389
-0.17068444 -0.014049289 0.108729266 0.023630794 -0.13410258 0.086040854 0.027907433 -0.054685414
-0.035943113 0.0011826915 -0.04431168 0.10438283 0.032776974 -0.099149376 0.014989156 -0.12249339
0.06935693 0.011601273 0.018407509 0.090645306 -0.08872619 -0.07605173 -0.1076726 -0.18316145
0.07385495 0.1045472 0.1358058 0.12694684 0.05078043 0.12414561 0.0314074 -0.02651268
-0.04432495 -0.045767333 0.08177142 0.08004574 0.042354546 0.06656944 -0.025797598 0.32666674
00000000: d8f1 023d 4954 3fbd acad 9d3c 5e22 9abd
00000010: c1fd e6bd a01b c73d 4d0e 503d f4c0 c8bd
00000020: 77c1 c3bd 6282 f8bd e58e 9f3d f0a0 ef3c
00000030: 1281 c0bd add0 c9bd 605a 553d 5c8a a8bd
00000040: fb9e a13d c01a d9bc e4f3 16bb d996 c23d
00000050: 7f24 e3bd 59a4 a03d d0b2 71bc ad2b a43d
00000060: b63e 21bc 8469 6a3d b997 97bd 00c8 bbba
00000070: b27b 95bd 51d0 bbbd 97d8 073c c457 813d
00000080: cff4 613c 956b 03be 88f3 e83d 1473 bd3d
00000090: c90d 67bb 71fb bf3d 650b 2c3c 4058 c5bd
000000a0: cca9 36bd 5f1f 06bd 9853 e2bd 6769 b03d
000000b0: ecb1 f9bd f20c dd3d 48fa c73c 9b18 7cbc
000000c0: a87c d73c 7151 993b e294 09be c7a8 d13d
000000d0: 2ef8 a73d a688 a2bd ac8c 53bd 0fc3 5dbd
000000e0: 1049 3cbc dc62 ea3d dc6c 0dbc cacd c6bd
000000f0: 58d8 bfbc 7728 983d a361 34bc 4cee 05be
00000100: 00eb c4bc d684 ae3d 9d36 bb3b 22cf 07bd
00000110: 71da 23be 17a5 dabd b8af 01be d278 bb3d
00000120: 1031 1e3d b749 573c 7d5b 033e 44b3 bdbd
00000130: d453 00bd cf64 803d ee5c d6bd 6658 50bc
00000140: 0dda 703d 0053 efbd 4819 3ebd 72d7 a9bd
00000150: f0cf f33d 66b3 fabb d594 40bd b869 3d3e
00000160: 557b 52bd 5ad6 133e b8f9 353e b5e1 13bd
00000170: 19bc d9bd 0d34 863d c8b3 14bd e051 a3bb
00000180: 01e0 593e 253c c2bb 5ba0 b9bd 2e7a e63d
00000190: 3a8a 51bd 451f 3a3e e451 54be a0bf bf3d
000001a0: 2f6f 5fbd 78b2 1c3e d068 babc 6164 76be
000001b0: b958 4ebe 81ca 3b3e 9872 f6bc 893e 15bd
000001c0: 24bf 8fbd 933f b7bd ee0a 73ba c5bf e03d
000001d0: e29c c3bd d9bb fdbc 6aa4 5abc cef0 043e
000001e0: 33f7 afbc f032 ac3b a622 0c3e c373 44bd
000001f0: e230 bfbd ea0d 6abd 7066 6d3d 3ef2 0f3e
00000200: 6cea 47bd 00e4 923a 4ed3 063d f429 0fbd
00000210: 9c73 563d 283c c5bc f4bb d4bc 9958 093c
00000220: 3162 dd3d 583d bfbc a0ee 70bd 900d 14bc
00000230: b8f3 aa3d 44ec b53c 2876 fcbc 4019 59bb
00000240: e477 bd3d 8643 bcbd 9d17 de3d 4c4e 69bd
00000250: 94d5 19bd 10d3 5cbd e2c6 dbbd 9d57 88bd
00000260: e71a 2a3d 933e 2abc 13c9 a53d c6a5 e83d
00000270: e0fe 023c ed36 d6bd 6460 4f3d 005e dbba
00000280: c64b 91bd 8052 d53c b007 a43c 9d3c be3d
00000290: 34ef bebd 553e 4e3d 145d 963d fcdc 08bd
000002a0: d048 893d 43f3 c6bd b6aa 823d 5c29 00bd
000002b0: dea1 acbd 0003 e13d c4fa 553d 1521 003d
000002c0: b609 dbbd 00dc 3739 2f20 d7bd 4f8c 04be
000002d0: 0456 323d 743b 1a3d 7856 47bd 1333 5f3c
000002e0: 60bf e1bc fce6 423d c597 00be 8860 1fbc
000002f0: b4c3 363d f216 fe3d c980 263d 8591 4e3d
00000300: a8ce f6bd be96 d83d 09dd d7bd dcbb 73bd
00000310: f476 c3bd 6a2f d73c e494 d73d afa1 b23d
00000320: 8d48 4fbe 08cd 9bbe 4df4 a83d 3f69 2a3c
00000330: 3ab6 433e a050 963d 149e 2fbd ec0c a63d
00000340: 6dc9 8b3d 6ab0 f13d b087 6fbd 91cb 0abd
00000350: 8487 cb3c 8feb fb3d dc15 84bd f3d4 213e
00000360: e7c7 2ebe fd2e 66bc 73ad de3d 5e95 c13c
00000370: 3052 09be 3036 b03d 219e e43c d0fd 5fbd
00000380: 1639 13bd 8b04 9b3a 2a80 35bd aac6 d53d
00000390: 2641 063d d40e cbbd 1495 753c d1dd fabd
000003a0: 020b 8e3d 4413 3e3c 58cb 963c 3fa4 b93d
000003b0: 14b6 b5bd 02c1 9bbd 7483 dcbd ad8e 3bbe
000003c0: 4441 973d d81c d63d ad10 0b3e 5afe 013e
000003d0: 24ff 4f3d 0e40 fe3d 0ca5 003d 1f31 d9bc
000003e0: 148e 35bd 8776 3bbd c677 a73d 05ef a33d
000003f0: f67b 2d3d 8f55 883d 7c55 d3bc dd40 a73e

hidden_layer_2.bias f4 [64]
-0.04983023 0.086345635 -0.12574813 0.1461015 0.10397348 0.068656504 -0.14383033 -0.07688717
0.15557556 0.040095948 0.023559373 0.034862816 0.07925487 -0.06576245 -0.095348194 -0.035501048
0.046514004 -0.20296873 -0.047879934 0.1131172 -0.12696476 -0.08060743 -0.039962344 0.12815507
-0.08109946 -0.018235834 -0.095063314 -0.061345626 -0.046952993 -0.088013664 0.02626185 0.009416525
0.06076138 0.0500457 0.020853316 0.019089993 0.025442587 -0.07809695 0.066740155 -0.12046228
0.009476205 -0.10921587 -0.03986223 0.14968245 0.015140619 -0.16453703 0.022790411 0.01038516
0.12905574 -0.042132404 0.01227013 0.0031017102 0.0517217 -0.014186877 -0.08517138 0.07398905
0.046935506 -0.094937675 0.09491581 -0.016400909 0.1011787 0.10844892 -0.10868621 0.1474952
00000000: c91a 4cbd fbd5 b03d 1ec4 00be a29b 153e
00000010: 0cf0 d43d c89b 8c3d 4248 13be 0577 9dbd
00000020: 334f 1f3e a63b 243d 96ff c03c 50cc 0e3d
00000030: 6150 a23d 77ae 86bd ea45 c3bd 8c69 11bd
00000040: 7885 3e3d 09d7 4fbe c01d 44bd fea9 e73d
00000050: 0d03 02be 8215 a5bd 8eaf 23bd 153b 033e
00000060: 7917 a6bd 5163 95bc 8eb0 c2bd 8d45 7bbd
00000070: c851 40bd 8240 b4bd 1723 d73c c547 1a3c
00000080: ede0 783d b8fc 4c3d 93d4 aa3c 9e62 9c3c
00000090: f96c d03c 4bf1 9fbd 10af 883d eeb4 f6bd
000000a0: 1642 1b3c 92ac dfbd 9446 23bd 5b46 193e
000000b0: 5c10 783c 657c 28be f5b2 ba3c 8526 2a3c
000000c0: 3027 043e 0793 2cbd a808 493c 1046 4b3b
000000d0: 22da 533d 1370 68bc 556e aebd 9287 973d
000000e0: 723f 403d af6e c2bd 3863 c23d 335b 86bc
000000f0: c736 cf3d 781a de3d e096 debd fb08 173e

output_layer.weight f4 [2, 64]
0.09682734 -0.034382284 -0.013064689 -0.0151704615 -0.12467008 0.034608256 -0.122217655 0.006487116
0.1842707 0.050529145 0.0017905051 -0.13941877 0.056767818 -0.18442921 0.026923407 0.0908353
0.09434135 -0.051189758 0.044241816 0.088682115 -0.133237 0.10231774 -0.15357825 -0.02502783
-0.27792364 -0.10496468 0.05947365 -0.15599456 0.029659182 -0.269128 -0.1889552 -0.026416006
-0.07353145 -0.06718298 -0.0993888 0.08748295 0.09320431 -0.094941474 -0.07085912 -0.06426182
-0.080037385 -0.10281785 0.043285556 0.20075248 -0.035879802 -0.21793981 -0.14135066 -0.13931628
0.10525849 -0.25427684 -0.04878916 -0.02314113 -0.09675204 -0.12557343 -0.2476959 -0.117320225
0.089226194 0.0064160894 -0.10850747 -0.03252876 -0.02507886 0.07026707 -0.18524987 -0.22638129
-0.020143835 -0.164628 0.11324035 -0.1538649 0.11576453 -0.09938913 0.061930798 0.013232208
-0.00109729 0.0060919505 0.10295481 -0.15012713 0.04264949 -0.1482198 -0.001136449 -0.030947331
0.120400175 -0.23532435 -0.040796235 -0.1285068 0.06923424 0.09468902 -0.12830524 0.10710017
0.17954728 0.016903326 0.01426889 -0.06483701 0.017504722 -0.013131478 -0.13840382 -0.11509829
-0.1957762 -0.069064826 0.028891616 0.049944855 -0.19457458 0.09412672 -0.1577463 -0.0037520386
-0.010491947 0.039287087 0.10839737 0.08111479 0.009273034 -0.034938317 -0.09700199 0.053647753
0.02811385 0.10434266 -0.18107934 -0.20135364 -0.25207633 -0.07098201 -0.10056345 -0.073365755
0.03916084 0.055819903 -0.19648747 -0.180224 0.057818893 -0.103505775 -0.18959892 0.07703664
00000000: 6a4d c63d 70d4 0cbd 470d 56bc 878d 78bc
00000010: 0753 ffbd 63c1 0d3d 404d fabd e091 d43b
00000020: 75b1 3c3e a6f7 4e3d 62af ea3a cbc3 0ebe
00000030: 5f85 683d 03db 3cbe 7a8e dc3c dc07 ba3d
00000040: 0a36 c13d 5aac 51bd e836 353d f89e b53d
00000050: 486f 08be f78b d13d 9e43 1dbe 2a07 cdbc
00000060: 024c 8ebe b9f7 d6bd a49a 733d 0abd 1fbe
00000070: d0f7 f23c 25cb 89be 797d 41be 6166 d8bc
00000080: a897 96bd 3b97 89bd 5b8c cbbd 432a b33d
00000090: e7e1 be3d ad70 c2bd 961e 91bd b39b 83bd
000000a0: a4ea a3bd 2a92 d2bd 324c 313d 0f92 4d3e
000000b0: b3f6 12bd 9d2b 5fbe 3abe 10be eda8 0ebe
000000c0: c391 d73d 9330 82be 24d7 47bd 7892 bdbc
000000d0: ef25 c6bd 5296 00be fea3 7dbe 9645 f0bd
000000e0: 39bc b63d 0f3e d23b 2a39 debd e13c 05bd
000000f0: 2e72 cdbc 2ee8 8f3d 24b2 3dbe 7fd0 67be
00000100: af04 a5bc 3e94 28be 8eea e73d c38e 1dbe
00000110: f415 ed3d 878c cbbd 26ab 7d3d e7cb 583c
00000120: f1d2 8fba fc9e c73b f9d9 d23d edba 19be
00000130: 3bb1 2e3d eec6 17be e7f4 94ba 4285 fdbc
00000140: 5e94 f63d def8 70be f419 27bd 4997 03be
00000150: aeca 8d3d 51ec c13d 7362 03be 5557 db3d
00000160: 3edb 373e d878 8a3c 10c8 693c 44c9 84bd
00000170: 1066 8f3c 6925 57bc bbb9 0dbe a7b8 ebbd
00000180: 8e79 48be dc71 8dbd 1cae ec3c fa92 4c3d
00000190: 8f3e 47be 83c5 c03d 3f88 21be c3e4 75bb
000001a0: 6ae6 2bbc 7feb 203d 71ff dd3d 831f a63d
000001b0: eced 173c 7b1b 0fbd fba8 c6bd bfbd 5b3d
000001c0: 044f e63c 9bb1 d53d dd6c 39be a62f 4ebe
000001d0: 2610 81be 045f 91bd 36f4 cdbd c940 96bd
000001e0: 1e67 203d 69a3 643d 0334 49be a48c 38be
000001f0: 81d3 6c3d d6fa d3bd 3826 42be 63c5 9d3d

output_layer.bias f4 [2]
0.037322387 0.029749498
00000000: 5cdf 183d 38b5 f33c
