DQN - CartPole/data/Apprentice 9.pt (torch, 38460 bytes, 8 tensors)

input_layer.weight f4 [64, 4]
00000000: 24fa 4d3e 28aa afbe cb6a 3fbe 291c 2bbd
00000010: 2a1a dfbd d78b 0cbf 5564 c5be afa7 0bbe
00000020: 0b51 d1bd 159a 05be cc2a 22bf 0e40 e5be
00000030: 4052 8ebe 68bf 19be ba9b dbbe 60aa 91bd
00000040: 757f 1bbf 83bd a1bc 8e27 2b3e c1a2 94be
00000050: 1223 39be c9ff 123e 689c 143e f885 a6bc
00000060: 1afc f93e 8fa3 00be 8fef 0ebf 28b0 c1be
00000070: 763e 86be 233f d6be 013c 643e fdd0 1e3e
00000080: e950 b1bd 2ca9 223f 32d8 703f ad6f debe
00000090: 6eb0 993b d9de a33e a600 573e 7af4 62be
000000a0: 47ce 2c3e 918a 653e 8a52 b03e 985c a43e
000000b0: 4d04 59be 6b69 ba3e c66a 233f 3340 893d
000000c0: 3df5 c13e 4359 30bd 62f9 10bf 58bc db3d
000000d0: d1e3 13bf f4ce 163e 29ad 353f ab85 efbd
000000e0: d81e a9be 7fdd 31be 2d18 013e e0f8 c83e
000000f0: 351f 813e e1ff f3bd 446f e8be 9d94 28bf
00000100: 1b97 8c3e c733 afbd 60d6 f7be 929f 853e
00000110: c03f 7bbc 70f4 b73e 602e 203d e85d 353e
00000120: 6522 16bf c213 8d3e be48 a33e 8a80 17bf
00000130: e4c8 633e 789d 48be cede d9be 00fb 49bb
00000140: 92b1 05be fdef 093f 6801 51bd 4cac e7be
00000150: 08eb cabd ca69 953e 485c f6be 2030 9c3d
00000160: a0c0 8abe 46fc aabe e408 d8be 6e87 95be
00000170: 2964 20be da47 533d 03d2 f0bd 4c5b 123e
00000180: 34f8 a13e dd4d 043d e13c 893e eae4 a13e
00000190: a6a7 d83c e30a 83bd 3a0c cbbe d25a be3d
000001a0: 060e a03d 358b 1abf a805 d4be ed40 7639
000001b0: 65a8 b1be 42a5 68be cdbe a1bd 7ae4 fcbe
000001c0: 3394 933e 33ac 06be 2834 3dbe 1058 143e
000001d0: ebfa dabe 595c 253f 9b8e 503f deb5 09bf
000001e0: 3499 c4bd 6161 9e3e 2507 dd3e 6279 1ebe
000001f0: 0ee9 a2be 28be 1c3e 3be6 a9be 98b3 473e
00000200: c86b 6dbe 87b4 56bc 4e28 edbd 70e9 0f3f
00000210: 1981 403e 4d81 d63e 53b5 c4bd 601b d7be
00000220: d735 c6be c8b5 babd a659 ce3e 32ae 0fbf
00000230: 4b36 d3be 0e71 9dbe bcbf dd3e eaad 783e
00000240: da8d ea3e aaca 0bbf bba6 c13d 0043 d83e
00000250: 8689 72be b5eb 863e cf06 8e3e 5333 9e3d
00000260: 23a8 a53e 2b1e 0fbf 71bd cebe 091f 3f3d
00000270: 934e cdbd 5cca 01bf 613c d2bd 12c7 433e
00000280: a770 99be 9d39 11bf 3a13 073e 4736 d33e
00000290: 51f9 b438 6b74 cdbe b360 953e 8ad9 b83e
000002a0: e1f8 91be 2d18 073f c827 b23d e639 d43e
000002b0: 24d9 ea3d 59c8 2e3f 7321 163d 76dd 4ebe
000002c0: 00d9 c63b 1027 693d d487 8a3e 80f4 a73c
000002d0: 9ba4 88be 5275 253f 45a2 093f 0da1 dabe
000002e0: ecc9 913e b20b e5be cc20 9e3d 9e30 1c3e
000002f0: 15bc cb3e e38e 0abe 8ed1 89be e64e d03e
00000300: 906c 4cbf b4f6 123f 5f3d a23e f9ab a8be
00000310: 9259 a93e 1e23 4f3e 5b1c b3be d93a b13e
00000320: ea3c 923d a109 a93e af73 a4bd d9c0 6a3e
00000330: 2b06 063f f697 593d 8385 033e 2bb4 d13e
00000340: d61f 8fbe 6048 04be 2579 4e3f 33e7 e9be
00000350: a841 17bf 3ec5 253d fb25 363e 57bb 12bf
00000360: 82a1 2a3f 5387 acbe 0a74 39be 9098 3e3c
00000370: 5e30 70be 380a 83be 2207 b0bd 3a93 edbd
00000380: f75a 6c3d 2c94 543e 6d31 833e 1096 c83e
00000390: 04e3 6fbe 3719 923e 72d8 e3be 3576 f23e
000003a0: bde9 db3e d803 63bd f4ea bc3d 8341 b23e
000003b0: 406b f63e 5938 493d 8f11 05bf 4fcc 873e
000003c0: e283 683d b47c 333e 0adc 5a3e a9c8 1bbf
000003d0: 4653 84be 571f a8be 923c babe 4e3a 25bd
000003e0: 5f60 47be 19a1 0abf 7747 b5bd 3025 293e
000003f0: f90c 0c3f fb60 45be a388 b8be 2678 8cbd
0.20114952 -0.34309506 -0.18693082 -0.041774902 -0.10893662 -0.5490088 -0.3855311 -0.13638185
-0.10220536 -0.13047059 -0.6334655 -0.44775432 -0.27797127 -0.15014422 -0.42892247 -0.071125746
-0.6074136 -0.019743687 0.16714308 -0.2903042 -0.18079785 0.14355387 0.14512789 -0.020327553
0.4882515 -0.12562393 -0.5583429 -0.3782971 -0.2621953 -0.41845044 0.22288515 0.1550941
-0.086580105 0.63539386 0.9407989 -0.43444577 0.0046902215 0.32005957 0.20996341 -0.22163573
0.16875564 0.2241614 0.34437972 0.32101893 -0.21193047 0.36408553 0.638348 0.06701698
0.37882414 -0.043053877 -0.5663053 0.10729283 -0.57769495 0.14727384 0.70967346 -0.11695417
-0.33031344 -0.1736965 0.12606879 0.39252377 0.25219122 -0.119140394 -0.4539739 -0.65851766
0.27459034 -0.085547976 -0.48405743 0.26098305 -0.015335023 0.3592868 0.039106727 0.17711604
-0.5864623 0.27554137 0.31891435 -0.5918051 0.22244602 -0.1959132 -0.425528 -0.0030819774
-0.13056019 0.5388182 -0.05102673 -0.4524864 -0.0990811 0.29182273 -0.4811728 0.076263666
-0.27100086 -0.33395594 -0.42194283 -0.29204887 -0.15663208 0.051582195 -0.117588066 0.1429264
0.31634676 0.03230082 0.2680426 0.3161996 0.026447129 -0.06398561 -0.39657766 0.09294666
0.07815175 -0.60368663 -0.41410565 0.00023484575 -0.34698787 -0.22719291 -0.078977205 -0.49393064
0.28824005 -0.13151626 -0.18476927 0.14486718 -0.4276956 0.64594036 0.814676 -0.5379313
-0.09599534 0.3093367 0.43169513 -0.15475991 -0.31818432 0.15306914 -0.33183464 0.19502103
-0.23185647 -0.0131045645 -0.11579953 0.5621557 0.18799247 0.41895524 -0.09604897 -0.42013073
-0.38712952 -0.09116703 0.4030277 -0.56125176 -0.4125236 -0.30750316 0.43310344 0.24285093
0.4581135 -0.54606116 0.094556294 0.42238617 -0.23685274 0.26351705 0.2773957 0.07724633
0.3235484 -0.5590541 -0.40378907 0.046660457 -0.100247525 -0.506994 -0.102654226 0.19118908
-0.2996876 -0.56728536 0.13190928 0.41252348 8.629508e-05 -0.40127882 0.29175338 0.3610347
-0.28510192 0.52771264 0.08698994 0.41450423 0.114671975 0.68274456 0.036652993 -0.20201668
0.006068349 0.05692202 0.27056754 0.020502329 -0.26688084 0.6463214 0.5376323 -0.42700997
0.28474367 -0.44735485 0.07721099 0.15252921 0.39791933 -0.1353107 -0.2691769 0.40685195
-0.79853153 0.5740769 0.31687447 -0.32943705 0.3307615 0.2022824 -0.3498257 0.3461521
0.07140525 0.3301516 -0.080298774 0.22925128 0.5235316 0.053123437 0.128439 0.4095777
-0.27953976 -0.12918234 0.806536 -0.45684204 -0.5908456 0.040471308 0.17787926 -0.5731711
0.6665269 -0.33696994 -0.18110672 0.011633053 -0.2345595 -0.25593734 -0.085951105 -0.11600347
0.05770394 0.20759648 0.25623646 0.3917699 -0.23426443 0.28534862 -0.44501072 0.4735581
0.42951766 -0.055423588 0.09224501 0.34815606 0.481287 0.049126003 -0.5197992 0.26523063
0.0567664 0.17528039 0.21373 -0.6085306 -0.25844783 -0.3283641 -0.36374336 -0.040338807
-0.19470356 -0.54152066 -0.088515215 0.16518092 0.54707295 -0.19275276 -0.36041746 -0.06858854

input_layer.bias f4 [64]
00000000: d714 f9be 946a cf3e 1dfc 16bf f4ed e8be
00000010: 4f22 5a3d a357 003f 7d94 7ebe c489 a43e
00000020: f12e c3bd 1d32 143d 53e2 a03e 0dc2 6f3d
00000030: 0941 e13e 469e 6d3e 7b6b 6e3d e8d3 acbe
00000040: d95e edbc c899 38be 068c b33d f052 9abe
00000050: a733 84be 0ea3 f6be 6ea4 dbbe 45ac fa3d
00000060: c908 a73e 3605 123f 9d91 16be ff22 cf3d
00000070: 3521 2d3e 982b 7f3e 7939 e93e 57ae 1f3f
00000080: c963 993e 6cf3 903d 7626 db3d e142 18bf
00000090: 0f26 163f 8d42 353e acd4 a63e 2132 a1be
000000a0: 9d5e b63e 75de 1b3e 0cd3 d43c c342 453e
000000b0: b8fa d9be 0235 2a3d 4e0d a53e b5b1 d7bd
000000c0: b873 59be 9141 c83e 7bc0 f13e 2fab f3bd
000000d0: ba81 5e3d 0fd3 94be b828 c73e 2460 043f
000000e0: a7cf 093f 74b1 a53e a331 153e 7add de3e
000000f0: e588 673e a3e0 2a3e 9e94 0d3f 5f61 c13e
-0.48648712 0.40511 -0.58978444 -0.45494044 0.053255375 0.50133723 -0.24861331 0.32136357
-0.09530438 0.036180604 0.31422672 0.05853467 0.4399493 0.23204908 0.05820797 -0.33755422
-0.028975891 -0.18027413 0.08766942 -0.301414 -0.25820658 -0.48171276 -0.42898887 0.12239889
0.3262389 0.570392 -0.14703985 0.10114097 0.16907199 0.24918973 0.4555166 0.62375396
0.29958943 0.07077679 0.10700695 -0.5947705 0.5865182 0.17701168 0.3258413 -0.31483558
0.3561906 0.1522158 0.025979541 0.19263749 -0.42574096 0.04155446 0.32236713 -0.10531942
-0.2123555 0.39112523 0.47217163 -0.11897885 0.054322936 -0.29067275 0.38898253 0.517092
0.5383248 0.32361948 0.14569716 0.43528348 0.22610815 0.16687255 0.55304897 0.377696

hidden_layer_1.weight f4 [64, 64]
00000000: 26e1 e3bd d532 6d3e 5b5a a5be dc0e 663d
00000010: b55a 463e c468 8f3d 70d3 cabe f63a 1b3e
00000020: d8a9 ee3d 07a7 673e 8589 f03d 724d 8a3e
00000030: 2894 743e d9b1 733e c18e 793d 4d3e 4bbe
00000040: 6bbe e3bc 4e83 933d 1b5f a53d 1813 e4bc
00000050: a005 63bc b057 62bd c0fe 963c 10d3 8b3d
00000060: 37b3 233e 8d17 313e cefc 373e aa55 063e
00000070: 06a4 dd3d 48a0 e03d c582 47bc a1f9 d53d
00000080: ad42 fd3d 9638 273e 4e28 ef3b 5e98 32bf
00000090: 0bb2 de3a 4be0 c23c 368e 6b3e d678 f23d
000000a0: 87d7 c9bb 092b 7bbb 113e 7bbc 6a0a 283e
000000b0: 0c3c 0ebd eb56 283e 0d62 023e cfb6 18bd
000000c0: a5c0 123e cf37 8b3d f33d 1d3e 58ae 093e
000000d0: 51da 223e e8f2 023e 75be 013e 0a8a 053e
000000e0: 44bc b43d 2264 223c 87b1 333e 362a 4f3e
000000f0: 2cf7 243e 50cf 9f3d ddad 513d 629e bb3c
00000100: 7da4 f8bd e650 2bbd 832b d63d c24f dbbd
00000110: 590a 3abd 076f be3d 31af 8cbc adf4 9f3d
00000120: 090c afbd 10a0 85bd c15d 0fbe b6a0 983d
00000130: 23cd 65bd 7d87 343d ceaf 363c da88 40bd
00000140: c937 0fbd 7e09 febd bd96 be3d ba25 d2bd
00000150: 6330 05be b6ba ff3d 4409 aebd 77df 873d
00000160: 56e7 bdbd 1c0c b93d 98fc 46bd 93dc 08bd
00000170: aaf2 6bbc 3c23 b53c 0638 b5bd cca2 67bd
00000180: 9e85 8ebd e20d 453c da8e 10be 711a b9bc
00000190: 89ee 8abd 8413 53bd 8e66 69bd e5e8 1abd
000001a0: 8154 543d 24d0 d63c 5786 33bd 82b1 0dbe
000001b0: 803d 973b 25fd 2abc 456c b23d 600e ddbd
000001c0: 2ccb 80bd 1767 253c 9e04 2d3d 720f ab3d
000001d0: 3186 113d e4e4 a73d ee56 ec3c 9258 993d
000001e0: bc2d 13be d2a7 bb3d 77fe cb3d 213d ca3c
000001f0: 6552 033d 30d2 b0bd cb6d 03be 32be 24bb
00000200: 637c b4bd 3fbd 453b 65dc c2be 267a 9abd
00000210: 5118 4d3d 8849 693d 6da5 16be bbaa e7ba
00000220: 63e4 8e3e 89f1 353e d197 a83d 18d1 853e
00000230: 1d85 053e 8f4c c23d 38f8 c93d 35e8 563d
00000240: d8a2 a53c ecee 46bd fb79 a93b f892 903d
00000250: ed18 513e 803d b43c 7408 a73d 89af 2a3c
00000260: 1bf5 1d3d a5c1 033d 2a6e 083d 954a aebd
00000270: 56d1 4f3e d978 283e b1f2 f53d 5b8a 0b3d
00000280: 3a51 243e afa0 4b3e dd30 b73d 06e8 3cbf
00000290: 6f07 083e 1773 62bd c368 bd3c 6414 a7bd
000002a0: 1a27 783a 1433 093e 2482 e33c bb48 263e
000002b0: 5092 e23d 8f6d d03d 839f 5a3e 9e4f 373d
000002c0: 6a05 823d 4e85 b73d 9ed2 bd3c fb58 b83d
000002d0: 14c7 b23d 1b83 1f3e 969c 3b3e 7f38 413e
000002e0: a6ef a93c 4d4b 2b3d 02fd 833d e0ee bf3c
000002f0: 6080 113d 4b90 4b3e 6ee1 523d 6fb9 073e
00000300: d489 9c3c 71ba f33d 9a23 5cbe d01b 11bd
00000310: dd28 3dbd 09d1 583d 600e fbbd 6cdf 1ebc
00000320: 36e0 1b3e 1b28 233e e04e a73d 5163 4f3e
00000330: 1d05 563e 1460 423e 319d 0b3e 75d5 d83c
00000340: 68b4 003d 2ef8 e33d 8552 9e3c 26a7 943d
00000350: bf11 313e a018 c1bd 80d5 a53a 2171 cc3d
00000360: ea09 f3bb ce88 b83b 6c04 9e3c c858 3cbd
00000370: 19df 123e e39d b0bc dc9f 313e bdc4 3d3e
00000380: 9047 523e 6698 983d 9c8e 0d3e 3fee 1bbf
00000390: 5225 503e bbe5 2b3e bae2 6bbb 2a73 3d3c
000003a0: b31f 433e 3153 3fbd bf76 583b 6cd1 30bd
000003b0: 00b1 a4bd 19df 4d3d 3bbd 2e3e 02d4 81bd
000003c0: f272 4a3e 4857 723d 46bc 0cbc 0332 ac3d
000003d0: 73c0 d8ba d2ca 453e 786a ae3d c41d 6f3e
000003e0: b0a6 a63d 5eb6 353e 5806 473e a7f9 09bc
000003f0: 84df 133e a659 a8bc 3516 c53d c0e7 7a3e
-0.11126928 0.23163922 -0.32295498 0.056166515 0.1937054 0.07002404 -0.3961444 0.1515921
0.11653489 0.2262231 0.1174498 0.2701221 0.23884642 0.23798312 0.060927156 -0.19847985
-0.02780076 0.07202779 0.080747806 -0.027841136 -0.013856322 -0.055259407 0.018432021 0.06827366
0.15986334 0.1729414 0.17967531 0.13118616 0.108223006 0.10968071 -0.012177174 0.104480036
0.12366233 0.1633018 0.007298506 -0.69763744 0.0016990317 0.023788592 0.23003468 0.11839454
-0.006159726 -0.0038325211 -0.015334622 0.16410223 -0.034725234 0.16439407 0.12732716 -0.037283715
0.143313 0.06797754 0.15355663 0.13445413 0.15903594 0.12787974 0.1267031 0.13040939
0.08824971 0.009911569 0.1754819 0.20230946 0.16109914 0.078032136 0.0511912 0.022902671
-0.12140749 -0.041825198 0.10457518 -0.10708572 -0.045420025 0.092985205 -0.017173382 0.0781034
-0.085472174 -0.0652467 -0.14000608 0.07452528 -0.056103837 0.044074524 0.011150314 -0.04700551
-0.03496531 -0.12404154 0.09306095 -0.10261102 -0.1300674 0.12486784 -0.08497861 0.066344194
-0.092726395 0.09035513 -0.048580736 -0.03341348 -0.014401117 0.022111528 -0.08848576 -0.05655174
-0.06959079 0.012027236 -0.14116994 -0.022595616 -0.06783778 -0.051532283 -0.05698257 -0.03781976
0.0518384 0.026222296 -0.04382929 -0.13837245 0.0046154857 -0.010436331 0.08712057 -0.107937574
-0.06288752 0.010095379 0.04224073 0.08352555 0.035528366 0.08197954 0.028850045 0.074875966
-0.14372915 0.091628686 0.09960645 0.024687352 0.032061 -0.0863384 -0.12834851 -0.002513778
-0.088127874 0.0030172614 -0.38058773 -0.07542829 0.050072018 0.05695489 -0.14711542 -0.0017674783
0.2790862 0.1776792 0.08232082 0.26136088 0.1303906 0.09487259 0.09861797 0.052467544
0.020219252 -0.048567697 0.005172012 0.07059282 0.20419665 0.022001982 0.08155909 0.010417827
0.03856383 0.032167096 0.033308186 -0.08510319 0.20294699 0.1645235 0.1200918 0.034067493
0.1604661 0.19885515 0.08944867 -0.7379154 0.13284086 -0.05528554 0.023121243 -0.08158186
0.0009466276 0.13398391 0.027772017 0.16238682 0.11063063 0.10177147 0.21349911 0.044753663
0.06348689 0.08960973 0.02317172 0.09001347 0.087293774 0.15577357 0.18321452 0.18869208
0.020744156 0.04181986 0.06444742 0.023429334 0.03552282 0.19879262 0.051484518 0.13254331
0.01910869 0.11900795 -0.21497956 -0.035426915 -0.04618155 0.052933726 -0.12258601 -0.009696823
0.15222248 0.15933268 0.08169341 0.2025273 0.20900388 0.18981963 0.13634183 0.026468972
0.03142205 0.11131321 0.019326458 0.072584435 0.17291926 -0.09428525 0.0012652129 0.09982515
-0.0074169533 0.0056315428 0.019289218 -0.045983106 0.14342918 -0.021559661 0.17346138 0.18532081
0.20535111 0.07450943 0.13823932 -0.6091041 0.20326737 0.16786854 -0.0035993294 0.011563102
0.19055061 -0.046710197 0.0033029763 -0.04316847 -0.080415726 0.05026159 0.17064373 -0.063392654
0.1977041 0.05916527 -0.00858981 0.084079765 -0.0016536847 0.19315651 0.08516401 0.23351198
0.08137262 0.17745349 0.19436014 -0.008421338 0.14440733 -0.02055056 0.09623376 0.24502468

hidden_layer_1.bias f4 [64]
00000000: 0a90 7a3d 4937 e43c 7329 6e3e 2e5e 143d
00000010: 2272 2c3e 4178 3e3e 0f3f 94bd aa41 e7bd
00000020: 98f4 b6bd 6f01 893d 5047 7fbd aafb 4ebd
00000030: 0b2e 313e d5cb 123d 26f8 da3d f97c 9e3d
00000040: 7301 e3bd 6d1e b3bd e4dc f93d 76ad 193e
00000050: a8ff 97bd 54c6 4a3e 7474 e7bd 1246 b7bd
00000060: 8cd6 613d e887 af3c 8901 5f3d 8218 9f3d
00000070: 1c0a f3bd f1d5 d93d f38e 553d a1e8 02be
00000080: b89d da3c b337 4d3e 4f10 5b3e f28c 633d
00000090: fd04 b93d c8ac ec3c ca62 993d 6e71 193e
000000a0: c99c 7f3e 3a4b b33d ebb0 4b3d 9130 cc3d
000000b0: d972 cb3c 41b2 183e c330 5a3e ca6c 813e
000000c0: ea62 2cbc a6b6 38bd e9e6 01be c876 87bc
000000d0: 2d4a 5a3d 50c9 fbbc f5dc 7e3e 2491 fbbd
000000e0: 96e5 403e e8c8 283e ec71 f7bd aa06 753e
000000f0: 5d20 91bc 9057 e2bd 6199 343e 0ad5 ee3d
0.061172523 0.027858393 0.23257999 0.03622263 0.16840413 0.1860056 -0.0723859 -0.11291821
-0.08933371 0.066897266 -0.06232387 -0.050532974 0.1730272 0.03583892 0.10691862 0.077386804
-0.11084261 -0.08746038 0.12200335 0.15007576 -0.074218094 0.19802219 -0.113015085 -0.08948912
0.05513625 0.02142711 0.054444823 0.07768346 -0.118671626 0.10636509 0.05213828 -0.12784053
0.026686534 0.20040779 0.2139294 0.055554338 0.090341546 0.028890982 0.07489546 0.14984676
0.24962153 0.08754583 0.04972927 0.09970201 0.024835037 0.14911748 0.21307664 0.25278312
-0.01052163 -0.045096062 -0.12685741 -0.016536132 0.053293396 -0.030735642 0.24888976 -0.12283543
0.1883758 0.1648289 -0.12082276 0.23928323 -0.017715627 -0.110518575 0.17636634 0.11661728

hidden_layer_2.weight f4 [64, 64]
00000000: 2f0b 11be a961 afbd 980f 013d 3a4a efbd
00000010: 128c d0bc 9348 2dbd 80a3 23bd 80b0 963a
00000020: c6b3 c5bd f4b6 91bd 5044 31bc c926 a1bd
00000030: 5a11 3a3d e1f6 ccbd d3ab 06be 047e a73d
00000040: cdd2 db3d c368 1f3c 2178 edbd ccdb 5b3d
00000050: 3018 d7bd 797c 843d 2898 683d 2cd1 3fbd
00000060: 6ae3 973c 7a25 8ebd 6ce9 c3bd 7c22 d93d
00000070: f26c 5c3d 15cf a6bc 009b 5e3d fd99 8f3b
00000080: 3008 e0bc 24d8 b83c 5d45 d83d 8b62 933d
00000090: 21ef ce3d 1c13 0b3d 8d8c 913d cb5c b9bd
000000a0: 9d22 c73d d6b7 b6bd 025d c2bd b606 4a3d
000000b0: 1a94 c53d 53c6 b0bd c6ec d0bd f81b f5bd
000000c0: 400e a6bc e32f 8bbd 3392 b7bd 6024 e5bd
000000d0: ddf0 83bd f4ce 54bd f97d 0ebe 3ca0 743d
000000e0: f664 ebbd 82ee c4bd f80e 933d 716f 403d
000000f0: 2ca5 2dbd b4a4 bfbd 3c52 febd b6b3 52bd
00000100: 09c2 07be 9781 983c c9bf b2ba ce4e 653d
00000110: c6b3 473b de69 873d b4ff 663d f074 ec3c
00000120: 0090 a33a 3b33 febd 489b 6ebd a8da 4cbc
00000130: d889 11bd 4f18 7b3d d2ad c23d 1926 ce3d
00000140: 7f0d b13d ec85 45bc 25e5 edbb 4595 eebc
00000150: 54c3 a73d 43e5 353d 8860 ae3c acd0 0cbd
00000160: 4925 dbbc 1e6e db3d ac49 83bd 52c1 ecbd
00000170: 9686 5c3c a9f2 833d 82ff 85bd 10f0 a1bd
00000180: 9e84 a5bd bb7c 8e3d 0b27 54bd ba64 ffbd
00000190: da7a af3d f5a4 603d 2992 903d 5bce 193b
000001a0: 2f70 5f3c c0a2 dcbd b322 9d3d 56fe eebd
000001b0: 63ed d3bd 2489 bcbc bd3d 993d 2a0e 423a
000001c0: 4481 62bd 49a5 9e3d fc39 d33d dc98 973d
000001d0: c4dd 99bc a083 d73c d7fd 0fbe 4261 fdbd
000001e0: b737 e93c 5d14 973d 222a ae3d 6b76 f5bd
000001f0: c04c aa3c 2ce9 ab3d 5024 783d 3acd fdbd
00000200: 3cee f0bd 9855 febc fbf1 af3c b38a 86bd
00000210: bbf1 92bd 8707 b83d f84f 20bd ecac 413d
00000220: b0ce 613d e021 d7bc f4d3 c63d 2866 1d3d
00000230: 0969 aabd ee02 2c3d 86e8 a93d 78eb b3bd
00000240: 5262 ef3d ec4c a8bd acfe e5bd bc3e 693d
00000250: 589e 8b3c 2372 71ba 6c63 8cbd 9457 efbd
00000260: c162 633d daca bdbd 20f0 d3bc 90ed 7bbc
00000270: 1e82 d63d 6f96 b73d 8dff 29bd c2a4 ad3d
00000280: f003 86bd 0536 8bbd adff 4d3d b2c7 d83d
00000290: bbcb febc a039 2dbc 19bd bb3c 8872 9b3d
000002a0: ef8f 513d 553e 7fbc 1943 04be a0c3 e3bb
000002b0: 0dee d4bd aa7d 863d 8e5a 89bd 1f29 d4bd
000002c0: 697f e0bb 014b 003b 6482 c7bd 0616 da3d
000002d0: 5dff ad3d 8000 63bb a05c 70bc 80b8 d23a
000002e0: 0f94 ba3d 7afa 613d 7a46 fcbd 6f6c 28bc
000002f0: 1cc5 bcbd 1cde 423d 4fd0 773c 9c87 c13d
00000300: b5d2 e73d 83b1 e9bd f3f1 133e 6b29 2c3e
00000310: 7859 5c3d b34f 203d a7f1 4abe d0e8 763c
00000320: a26d c8bd 420b 213e 7ea3 c6bd 7198 19bd
00000330: cb47 103e 545c 033e 8721 073e b785 01be
00000340: 0aec ecbd 163b 2a3c e54f 5cbc d9c1 62bc
00000350: 50e1 d6bc ee9c 4b3c e049 b33d 0409 ecbd
00000360: cb79 323e c0f3 ea3c cf64 eb3d 3045 d2bd
00000370: 2e4a 873d f27b 58bd e7b1 443e 634b adbd
00000380: deef fdbd 94c9 d23d 8331 c1bc 3163 0e3e
00000390: 6bb3 243e 3a41 b03c 8f92 343e 62b1 933c
000003a0: 89d4 0d3e 2b49 533d ab9f fd3d 5fec 903d
000003b0: 5c55 013d 2b81 343d a53b 963e 23d2 083e
000003c0: 4fab 573e 33e7 293d 37c5 80bd 4c6a 3dbd
000003d0: d0e3 ff3d 48c0 33bd f140 a33d ac95 4abd
000003e0: 75ef a23d c349 b63d e768 8cbd 2378 663d
000003f0: 739f 9cbd 1057 92bd bdb4 393e a7ba 483e
-0.14164422 -0.08563549 0.031509012 -0.116840795 -0.025457416 -0.04230554 -0.039950848 0.0011496693
-0.0965343 -0.07114974 -0.01081951 -0.07868726 0.045426704 -0.10008026 -0.13151483 0.081783324
0.107335664 0.009729567 -0.115951784 0.05367641 -0.1050266 0.06469054 0.056785733 -0.04683034
0.018541057 -0.06940742 -0.09566006 0.106022805 0.053814836 -0.020362416 0.05434704 0.0043823705
-0.027347654 0.022564001 0.10560105 0.0719653 0.10104204 0.03395377 0.07106886 -0.09050902
0.09723399 -0.08921783 -0.09490396 0.049322806 0.09647389 -0.08631577 -0.10201411 -0.11968225
-0.020270467 -0.06796243 -0.08963432 -0.111885786 -0.064424254 -0.05195518 -0.13915242 0.059723124
-0.11493866 -0.09615804 0.071805894 0.04698128 -0.04239385 -0.093575865 -0.12418029 -0.051440917
-0.13257612 0.01861648 -0.0013637479 0.055983357 0.0030472144 0.066119894 0.0563962 0.028864354
0.0012478828 -0.12412115 -0.058253556 -0.012503304 -0.03553185 0.06130248 0.0950581 0.1006586
0.08645152 -0.012055855 -0.007259982 -0.029123912 0.08191553 0.044408094 0.021286264 -0.034378693
-0.026751177 0.107143626 -0.06410536 -0.115603104 0.013459822 0.06442768 -0.06542875 -0.079071164
-0.08081935 0.06957384 -0.051795047 -0.12470384 0.08568354 0.054844815 0.07059128 0.0023468945
0.0136375865 -0.107732296 0.07672634 -0.116696045 -0.10348012 -0.023014612 0.07482479 0.00074026233
-0.05529906 0.077463694 0.10313794 0.074022025 -0.018782504 0.02630788 -0.14061676 -0.12372066
0.02846895 0.07376931 0.0850413 -0.11985477 0.02078855 0.083940834 0.060581505 -0.123926595
-0.117641896 -0.031046674 0.02147769 -0.065694235 -0.07175013 0.08985811 -0.039138764 0.04728405
0.055128753 -0.02626127 0.097083956 0.038427502 -0.08320815 0.04199498 0.082963035 -0.087851465
0.11688675 -0.08217797 -0.112302154 0.056944594 0.017043278 -0.0009210428 -0.06854901 -0.11686626
0.0555141 -0.092672065 -0.025871336 -0.0153764635 0.10474037 0.0896424 -0.041503478 0.08478691
-0.0654372 -0.06797413 0.05029266 0.10584964 -0.031103006 -0.010572821 0.022917317 0.075902045
0.051162656 -0.015578826 -0.1291622 -0.0069508106 -0.10396967 0.06566937 -0.06706725 -0.10359406
-0.006851126 0.0019575956 -0.09741667 0.10648732 0.08495972 -0.003463775 -0.014670521 0.0016076714
0.09110271 0.055170514 -0.1231813 -0.010279759 -0.09217283 0.0475751 0.015125348 0.094496936
0.11319486 -0.11410811 0.14447765 0.16812675 0.05379626 0.039138507 -0.19818746 0.015070155
-0.09786536 0.15726951 -0.096991524 -0.037498895 0.14089887 0.12828189 0.13196383 -0.12648664
-0.115684584 0.010390064 -0.013446783 -0.013840162 -0.026230484 0.012427552 0.08754325 -0.11525157
0.17429273 0.028680682 0.11493837 -0.10267103 0.066059455 -0.05285258 0.1920849 -0.084616445
-0.12399267 0.10292354 -0.02358318 0.13905026 0.16084068 0.021515477 0.17634033 0.018028919
0.13850607 0.05158345 0.1238397 0.07076334 0.031575546 0.044068497 0.2934238 0.13361411
0.21061443 0.041480254 -0.06287616 -0.04624395 0.12494624 -0.043884546 0.07971371 -0.049459144
0.07955829 0.08900788 -0.06855946 0.056266915 -0.076476 -0.07145512 0.18135352 0.19602452

hidden_layer_2.bias f4 [64]
00000000: 9826 6b3c ed61 b6bd 2cce ffbd c551 f93d
00000010: 23ab 5a3e 198c 8ebd baf5 f0bd f336 3f3e
00000020: ae9e b6bc 14da 9c3d 8ee7 33bd a8eb 713d
00000030: 1fe7 1b3e a3cd 5a3e cdc3 f43d 5bc0 693e
00000040: 5e80 eabd dbf7 81bc 9a14 0cbe 2e71 ca3c
00000050: 5033 f9bd ecd5 9abd 7de3 3c3e 0478 fcbd
00000060: dae2 c93d f8f0 fabc ba19 903c 9f0f edbb
00000070: 0a57 1c3e b38d b8bd d735 a3bd 52ab acbd
00000080: c3f8 103e 0033 043e 36f2 0b3e c8fe 5a3e
00000090: fa2e 483c cd8d 6c3e 9e3c 5dbd e9bc 6bbd
000000a0: 4c42 0abd 9c6b 853e 8769 153d a08c 9fbd
000000b0: 79f6 ed3d 02c4 e3bd 37a8 183e a41c 763d
000000c0: 170a 7c3e f6e2 333e 80b7 e13c 3a2a 363d
000000d0: ac48 5d3e 8bd2 91bd 10fa 13be 120e 813d
000000e0: b253 ee3d 6780 933d a40b f5bd 7416 acbd
000000f0: 1070 a73d e119 e43d 6246 d03d 0346 7d3d
0.014352463 -0.089053966 -0.12490496 0.121737994 0.21354346 -0.06960315 -0.117656186 0.18673305
-0.022292461 0.076587826 -0.043922 0.05906263 0.15224884 0.21367507 0.119514085 0.22827284
-0.11450265 -0.015865257 -0.13679734 0.024712171 -0.1216799 -0.075603336 0.18446155 -0.12327579
0.098577216 -0.030632481 0.017590392 -0.007234528 0.15267578 -0.09011402 -0.079692535 -0.08431114
0.14157395 0.1291008 0.13666615 0.21386254 0.012218231 0.23100968 -0.054012887 -0.057553206
-0.033754632 0.26058662 0.03647759 -0.07790494 0.116192766 -0.1112137 0.14907919 0.060085908
0.24613224 0.17567047 0.02755332 0.044473864 0.21609753 -0.07120236 -0.1445086 0.06301512
0.11637057 0.07202225 -0.11965111 -0.0840272 0.08175671 0.111377485 0.101696745 0.061834347

output_layer.weight f4 [2, 64]
00000000: 4114 e4bd edc5 70bd 7db9 aabc 8ffa 9d3d
00000010: 8b6f 473e 7855 34bd 5456 bbbd fc81 4d3e
00000020: 7ca0 c8bc faa6 58bc fef3 49bd b9eb 023e
00000030: c27a 2b3e e7d7 193e 96be 513d 224c 103e
00000040: 9018 b1bd 88f1 a5bd a056 fc3c cbca a23d
00000050: 5dfc 41bd b8b8 8fbd 9502 d63d 000b 60bb
00000060: 2d25 aebd bfb5 f63d 363e 183c 9d46 133e
00000070: 2264 e4bd 8731 e33d e3a1 4fbd 20b2 0e3c
00000080: 334e 1a3d fa8c 243e c791 313e 79dc 4a3e
00000090: d90b 183c 873f 5a3e 8581 65bd ec98 ba3d
000000a0: 7021 813d 651d 693e 8445 fe3d 9a24 c83d
000000b0: 4e1d 3d3e aa37 93bd 006f 483e 5263 3e3e
000000c0: ee30 293e 637e aebd cc96 3c3d b1ab 86bd
000000d0: b7d7 613e 3705 97bc b8cb 8a3d 0220 0e3d
000000e0: 6e1f a3bc e82d 203e e0e0 78bd a490 0ebd
000000f0: 59b9 5e3e 84f1 50bd 944c 283e 22ab b6bd
00000100: 7cb0 b2bd 4c3d 1f3d 7d81 1d3d 096d 1e3e
00000110: d135 2f3d 70f1 213e 44fe c5bd f22a 933d
00000120: 76e3 583e 646a 563b 7d0a 873e c222 0c3e
00000130: 6516 163e 7266 6d3d ef52 353e 8223 0f3e
00000140: b2f3 ba3d eec3 6bbd 1832 e7bc 4bee 613e
00000150: 5740 a83d 9400 49bd da85 053e 4465 8ebd
00000160: 7f75 963e ac32 4b3e 6b10 94bd 9f3f 543e
00000170: 7a43 993e a80a c33d 5e21 f0bc 10c7 37bd
00000180: 077e 553e 2fc1 f73d 36ff 623e 6e3a 793d
00000190: ef01 4c3e 333a e1bc b7e3 8bbd 66bb 83bd
000001a0: 2544 5c3e 9d2c f4bc 2673 453e 3019 063c
000001b0: 1846 553e e8b9 ce3c eb81 163e 82a0 de3b
000001c0: d60a 253d 522f 8d3e c897 c33d 9cc1 613d
000001d0: d65f 8d3c 4486 2abd 6bc9 3cbd c237 dabd
000001e0: 9ef2 2a3e 7891 5b3e 1aa6 623c f099 e73d
000001f0: fc6a 4bbd ec4b 8b3c f98e 283e d074 903d
-0.111366756 -0.058782507 -0.0208404 0.07713806 0.19476144 -0.04402682 -0.09147325 0.20069116
-0.024490587 -0.013223404 -0.049304955 0.12785234 0.16746047 0.15023766 0.051207148 0.14091542
-0.08647263 -0.08102709 0.030803025 0.07948836 -0.047359813 -0.07017654 0.10449711 -0.0034186244
-0.085031845 0.12046384 0.009292176 0.14382406 -0.11151911 0.11093431 -0.050691497 0.0087094605
0.037672233 0.16069403 0.17340766 0.19810666 0.009280168 0.21313296 -0.056031723 0.09111199
0.06305206 0.2276512 0.12415603 0.09772606 0.1846821 -0.071883515 0.19573593 0.18592575
0.16522571 -0.085202 0.04604225 -0.06575716 0.22054945 -0.018435104 0.067771375 0.034698494
-0.019912448 0.15642512 -0.060761333 -0.03480591 0.21750392 -0.051011577 0.16435462 -0.0891936
-0.08725068 0.038876817 0.038453568 0.15471281 0.042775933 0.15814757 -0.09667638 0.071859255
0.2118052 0.0032717222 0.2637519 0.13685134 0.1465698 0.057959028 0.17707418 0.13978389
0.091285124 -0.0575599 -0.028222129 0.22063558 0.08215397 -0.049072817 0.13039342 -0.06952909
0.29386517 0.19843549 -0.07229694 0.20727395 0.29934293 0.09523517 -0.029312786 -0.044867575
0.20848857 0.12097394 0.22167668 0.06084674 0.19922613 -0.027493572 -0.068305425 -0.06432228
0.2151037 -0.02980643 0.19282207 0.008184716 0.2082752 0.025235131 0.14697997 0.0067940364
0.040293537 0.27575165 0.09550434 0.05511628 0.017257612 -0.041631952 -0.046090525 -0.10655166
0.16694114 0.2144221 0.013833547 0.11308658 -0.049662575 0.017003976 0.1646079 0.0705353

output_layer.bias f4 [2]
00000000: 30a0 053e 6bf0 32bd
0.13049388 -0.04368631
