DQN - CartPole/data/Apprentice 1.pt (torch, 38460 bytes, 8 tensors)

input_layer.weight f4 [64, 4]
00000000: 432b 703e 78b3 f63b 7529 abbf 76fe 30bf
00000010: aca3 ac3d fbb3 28bf 6e6b d0bf 863d 90be
00000020: 5654 493e afdb 08bb 6b50 cb3f 30a1 753f
00000030: 3dbd 35bd 3933 12bf 5a3d 01c0 1a14 e1be
00000040: 1812 303e edc8 4bbe e126 5cbf 9305 dd3e
00000050: c827 b4bc 8574 51be 6382 863f cc40 693e
00000060: b6be 0a3e 610e cdbe 3ecf e2bf 9164 b2be
00000070: feda abbd 3eec 2bbf 5550 9ebf 9a58 06bf
00000080: f26b 823e e2de bcbe fde4 60bf 1874 2e3f
00000090: 6cc8 a73e b2c6 64bf 9063 d9bf d935 16bf
000000a0: 7a38 65be 651d 5bbe 87d8 cb3f 0b59 753f
000000b0: ede8 1d3e 5844 d8be 501a 09c0 de67 e2be
000000c0: 9603 aabc 0bcd 5abc cd7f dfbf d352 dcbe
000000d0: b699 763e 6304 debd ebbe 68bf b0eb 263f
000000e0: 4da7 60be eb2e 3fbe 953c bebf 982a 14bf
000000f0: ff83 c4bc 7fc0 84be 7bf6 57bf a0ff 51bf
00000100: 400e 28be e32c cbbe 9ccb b2bf 908d 3c3c
00000110: 8b98 2fbd b0b5 063e 14a4 08c0 84c7 913e
00000120: d265 023f 9191 26be c46b fcbf 876b 12bf
00000130: 2f6e a43e 0686 523e f003 d5bf 2bed 98be
00000140: 63b6 df3e c762 12bf 7de7 6dbf d6b5 2b3f
00000150: b096 bc3e f762 f13e 728a 833f e5f3 543f
00000160: 8264 aabd c67f 2c3f 8f8a 583f c943 f4be
00000170: 38fa 82be e0ef 493e 170c ccbf 891c 14bf
00000180: 1700 97bd d848 29bf 5b77 b8bf 62fb 11be
00000190: 89b3 873e 7440 acbe 05db 84bf b012 293f
000001a0: cb13 4a3c a416 b43e dfc3 c63f d064 a03f
000001b0: 15cb f3bd c52a febc 0ddd e83d a9ba c6bd
000001c0: 1bfa 253f 666a e0be 9876 44bf 0c28 483e
000001d0: f615 9b3e 9b49 fe3e b15d f03e 8bf3 ecbe
000001e0: 75eb a23e 28a3 ebbd 0817 f3bf f409 b6be
000001f0: e463 883d 97ef 33be fb95 893f 32b1 833f
00000200: 3e37 ad3d b2f9 3fbf 6f9d e1bf 4115 09bf
00000210: 0292 64be 232c 3a3e 3c7f 64bf 10c4 0dbf
00000220: 439b a43e d274 843e d963 cebf e9b2 813d
00000230: e664 1cbf ce45 fb3e b703 d43f aa81 c83e
00000240: 39e5 a2be f8f7 38be 24da 00c0 2133 f7be
00000250: c218 cfbc dd0a a1be 0b8e febf 96da b0be
00000260: 0bbb 21bf 4ade 0d3f b9ab d63f 3041 b13e
00000270: 5517 0cbf 3fe8 133f 00ae 1b3f 07d9 8cbe
00000280: 4a62 563d 42ed 353f ef77 af3f 1468 063f
00000290: ba22 2bbe 941a 523f 9e58 3dbf ef44 473e
000002a0: b6b7 abbc 56ac c6bd f8eb 8cbf a326 32bf
000002b0: f0f1 a23e 1a3d f9be ba18 32bf d8c7 0e3f
000002c0: d344 7b3e 043d 9d3d 2ba3 b6bf 65ff 1cbf
000002d0: 3d19 89bd 7311 21bf fb71 a3bf 17a1 fabe
000002e0: a4d9 b9bd 6296 a6be baa0 9abf 7577 31bf
000002f0: 9312 eb3d 3c22 04bf d8c4 a6bf fced ccbe
00000300: 3225 063f b9b4 323e 8b62 babf aa16 213f
00000310: 8d49 2a3f a9bd 023f abfe a33f 747f 153f
00000320: 935c 113f 8d61 8a3e e8fe aebf 56ae 943d
00000330: 9e54 c43d d2f5 0ebf d4ad d8bf a0b8 cfbe
00000340: 34dd 58be 3744 993d 2823 1c3f 51d6 8ebf
00000350: 9238 86bd c038 853e 8045 d3bf d4c3 4ebe
00000360: 3e70 653c 05d2 dabe 9d39 69bf 8440 47bf
00000370: 64e4 bfbc ccf6 3bbf ee47 93be 6b18 fd3d
00000380: 9c78 3ebe 395e d23e a6c9 8c3f 1c45 913e
00000390: 86ad cc3d 2b9a 83be 88f9 04c0 97fc 133b
000003a0: 747a 29bd 6890 c5be 3dc0 11c0 e342 8fbe
000003b0: e0fb 3d3e e311 97be 0679 1abf 7827 383f
000003c0: b81d 08bf cd80 d9be 2ad9 d9bf fc6f 95be
000003d0: 1bb0 bc3d 1c1e ccbe 6c15 d5bf bede 863e
000003e0: da57 a3be ada3 823e 0715 b93f f72a 3abf
000003f0: a40a af3e eca9 6fbe 52fe ffbc a76f 503f
0.23454003 0.0075287186 -1.3372027 -0.69138277 0.084296554 -0.6589963 -1.6282785 -0.2817194
0.19661078 -0.0020882895 1.5883917 0.9594908 -0.044369925 -0.5710941 -2.0193696 -0.4396065
0.17194402 -0.19900866 -0.85996825 0.43168315 -0.021991625 -0.20454605 1.0508541 0.22778624
0.13549313 -0.40050033 -1.7719495 -0.3484235 -0.08391379 -0.6715735 -1.2368265 -0.52478945
0.2547298 -0.36888796 -0.8784941 0.68145895 0.32770097 -0.89365685 -1.6983509 -0.58675915
-0.22384825 -0.21397932 1.5925454 0.95838994 0.15420885 -0.42239642 -2.142231 -0.4421987
-0.020753663 -0.01335455 -1.7460877 -0.4303194 0.24082074 -0.108406805 -0.9091632 0.6520338
-0.2193882 -0.18670242 -1.4862238 -0.5787749 -0.023988722 -0.25928113 -0.84360474 -0.8203068
-0.16411686 -0.39682683 -1.3968387 0.0115083605 -0.042870086 0.13155246 -2.1350145 0.2847253
0.50936615 -0.16266467 -1.9720387 -0.57195324 0.32115313 0.20558938 -1.6641827 -0.29868445
0.43693838 -0.5718197 -0.9293135 0.67074335 0.36833715 0.47145817 1.0276625 0.83184654
-0.083199516 0.67382467 0.84586424 -0.47707966 -0.25581527 0.19720411 -1.594119 -0.5785604
-0.07373064 -0.66126776 -1.4411424 -0.14256051 0.26504162 -0.33642924 -1.037934 0.6604414
0.012333821 0.35173523 1.5528525 1.2530766 -0.11903969 -0.031026253 0.11370287 -0.09703571
0.64834756 -0.43831176 -0.7674346 0.19546527 0.30290192 0.49665532 0.4694648 -0.4627956
0.31820264 -0.11505729 -1.8991404 -0.3555447 0.066596776 -0.17571865 1.0748895 1.0288451
0.08457802 -0.7499038 -1.762617 -0.53548056 -0.22321323 0.181809 -0.89256644 -0.5537729
0.32149705 0.25870377 -1.6124221 0.063329525 -0.6109146 0.49076694 1.6563634 0.39161426
-0.31815508 -0.18063343 -2.0133142 -0.48281196 -0.02528036 -0.314536 -1.9887098 -0.34541768
-0.6317603 0.5541731 1.6771156 0.34620047 -0.547231 0.57776254 0.6081238 -0.2750933
0.05233983 0.7106515 1.3708476 0.5250256 -0.16712466 0.82071805 -0.73963344 0.1945989
-0.020961624 -0.09700839 -1.1009512 -0.69590205 0.3182521 -0.4867943 -0.6956898 0.5577369
0.24537973 0.076776534 -1.4268545 -0.613272 -0.06694267 -0.6291725 -1.2769159 -0.48951027
-0.09074715 -0.32536608 -1.20803 -0.693229 0.11478152 -0.5161474 -1.3028822 -0.40025318
0.52400506 0.17451753 -1.4561323 0.6292521 0.6651848 0.5107065 1.2812093 0.58397603
0.5678188 0.2702755 -1.3671541 0.072598144 0.09586452 -0.5584384 -1.6928048 -0.40570545
-0.21178132 0.07483714 0.60991144 -1.1159154 -0.06553759 0.2601986 -1.6505585 -0.2019189
0.014003811 -0.42738357 -0.91103536 -0.7783282 -0.023424335 -0.7342346 -0.28765815 0.12358173
-0.18600696 0.4108751 1.0999038 0.2837304 0.099940345 -0.25703558 -2.0777302 0.0022580975
-0.041376546 -0.38586736 -2.2773583 -0.27980718 0.18553114 -0.29505834 -0.6034092 0.71935225
-0.5317035 -0.4248108 -1.7019398 -0.29187 0.09213277 -0.39866722 -1.6647162 0.26341814
-0.31902963 0.255155 1.4459542 -0.7272181 0.34187806 -0.23404664 -0.031249199 0.8142037

input_layer.bias f4 [64]
00000000: 8e68 123f 92fd 293c 9b30 f7be 8ab4 59be
00000010: 9049 cc3e 184d de3e bd8e 29be b92a 673c
00000020: f9b9 65bf 88c4 86be 6e9f 16bf e33b ccbd
00000030: 7452 aa3d d97a 1a3f 7e34 f4bd 2f97 cdbe
00000040: f4a6 003f 414e 963e c086 ee3e 7e83 d23e
00000050: 39b3 66bf a9d8 56be eb7b 00bd 840c 093f
00000060: 77be fdbe 18db 183f 3fed 4dbc 8bed b2be
00000070: 88f6 fa3e 5680 e5be 5a07 8d3e b8a8 fabe
00000080: 9b02 3bbc 3d97 133f 239b 913e a412 bd3d
00000090: 75fe f23d 310b d7bc b347 233f bf12 4abf
000000a0: b71a dbbd 6e11 7f3e ff9a 033f 246b 86bf
000000b0: 0160 153f c75f cebe 7574 903e 1c19 6ebc
000000c0: ee83 0f3f 521a 983e e7f5 533e fa8d 913a
000000d0: 3b22 95be 1f8b e13e 89a3 86be 4614 41bf
000000e0: 528d 403f 00bb 823e 1e82 82ba 3c61 3abf
000000f0: f54b 9cbe 1038 763e 0468 edbe 3a6f 86be
0.5719079 0.010375397 -0.4827927 -0.21260276 0.39899874 0.43418193 -0.16558357 0.014109307
-0.89736897 -0.26321816 -0.5883702 -0.0997236 0.08316508 0.603437 -0.119240746 -0.40154406
0.5025475 0.29356578 0.4658718 0.41115946 -0.9011722 -0.20981087 -0.031368177 0.5353472
-0.49559376 0.5970931 -0.012568771 -0.34946856 0.49016213 -0.44824475 0.2754467 -0.48956847
-0.011414195 0.57652646 0.28438672 0.09232071 0.1186494 -0.026250454 0.6378128 -0.78934854
-0.10698455 0.24908993 0.5140838 -1.0501447 0.58349615 -0.40307447 0.2821385 -0.014532354
0.56060684 0.2970758 0.20699273 0.0011104934 -0.29127678 0.44051453 -0.26296642 -0.7542156
0.7521564 0.25533295 -0.0009956991 -0.7280462 -0.305267 0.24044824 -0.4636842 -0.26256734

hidden_layer_1.weight f4 [64, 64]
00000000: 319b fd3e 5ab3 bf3e 3bd7 bbbe f219 623f
00000010: 568b e93d d473 fdbd d61f 4c3f 5d2a 0e3f
00000020: 676a a53f 5258 4c3f 7b1c 0cbf 9b11 0e3f
00000030: 36d8 f73e 2fc2 11bd 5755 793f 4802 4e3e
00000040: fa2d ad3c d8c9 933e 0fac f33e 3ad6 ec3e
00000050: 9e4e eabe d6a6 983e 2751 f53e 9e06 e93e
00000060: 9d0b 08be b61c 1e3d 9f9e 153f 6ccc 883d
00000070: 3dd1 6a3e 3d6c ac3d 88a4 003f 81cd 31bf
00000080: ed88 b93e 8515 f03e 0c5e 453f 9cc2 083f
00000090: 3f7a 2d3f 8726 063f 3b50 cfbd 33c1 853e
000000a0: e551 b6bd b129 de3e 68ac d03e 6305 5f3f
000000b0: beb9 d13e 60d9 36bd 0162 d83e 2b25 b23e
000000c0: b092 983d 84d9 08be 5372 2c3f e304 323f
000000d0: 23bc 2e3f 6380 883e 8b8b 763f e57d a43f
000000e0: aff3 4abe 2415 853e 970b 1d3f f171 ff3c
000000f0: 9a06 ed3e c7df 823c ef57 253f e818 2ebd
00000100: 9e58 ff3d be01 323f 6509 7dbe 7d85 5f3f
00000110: e2b2 ac3e 26f2 4dbe 42d7 ff3e 2978 253f
00000120: 5d4e bd3f 590c 6c3f 329e bebe 6815 293f
00000130: d033 9f3e 20b3 3d3e 632e 203f 8ce7 393f
00000140: 546a 873d 60b5 f83d 7d7a a73e 0cee 253e
00000150: e16f 8d3e 5b61 89bf 1b43 9dbe 0d12 3a3e
00000160: f3ff bc3e 20a2 103e 9cfe 9e3e fda1 0e3d
00000170: 3a20 1f3e b432 013f 631c a73e a195 ffbb
00000180: 8fbd 1d3f c11a f33d 8d5d dd3e 6f6d c73e
00000190: e5b3 073f 250b c03e 8677 5ebf 823c 9a3e
000001a0: a167 d5bf b12d 62be 638f cb3d b9bd 9a3f
000001b0: b066 5b3e 4570 ce3e 9aab 853e 2c62 233f
000001c0: 4214 ab3d 82ce 6abf c23e 5a3e ae6d 0f3f
000001d0: 222f 2e3f 8f37 95bd 5a4f 623f b6ab 8a3f
000001e0: acf2 3cbf 762a 973e 582f f23e 7d4f 3f3f
000001f0: 12e2 e33e 8250 e53e 61bb 1c3f ac81 113e
00000200: 360f 803e 5032 bc3e 7839 d8be d6d1 763f
00000210: ee42 d63d 3194 53be 6628 193f aab1 dd3e
00000220: 5e2a a93f 8330 7e3f 338a edbe 20c3 bb3e
00000230: b419 7a3e 34d2 173e 48eb 0d3f 849e 093f
00000240: 7475 f43c 4690 083d ed63 7e3e 30ac 413e
00000250: c19b 3a3e fc39 bcbe 6ef2 1b3e eb74 1f3e
00000260: 7005 873e 9cb3 0e3e 7322 06be abd1 dcbc
00000270: 8785 063e dfd4 5c3e fcb4 683e 300a b93d
00000280: 531e c43e b15a 853d ee90 9d3e 9d37 703d
00000290: 1701 ab3e f06d 003f 1ef3 22bf 0b1b 843e
000002a0: 365a cbbf 8232 6a3e e82a 563e a6cd 763f
000002b0: d299 2d3e a18d b63e 674c 823d 8638 a13e
000002c0: 9ec0 013e f13e fcbe 6eae f23e b669 053f
000002d0: 0556 513e 2974 323e 7088 5e3f 270a 803f
000002e0: 5801 acbe 1951 3c3e fbb7 153f 0651 253f
000002f0: 4ce4 003f 9ebc 063e d2f5 883d 4b5a 5b3d
00000300: 5810 d4bd 2810 99bc 8f27 d63c 28cc 8d3c
00000310: 01d7 00bd 75c6 a0bd 50b5 c53d 208e 433d
00000320: 08dc c1bc 703a 5c3d ba4f f5bd 80fc 2ebb
00000330: e810 d03c 3abf c63d 40a9 c9bb b680 883d
00000340: 059a bf3d a69b 7dbc 26ef 96bd 8a66 e5bd
00000350: 4e1c 7f3d ca05 bd3d e0a0 9e3c 6091 ef3c
00000360: 490d 94bd a8a8 03be 4781 153d 4090 d93b
00000370: ed36 e13c 4c01 44bd 802b a9bd db53 9b3d
00000380: 6491 20bd 0384 903a aa0e b2bd 73b1 a5bc
00000390: 604f d83b 7c08 383d c9c8 09be 7e14 eabd
000003a0: d831 cd3d 78f9 a7bc 9031 92bd d424 8d3d
000003b0: f4da a8bd abdf ebbd 004a 013d e20f f9bd
000003c0: 3bd0 57bd f470 b6bd bb25 943d 706f 33bd
000003d0: 44db 253d e3e8 a1bd 6872 adbd e8e2 e0bd
000003e0: c68d 903d c823 c53d a6f9 a7bd 802a 46bd
000003f0: b4fc 993d 7521 eebd 687b 5fbd cf82 0fbe
0.49532464 0.37441522 -0.36687645 0.8832084 0.11403529 -0.12375608 0.7973608 0.5553339
1.2923096 0.79822266 -0.5473096 0.55495614 0.48407143 -0.03558558 0.97395843 0.20118058
0.021140087 0.28864932 0.47592208 0.46257192 -0.45763105 0.29814786 0.47913477 0.4551286
-0.1328568 0.0386016 0.5844516 0.066796154 0.2293138 0.08419082 0.50251055 -0.694542
0.3623728 0.46891418 0.7709663 0.5342195 0.6776466 0.5240254 -0.101227246 0.26123962
-0.08902339 0.43391183 0.40756536 0.87117594 0.40962023 -0.0446409 0.4226227 0.34793982
0.074498534 -0.13364226 0.67361945 0.69538707 0.68255824 0.2666045 0.96306676 1.285092
-0.1981952 0.25992692 0.6134581 0.031182261 0.462941 0.015975846 0.645873 -0.04250422
0.12468074 0.6953391 -0.24710615 0.8731306 0.33730227 -0.20111904 0.49968916 0.64636475
1.478954 0.9220634 -0.37230068 0.6604829 0.31094217 0.18525362 0.6257078 0.7261894
0.06612077 0.121439695 0.3271064 0.16204089 0.2762442 -1.0732836 -0.3071526 0.18170948
0.36914024 0.14124346 0.31053627 0.034822453 0.15539637 0.5046799 0.32638845 -0.0077998196
0.6161737 0.11870337 0.43235436 0.3895068 0.5300887 0.37508503 -0.8690113 0.3012429
-1.667225 -0.22087742 0.09939458 1.2089149 0.21425891 0.4032003 0.26107484 0.63821673
0.08353473 -0.91721356 0.21313003 0.5602673 0.6804067 -0.072859876 0.8840233 1.0833652
-0.7380779 0.29524583 0.47301745 0.74730664 0.44508415 0.44787985 0.6122342 0.14209622
0.25011605 0.36757135 -0.42231345 0.96413934 0.104619846 -0.20662 0.5982727 0.4329961
1.3216054 0.99292773 -0.463945 0.36672306 0.24423867 0.1482628 0.55437136 0.537575
0.029841162 0.033340715 0.24842806 0.1891334 0.18223478 -0.3676299 0.15229198 0.15571944
0.26371336 0.13935703 -0.13099079 -0.026955446 0.13136874 0.21565579 0.2272529 0.09035146
0.38304386 0.06511439 0.30774635 0.058646787 0.3339927 0.5016775 -0.6365222 0.25801882
-1.5886905 0.2287083 0.20914805 0.96407545 0.16953209 0.3565493 0.06362229 0.31488436
0.12671134 -0.4926677 0.47398704 0.5211443 0.2044297 0.17427124 0.8692694 1.0003098
-0.33594775 0.18390311 0.58483857 0.64576757 0.50348353 0.13157889 0.066875115 0.053552907
-0.1035468 -0.018684462 0.02614191 0.017309263 -0.031455044 -0.07850353 0.09653723 0.047742963
-0.02366449 0.053766668 -0.11978097 -0.0026700795 0.025398687 0.09704442 -0.0061542094 0.06665175
0.09355549 -0.015479004 -0.07369833 -0.112011984 0.062282853 0.0922962 0.01936382 0.029244125
-0.072290964 -0.12857306 0.03650024 0.0066395104 0.027492011 -0.0478528 -0.0826025 0.075843535
-0.039201155 0.0011025671 -0.08694203 -0.020226216 0.006601259 0.044929966 -0.134555 -0.1142969
0.100192726 -0.020504698 -0.071383595 0.0689179 -0.08244887 -0.11517271 0.031564713 -0.121612325
-0.05268882 -0.08908263 0.07233759 -0.043807447 0.04049231 -0.07905748 -0.08469087 -0.10980779
0.07058291 0.09625965 -0.082019135 -0.048380375 0.075189024 -0.11627475 -0.05456105 -0.14014743

hidden_layer_1.bias f4 [64]
00000000: 4df0 98bd a36f 66be 5d5e 90be 5b58 b43c
00000010: f6df 9c3c 1dbc c1bc c941 c6bd c696 ef3d
00000020: 7faf 86bd 3b7c b3bb 6ecf 433f 882a 313e
00000030: de3c b63c 83e5 94bd 645c 1c3e eedd 46be
00000040: 4786 3c3d 2b50 5dbe 3a05 69bd dbe6 5abd
00000050: fb71 13be e45f 2f3e cf72 7fbd 1029 e73c
00000060: d1ee 1fbe 8b27 2b3d d3e4 e1bd 7aad f93b
00000070: 9cc0 46be da3b d7bd d1e3 cdb9 e3c6 aebe
00000080: 0947 7dbe 5817 aabe c0f2 873c 1cde 9ebd
00000090: 9b88 0cbe 786b 993d 9ff3 bcbe abb6 95be
000000a0: 02cd 9ebe b1dd 713d a857 5cbe c470 febd
000000b0: 5a6a 45be 03cd 38bd 2044 d0bd b30f 02be
000000c0: e0b6 fabd 8c5e 883c 9477 833c a202 253c
000000d0: d925 fabd 8a79 d0bd 4218 91be 1df8 c7bd
000000e0: 1f6f 82be 8711 17be acb1 a0be 2cf8 4bbe
000000f0: 3cd5 5abc b458 7dbd 5e12 943e 549a c4bc
-0.07467709 -0.22503524 -0.28196993 0.022014787 0.019149762 -0.02364927 -0.09680516 0.116986796
-0.06576442 -0.005477456 0.7648839 0.1730138 0.02224582 -0.072703384 0.15269619 -0.19420597
0.046026494 -0.21612613 -0.05688975 -0.053442817 -0.14398949 0.17126423 -0.06236535 0.028217822
-0.15618445 0.041785758 -0.11029973 0.007619557 -0.19409412 -0.10509463 -0.00039270383 -0.34136114
-0.24734129 -0.33220935 0.016595244 -0.07757208 -0.13723986 0.07491201 -0.36904618 -0.29240927
-0.31015784 0.059049312 -0.21517813 -0.12423852 -0.19278851 -0.04511739 -0.10169244 -0.12701301
-0.12241912 0.016646646 0.01604823 0.0100714285 -0.1221425 -0.10179432 -0.2833882 -0.09764121
-0.25475404 -0.1475278 -0.31385553 -0.19918889 -0.013356503 -0.061852172 0.28920263 -0.02399937

hidden_layer_2.weight f4 [64, 64]
00000000: a68c d43d 801f 063c 3c5b 803d e038 fe3b
00000010: f41b 903c ac7b 70bd c642 c8bd e0f9 d9bd
00000020: 642c d6bd 1cb5 eebd 07f5 3f3c 40b5 1d3d
00000030: 1d6a eabc a032 e9bc f7e5 00be 9cf1 7abd
00000040: 90e1 30bd fddd 713c b6a9 e0bd e48a efbb
00000050: d4fb b43d c47b 2dbd c9e0 483d 400b 61bc
00000060: ad76 b03d 350e 4c3d 5a9e e13b 1c01 f5bb
00000070: 6b7d bbbc 2657 55bd 9707 8e3d 40d5 aabd
00000080: 60ef a73b b6e9 993c 6cc7 c9bd eb38 ddbc
00000090: bb49 b3bd 92a7 b73c 7e02 cebd 8db1 d33d
000000a0: fc2d f63a 2679 8ebd 54c4 cfbd 4031 efbd
000000b0: 6464 5bbd 5f93 ddbd 1dd5 41bd fb22 74bd
000000c0: aaf2 ec3d 9000 33bd 4092 fbbd 1454 d33d
000000d0: f5e2 d03c bc38 433d cb6f 01bd f7f3 763d
000000e0: 505b eabd b1b2 c2bc f98a f1bd 6080 debc
000000f0: f9a4 b7bb c469 e3bd a03f acbc 1f83 edbd
00000100: 1af9 e1bd a030 5d3c 592b e9bd 3a1d a3bd
00000110: 5007 61bd f748 a7bd 5876 cc3c eed5 59bd
00000120: 11aa e1bd 299b 293d 881f 2abd ae53 913d
00000130: f85b d6bd 02e6 ebbd 4837 1c3d 4b69 f5bd
00000140: a4c5 5f3d c0da 07be 5edb 95bd ffbf 933d
00000150: be8e 6dbc f430 5e3c 1d78 0a3d 52e3 96bc
00000160: 2428 ccbc 9711 a6bd 0061 94bd 0331 a33b
00000170: b153 fc3c d0c6 04bc 8030 10bc 3e68 853d
00000180: cb3b c6bd 8c5b 0bbe 006e 95bd b534 debd
00000190: cf7d be3d 6207 953d 30f4 eabd e2bd 12bc
000001a0: 7307 e13c feff d1bc 4e85 163d 6d01 d33d
000001b0: f8a5 463c 1ac1 303d 781b 0a3d a90d dabd
000001c0: 463c ddbd 4e57 b43d d719 743d 0272 f3bd
000001d0: d6d3 a03d 342c 0bbd d9da c3bb 44a5 0cbe
000001e0: a215 cbbd 365c e0bd bec7 bebd ac88 f4bd
000001f0: 55c5 52bd 4aee ba3d 58cd c2bd 1b73 913d
00000200: 1c1f 3bba 2c2f 0b3d ebaa a63d 6a66 90bd
00000210: 2f00 e73c dcb7 e1bd c1a4 febd a8b3 e5bd
00000220: b03c 3d3d 3084 cbbc 489d 8bbd 5850 9fbd
00000230: 7f0f 963c 9a0d 95bd 4de5 eebd 90b3 073c
00000240: 5e97 d13d b62f a4bd ddbe 993c cfc3 07bd
00000250: b494 ffbd be7d c2bd cc13 363d 5ed2 bcbc
00000260: 846d 9f3c c754 d2bd 104d b13d 20a8 b3bd
00000270: be1e d63c 6d70 d43d 7abf 7ebd 704b 843d
00000280: 6ead 95bd c8f0 8ebd ac5e cbbd 0260 a43d
00000290: 4821 0bbd 175e e8bc 6bb7 de3d 7df2 c43d
000002a0: 53df bdbc d81d f0bd 472a af3c 86b5 94bd
000002b0: 1c28 abbc 8a96 bfbb 75fb 2bbc 73a2 a63d
000002c0: a89b e13c 3833 023d 706f a13d 1eb4 84bd
000002d0: 27af c1bd 3651 8fbd 6bd6 99bd e916 ce3d
000002e0: fb49 a93c 05ad bebd 7a14 ba3d 52db 09be
000002f0: 73c4 8abd 0417 e7bd 9082 a93c 33fb ad3b
00000300: 3ba0 a0bd a40a aa3d fca6 96bd 4090 533d
00000310: f83e a5bc ccf9 48bd 8410 94bd 34f5 62bd
00000320: 1098 7cbc 50f7 c3bd c445 efbd 8043 ff3d
00000330: b564 34bd c8bb 843d 08b6 b63b bfff 883d
00000340: c836 cf3c 8a8a b2bd 3a1d 953d e5c2 30bd
00000350: ec85 ad3d ef44 163d 660f 5e3d e08c 7fbc
00000360: c6cd 153c 8349 18bd 9d16 2c3d 8e67 55bd
00000370: bf3e 813d 8ca9 9bbd fd8b bd3d 79b7 313d
00000380: c5aa 04be 6ab7 28bd 3081 383d 5012 cdbb
00000390: f525 9fbd 0a41 8cbd a6d7 8f3d fe54 f4bd
000003a0: 7196 bf3d 9b4e bdbd 0cae 5a3d ae20 85bc
000003b0: 7f64 79bd 56d0 8cbd 480c 493d 2aad e9bc
000003c0: b80b e53c 58d3 d2bc 73ab 9abb eaba ee3d
000003d0: a665 b23d 0870 fbbd 57db e33b 9c69 e7bd
000003e0: 1016 e1bc 7879 f2bd 96f3 0ebd c115 bebd
000003f0: 7a7b 543b d085 963d 587f a33d 1cf1 043d
0.10378389 0.008186221 0.062674016 0.007758245 0.017591454 -0.058711693 -0.09778361 -0.10643363
-0.104576856 -0.116556376 0.011716134 0.03850293 -0.028615052 -0.028466523 -0.12587725 -0.061265573
-0.043183863 0.014762399 -0.1096987 -0.007310258 0.08837095 -0.04235436 0.049042497 -0.013735592
0.086163856 0.049818236 0.006885332 -0.007476939 -0.022886952 -0.052085064 0.069350414 -0.083414555
0.0051249713 0.0187882 -0.0985249 -0.02700468 -0.08754297 0.022418771 -0.10059069 0.103365995
0.0018782015 -0.06956701 -0.101448685 -0.116793156 -0.053562537 -0.108191244 -0.04732238 -0.059603672
0.11569722 -0.04370171 -0.12283754 0.10318771 0.025498847 0.047661528 -0.031600755 0.060291257
-0.11443198 -0.023766847 -0.11794085 -0.027160823 -0.005604383 -0.111041576 -0.021026433 -0.11597275
-0.110338405 0.013500363 -0.11385221 -0.07964559 -0.054938614 -0.08168214 0.024958774 -0.053182535
-0.11018766 0.041407738 -0.041533977 0.07096039 -0.104667604 -0.1151848 0.038138658 -0.11982974
0.054631844 -0.1326704 -0.073172316 0.07214355 -0.014499364 0.013561476 0.033805955 -0.018418942
-0.024921484 -0.08108824 -0.07245064 0.004980208 0.030801626 -0.008104041 -0.008800626 0.06514023
-0.09679373 -0.13609141 -0.072963715 -0.10849897 0.0930134 0.07276799 -0.11472356 -0.008956404
0.027469372 -0.025634762 0.036748223 0.10303006 0.012124531 0.043152906 0.033717602 -0.10647137
-0.10802512 0.088057145 0.059594955 -0.1188698 0.078529045 -0.033977702 -0.0059770164 -0.13734919
-0.099162355 -0.10955088 -0.093154415 -0.119401306 -0.05145772 0.09127481 -0.095118225 0.07102033
-0.00071381195 0.033980533 0.08138069 -0.07050784 0.02819833 -0.110213965 -0.12433768 -0.11215907
0.046200454 -0.024843305 -0.068171084 -0.07778996 0.018317936 -0.07277985 -0.116648294 0.008282557
0.10233949 -0.08016913 0.018767769 -0.033145722 -0.12479535 -0.0949664 0.044452474 -0.02304953
0.0194614 -0.10270076 0.08657277 -0.08772302 0.026137706 0.10373006 -0.062194325 0.06459701
-0.0730847 -0.06979519 -0.099301666 0.080261245 -0.033967286 -0.028365178 0.10874828 0.096165635
-0.023177778 -0.11724442 0.021382464 -0.07261185 -0.02089315 -0.005846803 -0.010496964 0.081364535
0.027540043 0.031787127 0.07882583 -0.06479667 -0.09457236 -0.06997912 -0.075116 0.100629635
0.02066516 -0.093103446 0.09085937 -0.1346257 -0.06775751 -0.11283687 0.02069214 0.0053094863
-0.078430615 0.08302811 -0.073560685 0.05165124 -0.020171627 -0.04906635 -0.072297126 -0.055409625
-0.015417114 -0.095686555 -0.116832286 0.124640465 -0.044041354 0.06481129 0.005575899 0.06689405
0.025294676 -0.087178305 0.07280965 -0.043154616 0.08472809 0.036686834 0.054213904 -0.015597552
0.0091432985 -0.03717948 0.042013753 -0.05210071 0.06310796 -0.07600698 0.09255216 0.043387864
-0.12955768 -0.041190542 0.045045078 -0.0062582865 -0.077709116 -0.06848343 0.070235536 -0.119302735
0.09354866 -0.092435084 0.05338864 -0.016250934 -0.060886856 -0.068756744 0.049083978 -0.028524954
0.02795969 -0.025735542 -0.0047201454 0.11656745 0.08710794 -0.12277228 0.0069536376 -0.1129944
-0.02747634 -0.118395746 -0.03490027 -0.09281493 0.003242223 0.073497415 0.07983273 0.032456502

hidden_layer_2.bias f4 [64]
00000000: dc3b f6bd 89d0 813d bce6 2fbd 758b 0bbe
00000010: f852 12be a21e b03d 4510 70be c084 a5bc
00000020: d30b 56be 469f 9b3e 35a8 31bd dee2 8dbc
00000030: a15b 15be 6e39 09be e8ce 0c3d 0499 6e3d
00000040: a0e1 08be f08e 3a3f 532b 173d fdc3 9ebd
00000050: 0b14 27bc f605 733d b1a6 82bd c5ae debd
00000060: bfb9 c63d 046c 9c3d b122 2ebd ed36 843d
00000070: 59b2 17be 80e1 81bd af9f 16be fcec 98bd
00000080: 8a3e 68be b10f b33c 2591 1c3d 7ac5 7cbd
00000090: 4f63 a63d 067a 12be 4f17 26bd a4aa 34be
000000a0: be3c 17bd a256 d3bd 2ac2 b3bd e4aa 16bb
000000b0: aee0 1fbe 263f 23bd 861a d63d 40a1 283f
000000c0: 29fa 523d 5fdb fa3d f027 bebd da04 c2bd
000000d0: f9dc ccbd 54ed ec3c 7fd9 2abd b9dc dfbd
000000e0: 3f7d 8f3c e525 aa3b 3dcb 93bd 2da3 92bd
000000f0: c468 65bd b292 b1bd ebb1 4ebe 1e7e 8c3d
-0.12023136 0.06338603 -0.042944655 -0.13627417 -0.14289463 0.08599593 -0.23443706 -0.020204902
-0.20902948 0.30394953 -0.043373305 -0.017320093 -0.14585735 -0.13400814 0.03437701 0.058251396
-0.13367319 0.72874355 0.03690655 -0.077522255 -0.01019765 0.059331857 -0.0637945 -0.108731784
0.09703397 0.0763779 -0.042513553 0.06455789 -0.14814128 -0.06341839 -0.14709352 -0.07467076
-0.22680107 0.021858068 0.038224358 -0.061711766 0.0812441 -0.14304361 -0.040549573 -0.17643219
-0.036923163 -0.10319258 -0.08777268 -0.0022990042 -0.15613052 -0.039855145 0.10454278 0.6587105
0.051508103 0.12248873 -0.09284961 -0.094735816 -0.10003085 0.02892176 -0.041711327 -0.109307714
0.017515777 0.0051925057 -0.07216499 -0.071600296 -0.056008115 -0.08670558 -0.20185058 0.068599924

output_layer.weight f4 [2, 64]
00000000: 9815 c13d 4927 a33d 0e78 993d 9367 21bd
00000010: 7f37 173d 4f26 a4bd f93c a8be d08c 1abd
00000020: 6946 a2bd 0c77 77bf 30e5 bcbd 8676 fbbd
00000030: d869 49bc f501 bdbe 24f0 9d3d c213 663d
00000040: a0ae bebd 43c1 1fbf b397 f0bb d1be 733d
00000050: 46b0 0dbf dfcf 4b3d 7d29 cd3c d32e c0be
00000060: 481a c13c 06a7 ce3d 9f50 973b 329c 21bd
00000070: ebc4 69be a6a6 e4bd 0142 e13c c2a8 cf3d
00000080: cece 82bd 3680 febe e63d 1bbf c07e acbd
00000090: 04af a63e 279a c5bd b4ba b5bd 0707 c3be
000000a0: 2164 e1be 57d0 32bf eae7 8dbd b692 02bb
000000b0: 0c0e bebe 5e18 18bf 97f5 57bf 7433 6bbf
000000c0: f667 a5bd 6686 50bf 9f14 753d e75b 07bf
000000d0: 67de 813d 9992 513c 322c b0be b316 1fbd
000000e0: 4a3c 19bf d7e7 18bf 8d6c 323d c3e8 a63c
000000f0: f036 513d 763d 0e3d 2f95 f8be ce3c 5cbf
00000100: 2eac 34bc 6f94 f3ba 23f7 9dbd d4b3 ddbb
00000110: 046f 7dbc 23be b43d 3b5e 0dbf 8432 7a3d
00000120: a875 00be 3d8c c53d c993 31bf 5457 9a3d
00000130: 35da 5bbd 098f 12bf c8f9 893d b3f6 64bc
00000140: 1da9 32bc 8478 8e3f e3aa 803d 16b5 3abf
00000150: 7f56 e5be 1658 cb3d 2305 163b 391b 15bf
00000160: 72b5 853d 6013 9b3c 40aa 123c 4c47 503d
00000170: 22f3 18bf 846f c63d c147 973c 50ef 88bc
00000180: 0aac 22bf 77b9 e4be 9c0c b2be 9332 2dbf
00000190: c0f8 dbbe b5e8 84bd 89d1 2ebd 65f1 18bf
000001a0: 2f54 d7be c185 7dbe 9836 c3bc 9d63 aa3b
000001b0: 0a18 0dbf a27e afbe 889f 7ebd 2818 c73e
000001c0: 799c 413d 2a1c 03be 0b65 81bd 6cba b6be
000001d0: 3309 823d abe0 3dbf 5c70 09bf 5e76 3abf
000001e0: 0842 aebe c46f f6be 6217 f13d ce85 c83d
000001f0: 8846 e73c 8735 3fbd fc5f e8be 9a28 90bd
0.09427947 0.079664774 0.07493602 -0.039405417 0.03691816 -0.08015119 -0.32859018 -0.037731946
-0.07923586 -0.96666026 -0.092234015 -0.12278466 -0.0122933015 -0.36915556 0.07711819 0.056171186
-0.09310651 -0.6240427 -0.0073423027 0.05950815 -0.55347097 0.04975879 0.025044197 -0.37535724
0.023572102 0.10090451 0.004617765 -0.0394556 -0.22829024 -0.11164598 0.027497293 0.1013961
-0.06387101 -0.49707192 -0.60641325 -0.08422613 0.325554 -0.09648543 -0.088735014 -0.380913
-0.44021705 -0.6984915 -0.06929 -0.0019923872 -0.37120092 -0.5941218 -0.84359115 -0.91875386
-0.080764696 -0.81455076 0.05983412 -0.52874607 0.06341248 0.012791299 -0.34408718 -0.038840007
-0.5985762 -0.5972876 0.043560553 0.020374661 0.051077783 0.034726582 -0.48551318 -0.8603028
-0.011027379 -0.0018583665 -0.07713153 -0.006765822 -0.015468363 0.08825328 -0.5522191 0.06108333
-0.12544882 0.09645889 -0.6936613 0.07536188 -0.053674895 -0.57249504 0.06737095 -0.013974833
-0.010904578 1.1130528 0.06282594 -0.72932565 -0.44792554 0.099289104 0.0022891245 -0.58244663
0.065287486 0.018930137 0.008951724 0.050849244 -0.5974599 0.09689239 0.018466832 -0.016715676
-0.6354376 -0.44672748 -0.34775245 -0.67655295 -0.4296322 -0.06489698 -0.042680297 -0.5974334
-0.42056414 -0.24758054 -0.023829743 0.005199863 -0.55114806 -0.342763 -0.06216386 0.38885617
0.047268365 -0.12803712 -0.063181005 -0.35689104 0.06349411 -0.7417094 -0.5368707 -0.72836864
-0.34034753 -0.48132145 0.11772038 0.09791146 0.028231874 -0.046681907 -0.4538573 -0.07038994

output_layer.bias f4 [2]
00000000: 9d90 00bd 5698 003e
-0.031387914 0.12558112
