DQN - CartPole/data/Apprentice 5.pt (torch, 38460 bytes, 8 tensors)

input_layer.weight f4 [64, 4]
00000000: 4c07 a9be 1837 fb3d 806c 763c a0ed 0f3e
00000010: 9913 18bf d16b ab3e 4a7f 783f d51f 9f3e
00000020: 769e a73e ba86 f4be 1d3b 72bd 957f 103e
00000030: 8afa 8dbe c4f4 953d 1fa0 0d3e c060 873e
00000040: 4d12 4bbf f0bb d33e 0734 3f3f b5cd bf3e
00000050: 4c7c 04bf 952d a13d 433a 043f a5e1 053f
00000060: 1a12 113f 3564 a23e 17f7 c6be 1a80 8d3e
00000070: 0c1a 07be 42e0 d33d b42c 8f3e 34ba 8dbe
00000080: 0071 d2be b52b b83e 5a8e 333f 8355 9f3e
00000090: 408a 0e3f 3c2f ef3e c9e6 4f3e 9973 913e
000000a0: 3fe9 ffbd 633c 5d3e 6495 a6bd 06ba 84be
000000b0: 8a8f 223f 768a adbe cd4a 18bf d639 333e
000000c0: 15ef 39bf ea3f ad3e 7581 003e 983d ecbc
000000d0: b0c3 42bd a42b 113e 8ad6 e6be 80a5 e93c
000000e0: e1b9 313f 2c79 0dbf 4197 513e e9a6 b1be
000000f0: eeac 2d3f d5ed ddbe 5ac4 8fbf 4755 e2be
00000100: a8cf 173f 40cf 08bf 9685 5fbf d8d7 ffbe
00000110: 6b2f 8a3d b0e9 96be 7977 073f c81f d53e
00000120: 9a14 0c3e 3614 b5be b422 09bd c056 ffbe
00000130: 5e15 973e 401a 25bc eca6 6d3e b034 fd3d
00000140: b049 ae3d c0b0 393e 9353 383f cb54 24be
00000150: bc14 1a3f f4b9 6cbe ca97 62be 461a 053f
00000160: 7809 06bf fabf 3d3d fd5d 823f 70e5 c93e
00000170: 35d4 143f e477 373e e1a5 2a3e 62f0 c7bd
00000180: c400 793e 0fe0 62be 38c0 32be 3196 3c3e
00000190: 107d d63e e58f 3c3e 6042 1dbe fe5c b0be
000001a0: d1b8 1f3d 9a23 b23b 0224 7d3f 8b5d a9be
000001b0: 1c92 1bbe 1a60 0fbe c283 2e3f d381 813e
000001c0: fe0c 403f 32c3 413c ab88 e63e cf50 5b3e
000001d0: 305b 8b3e 50b2 253e c845 f3bd 9870 ed3d
000001e0: d16f 0fbf 2695 bd3e 2be0 483f 0b22 b73e
000001f0: dbe9 d23e df6a ae3e 465b 23be 82ab 6c3e
00000200: 534d 8e3d 901e eebe 3c5b 55bf 4f70 783d
00000210: 2302 6f3e 0e5e dabe 8278 10be 3c04 273e
00000220: 694b 063f e626 9bbe bec6 d5be f24f b73e
00000230: 69df c43e 8225 393e 4719 e9be 750d 983d
00000240: 9e50 ac3d 7ea1 babc 1821 253f c5e4 833e
00000250: 0145 82bf a780 c13e eb09 8b3f 0353 e9bd
00000260: 5669 573f 3cab f33e b4ad 173e d99e c8bc
00000270: 12b3 573f 4a62 46bd fa28 b8bf d2ba e4bd
00000280: d2e0 ec3e a05b bb3c aed3 833e 60f4 f0bc
00000290: 89b8 203e 1be5 30be c3b6 9fbd 25f6 cbbc
000002a0: 2ce0 8ebc 104e 113e e057 203f 8bf8 f63e
000002b0: 8e25 ad3e 3b55 033f ab54 883e f394 843d
000002c0: 8e08 83be 1a36 28bb dd0e cc3b 6a45 e93e
000002d0: b782 febe 758b 33be 7f67 15bf 8a58 a8bd
000002e0: 3a5d f33e 5b63 06be f833 7ebe 23e1 1f3e
000002f0: 1132 813d 27ec 6e3e f12a 613f 8f08 4fbe
00000300: d09a b23d e2e3 bb3d 5b22 473f db3f c83d
00000310: 6f12 9f3e 0e20 aebe 8492 26bf d16b e6be
00000320: cf9b 9abd ba41 d33e ca34 243f 48ab 83be
00000330: 12a0 37bf 9117 f03e 4e3e 633d c3d6 f43d
00000340: d0b5 b63e 15c4 04be f8d5 43be 6052 fb3e
00000350: d05c a9bd d830 1cbe 908d e63d 31ab 89be
00000360: 3579 e43e b9e9 bcbe 647d c6bf cb0d c5be
00000370: 762e 023f 1f33 3bbe e362 aebf feec 6ebe
00000380: ebd0 8ebe 7b63 a53e efa2 d53e 20e1 0fbe
00000390: d48c 263f 342a 303e a76c c3bd 87e2 683e
000003a0: 0eab 343f b7b1 cf3e eeaa 963e 5970 953e
000003b0: cf07 593e 9bb7 4d3c b8a6 4b3f 0778 98be
000003c0: cee8 2b3f 841c 5dbe 36cb 7c3d 1574 39be
000003d0: 3e58 e33e de57 073f 0c49 893e 0a75 9f3e
000003e0: cf29 383e b950 3ebe d3c8 b2be 3b98 2a3e
000003f0: 8f82 4bbe ee4a b6be 7a69 3b3f 99a9 723e
-0.3301338 0.12266368 0.015040517 0.1405549 -0.59404904 0.33480695 0.9706923 0.31078973
0.32738084 -0.47759038 -0.059138406 0.14111169 -0.2773021 0.07322076 0.13830613 0.26441002
-0.793248 0.41354322 0.7468876 0.3746163 -0.5175216 0.07870022 0.516514 0.5229743
0.56668246 0.31717077 -0.3886039 0.27636796 -0.1319353 0.10345508 0.27963793 -0.27681124
-0.41101837 0.35970846 0.70139086 0.31119928 0.556797 0.46715724 0.20302881 0.28408507
-0.1249566 0.21605067 -0.08133963 -0.25923175 0.63500273 -0.338947 -0.59489137 0.17502531
-0.72630435 0.33837825 0.12549384 -0.028837964 -0.047549903 0.14176804 -0.45085555 0.0285213
0.69424254 -0.5526302 0.20467855 -0.34697655 0.67841995 -0.43345514 -1.1231797 -0.44205686
0.59301233 -0.5344124 -0.8731321 -0.49969363 0.067473255 -0.29475164 0.52916676 0.4162581
0.13679734 -0.35366982 -0.03348036 -0.49870872 0.2950849 -0.010077059 0.23208207 0.12363565
0.085101485 0.18133831 0.72002524 -0.16047971 0.6018789 -0.2311781 -0.22128215 0.51993215
-0.523582 0.04632566 1.0184933 0.3943286 0.581363 0.17916828 0.1666484 -0.09762646
0.24316698 -0.22155784 -0.17456138 0.18416668 0.4189229 0.18414266 -0.15357351 -0.34445947
0.038994614 0.005436373 0.9888307 -0.3307918 -0.15192455 -0.14001504 0.68169796 0.2529436
0.75019825 0.011826323 0.45026144 0.21417545 0.27218008 0.16181302 -0.11878544 0.11593741
-0.56029993 0.37027854 0.78467053 0.3576816 0.41194043 0.3406591 -0.15952787 0.231123
0.06948342 -0.46507692 -0.8334234 0.06065398 0.23340659 -0.42649883 -0.1410847 0.16310209
0.52458817 -0.30303115 -0.4175319 0.3580318 0.38451698 0.18080714 -0.45527098 0.07424442
0.08413814 -0.022782084 0.6450362 0.25760475 -1.0177308 0.37793466 1.0862402 -0.11392786
0.84145105 0.4759158 0.14812356 -0.024489807 0.84257615 -0.04843358 -1.4387505 -0.11168446
0.46265274 0.022870839 0.25747436 -0.029413402 0.15695395 -0.17274897 -0.07798531 -0.024897644
-0.017440878 0.14189935 0.62634087 0.48236498 0.33817714 0.51301926 0.26627097 0.06473722
-0.25592464 -0.0025667013 0.006227358 0.4556077 -0.49709103 -0.17533667 -0.5836105 -0.082200125
0.47532064 -0.13123839 -0.24824512 0.15613227 0.063083775 0.23332272 0.8795615 -0.20218109
0.087209344 0.091743246 0.777868 0.097778045 0.3106875 -0.3400883 -0.65067315 -0.45004132
-0.075492494 0.41261083 0.6414305 -0.25716615 -0.7172862 0.4689298 0.05547934 0.11955025
0.35685587 -0.12965424 -0.19124591 0.49086285 -0.08269656 -0.15253007 0.1125747 -0.2688842
0.44623724 -0.36897066 -1.5507016 -0.38487086 0.50852144 -0.1828122 -1.3623928 -0.23332593
-0.27893767 0.3230246 0.4172587 -0.14050722 0.65058637 0.17203599 -0.09542208 0.22742663
0.7057351 0.40565273 0.29427284 0.29187277 0.21194385 0.012555982 0.7955127 -0.29779074
0.67152107 -0.21592909 0.061717235 -0.18110688 0.4440326 0.5286845 0.26813543 0.3114398
0.17984699 -0.18585481 -0.34918842 0.16659634 -0.19874023 -0.35604042 0.7320782 0.23697509

input_layer.bias f4 [64]
00000000: ac3b 8fbe e416 76bb 013a 1dbf bb7e 4cbe
00000010: 25c9 5bbd 4af6 bcbe bf01 bdbe 4733 5cbd
00000020: d1a1 e33d acdf b2bc 9379 ecbe 65d7 913e
00000030: 5d31 223e 680b b8be ea64 9c3e 6c2f 22bc
00000040: d8bf 433e 1fb5 0cbe 8687 493e ee61 ffbe
00000050: f39f fd3e 98d4 76bd 757a 75bd 7a4a 89be
00000060: 6919 98be 9856 dcbe 0412 ab3e 6640 aa3e
00000070: b621 973e aa07 d6be 3c94 373d b6f2 d73e
00000080: f949 6a3e 037c b5be dec7 40be e104 b3be
00000090: e397 a03e 07e0 89be 5759 b03e 0934 a43d
000000a0: 9ad5 e5be c259 69be 1312 253e 5aa7 0bbf
000000b0: 5bb2 093f 1f0b 76be 566c f43e 9a12 07be
000000c0: 5974 be3e 9efb 503e fe4f bcbe fa35 e03d
000000d0: 4ef0 96be 21dc 9a3e d10f 903e 0118 e03d
000000e0: 09db 913e d238 37be 3780 cb3e 6665 d23e
000000f0: 4e8e 433e f206 73bd 80c3 c43e 9b0c 913e
-0.27975214 -0.0037550265 -0.6141663 -0.19970219 -0.053658623 -0.36906654 -0.36915395 -0.05375984
0.111148484 -0.02183517 -0.46186504 0.28484645 0.15839143 -0.35946202 0.3054574 -0.009899002
0.19116151 -0.13740967 0.19680604 -0.49879402 0.49536094 -0.06026134 -0.059931237 -0.26814634
-0.29706886 -0.43034816 0.33412182 0.33252257 0.29517907 -0.41802722 0.0448191 0.4217736
0.22879781 -0.35446176 -0.18826243 -0.3496466 0.3136588 -0.26928732 0.3444316 0.080177374
-0.44889528 -0.22788146 0.16120176 -0.54552233 0.53787774 -0.2402768 0.47738904 -0.1319069
0.3719814 0.20408484 -0.3677978 0.10947795 -0.29480213 0.3024607 0.28137067 0.109420784
0.28487423 -0.17892769 0.39746258 0.41092986 0.19097254 -0.059332795 0.38430405 0.2832993

hidden_layer_1.weight f4 [64, 64]
00000000: 9837 643d 15fc 5dbf 17b7 34be 987a b7be
00000010: 6a0f abbf 4324 2dbf c624 c73c 0c53 20be
00000020: d48d ab3c a794 8a3e 6e94 f73e 476a 71bd
00000030: 4dcb 0bbe 20c2 e33d 040f 08be 5581 e7be
00000040: b168 adbe ee2c 15be 8b23 9abe d849 f43c
00000050: 350b 063e 8ba4 073e 2e20 c3be 7572 28bf
00000060: 3a47 bebe 1756 933e 2ac2 f03b cc6c 7e3c
00000070: 54e6 e13d 40df afbb ede7 963d 7d52 273e
00000080: 1459 22be ab3c 86be 190b 433c f03c 29bc
00000090: 3b9c 60bd 2784 12bf d741 833d 9460 f23c
000000a0: 1cad 043d 0838 8abd 722d 3c3e ae4a 34bf
000000b0: e7ac 44bd 77e5 0cbf 7939 ae3d 678a 37be
000000c0: 92a2 193e 80d0 c8bd 5a0d 68be 4c97 f0bd
000000d0: 0e3c aebe 415a 413c 4fce 19be dfa4 62be
000000e0: d665 543d 2978 763e 3788 093e 0421 42bd
000000f0: 6d61 2abd 2d71 033f 577e 8e3d ad9c 5fbc
00000100: 982f 5bbd 7b5e 2dbf 9166 5c3e 1a67 863d
00000110: ed8d 39be be12 41be 1685 74bd 336e 1a3f
00000120: 6db4 0ebe c12b b23c bbfe 5d3e 8a2b 143e
00000130: 0517 953d 2003 e33b 0f2a 2b3d b09d 043f
00000140: b47f b33d 39a7 3bbd deb2 213e 7ca2 373d
00000150: 2235 c5bd f77b 2a3e 1935 34bd f13f 683e
00000160: 33d0 96bd 805c 3b3e 8855 d4bc d9d5 3c3d
00000170: 1768 ad3d 7cff 3d3d 591f 3fbd 2133 1dbe
00000180: 520c d73d 6876 633d 9189 663e 6090 9e3d
00000190: cc4c 11bd 9e2b 773d 9801 7fbe 3f17 f6bd
000001a0: 98f9 8dbc 0063 18bc f827 10bc e477 bc3e
000001b0: 3acc a6bd 199c 18bd 4fbe 9f3d 26ee 263d
000001c0: 0f08 1cbe a5f0 f3bd 54d9 c1bb 8083 e73e
000001d0: ea67 97bc e3fe fa3a 2a86 e1bd 9b8c 7c3e
000001e0: 38a6 a53e 5f17 2cbe 7b3d 57bd 9ecf 1abe
000001f0: 9867 5e3e fafe b13e 1823 fe3d a493 09be
00000200: 8006 88ba 7baa c03e ecb2 36bd 14ff 99bd
00000210: 69ac be3e 4fd9 4cbe d9f2 8c3e 9147 b93d
00000220: b7e1 023e d9e2 c33e 8543 1bbd 18d5 35be
00000230: 3520 0d3d d6a9 c2bd f7a6 f0be 58a7 e93e
00000240: d4ff 883c 6156 82be 8971 06bd b804 f23c
00000250: 2334 5cbd 7adc 0cbe 9f71 4b3e 3d32 8c3e
00000260: beca 813d 7010 153e 45c0 1e3e c52e 363b
00000270: 58f1 983d f878 933c 23ca 313e a2f8 ebbb
00000280: b371 9d3d 3a08 62bd e4f8 d1bd 11e9 a5bd
00000290: 8766 153e f5c3 78bb 472f 033e ba24 21bd
000002a0: 40a4 983b b3c3 f0bd f406 733d ce47 9e3e
000002b0: 5cd9 22be 628b 103c a5ad 1cbe b6ec 6b3e
000002c0: 9a88 c4bd fd1e 253d 4952 1f3e 8b14 f53b
000002d0: 5eb8 30bf 3ac0 dcbd fbce 12bb f01f 5e3d
000002e0: 73d8 453d 9353 a63e 275b 173e 4a14 f53d
000002f0: af04 6b3d e646 c43e 29b7 a9bd ede3 61bc
00000300: 00f1 aabc f7b0 97bf fb53 31bd 1e4f 58be
00000310: 00d5 19bf fa1d 80be b5d7 b33d 05da 003e
00000320: 861c 9ebd a94a 813e 0849 593d bf60 1e3e
00000330: 3663 9a3d 0ebe 8c3d 4164 933c 2ad7 38bf
00000340: fb3d aebd 25e4 423d a9cc fc3d 5041 623d
00000350: 7f9b 1e3d 7f43 2d3d 1d59 9dbd 59d5 93bd
00000360: be6a e83b ff57 8b3d 5dc1 c63c c0fc 3b3d
00000370: 84a1 473d 7ee6 d2bd 2caa fe3c 05f3 563e
00000380: e2af 6e3b 5dae 8dbd ffeb 163e 42e7 25bd
00000390: 0240 02bd 97a9 8cbd b069 5b3e 9587 33be
000003a0: 649d b23d ba2f b9bd 6dba 94bb 9b1f 98bd
000003b0: f9f7 d13d 07de a1be ba00 76bc ea27 14bd
000003c0: bbe8 4bba 9bb3 01be 7a60 71bd fe8f e2bd
000003d0: cdd9 973d 0d04 013e df7c 37be e539 93bc
000003e0: 8a70 093e 7551 043c 1379 093e 8fa9 643e
000003f0: 6508 783e 7392 b33d 9351 303e 44e7 e73d
0.05571708 -0.8671277 -0.17647968 -0.3583572 -1.3364079 -0.67633456 0.024309527 -0.1565668
0.020941652 0.27066538 0.4835543 -0.058939245 -0.13651772 0.11121011 -0.13286978 -0.4521586
-0.33868936 -0.1456792 -0.30105242 0.029820368 0.13090213 0.13246362 -0.3811049 -0.6579965
-0.37163717 0.2877662 0.007347365 0.015528869 0.1103026 -0.0053671896 0.07368455 0.1634006
-0.15854293 -0.2621816 0.011904501 -0.01032947 -0.054836493 -0.572329 0.06409042 0.029587068
0.032391652 -0.06748968 0.18376711 -0.7042645 -0.048016455 -0.55037636 0.08507056 -0.1792389
0.15003422 -0.09805393 -0.22661343 -0.117476076 -0.34030193 0.011801303 -0.15020107 -0.22133206
0.05185493 0.24069275 0.13430868 -0.047394767 -0.04159682 0.5134457 0.06957691 -0.013648194
-0.053512186 -0.6772229 0.21523501 0.06562634 -0.18120547 -0.18854806 -0.059697233 0.603244
-0.13936014 0.02174938 0.21679203 0.14469734 0.07279781 0.0069278628 0.041788157 0.5180311
0.08764592 -0.045813773 0.15790889 0.04483269 -0.09629275 0.16648851 -0.04399595 0.22680642
-0.073639296 0.18297005 -0.02591969 0.04610238 0.08467119 0.046386227 -0.046660755 -0.15351535
0.10500397 0.055532843 0.22513415 0.07742381 -0.03547363 0.06034433 -0.24902952 -0.120161526
-0.01733093 -0.009300947 -0.008798592 0.3681022 -0.08144422 -0.03725824 0.0779997 0.04075446
-0.15237449 -0.11911134 -0.0059158 0.45217514 -0.018482167 0.0019149448 -0.11011918 0.24663012
0.32353377 -0.1680579 -0.052548867 -0.15118262 0.21719205 0.34764844 0.12409037 -0.13435227
-0.0010377914 0.37630066 -0.044604227 -0.075193554 0.37240914 -0.20004772 0.27529028 0.09046853
0.12781416 0.3825901 -0.03790619 -0.1775707 0.034454543 -0.0950505 -0.47002384 0.45635486
0.01672355 -0.25456527 -0.03282312 0.029543266 -0.05376066 -0.1375598 0.19867562 0.2738208
0.06337498 0.14557052 0.15503033 0.0027798873 0.07467908 0.018002018 0.17362265 -0.00720127
0.07687702 -0.055183627 -0.1025255 -0.081010945 0.14589892 -0.0037958596 0.12811004 -0.039341666
0.004658252 -0.11756077 0.059332803 0.30914158 -0.15903229 0.008822294 -0.15300615 0.23039517
-0.09596367 0.040312756 0.15558733 0.0074792556 -0.6903132 -0.10778852 -0.0022401202 0.054229677
0.048302125 0.32485637 0.14780866 0.119667605 0.057377513 0.3833534 -0.08286888 -0.013787252
-0.02086687 -1.185088 -0.04329298 -0.21123931 -0.6009064 -0.2502287 0.08781377 0.12583168
-0.07720284 0.25252274 0.053048164 0.15466593 0.07538454 0.068721876 0.01799214 -0.72203314
-0.085079156 0.047580857 0.12343723 0.055238068 0.03872251 0.042300697 -0.07683013 -0.07218427
0.007092803 0.06803893 0.024262125 0.045895338 0.048738018 -0.10297869 0.031087004 0.20991142
0.0036420752 -0.06918023 0.14738463 -0.040503748 -0.031799324 -0.06868284 0.21427035 -0.17532189
0.08721426 -0.09042306 -0.0045388252 -0.07427903 0.10252375 -0.31614706 -0.015014822 -0.036170878
-0.0007778515 -0.1266617 -0.058929898 -0.110626206 0.07414589 0.12599202 -0.17918728 -0.017971942
0.13421836 0.0080760615 0.13425092 0.22330306 0.24221952 0.08768167 0.17218618 0.11323407

hidden_layer_1.bias f4 [64]
00000000: 222f d4bd 5909 033d 3e4c 803c 547c 643e
00000010: 8e81 d43c 9dec 1ebc 0a3d 03be 07d4 df3d
00000020: e435 efbd bcd6 b7bc bdaa 4f3d e4fa 11be
00000030: 9127 1c3e d9da 94bd 6247 8bbd 3642 f2bd
00000040: 75ee 4b3d b40f c23d e860 55bd 677d 893d
00000050: 128a c9bd d632 ec3b 26c4 53bd 4633 b5bd
00000060: ecb6 0c3d fcbf b8bd fb1f 8c3d dba8 3bbc
00000070: cda7 df3d ac27 d2bc cdda 0f3e 30d3 5f3a
00000080: 8768 b33d 0e46 24be fbb7 3c3d 3c8c 78bd
00000090: 5a86 3a3e f425 403e 2d9c 733d 988f c23c
000000a0: f869 093e 6919 213c f6c5 11be 8102 483e
000000b0: ec72 423d 8c58 383e 6391 d1bd 5c53 123d
000000c0: 5aed b7bd b776 f63d 915e d33d 2581 603d
000000d0: 9123 933d 436e 9cbd 220f 29bd 8ef4 313e
000000e0: 5bfa e83d d94d 13be 8b0c c2bc 001c 7cbd
000000f0: 9a39 9b3d 4c03 8d3d 0ca6 133e dcda 673e
-0.10360552 0.031991336 0.015661355 0.22313052 0.025940683 -0.009699968 -0.12816253 0.10929113
-0.11680201 -0.02244126 0.050699938 -0.14255863 0.15249468 -0.072683044 -0.068007246 -0.11829035
0.049787957 0.094756514 -0.05209437 0.06713372 -0.09840788 0.0072082086 -0.051700734 -0.0884767
0.034354135 -0.09020993 0.06842037 -0.0114538325 0.10920677 -0.025653683 0.1404831 0.00085382443
0.087601714 -0.16042349 0.046073895 -0.060680613 0.18215314 0.18764478 0.059475113 0.023750111
0.1341933 0.009832718 -0.14235672 0.19532205 0.04747288 0.18002528 -0.102328084 0.03572403
-0.08980818 0.12034362 0.103207715 0.05481066 0.07184518 -0.07638218 -0.041274197 0.17378446
0.113758765 -0.14385165 -0.023687622 -0.06155014 0.07579346 0.068853945 0.1441881 0.22642082

hidden_layer_2.weight f4 [64, 64]
00000000: 786d afbb 4a52 a7bd 3b06 a83d 1e93 8fbd
00000010: d0ef a0bd cf8f a23c 7450 043e 58e0 11bd
00000020: a063 733d c57a 233c ff99 013d c0f9 b3bb
00000030: 20a5 1f3d f80c 2bbd 6698 17be 6fac 853d
00000040: 7f90 a1bd ee21 963d 587b afbc 3931 cabd
00000050: 08e4 f23d f515 cdbc ae7c e13d e074 883d
00000060: d50b 12bd 72d2 d13d 937b 17be 9df4 9a3d
00000070: abd3 b83d b26e d1bd d446 70bc 43e6 43bd
00000080: 8929 053c 0f07 c1bd df7c 6dbd c748 02bd
00000090: bbc5 a13d 5a00 fdbd 29d7 f3bd 48ea b03c
000000a0: 98ff f0bd c9b2 5f3d e262 dcbd 889e 65bd
000000b0: 7977 5c3c f319 c33d 230a 85bd 8145 c2bd
000000c0: 132d 1e3d 243f ccbc 61f5 cebd e918 08be
000000d0: 8fcc ad3d 14dd 06be 9e7b 8dbd 1af8 0abe
000000e0: 9769 cebd a894 0cbd 7d6f 6d3c 9f9e 85bd
000000f0: fe33 e4bd 2c7c 25bd 4899 32bc 483a ef3d
00000100: 79a2 36be d446 8f3d e05a ffbd c832 f4bd
00000110: 87fe a63e 8f06 0abe d0f1 653c 1285 a6be
00000120: 8045 3c3c b483 dfbd 6ed6 283d 80fa 21bb
00000130: 09e0 7bbd 6028 6f3c c2ac 0dbe 6c90 763c
00000140: d1dd 04bd 1d37 01be 3b8c 93bd 0094 88bd
00000150: 8eed cbbd cfe0 ccba e00f 0abd f593 983d
00000160: 5d33 0a3e e057 c5bd 84bb 02be e013 0b3d
00000170: e0a0 5abe 1ba6 cebd 0e63 133d 46f9 df3b
00000180: b04c b5bd 80d4 183b 5d18 8dbd d440 983e
00000190: af12 fbbe bd07 6cbd a4c3 af3d dc38 f9bd
000001a0: 94e2 4fbe b989 8dbc 42e1 b43d 2565 3fbd
000001b0: 5028 50bc de94 dcbd af7d 993d d800 12bc
000001c0: 2dae 6a3c 55c8 24be b008 af3d 4939 8d3b
000001d0: d2de 173b d61d fdbd 9014 62bd 15b6 4dbd
000001e0: b947 debd 3870 ed3c a853 c03d 049e 6e3d
000001f0: 396d 5e3d 5a12 ed3c 97b6 6d3e 6680 03bf
00000200: f261 b33e 76e6 333d 554d 4ebe b281 fd3c
00000210: 15ca ab3d 088a 3a3e cd9e 11bb a76c 30be
00000220: e42d c2bd 7347 833e c727 f73d c2d3 46bd
00000230: 728d 283d 5a36 bdbc 00b8 37bf 28b2 3d3e
00000240: b130 753e dcb0 283e 2718 483e 0e1a 83be
00000250: 28fb f03c 0c87 633e 2484 a0bd c693 533d
00000260: 4c7c 213e b34b 1bbd 8386 eb3d d578 f23d
00000270: d6d4 663e e209 953d 9b60 3c3e 1c49 653e
00000280: f192 6e3d f5c7 c53d 13b8 083e 30b0 b2bd
00000290: f5c7 743e 8e20 2b3e 7d88 923d f268 8b3e
000002a0: cdd1 d43c f0de 703e 29d1 543d b908 343e
000002b0: 8949 b1bd 0205 e73d a7f6 143e 1a44 083e
000002c0: e2b1 0b3e 9814 d13d bdbb 323e e865 173d
000002d0: dbc0 163e c04c a13d 15b3 d0bd 23e8 f33a
000002e0: e6f3 643e 7dea 053e 7bec 9bbc 8a41 7a3c
000002f0: c06b b7bb ec9e 943e 7b26 b33d f860 923d
00000300: f174 143f 9ec7 c53d 2edd 82be 93b0 ff3d
00000310: 7aac 073e 500f 463e 53e2 683d 66b0 f53d
00000320: 5c48 8c3d 7e24 2d3e 4af0 a8bc 53c1 633d
00000330: 3707 473d 75c7 b43d fcbb 1dbf f35e 2d3d
00000340: 4e9b 483e a6bc aa3d af55 1d3e 3e06 9bbe
00000350: b698 b43d f747 473e 178d adbc d5e5 14b7
00000360: dbac 8f3e a888 bb3d e8d1 3c3e 5734 7e3d
00000370: 2ed0 df3d 8c2a 343e 6bfd 783e 04c7 903e
00000380: 5673 413d b776 1c3c c70e 183e 0f34 ef3d
00000390: 08ac 813d 6e9a c13c ce3c 09be 31d8 333e
000003a0: fe11 2b3e 68d8 463e 763e 92bd 3408 9f3d
000003b0: 1cbb 4d3d 1803 683e 6d64 dd3d 547f 4f3e
000003c0: 04a1 033e 2b94 f53d e750 ba3d 55ad 6e3e
000003d0: 4dd3 9f3d 838a f23d fda3 b8bd 8484 573e
000003e0: 56a7 473e da7e ba3d 85fa 413e 6344 843d
000003f0: 8704 3e3e c873 263e a1e9 683e 75ea e9bb
-0.005353626 -0.08169992 0.08204313 -0.07010482 -0.078582406 0.019843964 0.12921315 -0.03561434
0.05942118 0.009978001 0.031641003 -0.005492419 0.038975835 -0.041760415 -0.14804229 0.0652703
-0.078888886 0.0733069 -0.02142112 -0.0987267 0.118599 -0.025034884 0.11010109 0.06662917
-0.035655815 0.102452174 -0.14793234 0.075661875 0.090247475 -0.102261916 -0.014665324 -0.047827017
0.0081275785 -0.094251744 -0.057980414 -0.031807687 0.07899042 -0.12353583 -0.11906273 0.021596089
-0.11767501 0.054613862 -0.10761048 -0.05605939 0.013456219 0.09526434 -0.06496074 -0.09485913
0.038617205 -0.024932452 -0.10105396 -0.13290752 0.08486282 -0.13170272 -0.06908344 -0.13571206
-0.100787334 -0.034321457 0.014491913 -0.06524395 -0.11142729 -0.040401623 -0.010900803 0.11681038
-0.17835416 0.06995931 -0.12468505 -0.11923748 0.32616064 -0.13479064 0.014034703 -0.325234
0.0114911795 -0.10913792 0.04122012 -0.002471596 -0.061492953 0.0145970285 -0.13835433 0.015049081
-0.032438103 -0.1261868 -0.07204481 -0.06668854 -0.09957419 -0.0015630963 -0.033706546 0.074500956
0.13496156 -0.096359015 -0.12766844 0.0339545 -0.21350431 -0.10090276 0.035983138 0.0068351356
-0.088525176 0.002332002 -0.068894126 0.2973696 -0.49037692 -0.057624567 0.08582237 -0.12169048
-0.20301276 -0.017277585 0.08832027 -0.04672732 -0.012704924 -0.10770582 0.07494675 -0.008911334
0.014323753 -0.16092046 0.08546579 0.0043098074 0.0023173583 -0.123592064 -0.05519539 -0.050222475
-0.10853524 0.028984174 0.09390956 0.058256164 0.05430338 0.028939415 0.23214184 -0.51367795
0.35035664 0.043920957 -0.20146687 0.030945633 0.083881535 0.18216717 -0.0022219897 -0.17228948
-0.09481409 0.2564045 0.12068134 -0.04854179 0.041150518 -0.023097206 -0.71765137 0.18524992
0.23944356 0.16473716 0.19540463 -0.25605816 0.029416636 0.22219485 -0.07837704 0.0516546
0.15770072 -0.03791399 0.115002654 0.11839453 0.22542128 0.072772756 0.18396227 0.2239117
0.058245603 0.096572794 0.13351469 -0.08725011 0.23904403 0.16711637 0.07154939 0.27228504
0.025978947 0.23522544 0.051957283 0.17581452 -0.08656604 0.11280252 0.14547215 0.13307229
0.13642076 0.10209006 0.17454429 0.03696242 0.14722006 0.07875967 -0.10190407 0.0018608611
0.22358665 0.13077731 -0.019033661 0.015274415 -0.0055975616 0.29027498 0.08747574 0.071474016
0.5799094 0.096572146 -0.25559372 0.12484851 0.13249388 0.19341779 0.056856465 0.11996536
0.06849739 0.16908452 -0.020622391 0.05560429 0.048590865 0.08827106 -0.61614966 0.04232688
0.19590494 0.08336763 0.15364717 -0.302782 0.0881819 0.19461046 -0.021185441 -8.874999e-06
0.28061566 0.091569245 0.18439448 0.062061634 0.10928379 0.17594355 0.24315421 0.28276837
0.047229134 0.009549788 0.14849387 0.11679851 0.063316405 0.023633208 -0.13402101 0.17562939
0.16706082 0.1941849 -0.0714082 0.077652365 0.05022727 0.2265743 0.1081017 0.20263416
0.12854391 0.119911514 0.09097462 0.23308308 0.07803974 0.11842825 -0.09015653 0.21046644
0.19497427 0.09106226 0.18943222 0.06458356 0.18556415 0.16255105 0.22745372 -0.007138545

hidden_layer_2.bias f4 [64]
00000000: e52e c53d 2d68 babe 2816 b23d 1305 1bbd
00000010: 6e23 7b3c cf65 00be b8fa 393e 590a 383d
00000020: 834b 9ebd 16a8 0b3e 09e6 833c 62b8 bf38
00000030: 7475 5f3d f238 1d3b 1cd3 cc3d 29aa 83bd
00000040: 9bc5 ebbd 025b 113e 2bea cbbc 7f5b c83d
00000050: 15af 3c3e 050a 063e 7b70 623d 3d5e d13d
00000060: e5d5 623e cad1 e9bd 1f98 31bd 8d9b 78be
00000070: c3c4 e4bc c844 b3bd 395c 293e 66ee 93bd
00000080: c71a c13d 44cb f63d 2659 963d 945d f13d
00000090: be4b c0bd df75 203e 8fba e43d aa8f 2eba
000000a0: 94d0 3fbd d341 a03d 65d3 cebd 479a f93d
000000b0: 4624 eb3a b925 13be 079a 833e 9f94 37bd
000000c0: e0cc 3e3e b42b 93bd 2cdf d03b 4dac 0dbe
000000d0: d043 0f3e b631 ac3c 7ce7 d23c a66a b83c
000000e0: 9d46 993d b9e6 513e 6ba8 233e 8540 153e
000000f0: 5e36 1f3e 11b3 0e3e b202 c03d b879 7abe
0.09628085 -0.36407605 0.08695632 -0.037846636 0.015328271 -0.12538837 0.18162048 0.044931743
-0.077292465 0.13638338 0.0161009 9.141934e-05 0.05455537 0.002399024 0.100012034 -0.0642894
-0.115122996 0.14194873 -0.024891933 0.097830765 0.18426163 0.1308976 0.05528305 0.10223053
0.22151907 -0.11416967 -0.043357965 -0.24278088 -0.027925855 -0.08753353 0.16539086 -0.07223205
0.094289355 0.120504886 0.073412225 0.11785427 -0.09389447 0.15669964 0.11168396 -0.0006658981
-0.046829775 0.07825055 -0.10098914 0.12187629 0.0017939887 -0.14369859 0.2570345 -0.04481947
0.18632841 -0.0718607 0.0063742604 -0.13835259 0.13990712 0.021019798 0.025745146 0.022511791
0.074841715 0.2049817 0.15982215 0.14575393 0.15548083 0.13935496 0.09375514 -0.24460495

output_layer.weight f4 [2, 64]
00000000: 6cb5 83bd da79 cb3c f2eb 51be 4d58 18be
00000010: 9681 a6be 94f4 bf3d 4220 03bd 4249 843d
00000020: 4c33 0cbd 93eb 41be 51f9 40bd c9c7 693e
00000030: 017a 5cbd a737 6dbe 98b2 5ebe 24df ba3c
00000040: d114 de3d 69e0 dd3d 7f70 763c 77ab 87be
00000050: 75d5 8abe 0190 09be 2574 9fbe 9302 54be
00000060: ecc0 0cbd b103 573c 1187 efbb 41f0 a3be
00000070: 933a 7bbe 4a59 73bd 65d6 ef3c 36dd b63d
00000080: 75a9 96be e24f 58be 1ba2 45be 4276 5a3d
00000090: 0662 92bd 4bed 9ebe 17dc a13e 7711 bb3d
000000a0: 83d7 733e 2b1f 90be fae1 8cbc 5e2f a83d
000000b0: 3721 933d 1339 c13d 05f6 39be 570b 24bd
000000c0: 014c 0fbe c1e7 933d 82d5 a63d 63e6 0e3d
000000d0: 5c3a e1bd 230e 9b3d cd76 b7bd d431 77be
000000e0: 67fd c6be b8f6 103f 1a23 47be 03cc a5bd
000000f0: 8286 56be 43fe 6abe 375e 2ebe c54d 803e
00000100: 3f89 29bc d199 b3be cc1c 1ebe 3374 38be
00000110: 69dd eb3e 9da7 193d 1a34 b63e a82d a5bd
00000120: 02e9 8dbe 5703 c7bd 80d3 21bc 3e0c f73e
00000130: 4576 f83c aaa2 0fbe d7c7 24be ecc3 58bd
00000140: 5e39 d0bc 191f b4be f10b 63bd 15bb 09be
00000150: f4af ac3d f929 6fbe b360 d23a 93d3 30be
00000160: 1e5c f03e 1de1 91bc 2d57 1d3c 628a 513c
00000170: a233 08be d0f5 1f3d d367 83be 488a ae3c
00000180: 9ca8 1f3d f6e4 10bd 31c3 89be bb72 8abe
00000190: a67c fcbd bb71 72bc 409a fc3e 1357 6a3d
000001a0: d137 823e 0ca8 5f3e 48d8 dfbe 5698 fa3e
000001b0: 86c6 7f3d 7470 9cbd dfb5 1ebf 8d1a 433d
000001c0: d2ce 27bf 0c21 0dbd e000 523c dc57 573d
000001d0: 5229 a1be be6c 56be c305 a1be 3dc6 80be
000001e0: 7d41 0b3e c646 6ebe 6d3a 1cbe 6478 44be
000001f0: 4bd9 7abd effc 8abe dffe 3fbe 711a 91be
-0.06431088 0.024838377 -0.20500162 -0.14877434 -0.3252074 0.093728215 -0.032013185 0.06459285
-0.034228608 -0.1893752 -0.047112767 0.22830118 -0.05382729 -0.23165761 -0.21747816 0.02281148
0.10843814 0.108338185 0.01504147 -0.26498005 -0.2711598 -0.1343384 -0.311433 -0.20704107
-0.034363672 0.013123439 -0.0073098023 -0.32019237 -0.24534063 -0.059411325 0.029277036 0.089289114
-0.2942616 -0.21124223 -0.1930012 0.053335436 -0.07147603 -0.31040415 0.31613228 0.091341905
0.2381268 -0.2814878 -0.017197598 0.082121596 0.071840696 0.09434714 -0.18160255 -0.040049877
-0.13993837 0.07221938 0.08146192 0.034887683 -0.10997459 0.07571056 -0.08958206 -0.24140102
-0.38865206 0.5662646 -0.19446984 -0.08095553 -0.20949748 -0.22948556 -0.17028128 0.25059333
-0.010347663 -0.3507829 -0.15440673 -0.18013076 0.4606736 0.037513364 0.35586625 -0.08065349
-0.27716833 -0.09717434 -0.009877086 0.48251528 0.030329833 -0.14026895 -0.16091858 -0.05292122
-0.02541798 -0.35179976 -0.05543131 -0.13450272 0.08431998 -0.23355855 0.0016050547 -0.17268209
0.4694528 -0.017807538 0.009603304 0.012789341 -0.13300946 0.039052784 -0.2566515 0.021306172
0.038979158 -0.035374604 -0.26906732 -0.27040657 -0.12328462 -0.014797623 0.49336433 0.057211947
0.2543321 0.21841449 -0.43719697 0.48944348 0.062445186 -0.07638636 -0.61996263 0.047632743
-0.6554996 -0.034455344 0.012817591 0.052574024 -0.31476837 -0.2093992 -0.31449708 -0.25151244
0.135992 -0.23269185 -0.15256663 -0.1918655 -0.061242383 -0.27146098 -0.1874957 -0.28340486

output_layer.bias f4 [2]
00000000: f94a b93c acdb cfbd
0.022618758 -0.10149321
