DQN - CartPole/data/Apprentice 7.pt (torch, 38460 bytes, 8 tensors)

input_layer.weight f4 [64, 4]
000000 72 52 0c bd 42 1d 62 be 0e 6e 2a 3f 95 10 ec be
       -0.034258313 -0.22081473 0.6657418 -0.461064
000010 30 10 ee 3d 7e 2b 2e be 68 be 1a 3e d6 c7 c5 3e
       0.11624181 -0.17008778 0.15111697 0.38629025
000020 a0 7a 25 3d 49 64 ea 39 b8 93 03 3f a7 c0 ee be
       0.040400147 0.00044706676 0.51397276 -0.46631357
000030 61 d3 98 3e b7 4f 9f 3e c4 d6 6a 3d 91 e0 b4 3e
       0.2984877 0.31115505 0.057333723 0.3532758
000040 4c 2f d7 be 1c 82 b5 3e f0 88 79 bd f0 6f 6b 3e
       -0.42028272 0.35450828 -0.06092161 0.2299192
000050 aa 87 89 bd 96 25 5e 3e 56 9b d4 3d d7 0d 87 3e
       -0.06715329 0.21694025 0.103811905 0.26377746
000060 3f 2b c5 3e 77 20 2d be f2 1a a4 bf 24 4e 60 be
       0.38509557 -0.16906916 -1.2820723 -0.21904808
000070 0a dc c1 be 62 21 53 3e d0 e0 96 3d 1f dc 4f be
       -0.3786319 0.20618203 0.07367098 -0.20298813
000080 3e c9 c2 3e 20 13 04 bd ca 56 6a 3e e5 ab 8d be
       0.3804416 -0.0322448 0.2288467 -0.27670208
000090 0d 6e 15 be cd a5 c4 3e 9b 1a 8f 3e c3 9e 95 3d
       -0.14592762 0.38407746 0.27949986 0.07305672
0000a0 16 f2 48 3e 93 82 9c be f4 c3 72 3e 01 82 c3 be
       0.19623598 -0.3056837 0.23707563 -0.38185123
0000b0 4d cf 79 be 06 f3 9c be 32 59 23 3f b9 9b 17 bd
       -0.24395485 -0.30654162 0.63807976 -0.037013743
0000c0 09 cd 46 bf c8 5f a6 bc 20 5e 43 3f f2 eb f1 3e
       -0.7765661 -0.020309344 0.763155 0.47250324
0000d0 90 81 9b 3e 08 f1 72 3c 3c 13 67 bf 45 d0 e3 be
       0.30372286 0.014827974 -0.90263724 -0.44494835
0000e0 fd 0c 96 3e 71 00 98 be e5 8d aa be b9 3b 1a bf
       0.29306784 -0.29687837 -0.33311382 -0.6024738
0000f0 b3 6a c9 be f3 78 bd 3c c4 4b e6 be 25 55 2c 3e
       -0.39339218 0.023128962 -0.4497968 0.16829355
000100 c5 03 9a be df 23 d6 3e 75 81 70 3f 18 b5 b5 3e
       -0.30081 0.41824242 0.93947536 0.35489726
000110 dd 46 ab be 03 b2 59 be 45 62 b2 3e 6c ee a1 3e
       -0.33452502 -0.21259312 0.348406 0.31627214
000120 80 15 8b be e4 04 a8 3e 2e 56 99 be 2c 58 3f 3e
       -0.2716484 0.3281623 -0.29948562 0.18685979
000130 99 ab 29 be 93 b0 b0 3e d7 c4 76 3e 30 34 8a be
       -0.16569366 0.34509715 0.24098526 -0.2699294
000140 c0 2f 90 3e ad ea 1a 3f fc de e7 3d 3c 61 e4 3e
       0.2816143 0.60514337 0.11321828 0.44605434
000150 80 a7 34 3e c6 62 b5 3e ed 36 40 3f d6 99 3d 3e
       0.17642021 0.3542692 0.7508381 0.18515715
000160 22 ce af 3e 0e 71 b6 bd cb cc c8 3d 13 79 10 3f
       0.34336954 -0.08908282 0.09804686 0.56434745
000170 d7 d5 fe 3e d9 a6 c9 be a3 97 a0 bf 20 a1 b9 be
       0.49772522 -0.39385107 -1.2546276 -0.3625574
000180 31 05 83 be 97 71 6e 3e 30 9d 92 3e 0b 8e 12 3f
       -0.25589898 0.23285519 0.2863555 0.5724799
000190 25 70 2b bf 77 34 6c 3e 2d 9b 04 3f a2 6a 56 bd
       -0.66967994 0.23066889 0.5179928 -0.052347787
0001a0 15 21 78 bd 0b 70 22 3e 42 4f 71 3e 05 40 c1 be
       -0.060578424 0.15863054 0.2356539 -0.37744156
0001b0 e1 8d b6 3e d5 63 f4 be 98 11 05 3f 7b e9 5a be
       0.3565512 -0.47732416 0.5197997 -0.21378128
0001c0 ed 16 30 3e 3f 96 bc be 8a 99 69 be 75 e6 51 3e
       0.17196245 -0.3683338 -0.22812477 0.20498069
0001d0 d7 cc fc 3d 67 8b 65 be 67 f9 0f bf 71 5b e7 be
       0.123437576 -0.22416459 -0.5623993 -0.45186952
0001e0 76 33 e3 3e 49 47 93 be d4 42 bd 3e e8 e8 c5 3e
       0.443752 -0.28765324 0.36965048 0.38654256
0001f0 a6 fc 1a 3f 15 60 bc be 52 a5 3b bf 75 c0 c5 3e
       0.6054176 -0.36792055 -0.73299134 0.38623396
000200 73 ec 05 3f a5 aa 8d be 01 9b 3f bf bd 50 70 3e
       0.5231392 -0.27669254 -0.7484589 0.23468299
000210 09 e3 61 3e cf 92 d3 be 54 d7 51 bf 56 45 19 bf
       0.22059263 -0.41322944 -0.8196919 -0.59871423
000220 61 b4 ee 3e 35 f3 96 be 36 73 88 3d 34 d9 38 be
       0.46621993 -0.29482427 0.066626 -0.18051606
000230 49 28 25 3f b9 a5 41 3e 83 3a 0d 3f 6f b5 d5 be
       0.64514595 0.18910874 0.55167407 -0.41739985
000240 58 c1 83 3d a2 93 aa bd 2f 8e cb 3e 5f a4 6a be
       0.06433362 -0.0832894 0.39756915 -0.22914265
000250 5d 47 4c be e2 cf 9f be e1 f9 cb be 9e 3a b0 3e
       -0.19949098 -0.3121329 -0.3983908 0.3441972
000260 c2 6c 88 3e dd ed ae 3e 29 ee 36 bf cf 31 bb 3e
       0.26645476 0.3416585 -0.71457154 0.36561438
000270 3f 49 22 be fb 75 f1 bd 8a 53 4f 3f 56 5a 34 be
       -0.15848254 -0.11790081 0.80986845 -0.17612585
000280 34 65 26 bf 6b 3b 43 be 79 12 bc 3d ef 0a fb 3d
       -0.64998174 -0.19065635 0.09183211 0.12257945
000290 9e 5d 7b 3e 9b 84 77 be d7 a8 66 be e0 7c 31 3e
       0.24547431 -0.24171679 -0.22525345 0.17332792
0002a0 d6 ae 22 3f 39 db a5 bd 77 e3 a0 be bc ff 9c 3e
       0.6354803 -0.08098454 -0.31423542 0.3066386
0002b0 a6 80 9b be 79 0e e0 3e 9f 91 25 3f e6 5d b1 3b
       -0.30371588 0.43761042 0.64675325 0.005412805
0002c0 82 fd 92 be 6c b1 a3 3e 7e 9f d4 3e c8 db 28 3e
       -0.28709036 0.319713 0.41527933 0.1649009
0002d0 ef 1e 8e 3e 66 21 b9 be cf cd b8 bf 12 bf f9 be
       0.27757975 -0.36158293 -1.4437808 -0.48778588
0002e0 11 b8 26 3d 3f bc f2 3e 41 b4 79 be ba 47 ee 3d
       0.040702883 0.47409245 -0.24385168 0.116347745
0002f0 a2 48 b2 be fd 0c be 3e 07 96 3c 3c dd 2e ab 3e
       -0.3482104 0.37119284 0.011510379 0.3343419
000300 51 95 3a be 28 d5 00 3e cf 02 39 3f 9b 8d 57 be
       -0.18221022 0.12581313 0.7226991 -0.21050112
000310 bb 34 15 3d 43 eb a1 3d 54 96 74 bd f6 77 0c be
       0.03642724 0.07906201 -0.059713677 -0.13717636
000320 a7 c9 11 be 9a d1 1f bd 8f f7 34 3e 07 07 1f 3f
       -0.1423708 -0.03901825 0.17672561 0.621201
000330 f3 55 c0 3d a7 62 a3 3e 3f 9e e9 3d 06 62 e8 bd
       0.093913935 0.31911203 0.11407136 -0.113468215
000340 c7 28 d0 3e 70 7a aa 3d 7e 43 3b 3e 66 32 a0 be
       0.4065611 0.08324134 0.18287465 -0.3128845
000350 ce e7 7b 3e 8d 79 5c 3d 32 3c d2 be 9a b1 a0 3e
       0.24600145 0.053826857 -0.4106155 0.313855
000360 88 0f d3 bd 14 7c a7 3d 76 ce ff be 33 c1 b9 be
       -0.10305697 0.08177963 -0.49962205 -0.36280212
000370 d4 78 cd 3d c2 f1 dc be 41 71 58 bf 3f 4f 89 be
       0.10032812 -0.43153197 -0.8454781 -0.26818272
000380 1d c7 39 be a7 8c 3d 3d 03 53 87 3e 25 86 a9 3e
       -0.18142362 0.046276715 0.2643052 0.33110157
000390 89 aa 64 be e6 6b c7 3e ab 32 61 3f 24 17 12 be
       -0.22330679 0.38949507 0.8796794 -0.1426664
0003a0 76 7a 46 be f5 99 a8 3e fe 43 ce 3e fd 9c bc be
       -0.19382653 0.3292996 0.4028625 -0.36838523
0003b0 14 0d 8a be 37 8b 43 3e 63 16 ed 3e 9d 16 3b 3d
       -0.26963103 0.19096075 0.46306142 0.045675863
0003c0 0b bc b0 3e 44 95 bf 3e 85 3b a5 3e 19 79 44 3e
       0.34518465 0.37418568 0.32271972 0.1918682
0003d0 db 7a 4a 3e 5b 35 ba ba 5a b1 d6 3e c5 95 32 3e
       0.19773428 -0.0014206575 0.41932184 0.17439945
0003e0 d6 5e 22 3f 0d 07 d2 be db 30 0e bf 22 34 80 3e
       0.6342596 -0.41021004 -0.555433 0.25039774
0003f0 e0 42 0d 3f df 00 21 bd 06 66 03 3f 0f d5 67 3e
       0.5518017 -0.03930747 0.5132755 0.22639869

input_layer.bias f4 [64]
000000 b2 7b 96 3e c7 6f 8b bd de 00 ee 3d cb eb cb 3e
       0.29391247 -0.06808429 0.11621259 0.39828333
000010 3c 7c a6 be c5 e2 c2 3e b4 1c f1 3b 57 e8 91 3e
       -0.32516658 0.38063636 0.007358158 0.28497574
000020 29 8c c2 bc 5e df d2 3d 77 44 c4 3e 3e 64 fe 3e
       -0.023748474 0.1029651 0.38333485 0.49685854
000030 c8 ce 04 bf e6 d1 ab be ef d5 df 3e b9 92 c4 be
       -0.51878023 -0.33558577 0.43717906 -0.3839319
000040 eb 53 17 bd ce ed 9f 3e ea 4e f8 be a7 3d 14 bf
       -0.036945265 0.31236118 -0.48497707 -0.57906574
000050 84 8a af be 54 b0 d1 3d 7c f3 df be 49 a5 43 3d
       -0.34285367 0.1023871 -0.4374045 0.04776505
000060 ff 13 84 be 92 38 76 be ad 4a ed be a7 d1 8f 3e
       -0.25796506 -0.24045017 -0.46346036 0.2808964
000070 be f1 a0 3e 88 1b 2b 3c a3 79 e8 3e 49 17 e0 be
       0.31434435 0.010443576 0.454053 -0.43767765
000080 f5 48 9b be 13 89 40 3e 5b 5a 91 3e 74 37 ea be
       -0.303291 0.1880229 0.28389248 -0.45745432
000090 ab ae b4 3d 91 67 a5 bb 4a fc 9a 3e 65 48 2f 3e
       0.08822378 -0.0050477465 0.30270606 0.1711746
0000a0 c9 55 e8 3c 3b ba f6 3e 8c e1 ce 3d 46 08 90 3e
       0.028361218 0.48188958 0.101016134 0.28131312
0000b0 50 24 b6 be bf de ed 3d 37 97 0f 3e 9c 92 dc 3e
       -0.3557458 0.11614751 0.14022528 0.43080604
0000c0 47 df 85 3e 26 31 c5 3d 45 73 2e bd d5 47 da 3e
       0.2614691 0.09628515 -0.0425904 0.42632928
0000d0 19 48 af 3e c4 a5 c0 3e e9 64 e4 be 50 50 ac be
       0.34234694 0.3762647 -0.44608238 -0.33655024
0000e0 bd b0 79 3e 14 56 ba 3e b7 72 02 bd 60 ed 84 be
       0.24383827 0.36393797 -0.03184768 -0.25962353
0000f0 a0 1b a6 3e 48 da cb 3e a7 74 5d be 88 c5 e0 be
       0.3244295 0.39814973 -0.2162653 -0.43900704

hidden_layer_1.weight f4 [64, 64]
000000 ed 61 3d 39 59 17 dc bc 28 3a c9 3d 3c 38 2f 3d
       0.00018060925 -0.026866602 0.098255455 0.04277824
000010 c4 79 4e 3d 33 c3 d4 3d e8 01 ff be bc f2 09 3e
       0.050409093 0.10388794 -0.49806142 0.13471502
000020 77 60 7b bd f2 57 2a 3d e4 ff 89 3d ca 7f fe bc
       -0.061371293 0.041587777 0.067382604 -0.031066794
000030 d8 60 22 bf 92 89 40 be f5 31 12 3d 2e 31 01 3e
       -0.6342902 -0.18802479 0.035692174 0.12616417
000040 23 5f ee be 29 46 85 3d f8 4a fa bd 98 a2 cd 3d
       -0.4655696 0.065075226 -0.122213304 0.10040778
000050 b1 25 8d be c4 5f 32 3d 69 68 08 be c6 ae ce be
       -0.2756782 0.04354836 -0.1332108 -0.40367717
000060 db dd 89 be 19 c3 a9 3e 7c e8 81 3d b2 fa 33 3e
       -0.26927075 0.3315666 0.06343171 0.17576101
000070 1a f9 3a 3d da d5 f4 bc ed 70 a3 3d bb 09 17 3e
       0.045647718 -0.029887129 0.07980523 0.14749806
000080 ed 0f f5 3d d3 27 dc bd d2 a5 73 3a 0e 7e 23 3e
       0.11965928 -0.10749783 0.00092944235 0.15966055
000090 aa d6 8c 3d 83 46 8f 3b bc d8 4b 3c 37 5f 42 3e
       0.068768814 0.0043724193 0.01244181 0.18981634
0000a0 04 48 ab 3c dc 1a 1f 3e da 53 2d 3d 03 d5 1f 3e
       0.020908363 0.1553759 0.042316295 0.15608601
0000b0 c0 bd 7d bd c0 10 e0 bd ae 76 92 bd 82 6c 96 bd
       -0.061948538 -0.10940695 -0.071515426 -0.07344915
0000c0 7b ea 63 3e 25 98 96 3d 0a f9 2b bd 36 0e 2b 3c
       0.22257416 0.07353238 -0.04198555 0.0104404
0000d0 92 44 c2 3d b3 df 0d 3d 06 4f aa 3d e8 cc a7 be
       0.09485735 0.034637164 0.08315854 -0.3277352
0000e0 12 5a b5 3d f5 91 9a bb 30 47 50 3d 9c 15 e2 bd
       0.0885507 -0.0047171065 0.05084914 -0.11039278
0000f0 d7 5d 17 3e 3f aa 30 3e 71 db 60 3e c7 d5 e0 bd
       0.14781891 0.17252444 0.2195871 -0.10978275
000100 32 c6 9b 3d 5e 3f 8d be 94 15 c7 3b 82 f0 13 be
       0.07606162 -0.27587408 0.0060755704 -0.14447215
000110 08 1e dc bc 60 4d a8 be 68 62 55 3e 22 54 1a 3e
       -0.026869789 -0.32871532 0.2083832 0.15071157
000120 11 e2 4e 3d bd 28 08 bc de 4d 95 3c 7d 6d 85 3c
       0.050508562 -0.008310494 0.018225607 0.01628756
000130 3a 58 9d 3d ca d4 08 3d 3b bc fb 3c 68 f5 8a bc
       0.076828435 0.033406056 0.030729404 -0.016962722
000140 ca 4e 07 ba 1e e4 2a 3c 9a 7c 90 bd cc 10 98 3c
       -0.0005161582 0.010430364 -0.07055016 0.018562697
000150 26 40 02 bd 4a 99 be be a2 63 30 bc f8 59 82 3e
       -0.031799458 -0.37226325 -0.010765942 0.25459266
000160 b0 2e 5e bd d2 be 49 3e ce f8 95 bd f2 23 a0 bd
       -0.054243743 0.19701698 -0.07322846 -0.07819356
000170 35 b1 3a 3b eb 68 f7 3d 2d a2 a5 bd f7 df 98 3e
       0.0028486971 0.120805584 -0.08087573 0.29858372
000180 0c ee 4e 3d a7 9f f1 3d e0 b9 a1 3d 5a 92 dd bd
       0.050519988 0.117980294 0.07896781 -0.1081893
000190 bd f0 f5 3d 3b 37 92 3d e8 9b 2a 3e 87 f9 48 bc
       0.12008808 0.071394406 0.16661036 -0.012266523
0001a0 03 d1 8e 3d 8a 52 e0 3c 0d 98 25 3e 4e af b6 bc
       0.069734596 0.027383108 0.16171284 -0.022300389
0001b0 66 f3 f9 3d 53 ea 0c 3e 58 0d 9c 3d 22 76 1e be
       0.12204628 0.13761263 0.076197326 -0.15474752
0001c0 a7 ac c3 bd 8a fd fe 3d 7e e2 30 be 1e d3 f5 3b
       -0.09554415 0.124507025 -0.172739 0.007501974
0001d0 7c 9f dd 3d bf 1a d1 3d 54 09 b5 bd 36 9c b3 3d
       0.10821435 0.102101795 -0.0883967 0.08770029
0001e0 2d 9e 94 bc 92 99 1a 3d a6 b9 07 bb 68 63 be 3d
       -0.01814183 0.037744112 -0.002071002 0.09296304
0001f0 53 57 5c be 60 b0 01 be 13 50 89 3e 8c fb 62 bd
       -0.21517687 -0.12664938 0.26818904 -0.055415675
000200 95 82 33 3d 7d 58 8a bd de 35 26 3e d7 27 94 3d
       0.043825705 -0.06755159 0.16231486 0.07234161
000210 22 0c e2 bd 4f 85 91 3d 44 4c fd be be 63 74 3d
       -0.110374704 0.07105505 -0.4947225 0.059665434
000220 6c c4 17 3e 6f 0f 97 bd ac 78 0a 3e 55 a2 08 bd
       0.14821023 -0.073759906 0.13522595 -0.033357937
000230 17 28 54 be d6 f4 50 be a8 3d 15 3e 64 0d 6d bd
       -0.20718418 -0.20405897 0.14574301 -0.0578741
000240 d3 f3 5d bf 57 16 df 3d 64 cd dd 3d ab 04 00 be
       -0.8670017 0.10892933 0.10830191 -0.1250178
000250 01 34 b8 be 02 37 11 3e 82 04 75 be 52 e3 53 be
       -0.35977176 0.1418114 -0.23927501 -0.20692185
000260 98 1f 07 bf 82 44 0e 3e 69 b4 3e bd cf 01 3a 3e
       -0.52782583 0.13893321 -0.04655877 0.18164752
000270 83 b0 60 3c db cd 9a bd 3b f8 12 3e 3d f9 58 3d
       0.013713959 -0.07558795 0.14352505 0.052972067
000280 13 f7 60 be 81 21 a4 3d f1 79 06 bd 03 c0 3a bd
       -0.21969251 0.08014203 -0.032831136 -0.045593273
000290 75 90 f2 bc ba 73 ce bc 39 7f de bd 8c 74 6c 3d
       -0.029609898 -0.025201667 -0.108641095 0.057728335
0002a0 27 bd 16 3e 8c bd f8 3d 4e 9d 72 bd 74 0b a1 3d
       0.14720593 0.12145528 -0.05923205 0.07863513
0002b0 9e 25 b8 bd 57 8a 17 be 76 9e 6a bc f0 17 6b 3d
       -0.0899155 -0.14798866 -0.014320007 0.057395875
0002c0 13 e3 90 bb 6e 1f d1 bd ee c5 93 be 32 ba 89 3d
       -0.0044216006 -0.10211073 -0.28861946 0.06724967
0002d0 8a 9d 1f 3e 2f 4b b1 bd e5 ea fd bc 55 3a 53 be
       0.1558744 -0.08656918 -0.030995796 -0.2062772
0002e0 00 39 6c bd 7b 4b ad 3c c3 f6 49 bd 99 01 9c bd
       -0.057671547 0.021154156 -0.049307596 -0.07617492
0002f0 9a fa 31 bd 5c 4e 74 bd 6b 8e 10 be 38 45 dc be
       -0.043451883 -0.05964504 -0.14116828 -0.4302156
000300 7a 0a 91 bd 22 c2 a5 3d 8b f3 97 3c 6b 46 fe bd
       -0.07082076 0.080936685 0.018548748 -0.12415775
000310 62 53 cd 3d 25 60 da bd 8d 47 9d 3d 9e 32 c4 bc
       0.1002567 -0.10662869 0.07679663 -0.023949917
000320 6d c0 8c bd 3b 52 bc bd 7b cf d0 3d 03 1f 95 bb
       -0.0687264 -0.09195372 0.10195824 -0.004550816
000330 30 35 c5 3d 49 16 37 bd 2d 37 c8 3d 00 b6 f1 39
       0.09629285 -0.044698987 0.09776149 0.00046102703
000340 28 52 c0 3c 85 86 a1 3d 06 ad 86 3d 52 40 37 bd
       0.023476675 0.07886986 0.0657597 -0.044739075
000350 78 77 28 bd 1a 50 fc bd a4 02 cf 3d 0e 9c aa bc
       -0.04112956 -0.12319966 0.101079255 -0.020826366
000360 c8 22 05 3d 70 67 6a bd b4 35 9f bd 04 33 8a 3d
       0.032503873 -0.057227552 -0.07773915 0.06748012
000370 0e 89 20 bd 69 1e 36 bd 75 b0 d0 bd 24 83 2a 3d
       -0.039193206 -0.044462595 -0.101899065 0.04162897
000380 ee 8f 96 3d 0f 4b b7 bd 26 06 c5 bd 94 8f 54 3d
       0.07351671 -0.08949863 -0.09620313 0.05189474
000390 b9 2e bf bb 44 b7 96 3d 74 74 5d 3d c5 92 3a ba
       -0.005834427 0.07359174 0.054066136 -0.0007117207
0003a0 50 b5 da 3d cc d9 8a bd 78 20 28 3d 9d d2 da bc
       0.10679114 -0.06779823 0.04104659 -0.026711756
0003b0 ea ab dc bd 98 68 f8 bd 92 62 47 3c 97 26 5d bd
       -0.107749775 -0.12129325 0.012169497 -0.05399188
0003c0 b3 e8 d2 bc 08 0b 25 bd 00 ce 8b bc 57 6d cc 3d
       -0.025745725 -0.040293723 -0.017066002 0.099817924
0003d0 a8 40 56 3d 6d b8 ca bd 2d 13 87 bd 78 da e5 bc
       0.052307755 -0.09898458 -0.06595454 -0.028058276
0003e0 0a 35 d0 bd f8 38 8e 3d a5 98 c5 3d 88 5b 23 bd
       -0.101663664 0.0694446 0.09648255 -0.039882213
0003f0 b3 d6 b8 3c 59 78 24 3d 76 65 cf bd 40 81 e6 bc
       0.022563314 0.040153835 -0.10126774 -0.028137803

hidden_layer_1.bias f4 [64]
000000 22 a1 78 3d 70 60 b2 bd a8 e6 83 bd 7f 6c fc bd
       0.060700543 -0.087098 -0.064404786 -0.123253815
000010 d4 01 d3 3d ed 25 13 bd f2 66 1c 3e 68 b4 b2 3d
       0.10303083 -0.03592484 0.15273646 0.08725816
000020 8e 68 17 3e 55 98 3c 3e 54 36 c5 bd 81 c2 e0 3d
       0.14785978 0.18417485 -0.09629503 0.10974599
000030 46 be 92 3c bb 5d a7 3c f0 b6 ad 3d 75 d7 90 bb
       0.017912995 0.020430436 0.08482158 -0.0044202157
000040 88 29 e2 3c cb 7f 1a be 8d 49 0b be bc c5 ec 3c
       0.027607694 -0.15087812 -0.13602276 0.02890288
000050 e1 c6 05 3e 55 0a 0f 3c 08 ee 9b 3d f7 8b 8e 3d
       0.13064148 0.008730491 0.0761376 0.0696029
000060 33 2d 09 bd 46 87 a1 3d ca 8d 8c 3d ec 6e 16 3c
       -0.03349037 0.078871295 0.068629816 0.009181719
000070 ab 8b 1b 3d dc ff 41 3d a6 9b a0 3d d7 ea 9c 3d
       0.037974995 0.047363147 0.078421876 0.0766198
000080 8b c5 3c 3e 9f f0 5a 3c d7 62 4e 3d ae 37 da bd
       0.18434732 0.013363033 0.05038723 -0.10655151
000090 a2 8f 20 3e 5c 19 11 3e fb 59 ff 3d cc d7 f1 bd
       0.15679792 0.1416983 0.12468334 -0.11808738
0000a0 6c fb d9 3d c5 71 2f 3e 15 89 10 3e 16 af 37 3e
       0.10643658 0.17133243 0.14114793 0.17937884
0000b0 fa dc f8 3d da 0e 13 3e 36 c3 83 bd 79 f2 0d 3e
       0.12151523 0.14361134 -0.06433718 0.13862027
0000c0 bd f2 b1 3c ad d9 db 3d e8 2c 04 bd 92 88 cb bd
       0.021722192 0.10734878 -0.03226939 -0.09938158
0000d0 33 69 a4 bc d8 a2 49 bd 97 3a ec bd 36 0e d1 bc
       -0.020069694 -0.049227566 -0.115346126 -0.025519472
0000e0 29 55 e6 3d 15 4b 42 3d 37 a7 a7 3b 59 cb 23 3e
       0.11246712 0.047434885 0.005116369 0.1599554
0000f0 d8 11 a6 3d af e0 69 bd d8 f4 6e bd 27 e7 f3 bd
       0.08108872 -0.05709904 -0.05833897 -0.11909323

hidden_layer_2.weight f4 [64, 64]
000000 ba 25 14 be 80 89 b0 bd 39 8d 98 3d 2a d8 bf 3d
       -0.14467517 -0.08619976 0.07448811 0.09367402
000010 8c 05 70 3d ad 57 c4 bd c7 a0 3d bd 34 6e b5 bd
       0.05859904 -0.09587035 -0.046295907 -0.0885891
000020 2f c5 71 bc 90 b2 86 3d 68 4d f5 bc 22 ee 84 3d
       -0.014756485 0.06577027 -0.029944137 0.06490733
000030 a4 be 2a 3a 06 01 cc bd 34 e2 1d 3d c0 37 94 bd
       0.0006513393 -0.09961133 0.038545802 -0.07237196
000040 bc f5 76 bd 1c a4 d9 bd fe 1e 9d 3d 1f de 05 be
       -0.060292944 -0.106270045 0.07671927 -0.13073014
000050 85 34 0d be ee 0c 65 3d ba 0d f0 3d 00 aa d5 bd
       -0.13789566 0.055920534 0.11721368 -0.104328156
000060 18 a2 ad 3d d7 c2 6c bd 5c ae 17 3d 7c 46 0e bd
       0.084781826 -0.057803 0.037031516 -0.034735188
000070 79 ef e4 bd 7c 39 81 3d 14 2b 35 3d f2 9c 28 3d
       -0.11178488 0.063097924 0.044230536 0.0411653
000080 4e fc bf bd 06 45 ae 3d 73 59 85 bd 9c 4d 68 bd
       -0.09374295 0.08509259 -0.06511202 -0.05671464
000090 85 ef bf bd 6e d6 8c 3c b6 d9 01 be c8 44 52 3d
       -0.093718566 0.017192092 -0.12680706 0.051335126
0000a0 9c b2 bb bd c1 b7 ae bd f8 15 6e 3d dc fc b3 bd
       -0.091649264 -0.08531142 0.05812642 -0.087884635
0000b0 ce 93 c7 3d 14 ec 8d 3d 00 7e 49 3a 8b 2f 07 be
       0.097449884 0.06929794 0.0007686317 -0.1320173
0000c0 02 81 a4 bd 60 49 cc bc a0 24 22 bd c2 6d f9 bd
       -0.08032419 -0.024937332 -0.03958571 -0.12179138
0000d0 6f 66 54 3d 9c e0 09 be 90 38 5b bc 32 77 b9 3d
       0.0518555 -0.13464588 -0.013380185 0.09055938
0000e0 64 5f 8b bd 6a fc d5 bd 24 20 ae bd 85 f9 8f 3d
       -0.06805304 -0.10448535 -0.08502224 0.07030014
0000f0 c4 84 44 bd c2 5c cd bd 44 60 2b bd cc 54 bd bd
       -0.047978178 -0.10027458 -0.041839853 -0.09244689
000100 b6 d8 dd bb 12 9d 42 3d 4e 1e 22 3d 56 58 78 bd
       -0.0067702187 0.047513075 0.039579682 -0.06063112
000110 e7 73 39 3e 48 17 3e 3e 6c 4b 09 3e ce d3 db 3d
       0.1811062 0.18563569 0.13407677 0.10733758
000120 b9 67 43 bd 75 2a 9b bd 48 bb d2 3c 7f d1 04 3e
       -0.04770634 -0.075764574 0.025724068 0.12970541
000130 95 f7 c4 3d 43 64 0b 3e 8e 7b d7 3e ed b9 e4 3d
       0.09617535 0.13612466 0.42086452 0.11168275
000140 cc b1 fd 3d 6a 20 a9 bd 7d 0a 21 3d 97 e2 6b 3a
       0.12387428 -0.082581356 0.039316643 0.0008998303
000150 09 fc 1e 3d ef 61 7d 3d a4 54 0a 3e d9 a0 e3 3c
       0.03881458 0.061860975 0.1350885 0.02778666
000160 73 65 bb 3d ab ed 20 3e 5a 68 a6 3d 28 18 6c 3e
       0.09150209 0.15715663 0.08125372 0.2305609
000170 95 2f e4 bd f0 ba 0e 3e 20 9e 32 3c 30 89 ca 3e
       -0.11141888 0.13938498 0.010901958 0.3955779
000180 a9 30 2f be ce e5 8c 3d 84 9c bc 3d 1c 69 78 3d
       -0.17108406 0.06879769 0.092095405 0.060647115
000190 9b 96 0b 3e c8 a4 09 bd 18 f8 32 bd c8 af 20 3d
       0.1363167 -0.033604413 -0.043693632 0.039230138
0001a0 04 05 20 bd a1 39 5e 3d df 54 8d 3d 78 c0 c1 3c
       -0.039067283 0.054254178 0.069009535 0.023651347
0001b0 d8 d5 f6 3d df b0 39 bd 97 69 c3 3e 9b b6 ba 3d
       0.12052506 -0.045334693 0.38166496 0.091168605
0001c0 b0 9c 04 3e c3 e8 aa bd b0 0a a1 bd 0e 4d eb 3d
       0.12950397 -0.08345177 -0.078633666 0.114893064
0001d0 38 41 7b 3c 9e bd 30 3e eb d6 87 38 ae 63 b7 bc
       0.015335374 0.17259833 6.477333e-05 -0.022386398
0001e0 05 e9 b4 3d 76 db 26 bd 62 59 0d 3e 68 12 74 3d
       0.088335074 -0.040736638 0.13803628 0.059587866
0001f0 c3 7a 4f be 93 4f fb 3d 00 18 8a 3a c0 da 4b bc
       -0.20261674 0.12271037 0.0010535717 -0.012442291
000200 0a 3b 08 3d 3d 24 c0 3d 11 d3 f5 3c 3c 6c f2 3d
       0.03325943 0.09381912 0.03000787 0.1183705
000210 27 fc ff 3d 1b ae 92 3d 76 9a 11 3e c6 73 84 3c
       0.12499266 0.07162114 0.14219078 0.016168486
000220 3f ce 46 3d a5 10 93 3e 4a 1a ae bd 75 27 2a 3e
       0.048536535 0.28723636 -0.08501108 0.16616614
000230 ed 0d 99 3d 47 18 e0 3d 69 e6 c0 3e 03 6d 95 3d
       0.07473359 0.109421305 0.3767579 0.07296183
000240 aa c8 8b 3d 80 f1 5d ba cd 69 8b 3d b7 0e c5 3c
       0.06825383 -0.0008466467 0.06807289 0.024054868
000250 48 17 50 3d 3a 51 14 3d 96 b1 5f 3e 67 34 0e 3e
       0.050803453 0.036210276 0.21845087 0.13887177
000260 e2 24 46 3e df 59 4a 3e aa e0 92 bd 23 8b 3d 3e
       0.19350007 0.19760846 -0.071717575 0.18510108
000270 79 ce b1 3d 06 fb c5 3c 8d dd 80 3e 3e 21 90 3e
       0.0868196 0.024167549 0.2516903 0.28150362
000280 12 63 45 3c 43 a0 48 3e 05 5b 0c 3e 97 50 b9 3b
       0.012047546 0.19592385 0.13706596 0.005655359
000290 78 c1 20 3e d2 8d 1d 3c c0 18 81 3e a2 49 fc 3d
       0.15698802 0.009616332 0.25214195 0.12318732
0002a0 0c 31 83 bd 15 7a a4 3d 19 44 b0 3e 98 aa 22 3d
       -0.06405839 0.08031098 0.34426954 0.039713472
0002b0 00 87 fd bd 99 40 83 3e 88 e6 5d 3e 79 40 03 3e
       -0.12379265 0.25635222 0.21669972 0.12817563
0002c0 b4 b8 b8 3c 65 39 26 bd d0 13 32 bd 68 3c 6d 3d
       0.02254901 -0.04058208 -0.043475926 0.057918936
0002d0 cc 59 46 3e 38 05 35 3e d4 e8 e4 3c da 73 4e 3d
       0.19370192 0.17677772 0.027943052 0.050403453
0002e0 8d b1 87 3c a9 69 17 3e 68 4c 64 3e 77 3c 27 3e
       0.016564155 0.147864 0.22294772 0.1633166
0002f0 43 b9 39 3e 63 66 ed bd ac 25 6b bd 9e 4c 63 bc
       0.18137078 -0.11591794 -0.057408974 -0.013873247
000300 01 fd 33 3e e1 91 b8 bd 0b 46 57 3e 3b 45 0d 3c
       0.17576982 -0.09012199 0.21022813 0.008622463
000310 c9 9b 3e 3e 47 82 2b 3e 28 79 68 3d 2d f8 25 3d
       0.18614115 0.16748916 0.05675617 0.040519882
000320 b1 2d 43 3e af b8 0d 3e f4 49 3a bd 3f 6e c3 bc
       0.19060399 0.13839982 -0.045480683 -0.02385628
000330 f5 49 ed 3d 73 dd 05 3e ff 75 ae 3e 13 f4 b8 bd
       0.11586372 0.13072757 0.340744 -0.090309285
000340 40 42 c8 bd 9d e9 ba bd a7 57 a3 bc 58 d3 9f 3c
       -0.09778261 -0.091265894 -0.019939257 0.019509956
000350 e9 30 64 3e 5a 98 14 3e 67 36 54 3e bb 05 36 3c
       0.22284283 0.14511243 0.20723878 0.011109765
000360 7f 61 8f 3d 36 d6 dd 3c 78 44 50 3d 76 50 a8 3d
       0.07001018 0.027079683 0.050846547 0.08218472
000370 f4 4d 44 3d e8 bd 1a 3e e0 44 6a 3e a0 31 34 3e
       0.047925904 0.15111506 0.22877836 0.17597055
000380 a9 51 61 bc ba be 13 3d 93 85 77 3e f8 ab d6 3c
       -0.013752379 0.036070563 0.24172048 0.026205048
000390 7c 42 61 3e 22 c3 ca 3d c7 0c 68 3e a0 13 f6 bd
       0.21998018 0.099005 0.22661124 -0.12015462
0003a0 8e cc 8d 3d c3 e2 48 3c 72 3a 51 3e b6 ad 4d bd
       0.06923781 0.012261095 0.20432451 -0.05021449
0003b0 86 31 8e 3d c2 85 1b 3d b8 00 ec 3d 2b e3 46 3e
       0.069430396 0.03796936 0.115235746 0.19422595
0003c0 1b b8 0c 3e c9 a5 e8 bd 80 a6 68 3d f8 2d 92 3d
       0.13742106 -0.11359746 0.05679941 0.07137674
0003d0 50 93 5e 3e 2f 88 41 3d 27 94 1a bd 5f 59 22 3d
       0.21735883 0.047249015 -0.037738945 0.039636012
0003e0 c6 02 19 3e c8 af ae ba dd 21 4b 3e 7d 5b 13 3e
       0.14942464 -0.0013327533 0.19837137 0.14390369
0003f0 bf 47 39 3d e2 70 7f 3d 6e 41 ca bd 76 82 2f 3d
       0.045234438 0.062363513 -0.09875761 0.042849027

hidden_layer_2.bias f4 [64]
000000 74 1b c3 bd 76 48 e4 bd 84 8f 11 bd 3f b3 53 bd
       -0.09526721 -0.11146633 -0.035537258 -0.051684614
000010 44 9a 33 3e 00 6d ad 3d 26 b9 0c 3e 16 62 93 bd
       0.17539316 0.08468056 0.13742504 -0.07196443
000020 00 21 71 3d e5 8e 90 bd 06 20 45 3e 60 1f fe 3d
       0.058869362 -0.07058505 0.19250497 0.12408328
000030 a0 e1 7a bd 2c 65 67 3e 57 c3 9c 3d 32 75 11 bd
       -0.06125033 0.22597188 0.076544456 -0.035512157
000040 39 da 8b 3c bf 7b eb bd d0 a2 b4 3d 06 e7 2a 3e
       0.01707183 -0.11498212 0.088201165 0.16689691
000050 1e 58 26 3e ef 8f 44 bd 56 46 25 3d ac 42 7b 3e
       0.16244552 -0.04798883 0.04035028 0.24537152
000060 09 df 6b 3d 93 b4 8c 3e e6 9a 06 3e e8 f6 4a 3e
       0.05758575 0.27481517 0.13145027 0.1982075
000070 0d d6 04 bd 71 1d 38 3d 2b 02 97 3d 43 48 34 3e
       -0.032430697 0.044949953 0.073734604 0.1760569
000080 89 8c 3c 3d 7a 33 36 bd 92 07 be 3d 81 e7 f1 bd
       0.046032462 -0.044482686 0.09278788 -0.11811734
000090 45 2b b3 3d d8 5e e5 bc f0 38 23 bc 59 b5 a3 3e
       0.087484874 -0.027999327 -0.009962305 0.31974295
0000a0 3a 43 4b 3e a1 31 8b 3d 3c 9e 24 3e a3 91 10 bc
       0.19849864 0.06796575 0.16075987 -0.008823785
0000b0 03 50 05 bd 66 5c fc bb b8 50 fa 3d 36 12 02 3e
       -0.03254701 -0.0077014444 0.12222427 0.1270226
0000c0 28 2d b1 3d 30 02 ad 3d 76 40 d5 3d 03 3a c7 bd
       0.08651191 0.08447683 0.104126856 -0.09727862
0000d0 63 2d da 3c c5 33 05 3e 57 e1 55 3d 08 ae 42 3e
       0.02663297 0.1300803 0.052216854 0.190117
0000e0 a6 0f e4 bc 98 3b 1e 3d 7c b2 22 3d b1 a4 d0 3d
       -0.027839493 0.03863105 0.039720997 0.101876624
0000f0 2c 15 bc bd fb 69 0c 3e 54 61 1f 3e 52 ba bb 3d
       -0.09183726 0.13712303 0.15564471 0.09166397

output_layer.weight f4 [2, 64]
000000 fa bb c7 bc 71 d8 e5 3c 28 b4 de bd 28 c4 a6 bd
       -0.024381626 0.028057309 -0.10874206 -0.081428826
000010 7d 90 2f be 4d 1b 02 3e 64 20 61 be dd 71 ef 3e
       -0.17144962 0.12705727 -0.21985012 0.46766558
000020 f9 66 02 be 22 69 12 3f 52 56 93 3e e5 5b c8 bd
       -0.12734593 0.5719167 0.28776795 -0.097831525
000030 c7 07 56 3d 75 69 d3 3e 00 58 16 bd c9 ca 18 be
       0.05225351 0.41291395 -0.036705017 -0.14921106
000040 97 f3 30 be 9f 96 60 3e d4 20 0a 3e 5e 25 37 be
       -0.17280422 0.21932457 0.13489085 -0.17885348
000050 3b 05 03 be fd 3b c0 3e bf 77 4e 3d b5 2b d3 be
       -0.12794964 0.37545767 0.050407168 -0.41244283
000060 5f 14 7b be d9 3e 20 3f 0c 7c 91 be 86 31 49 be
       -0.2451949 0.625959 -0.28414953 -0.19647798
000070 6a 3b 22 be 41 1c c4 bc 61 da 8f be e4 9b 57 3e
       -0.15842977 -0.023939254 -0.28096297 0.21055561
000080 9d b5 b0 bd 6e b4 8b be b7 8c 75 3a d2 e5 2b 3d
       -0.0862839 -0.27286094 0.00093669764 0.04196722
000090 98 89 95 bd de 0a 9e bd 90 4f 79 bd d5 2f b3 3d
       -0.073016346 -0.077169165 -0.060866892 0.087493576
0000a0 f3 14 a1 3e f7 e0 0d be 41 dd 91 bd 26 fe 00 be
       0.31461295 -0.13855349 -0.07122279 -0.1259695
0000b0 09 7a ac be 78 63 26 bd 88 91 08 3d c4 da 0d be
       -0.33686855 -0.040622205 0.033341914 -0.13852984
0000c0 37 1a c5 bd b6 b7 59 be fe 77 23 be d8 0e d7 bd
       -0.09624141 -0.21261486 -0.15963742 -0.10500878
0000d0 cd e7 c9 bd 03 a5 65 3d 43 aa c7 be 99 12 5f be
       -0.098586656 0.05606557 -0.38997087 -0.21784438
0000e0 43 06 51 3c 4d 1a 5d 3e 74 79 d2 be db cc 26 bd
       0.012757841 0.21592064 -0.41108286 -0.04072271
0000f0 17 fd ab 3d 05 8d 2c be f1 bb 15 be 43 80 0e 3e
       0.083978824 -0.1685067 -0.14622475 0.13916115
000100 e8 f5 cf bc 4e 1c 7a be 6b 5c 51 be 9b 8a 5d be
       -0.025385812 -0.2442486 -0.20445411 -0.21634905
000110 af c7 dc bd 31 d3 97 bd 67 a0 4f be 98 e0 f0 3c
       -0.10780274 -0.074133284 -0.20276032 0.02940397
000120 cc 66 22 be a2 b7 cb bd e1 8a 8c be 8d ea 18 be
       -0.15859526 -0.099471346 -0.27449706 -0.14933224
000130 98 97 de 3d e4 ec e6 3e b5 6d 35 be 4c f0 cb 3d
       0.10868758 0.45102608 -0.17717631 0.09957942
000140 3e bb 12 be 37 7a 62 3e 79 52 95 bc f9 d9 01 bd
       -0.1432924 0.22116934 -0.018227803 -0.031702016
000150 e9 de 15 be 4e e8 c4 3c ee 60 c3 3c 91 d7 49 3e
       -0.14635815 0.024036553 0.02384993 0.19711138
000160 70 e2 67 bd a6 86 bf 3d 3d d6 08 3e ea 47 a9 bd
       -0.056612432 0.09351854 0.13362975 -0.0826567
000170 9d 1d ee bd 70 56 c0 3d b9 37 e4 be 8b 38 52 be
       -0.11626742 0.09391487 -0.44573763 -0.20529382
000180 10 c1 de bd 0b c4 f4 3c 5e db 22 3d 93 9b ba 3d
       -0.108766675 0.029878637 0.039759986 0.09111705
000190 75 4b 8b 3e b6 6f c2 3d 9e 94 94 3d 22 6d 55 3f
       0.27206007 0.094939634 0.07254909 0.8336965
0001a0 f4 26 31 3f 43 75 4d 3e 83 ca 10 be a0 93 3b be
       0.6920006 0.20064263 -0.14139752 -0.18318033
0001b0 f4 8b 7d 3d db 4a 83 bd a0 91 e4 bd bc b0 10 be
       0.061901048 -0.06410762 -0.11160588 -0.14129919
0001c0 0a ac 22 be 81 a5 96 bd d4 09 0a be 1a 96 eb 3d
       -0.1588594 -0.07355786 -0.13480312 0.11503239
0001d0 51 14 2c be 6a e4 5b be 2f fb 84 3d b7 86 c6 bd
       -0.16804625 -0.21473852 0.06493222 -0.096936636
0001e0 52 40 a7 bd 43 7c c3 bd e1 90 0b 3f 0d e5 48 be
       -0.08166565 -0.095451854 0.5451794 -0.19618626
0001f0 a1 4c f6 bd 48 be b6 bd 7a ef 2e be 81 df 00 3f
       -0.120263346 -0.08923012 -0.1708354 0.5034104

output_layer.bias f4 [2]
000000 90 57 39 be 32 7e ab bd
       -0.18099809 -0.08373679
