DQN - CartPole/data/Apprentice 1.pt (torch, 38460 bytes, 8 tensors)

input_layer.weight f4 [64, 4]
0	0x3f009da4	0.5024054
1	0x3f0aec0f	0.54266447
2	0x3f3761a5	0.7163337
3	0x3ed97886	0.42474765
4	0xbe598d20	-0.21245241
5	0xbdef9630	-0.11698568
6	0xbe76b076	-0.24090752
7	0x3ee38cbb	0.44443306
8	0xbe7816b3	-0.24227409
9	0xbeaf6d32	-0.34262997
10	0xbe9b8bd1	-0.3038011
11	0xbd5f16f9	-0.054465268
12	0xbd2a613e	-0.041596644
13	0x3ea2d2d1	0.31801465
14	0x3f1865b3	0.5953018
15	0x3edbf04f	0.42956778
16	0x3d1c03c0	0.038089514
17	0xbe73b2c8	-0.23798668
18	0x3da394f8	0.07987398
19	0xbe3f398c	-0.18674296
20	0x3d84d912	0.064867154
21	0xbe066254	-0.13123447
22	0xbe32990d	-0.17441197
23	0x3e7f0850	0.24905515
24	0x3e1cf80b	0.15328996
25	0xbbcf55ba	-0.006327358
26	0x3ecc871a	0.39946824
27	0x3e9709bd	0.29499617
28	0x3edd5d1c	0.432351
29	0x3f03782b	0.51355237
30	0x3eb73988	0.3578608
31	0xbea4dd5a	-0.32200128
32	0x3d89fa47	0.0673719
33	0xbebac2ca	-0.36476737
34	0x3eb07822	0.34466654
35	0x3efb3d42	0.49070174
36	0x3e25596d	0.16147394
37	0xbe96e5e3	-0.29472265
38	0xbee891ff	-0.45423886
39	0x3e941edc	0.28929794
40	0xbecd60c8	-0.401129
41	0x3f25ad72	0.6471778
42	0x3e30732c	0.17231435
43	0xbe224672	-0.15847185
44	0x3df811b7	0.12112754
45	0xbd444e23	-0.04792608
46	0xbeaf5378	-0.3424337
47	0x3f1b217a	0.60597956
48	0x3e2f4260	0.17115164
49	0xbe260cc8	-0.16215813
50	0xbd427690	-0.04747635
51	0xbd83bd28	-0.06432563
52	0xbf10349c	-0.56330276
53	0xbd477498	-0.048695177
54	0x3e63553d	0.22200485
55	0x3e443e5d	0.19164415
56	0xbd1f1367	-0.038836863
57	0x3ef03bbb	0.4692057
58	0xbef435ec	-0.4769739
59	0xbe3a93cf	-0.18220447
60	0x3eafb5d8	0.34318423
61	0x3dd7c967	0.10536461
62	0x3d2952ee	0.041338854
63	0xbf048ec0	-0.5178032
64	0xbed19897	-0.4093673
65	0xbd2cca70	-0.042185247
66	0xbdc7679d	-0.097365595
67	0xbda7e9bd	-0.08198879
68	0x3f2fdd25	0.68696815
69	0x3e474708	0.1946069
70	0x3efe6253	0.4968439
71	0xbf1739e6	-0.5907272
72	0xbe982ee4	-0.29723275
73	0xbe84f138	-0.25965285
74	0xbebf2798	-0.37334895
75	0xbd5fe260	-0.054659247
76	0x3d730a23	0.05933584
77	0xbf1f979d	-0.6234072
78	0x3f01db5a	0.5072533
79	0xbe845426	-0.2584545
80	0xbf10197e	-0.562889
81	0xbc13346c	-0.008984666
82	0x3cf268c1	0.029590966
83	0xbde4660f	-0.11152279
84	0xbda05c17	-0.07830065
85	0x3f04f0fd	0.5193022
86	0x3f0cca18	0.5499587
87	0x3f0e0c43	0.5548746
88	0x3f194dfb	0.59884614
89	0x3de8e1ec	0.11371216
90	0xbef55e6e	-0.47923607
91	0xbe9aecce	-0.30258793
92	0x3eaaa413	0.33328304
93	0x3d9df579	0.07712836
94	0x3e99ccc7	0.30039045
95	0x3eb41ad5	0.3517672
96	0xbef72dd7	-0.4827716
97	0xbf1a78db	-0.6034066
98	0x3ef9d5f3	0.48796043
99	0xbe1e4442	-0.15455726
100	0x3ef36ea6	0.47545356
101	0xbef146fc	-0.4712447
102	0xbeef934f	-0.46792075
103	0x3e7e813c	0.24853987
104	0x3d341b72	0.043971486
105	0xbe4e3da4	-0.20140702
106	0x3f0e8fee	0.5568837
107	0x3ef4c1ed	0.47804204
108	0xbe953357	-0.29140732
109	0xbe8011ae	-0.2501349
110	0xbc319e94	-0.010841031
111	0x3d85d838	0.06535381
112	0xbdf01d96	-0.11724393
113	0xbe923cad	-0.28561917
114	0x3f3fe6ab	0.74961346
115	0x3ec03bcc	0.3754562
116	0x3e453e4f	0.1926205
117	0x3f247724	0.64244294
118	0xbda55e75	-0.08074657
119	0xbec16ac8	-0.3777678
120	0x3d2778ef	0.040886816
121	0x3f211cab	0.6293437
122	0xbe8954b7	-0.26822445
123	0xbcee5cb9	-0.029096948
124	0xbeefc3b7	-0.46829006
125	0xbec5a545	-0.38602653
126	0xbed48d55	-0.41514078
127	0x3f0a2c78	0.53974104
128	0x3ea98e4e	0.33116382
129	0xbe760d6c	-0.24028558
130	0xbe99257e	-0.29911417
131	0x3da75980	0.08171368
132	0x3c5c2f20	0.01343897
133	0x3dbf1ccd	0.09331665
134	0x3df547e4	0.11976603
135	0x3ef73d3e	0.48288912
136	0xbea532e4	-0.3226539
137	0x3e87de86	0.2653696
138	0x3de49ed0	0.111631036
139	0x3e4e2e48	0.20134842
140	0xbe91fd0b	-0.2851337
141	0xbf1e8764	-0.6192534
142	0xbf19b2b0	-0.6003828
143	0x3edfe66d	0.43730488
144	0x3ed9c737	0.425348
145	0x3f0bf4e3	0.5467054
146	0xbe60cf08	-0.21953976
147	0xbefd56fb	-0.49480423
148	0xbea7c2c7	-0.3276579
149	0x3f06866a	0.5254885
150	0xbedb9380	-0.4288597
151	0xbec686c0	-0.3877468
152	0xbd8e1140	-0.06936884
153	0xbde248ab	-0.110490166
154	0x3e7f95e0	0.24959517
155	0x3ef6831b	0.481469
156	0x3ca3ba49	0.019986289
157	0xbeaa384d	-0.3324608
158	0x3e51a9d4	0.2047494
159	0xbef2a8a0	-0.47394276
160	0x3d8f30e4	0.06991747
161	0xbe9628de	-0.29328054
162	0x3e83fa7e	0.25777048
163	0xbe985e9d	-0.29759684
164	0x3ec88ca2	0.39169794
165	0x3ecb1c39	0.3966997
166	0xbe2c034b	-0.16798131
167	0x3eef33fd	0.4671935
168	0x3f095931	0.5365172
169	0x3df453a8	0.11930019
170	0xbde6d975	-0.112719454
171	0xbe359efc	-0.17736429
172	0x3e9a46a8	0.3013203
173	0x3f1c9921	0.61171156
174	0x3eade49f	0.33963487
175	0xbf197221	-0.5993977
176	0x3ec11794	0.377133
177	0xbddb4ae8	-0.107076466
178	0x3e8fa372	0.28054386
179	0xbf14b348	-0.5808606
180	0x3e39abcf	0.18131946
181	0xbef8ab12	-0.48568016
182	0x3e635edc	0.22204155
183	0x3eb4e30d	0.35329476
184	0xbddb670c	-0.10713014
185	0x3db2390d	0.08702288
186	0x3e66188d	0.22470303
187	0xbf04cde9	-0.51876694
188	0x3ead79df	0.33882043
189	0x3cde1532	0.027109716
190	0xbed9d309	-0.4254382
191	0xbed2ecf3	-0.41196403
192	0xbecf3b6f	-0.40475032
193	0xbeff77d1	-0.498961
194	0x3f02376c	0.5086582
195	0x3e81fc98	0.25388026
196	0xbee64e6c	-0.44981706
197	0x3edaeb53	0.42757663
198	0x3f1ca5cb	0.6119048
199	0x3d71962a	0.0589811
200	0x3e033700	0.1281395
201	0x3d4f14e0	0.050557017
202	0x3ef50736	0.47857064
203	0xbe0b42e8	-0.13599741
204	0x3f05247c	0.52008796
205	0xbe25fce6	-0.16209754
206	0xbe16d658	-0.14730203
207	0xbf1521c3	-0.5825464
208	0xbcf220d2	-0.029556666
209	0xbe49b646	-0.19698438
210	0xbbbc3c29	-0.0057444763
211	0xbe911997	-0.28339836
212	0xbf0cf32c	-0.5505855
213	0xbe2e0a59	-0.16996135
214	0x3f49b769	0.78795487
215	0x3e20ff4c	0.15722388
216	0x3e053d54	0.13011676
217	0xbf0d79ac	-0.5526378
218	0x3d81f960	0.06346393
219	0x3e8e6556	0.27811688
220	0x3d9d75e7	0.07688504
221	0x3f118017	0.56836075
222	0xbe20ec3f	-0.1571512
223	0xbf141fe9	-0.5786119
224	0xbea564a4	-0.32303345
225	0x3eca1176	0.39466447
226	0x3e3484df	0.17628811
227	0x3dfdf9ca	0.12401159
228	0xbe21c5c4	-0.15798098
229	0x3ef2568a	0.4733165
230	0xbec41f5b	-0.38305172
231	0xbecd1787	-0.40057012
232	0xbe9ea468	-0.30984807
233	0x3d9d8882	0.076920524
234	0x3e697b7d	0.22801013
235	0x3ec04e24	0.37559617
236	0x3f3f994d	0.74843293
237	0x3f17612d	0.59132653
238	0xbec14fa0	-0.37756062
239	0xbeb0d6e2	-0.34538943
240	0x3e4d945e	0.20076129
241	0xbe666672	-0.22500017
242	0xbf1c2d0d	-0.6100624
243	0x3d564800	0.05231476
244	0x3e8e61d0	0.27809
245	0xbf023e7b	-0.5087659
246	0x3eb6ea65	0.35725704
247	0xbda53d81	-0.080683716
248	0x3eb1e545	0.3474523
249	0x3e829231	0.2550216
250	0x3ec8400c	0.39111364
251	0xbec1e49b	-0.37869725
252	0x3e8ee50d	0.27909127
253	0xbea9f449	-0.33194187
254	0xbea09161	-0.31360915
255	0x3ed9e2bb	0.42555794

input_layer.bias f4 [64]
0	0x3d343a08	0.044000655
1	0xbeece41e	-0.4626779
2	0x3f2cae80	0.67453766
3	0x3e706b60	0.2347846
4	0xbe4d12c0	-0.20026684
5	0xbe36fd54	-0.17870075
6	0xbe0086c0	-0.12551403
7	0xbf073405	-0.5281375
8	0xbe990164	-0.29883873
9	0xbddf5477	-0.10904782
10	0x3e4a8f5f	0.19781254
11	0x3d7da8fa	0.061928727
12	0xbe4fcb0c	-0.202923
13	0xbdd2aca6	-0.10286836
14	0xbdb13422	-0.08652522
15	0x3d201929	0.039086495
16	0x3e8bef34	0.27330935
17	0xbeced018	-0.40393138
18	0xbeb39716	-0.35076207
19	0x3eea6a81	0.4578438
20	0x3ee671ac	0.450086
21	0x3e7161f9	0.2357253
22	0x3f385fc4	0.72021127
23	0xbde4b667	-0.11167603
24	0x3f01a8d9	0.50648266
25	0x3c6700fb	0.014099355
26	0x3ea3ec28	0.3201611
27	0xbe018a23	-0.12650351
28	0x3f07988b	0.5296714
29	0xbe582528	-0.21107924
30	0x3d60f8af	0.054924663
31	0xbeee80fb	-0.4658278
32	0xbefd3892	-0.49457222
33	0x3ec9cc41	0.39413646
34	0xbed10090	-0.40820742
35	0xbe20a184	-0.15686613
36	0xbcd0b6cb	-0.025477787
37	0x3d333b39	0.04375765
38	0x3e857630	0.26066732
39	0x3f0ae5db	0.5425698
40	0x3ef0acea	0.47006923
41	0x3e90c528	0.28275418
42	0x3f067f80	0.525383
43	0x3e89cd0b	0.26914248
44	0xbd6a4748	-0.057196885
45	0xbf0e073b	-0.5547978
46	0x3eedec96	0.46469563
47	0xbce680f2	-0.028137658
48	0x3e6da28a	0.23206535
49	0x3ee11fd6	0.439696
50	0xbefdf858	-0.49603534
51	0x3d33ec80	0.043926716
52	0xbcd17dc5	-0.025572667
53	0x3f14f92a	0.58192694
54	0xbf048bee	-0.51776016
55	0xbe9e454f	-0.30912253
56	0x3ecee4cd	0.40408936
57	0xbea9ea31	-0.33186486
58	0xbd9164c2	-0.07099296
59	0x3db4fbb0	0.08837068
60	0x3eab0d0c	0.3340839
61	0xbe925485	-0.28580108
62	0xbdd50846	-0.10401969
63	0xbe26d67c	-0.16292757

hidden_layer_1.weight f4 [64, 64]
0	0xbede1866	-0.4337799
1	0x3e22302e	0.15838692
2	0xbda5abbf	-0.080893986
3	0x39f4691c	0.0004661762
4	0xbdd38b1c	-0.103292674
5	0x3e2092a4	0.15680939
6	0x3e3c66a8	0.18398535
7	0x3e593450	0.21211362
8	0x3de3ac9f	0.11116909
9	0x3e8e081f	0.2774057
10	0x3e327a7c	0.17429537
11	0x3e5231e6	0.20526847
12	0x3d263778	0.040580243
13	0x3e7e4e2a	0.24834505
14	0x3dc8a697	0.097973995
15	0x3ddd31ce	0.10800515
16	0xbe27dffb	-0.16394036
17	0x3e857965	0.2606918
18	0xbd80e294	-0.06293216
19	0xbe428e64	-0.1899963
20	0xbe1267cb	-0.14297406
21	0xbd80708a	-0.06271465
22	0xbe5a4e88	-0.2131902
23	0x3c9cd0b3	0.019142484
24	0xbe0a5e49	-0.1351253
25	0x3e5ae86e	0.21377727
26	0x3de32970	0.11091888
27	0x3e128e6a	0.14312139
28	0xbd1a82cd	-0.037722398
29	0x3e200fbb	0.15631
30	0x3df9fad2	0.12206043
31	0x3e57f8ad	0.21090956
32	0x3df7a88a	0.12092693
33	0x3cec4014	0.028839149
34	0x3deb0406	0.11475377
35	0x3d87618c	0.066104025
36	0x3e08743c	0.1332559
37	0x3e76d124	0.24103218
38	0xbc2fc89d	-0.010728982
39	0xbe72673c	-0.23672193
40	0xbe8866e9	-0.26641014
41	0xbe2b0466	-0.16700897
42	0xbe80af64	-0.25133812
43	0x3e5cac3c	0.21550077
44	0x3dba1c4f	0.09087431
45	0x3eb3ff27	0.35155603
46	0x3d7361a6	0.059419297
47	0xbc83f748	-0.016109124
48	0xbd1691e3	-0.036760222
49	0xbd92ad8f	-0.0716201
50	0xbd6933cc	-0.056934163
51	0x3e07abcd	0.1324913
52	0xbd9e7cb7	-0.07738631
53	0x3d08764a	0.033315934
54	0x3eb86ff5	0.36022916
55	0x3e57b6e2	0.21065858
56	0xbe66ed5d	-0.22551484
57	0x3e71511d	0.23566099
58	0x3ddb4129	0.10705788
59	0x3e0c8e8e	0.13726255
60	0xbdc0b830	-0.09410131
61	0x3e44fff7	0.19238268
62	0x3e046872	0.12930468
63	0x3e5d32a8	0.21601355
64	0xbeaf4e78	-0.34239554
65	0xbde33488	-0.11094004
66	0xbca538b3	-0.020168638
67	0xbe487166	-0.19574508
68	0x3bef4220	0.007301584
69	0xbd0f7135	-0.035020072
70	0x3d34b2c8	0.04411581
71	0x3e35c13b	0.17749493
72	0x3dd89223	0.10574748
73	0xbe06c96d	-0.13162775
74	0x3da312df	0.07962584
75	0xbdbc9a44	-0.09209111
76	0x3d39b4c8	0.045338422
77	0xbda98263	-0.082768224
78	0x3d2565ed	0.040380407
79	0x3e05b307	0.13056575
80	0xbcedfdfa	-0.02905177
81	0x3e24febf	0.16112803
82	0x3d70cb68	0.058787733
83	0xbd9dd204	-0.07706073
84	0xbbb5bc5d	-0.0055461363
85	0xbddc7576	-0.107645914
86	0x3e258543	0.16164117
87	0xbd413fd3	-0.04718001
88	0xbe65f5bf	-0.22457026
89	0xbd2f1736	-0.042746745
90	0xbd801774	-0.06254473
91	0x3da51456	0.080605194
92	0xbdb91cd5	-0.090387024
93	0x3e424ecb	0.1897537
94	0x3e67f02f	0.22650217
95	0x3ce61128	0.028084353
96	0x3d526e6c	0.051374838
97	0xbe31cad7	-0.17362534
98	0x3b36f100	0.0027914643
99	0xbe2a0ee8	-0.16607249
100	0x3e2b547a	0.16731444
101	0xb9789446	-0.00023706359
102	0xbd256ede	-0.040388934
103	0x3e25133a	0.16120616
104	0x3e2fcd6e	0.17168209
105	0xbd4ca69a	-0.04996357
106	0xbd1af891	-0.037834708
107	0x3e02f36d	0.12788172
108	0x3e57a409	0.21058668
109	0xbda539e2	-0.08067681
110	0x3c9bb6d1	0.019008072
111	0x3e628fee	0.22125217
112	0xbd166744	-0.036719576
113	0x3c99f336	0.01879273
114	0xbd8a279c	-0.06745836
115	0x3dd48c26	0.10378294
116	0xbb653d0e	-0.0034979018
117	0xbe59ad02	-0.21257403
118	0xbd9d64a8	-0.07685214
119	0x3e247930	0.16061854
120	0x3d392aa3	0.045206677
121	0x3dd43b54	0.103628784
122	0xbe6e99c4	-0.23300844
123	0x3e578dcb	0.21050183
124	0x3d10331d	0.035204995
125	0xbd59ce48	-0.05317524
126	0x3e01a3ee	0.1266019
127	0xbde7cd04	-0.113184005
128	0xbf857d5f	-1.0428885
129	0x3bc423f1	0.00598573
130	0x3e160065	0.14648588
131	0xbeb79c01	-0.3586121
132	0xbd88a058	-0.06671208
133	0xbd479ad5	-0.048731644
134	0xbe5398e3	-0.2066379
135	0x3e2c702c	0.16839665
136	0xbba25109	-0.004953508
137	0xbe14a993	-0.14517812
138	0x3e036928	0.12833083
139	0x3b1d7578	0.0024026316
140	0x3d89e11a	0.06732388
141	0xbe048a83	-0.12943463
142	0x3e39aaa7	0.18131505
143	0x3e46f4c0	0.19429302
144	0x3e67acac	0.22624463
145	0x3db866cd	0.09003983
146	0xbc343000	-0.010997772
147	0x3e292510	0.16518044
148	0x3d6594fc	0.056050286
149	0xbec1a2e0	-0.37819576
150	0x3e2e06c1	0.16994764
151	0xbe848152	-0.25879914
152	0x3d81be71	0.06335152
153	0x3dee569e	0.11637615
154	0xbe3f2d37	-0.18669592
155	0xbddcfba6	-0.10790186
156	0xbe119bb1	-0.14219548
157	0x3dc9d369	0.098547764
158	0x3db0cab9	0.08632416
159	0xbb845adb	-0.004039151
160	0xbdd0423e	-0.10168885
161	0xbd9740e0	-0.07385421
162	0xbd8f40f4	-0.06994811
163	0xbda5c114	-0.08093467
164	0x3de73102	0.112886444
165	0x3dc4db86	0.09612183
166	0xbe1e5708	-0.15462887
167	0x3e568f04	0.20952994
168	0x3e105989	0.14096655
169	0x3ccf6898	0.025318429
170	0x3c75ab9b	0.014994527
171	0x3e37a534	0.17934114
172	0x3e2ed86f	0.1707475
173	0xbd5f4610	-0.054510176
174	0xbcd58ba8	-0.02606757
175	0x3d7706f4	0.060309365
176	0x3c80ffee	0.015747037
177	0x3e0fd9fe	0.14048001
178	0xbda40798	-0.08009261
179	0x3daaf585	0.083476104
180	0x3d40e6cb	0.0470951
181	0xbe1bb44a	-0.15205494
182	0x3a419200	0.00073841214
183	0x3e3fa4b0	0.18715167
184	0x3dc838e9	0.0977648
185	0xbb92d5ee	-0.004481069
186	0xbe8663e8	-0.26248097
187	0x3d921a87	0.07133966
188	0x3e468dee	0.1939008
189	0xbcced8a8	-0.025249794
190	0x3e15e85f	0.14639424
191	0xbe8c1338	-0.27358413
192	0xbe0b9a42	-0.13633063
193	0x3e963575	0.2933766
194	0xbda7fa66	-0.082020566
195	0x3c25f4d4	0.010129172
196	0x3d1c3ec8	0.03814581
197	0x3e32b168	0.17450488
198	0x3c222e82	0.009898784
199	0x3bb28340	0.005447775
200	0x3e547d4f	0.20750926
201	0x3dea3921	0.11436678
202	0xbe1e3fa4	-0.15453964
203	0x3c19cacd	0.00938673
204	0xbd953fb0	-0.07287538
205	0x3c196365	0.009362076
206	0xbd61fb00	-0.055171013
207	0xbd2ecbed	-0.042674948
208	0xbe55cd66	-0.20879135
209	0x3ce45a38	0.02787505
210	0xbdaffc94	-0.08593097
211	0xbd6a150c	-0.057148978
212	0xbea280bb	-0.3173884
213	0xbd49abb1	-0.049236003
214	0xbeb77bd4	-0.3583666
215	0x3e325d50	0.17418408
216	0x3d822d8a	0.06356342
217	0x3d90ef31	0.07076872
218	0x3dc265e3	0.094920896
219	0x3e5210c2	0.20514205
220	0x3dc89ca6	0.09795503
221	0x3dc26aa2	0.09492995
222	0xbe32744b	-0.17427175
223	0x3e914cd4	0.28378928
224	0xbd2e1be0	-0.042507052
225	0x3bb8190a	0.0056182193
226	0x3c92fb70	0.01794216
227	0x3d9d7e2b	0.0769008
228	0xb9fee000	-0.00048613548
229	0xbd153d3b	-0.036435347
230	0x3d98767d	0.07444475
231	0xbea4d65b	-0.3219479
232	0xbe76639d	-0.24061437
233	0xbe1feaea	-0.15616956
234	0xbe4ea158	-0.20178735
235	0xbe2b49df	-0.16727398
236	0xbdc05300	-0.09390831
237	0x3e292b11	0.16520335
238	0xbe19901d	-0.14996381
239	0x3d942822	0.07234217
240	0x3da0e2d1	0.07855762
241	0xbe8c202d	-0.27368298
242	0x3d074b1c	0.033030614
243	0x3d84a2be	0.06476353
244	0x3d099ab6	0.03359481
245	0xbca2a968	-0.01985617
246	0x3e85fa6e	0.26167625
247	0x3d8590de	0.06521772
248	0xbe97115f	-0.2950544
249	0x3d884930	0.066545844
250	0x3d97cf67	0.07412606
251	0xbe0def78	-0.13860881
252	0xbc3c64a0	-0.0114986
253	0x3e7708bb	0.24124424
254	0xbd351f94	-0.04421957
255	0x3e72461f	0.23659562

hidden_layer_1.bias f4 [64]
0	0xbe7c8144	-0.24658686
1	0x3da77685	0.08176903
2	0xbc71f265	-0.014767264
3	0xbe97cb73	-0.29647407
4	0x3e195490	0.14973664
5	0xbc41ef81	-0.011836887
6	0x3e88ec31	0.267427
7	0xbdbde752	-0.092726365
8	0xbab2766a	-0.0013615612
9	0xbe2ccec4	-0.1687575
10	0x3d2dd59d	0.042440046
11	0x3e58d1a2	0.21173719
12	0xbda2a4fd	-0.07941625
13	0xbd8077e8	-0.0627287
14	0xbd430eeb	-0.04762165
15	0x3e4a453a	0.1975297
16	0xbdaea240	-0.085270405
17	0x3dd0fdf7	0.1020469
18	0xbdb19fe2	-0.08673073
19	0xbe095320	-0.13410616
20	0x3d2b9cf4	0.04189773
21	0x3c84fd05	0.01623393
22	0xbdb5f5ae	-0.0888475
23	0x3ebc6408	0.36795068
24	0xbdd845f6	-0.10560219
25	0xbde8320f	-0.11337673
26	0xbe0a8500	-0.13527298
27	0x3d59ab77	0.053142037
28	0xbe0efd98	-0.13963926
29	0x3ca87ef9	0.020568358
30	0xbdf6eda1	-0.12057043
31	0x3de4e369	0.111761875
32	0xbc255ec0	-0.010093391
33	0x3e836f61	0.25670913
34	0x3d4d305b	0.050094943
35	0xbca0743a	-0.019586671
36	0xbdd6445a	-0.10462256
37	0x3e9d0471	0.3066745
38	0x3d4c1330	0.049822986
39	0xbd88c1da	-0.06677599
40	0xbd1703da	-0.036868908
41	0xbc983f2d	-0.018584812
42	0x3e78cdae	0.2429721
43	0xbdc36c18	-0.095421016
44	0xbc074bc2	-0.008257808
45	0xbc89ee49	-0.016837256
46	0xbdfab8a8	-0.12242252
47	0xbdb09d40	-0.08623743
48	0xbde40af7	-0.11134904
49	0xbdb50615	-0.08839051
50	0xbdb9d71e	-0.090742335
51	0x3e61b059	0.22039928
52	0xbd9a7c24	-0.07543209
53	0xbdabdfe5	-0.08392314
54	0xbcbb3e14	-0.02285675
55	0xbdb43f82	-0.08801176
56	0x3de1a694	0.110181004
57	0xbcfe1c24	-0.031019278
58	0x3cdf26c7	0.02724017
59	0xbda5e229	-0.08099777
60	0x3e3f648c	0.186907
61	0x3e3cf021	0.18450977
62	0x3c04168a	0.008062014
63	0x3df6e408	0.12055212

hidden_layer_2.weight f4 [64, 64]
0	0xbe4272a4	-0.18989044
1	0x3db2e58d	0.087351896
2	0x3dbf642c	0.09345278
3	0xbed7d9fe	-0.42158502
4	0x3e6a7b6c	0.22898644
5	0x3db97740	0.09055948
6	0x3dd2a240	0.10284853
7	0x3d16d9a9	0.03682867
8	0x3de73bf5	0.11290733
9	0x3e50792d	0.20358725
10	0xbd9dcddc	-0.0770528
11	0xbdcd28d6	-0.100175545
12	0x3d093b48	0.0335038
13	0x3da6d833	0.081467055
14	0x3bb9e040	0.0056724846
15	0x3dfd236e	0.12360273
16	0xbd785e80	-0.060636997
17	0x3e4232ce	0.18964693
18	0xbdf64ad6	-0.120259926
19	0x39d3f400	0.0004042685
20	0x3d768292	0.060183115
21	0x3d1a5d9d	0.037686933
22	0x3d3ba034	0.04580708
23	0x3d5b52d0	0.053545773
24	0xbde49e2c	-0.111629814
25	0xbd2e3599	-0.042531583
26	0x3ec16774	0.3777424
27	0x3d300f4b	0.042983335
28	0xbec61207	-0.3868563
29	0xbe998f9d	-0.2999238
30	0xbdda4cc4	-0.10659173
31	0xbd14b811	-0.036308352
32	0x3d8e7edc	0.0695779
33	0x3e404b6e	0.18778774
34	0x3da7a789	0.08186252
35	0xbd359c55	-0.044338543
36	0x3cd924c8	0.026506796
37	0x3e610e4d	0.21978112
38	0x3dfbdf95	0.12298504
39	0x3d82d1f6	0.06387703
40	0x3e6ebb2d	0.2331359
41	0xbd32a553	-0.043614697
42	0x3d5ab621	0.053396348
43	0xbdcf965c	-0.10136101
44	0x3d1c16fc	0.038107857
45	0x3d0f1483	0.03493167
46	0xbed444d1	-0.41458753
47	0x3e079a20	0.13242388
48	0xbdb96340	-0.090521336
49	0x3d5571f0	0.052110612
50	0x3c4c7a10	0.012480274
51	0x3ce581c1	0.028015973
52	0xbd9e3af5	-0.07726089
53	0xbc18e2e6	-0.009331441
54	0xbdc37884	-0.09544471
55	0xbd9baea9	-0.07601673
56	0x3e02f512	0.127888
57	0x3e2f71d7	0.1713327
58	0x3de5271d	0.11189101
59	0x3da90a68	0.08253938
60	0x3de37ae4	0.11107424
61	0x3e4b9a43	0.19883065
62	0xbdc109dd	-0.094257094
63	0x3d256c70	0.040386617
64	0xbcb411f8	-0.021981224
65	0x3d8cb992	0.06871332
66	0x3df33446	0.11875205
67	0x3d1f7b14	0.038935736
68	0xbc8b6e28	-0.0170203
69	0xbbc90560	-0.006134674
70	0x3d5eb8a0	0.05437529
71	0xbd49ab28	-0.049235493
72	0x3da35cd0	0.07976687
73	0x3d9cbe76	0.07653515
74	0xbd952ca4	-0.07283905
75	0xba4a2200	-0.0007710755
76	0xbdca01cc	-0.09863624
77	0x3c9a1340	0.018808007
78	0xbdda047c	-0.106453866
79	0x3d809fa6	0.062804505
80	0xbd0737b4	-0.033012107
81	0xbd83fc0c	-0.064445585
82	0x3cfc9b00	0.030835629
83	0xbc9ce720	-0.019153178
84	0x3d3b8e70	0.045790136
85	0xbdb18cc0	-0.08669424
86	0x3d582c24	0.05277647
87	0xbda74d3c	-0.08169028
88	0x3cc98118	0.02459769
89	0xbc730120	-0.014831811
90	0x3d6bd770	0.057578504
91	0xbdfa3db2	-0.12218799
92	0xbd99f284	-0.07516959
93	0xbdb14482	-0.08655645
94	0x3c8549d0	0.016270548
95	0xbd6ccb64	-0.057811156
96	0x3cf0a260	0.029374301
97	0xbbb0d460	-0.005396411
98	0x3d84e6ee	0.06489359
99	0x3da83caa	0.08214696
100	0xbc206d60	-0.009791702
101	0xbcfbd6b8	-0.030742034
102	0x3d3a98e4	0.045555964
103	0xbd033a1c	-0.03203784
104	0xbddcd73c	-0.1078324
105	0x3d7c9b80	0.061671734
106	0xbdcc2d60	-0.09969592
107	0xbd2ba090	-0.04190117
108	0xbdaa8984	-0.0832701
109	0x3bd02a60	0.0063527077
110	0x3c164150	0.009170845
111	0x3dd41882	0.10356237
112	0xbc24abe0	-0.010050744
113	0x3ded46c6	0.115857646
114	0x3da490b4	0.080354124
115	0xbc8417a8	-0.016124561
116	0x3daae6be	0.08344792
117	0x3cb4a7b8	0.02205263
118	0xbcd8e1e8	-0.026474908
119	0xbd42d108	-0.04756263
120	0xbbe4bfe0	-0.006980881
121	0xbb32fe00	-0.002731204
122	0x3ac28580	0.0014840811
123	0x3de3c5c0	0.11121702
124	0xbcfbbc20	-0.030729353
125	0x3d6a4594	0.05719526
126	0xbdd73b04	-0.10509303
127	0x3d274f24	0.04084696
128	0x3e19da4b	0.15024678
129	0xbe2ee198	-0.17078245
130	0xbd658fb8	-0.056045264
131	0x3e437783	0.19088559
132	0x3d68abdb	0.05680452
133	0xbdf6e6a2	-0.120557085
134	0xbe0b95a7	-0.13631307
135	0xbd939e67	-0.07207947
136	0xbd3caf96	-0.04606589
137	0x3e339394	0.17536765
138	0xbd9264ca	-0.0714813
139	0x3e6e4ce1	0.23271514
140	0x3d0478a0	0.0323416
141	0xbd8e49da	-0.0694768
142	0x3df38c46	0.118919894
143	0x3cf95652	0.030436669
144	0x3d160574	0.036626294
145	0xbed23a9d	-0.41060343
146	0xbdadec6c	-0.084923595
147	0xbdcc4471	-0.09973992
148	0xbd8a4180	-0.067507744
149	0xbd195f73	-0.037444543
150	0xbdaa4f60	-0.08315921
151	0xbd4aabbc	-0.049480185
152	0xba7dd700	-0.00096832216
153	0x3e944f41	0.28966716
154	0x3ec695fa	0.38786298
155	0xbd7f37a1	-0.06230891
156	0x3e37b988	0.17941868
157	0x3c44547e	0.011983035
158	0xbdf29620	-0.1184504
159	0x3e2a92ef	0.16657613
160	0x3d033b8c	0.03203921
161	0xbe0bcae9	-0.13651623
162	0xbd82abfa	-0.06380458
163	0x3e608562	0.21925882
164	0x3c1079d3	0.008818108
165	0xbdc5d4b5	-0.09659711
166	0x3cb2daf7	0.021832926
167	0xbdc2325e	-0.09482263
168	0x3e9bf39c	0.30459297
169	0x3e25be9f	0.16185997
170	0x3e401b8f	0.18760513
171	0x3dea60e6	0.11444263
172	0x3df80da0	0.12111974
173	0xbdd8e00f	-0.10589611
174	0x3dd900bd	0.10595844
175	0x3de61b7d	0.11235712
176	0xbdca96e2	-0.0989206
177	0xbdeb3256	-0.1148421
178	0xbde7fa8c	-0.11327085
179	0xbe707a3f	-0.23484133
180	0x3e6c89a7	0.23099385
181	0x3dc24a32	0.09486808
182	0x3d736e99	0.059431646
183	0x3d6d70eb	0.057969015
184	0x3d5909e6	0.052987956
185	0xb9b03686	-0.0003360996
186	0xbde48c04	-0.11159518
187	0xbddd3824	-0.108017236
188	0x3e2cc034	0.16870195
189	0x3de34cae	0.1109861
190	0x3e3146a1	0.17312099
191	0x3d918dbc	0.07107112
192	0xbe980a22	-0.2969523
193	0x3d3116f0	0.043234766
194	0xbd65fb82	-0.05614806
195	0xbe3c913a	-0.18414775
196	0xbe6f036c	-0.23341149
197	0xbb4566de	-0.0030121128
198	0x3d9dcd34	0.07705155
199	0xbde5feae	-0.11230217
200	0x3d2a78c8	0.041619092
201	0xbe78759f	-0.24263619
202	0x3d304ef4	0.043044046
203	0x3b007980	0.001960367
204	0xbca85718	-0.020549342
205	0x3dc0344c	0.09384975
206	0xbcb5b2e8	-0.022180036
207	0x3e7c22a4	0.2462259
208	0xbc7a7a30	-0.015287921
209	0x3df7d223	0.12100627
210	0xbdc8a2d6	-0.097966835
211	0x3dec9f14	0.11553779
212	0xbdf1a832	-0.11799659
213	0x3dca7ddd	0.09887288
214	0xbd9a3182	-0.07528974
215	0x3e87d826	0.26532096
216	0x3d654748	0.055976182
217	0xbd08d8d2	-0.0334099
218	0xbe4b6031	-0.19860913
219	0xbd183f11	-0.03716952
220	0x3bc5c987	0.006035987
221	0x3d8a3c18	0.06749743
222	0x3dae8f44	0.085234195
223	0x3d1ab900	0.037774086
224	0x3d85baca	0.06529768
225	0x3e3cb169	0.18427052
226	0xbe14cb53	-0.14530687
227	0x3be79561	0.007067368
228	0xbda257c2	-0.07926895
229	0x3bf81644	0.0075710136
230	0x3d0fea82	0.035135753
231	0x3dbe1e42	0.09283115
232	0xbeaa4b4d	-0.33260575
233	0xbcef38b0	-0.029201835
234	0x3e71e49d	0.23622365
235	0x3b10c500	0.0022090077
236	0xbd264f1c	-0.04060279
237	0xbcaaef21	-0.020865979
238	0x3e007f79	0.12548627
239	0xbde93c27	-0.11388426
240	0x3d0bc294	0.03412111
241	0xbd97d3de	-0.07413457
242	0x3deb8014	0.11499038
243	0x3e9605e6	0.29301375
244	0xbeb93e19	-0.3618019
245	0xbdd40b4a	-0.10353716
246	0x3d4b461b	0.049627405
247	0xbe0f94ee	-0.14021656
248	0xbe36709a	-0.17816392
249	0x3d2a313a	0.041550852
250	0x3d96724b	0.073460184
251	0x3da89c92	0.082329884
252	0xbbee856f	-0.00727909
253	0x3e34e48d	0.1766531
254	0x3d242c44	0.040081277
255	0xbccee8c0	-0.025257468

hidden_layer_2.bias f4 [64]
0	0x3c5e542b	0.013569872
1	0xbda5f176	-0.08102696
2	0xbdf159ad	-0.117846824
3	0x3dbb2e01	0.09139634
4	0xbe11d87f	-0.14242743
5	0xbe0234ee	-0.12715504
6	0x3d802536	0.062570974
7	0xbe6c9bad	-0.2310626
8	0xbe07b896	-0.13254008
9	0xbdfb8711	-0.12281621
10	0x3e9b5487	0.30337927
11	0xbe8b06ec	-0.27153718
12	0x3e6c14e3	0.23054843
13	0x3c9a5f6a	0.018844325
14	0xbacf001a	-0.0015792877
15	0x3d71486b	0.058906954
16	0x3d69832f	0.057009872
17	0xbca5d335	-0.020242313
18	0xbd8768eb	-0.066118084
19	0xbe057afd	-0.13035198
20	0x3d002e19	0.031293962
21	0xbdd084db	-0.1018159
22	0xbde5e8ea	-0.112260655
23	0xbc590222	-0.013245137
24	0xbcb2ebb4	-0.021840908
25	0x3e69031f	0.22755097
26	0xbdee560c	-0.11637506
27	0x3e4839c4	0.19553286
28	0x3e582ec4	0.2111159
29	0x3dfa0849	0.122086115
30	0xbe03acca	-0.12858883
31	0x3e81b597	0.25333855
32	0x3d216e31	0.039411727
33	0x3e19b2d8	0.1500963
34	0xbd8fd004	-0.07022098
35	0xbdd06a1c	-0.10176489
36	0x3d014e3c	0.03156875
37	0x3d2aa827	0.04166427
38	0x3e37b312	0.17939404
39	0xbe196324	-0.14979225
40	0x3e22583b	0.1585397
41	0x3cc0e888	0.02354838
42	0x3de5afe8	0.11215192
43	0x3e5a3c40	0.21312046
44	0xbdd6c17b	-0.10486122
45	0xbe1938bf	-0.14963053
46	0x3d90b6f9	0.07066149
47	0xbdec88e2	-0.11549546
48	0x3e88613a	0.26636678
49	0xbded9fe7	-0.116027646
50	0xbdd70903	-0.10499766
51	0xbd913082	-0.0708933
52	0xbda5c24f	-0.08093702
53	0xbd81a899	-0.063309856
54	0x3ea75a5c	0.32686126
55	0xbdd5b09a	-0.10434075
56	0xbd58fce1	-0.05297554
57	0x3e7dc3a7	0.24781667
58	0xbe244ee7	-0.16045724
59	0xbd6d5798	-0.057944864
60	0x3e58b14f	0.21161388
61	0x3e51a39d	0.2047257
62	0x3e3c39e5	0.1838146
63	0x3e10ab01	0.14127733

output_layer.weight f4 [2, 64]
0	0x3de555d2	0.111980096
1	0xbd762b20	-0.06009972
2	0xbe59fac3	-0.21287064
3	0x3d8802cb	0.06641158
4	0xbda64cfc	-0.08120152
5	0xbe1887c7	-0.14895545
6	0x3e17612b	0.1478316
7	0xbcf51661	-0.029917898
8	0x3dd14d32	0.10219802
9	0x3df86e98	0.12130469
10	0xbe0e349e	-0.1388726
11	0xbe9162e6	-0.28395766
12	0x3eb53d48	0.35398316
13	0xbc9fc735	-0.019504169
14	0xbdb85ba0	-0.09001851
15	0x3da79c2a	0.08184083
16	0xbe685a24	-0.22690636
17	0xbe5639b2	-0.20920447
18	0xbe1a3b96	-0.15061793
19	0x3c296590	0.010339156
20	0xbe208e87	-0.1567937
21	0x3c91a819	0.01778035
22	0x3db1c7c6	0.08680682
23	0xbd0f8bc2	-0.035045393
24	0xbe238165	-0.15967329
25	0x3e84387e	0.2582435
26	0xbcda2577	-0.026629193
27	0xbe6631fa	-0.22480002
28	0x3e873a45	0.26411644
29	0xbe121e26	-0.14269313
30	0xbed02952	-0.40656525
31	0x3e7ab5e9	0.24483456
32	0x3e9b8475	0.30374494
33	0x3df38e89	0.11892421
34	0xbd6922b6	-0.05691787
35	0xbe0cefb5	-0.13763316
36	0x3d16e188	0.036836177
37	0x3d04dae4	0.032435313
38	0xbe7c4070	-0.24633956
39	0xbda4a53d	-0.08039329
40	0xbe3ec4f2	-0.18629816
41	0x3e8ee8b5	0.27911916
42	0xbe801fea	-0.25024348
43	0x3e6472bb	0.22309391
44	0xbd23e388	-0.040011913
45	0x3b373052	0.0027952385
46	0x3df4f94f	0.11961614
47	0x3c9a2b60	0.018819511
48	0xbe09e435	-0.1346596
49	0xbd55b647	-0.052175786
50	0x3c7f5971	0.015585289
51	0xbd238c2b	-0.039928596
52	0xbe3e19f2	-0.18564585
53	0x3d807ff3	0.062744044
54	0xbe51059a	-0.20412293
55	0x3ce08ee8	0.027411893
56	0xbe5d4a92	-0.21610478
57	0xbe457265	-0.1928192
58	0xbe18f889	-0.14938559
59	0xbe0a4ae8	-0.13505137
60	0xbe8c565b	-0.27409634
61	0xbe1c51b6	-0.15265545
62	0xbe738ae0	-0.23783445
63	0xbe012cf9	-0.12614812
64	0xbe224882	-0.15847972
65	0xbc378820	-0.011201888
66	0xbe775ba7	-0.24156056
67	0x3eab8c1a	0.33505327
68	0x3d0f66c0	0.0350101
69	0xbeacf871	-0.33783296
70	0xbde7a687	-0.113110594
71	0xbeee9a54	-0.46602118
72	0x3cf030e3	0.029320186
73	0xbd443af6	-0.047907792
74	0x3e7db5b4	0.24776345
75	0xbd5b87a1	-0.053596143
76	0x3e680cf4	0.22661191
77	0xbeb8591c	-0.36005485
78	0x3d2bc073	0.04193158
79	0xbe7040f3	-0.23462276
80	0xbe921707	-0.28533193
81	0xbe822fe1	-0.25427154
82	0xbe3a7a05	-0.1821061
83	0x3dda6d12	0.10665335
84	0xbe970e39	-0.2950304
85	0x3d4481f1	0.047975484
86	0x3dfee1e0	0.12445426
87	0xbeb625b4	-0.3557564
88	0xbe1313d7	-0.14363037
89	0xbe22a916	-0.15884814
90	0x3d3433d6	0.043994747
91	0x3b7e3690	0.0038789846
92	0xbdef041c	-0.11670706
93	0xbd842e00	-0.06454086
94	0xbd7c4562	-0.061589606
95	0x3e9df3da	0.30850106
96	0xbd15e8a0	-0.0365988
97	0x3eb82b7b	0.35970673
98	0xbe87112f	-0.26380298
99	0xbe636519	-0.22206534
100	0xbe093219	-0.13398017
101	0x3d9f5639	0.077801175
102	0x3d36942a	0.044574894
103	0xbeaaccf8	-0.33359504
104	0x3e0703cd	0.13185044
105	0x3e32e677	0.17470728
106	0xbd96768f	-0.07346832
107	0x3eab5101	0.3346024
108	0x3dd4df0a	0.10394104
109	0x3d3e8568	0.046513945
110	0xbe40e972	-0.18839052
111	0xbdfd0cea	-0.12355979
112	0x3e40dca6	0.1883417
113	0xbd4ecc13	-0.05048759
114	0x3db8394d	0.08995304
115	0xbe29da04	-0.16587073
116	0xbe780b91	-0.24223162
117	0xbd77f483	-0.06053592
118	0x3e3a50cd	0.18194886
119	0xbd9ab4c4	-0.075540096
120	0xbe82066f	-0.25395533
121	0x3e1200de	0.14258143
122	0xbe592ee0	-0.21209288
123	0xbea5ec26	-0.3240673
124	0x3dc4541b	0.09586354
125	0x3e1e72bc	0.15473455
126	0x3c9c062c	0.019045912
127	0x3d9d3424	0.07675961

output_layer.bias f4 [2]
0	0x3e053622	0.13008931
1	0x3e141c7e	0.14463994
