DQN - CartPole/data/Apprentice 4.pt (torch, 38460 bytes, 8 tensors)

input_layer.weight f4 [64, 4]
000000 ec 7b 72 be ff 41 3d 3e fd de e6 be 1b 8d e2 be
       -0.23680085 0.18482207 -0.45092002 -0.4424828
000010 de 26 37 3f 4e 68 bf be 98 7f 90 bf 58 7f bc bd
       0.7154368 -0.37384266 -1.1288939 -0.092039764
000020 87 2a 14 3f 93 3f 7a be c5 ea 64 bf 1e b4 cb be
       0.5787739 -0.24438314 -0.8942073 -0.39785856
000030 3a e7 ed bd 92 f0 dc bc a7 30 2d 3f e6 bf d7 3e
       -0.116163686 -0.026970182 0.6765236 0.42138594
000040 6e 5b 1b 3e 8b 9e 26 3e 40 e6 88 bd cd c2 ee 3e
       0.15171596 0.16271417 -0.06684542 0.46632996
000050 45 40 ec 3e a8 3e ae 3e 1e e5 67 bf ac e4 24 3d
       0.46142784 0.34032178 -0.9058398 0.04025714
000060 33 9f d9 3e 96 ed 11 bd 1b d0 a6 be 0a 4d 42 3e
       0.42504272 -0.03562697 -0.32580647 0.189747
000070 20 49 d0 bd 14 53 ab 3d 8d 51 af 3e 7b e4 4a 3e
       -0.101701975 0.08365455 0.34241906 0.19813721
000080 3c d6 8a 3e 3d 91 c7 be ec 13 e1 3e b1 3e fa be
       0.27116573 -0.38977996 0.43960512 -0.48875955
000090 34 fd d1 3e f1 29 84 be cd 0a a0 3e a5 bf 87 3e
       0.4101349 -0.2581325 0.3125824 0.265134
0000a0 2c 3d 4a 3f 99 36 0c 3f 56 8a f2 3d 4d 0f ee 3e
       0.7899959 0.5477081 0.11842792 0.4649605
0000b0 bb c8 89 bf b6 20 da be 47 b8 a7 3f e8 cb 03 3f
       -1.0764383 -0.4260308 1.3103112 0.5148301
0000c0 d0 f0 c0 3b 1d 91 f3 3a e2 b2 07 3f a2 f8 8a 3e
       0.005888082 0.0018582676 0.5300733 0.27142817
0000d0 87 68 2c 3c 62 90 7d 3e 51 05 5f 3f 69 a2 2e 3e
       0.010522968 0.24762109 0.8711749 0.17054142
0000e0 d8 de 6b 3e 73 ff 15 3e 5a 2a d5 3e 4b 63 98 3e
       0.23034227 0.14648227 0.41633874 0.29763255
0000f0 a9 af 00 bf 90 f2 ea 3e fb 24 0e 3f 0d 99 c2 3e
       -0.50268036 0.45888186 0.5552518 0.38007393
000100 b6 45 fe be 58 56 ac be 78 c0 96 3f d0 58 11 3f
       -0.4966256 -0.33659625 1.1777487 0.5677614
000110 26 57 04 bf 4b fe ce bb 8d 22 1a 3f 8f cc 07 3f
       -0.5169548 -0.006316935 0.6020897 0.53046507
000120 1b 57 cf be a9 6f f5 be b9 68 97 be cf 61 61 3e
       -0.40496144 -0.47936752 -0.29572085 0.22009967
000130 35 d5 f0 3e a8 de e3 be 50 b3 65 bf 1f fb 59 be
       0.47037664 -0.4450581 -0.89726734 -0.21287201
000140 db 69 7b bd 7f 54 92 3e d4 df 5c 3f cb 55 9b 3e
       -0.06138025 0.2858009 0.86279035 0.30338892
000150 f8 b8 54 3e 00 b7 00 bb 4e 82 e9 3e 90 60 48 be
       0.20773685 -0.0019640326 0.45607227 -0.19568086
000160 9a c1 30 bf 07 95 0b 3d 8a 2e b1 3f dd 17 33 3e
       -0.6904541 0.03407767 1.3842328 0.17489572
000170 0d ef 9d be 50 3c bb 3d f9 c3 a7 3f 1f ce f1 3e
       -0.30846444 0.09142363 1.3106681 0.4722757
000180 04 69 d8 be 00 08 dc 3b 88 78 b6 be d8 42 d9 3d
       -0.4226762 0.006714821 -0.35638833 0.106084526
000190 db 0c 47 3f b0 6c af be 90 49 11 bf 79 39 b9 3e
       0.7775399 -0.3426261 -0.5675287 0.3617666
0001a0 72 0e 9b be bd b0 77 bd 28 68 a3 bd cc 7a 40 be
       -0.30284458 -0.060471285 -0.079788506 -0.18796843
0001b0 a3 62 98 3d ec 93 49 3e bf bf 3b 3f ac 91 07 3f
       0.074406885 0.19685334 0.73339456 0.5295665
0001c0 07 ec 33 bf a4 02 9c be cf 96 0f 3f 54 58 59 3d
       -0.70282024 -0.30470765 0.5608949 0.053062752
0001d0 2f 5b 9e be 00 19 56 be 67 4d 04 bf e1 ac ed 3e
       -0.30928943 -0.20907974 -0.51680607 0.4642096
0001e0 61 07 03 bf 52 29 d8 be b1 44 1a 3f cf 94 76 3e
       -0.51183134 -0.42219025 0.60261065 0.24080203
0001f0 8a 38 a2 3e 9f ea b2 3e 72 2d 1e 3f df 86 55 3d
       0.3168376 0.34944627 0.61788094 0.052130576
000200 8e 6e 90 3e 06 68 d6 be 06 ab 8a be 64 ff 22 be
       0.28209347 -0.4187624 -0.27083606 -0.15917736
000210 f9 58 04 3f fc c2 81 be 2c 49 0a bf 5d 07 d0 3e
       0.5169826 -0.25344074 -0.540179 0.40630618
000220 30 93 6a 3e f0 fe 9c be c5 0d ed 3c 77 69 31 bd
       0.2290771 -0.30663252 0.02893723 -0.04331347
000230 29 57 d7 3e 92 88 2d be 55 7c 1f bf 45 a5 0c 3e
       0.42058685 -0.16946629 -0.6229909 0.1373492
000240 1a d9 dc bc f8 d8 d9 3e b3 ec 69 bd 84 13 dc be
       -0.02695899 0.42548347 -0.0571105 -0.4298364
000250 42 2f 95 3e 82 c6 09 3f 1b 17 32 3f ed 1c f8 3e
       0.29137617 0.53818524 0.69566506 0.4845957
000260 1c 1c c6 bd 7c 12 aa 3e ca 10 9f 3e f5 77 97 bd
       -0.0967333 0.33217227 0.31067497 -0.07395927
000270 33 2e 2e 3f 99 50 73 be c5 2c 04 3f 47 15 9c 3d
       0.68039244 -0.23761214 0.5163081 0.07621246
000280 58 ea 26 3f 5d 47 a5 3e be 7d bb bf b6 d2 36 3e
       0.6520133 0.32281008 -1.4647748 0.17853817
000290 d8 3e 05 3f 40 5e 95 3e 67 5f 72 3e cc 59 80 3c
       0.52049017 0.2917347 0.23669206 0.015667818
0002a0 b4 1c d7 be 00 0c 46 3e dc 86 84 be 80 a4 64 bd
       -0.42014086 0.19340515 -0.2588414 -0.055820942
0002b0 2f f3 58 be e9 00 98 3e 57 f5 3b be 20 27 c3 bd
       -0.21186517 0.29688194 -0.18355308 -0.09528947
0002c0 85 a3 e1 3e 4c 09 05 3e 58 12 38 3e bf 0c 15 3e
       0.44070068 0.12991828 0.17975748 0.14555643
0002d0 f5 91 dc 3e a6 b9 5b be 7c 34 0b 3f b8 d7 38 3e
       0.43080106 -0.21457538 0.5437696 0.1805104
0002e0 a9 ca bc be b9 d4 20 bf 55 58 68 3e 07 38 e3 3d
       -0.36873367 -0.6282459 0.22689946 0.11094671
0002f0 2f df fe be 5c 96 79 3e d1 95 47 3f b9 7d 05 3e
       -0.4977965 0.24373764 0.77962977 0.1303624
000300 ec 60 15 be 0e 8e a5 3e 45 33 80 3e 17 3f 96 be
       -0.14587754 0.32334942 0.25039116 -0.2934501
000310 94 93 fb be 6c d7 bf 3e 6a 3a 1d 3d 11 41 c3 be
       -0.4913603 0.3746904 0.038385786 -0.3813558
000320 47 3c d4 3e 16 0d b4 3c 21 cd 0a 3f a2 0a 86 be
       0.41452238 0.021978896 0.5421925 -0.26179987
000330 47 d6 e9 be 69 fc db 3e a4 fb 66 3f d3 fa bb 3e
       -0.45671293 0.4296601 0.90227723 0.367148
000340 9b 97 19 be ca 9f 8e ba dc 33 5f be bc 1c b1 be
       -0.14999239 -0.0010881361 -0.21797127 -0.34592235
000350 09 c2 e0 3e fd 86 bc 3e 78 cf 14 bf e1 52 8a be
       0.43898037 0.36821738 -0.5812907 -0.27016357
000360 fe f8 00 bf 0f 6a cf 3e 50 e7 82 3f 9a ac 87 3e
       -0.5037993 0.40510604 1.0226841 0.26498872
000370 22 4d 9c 3e b2 6e dc be 55 41 ae 3e 46 0d 9a 3e
       0.30527598 -0.43053204 0.3403422 0.30088252
000380 8d 92 14 3e d0 4f 0d be 53 49 8d bf a6 24 a2 bd
       0.1450903 -0.13799977 -1.1038002 -0.079171464
000390 97 78 da be 0f 06 f8 3d f4 66 a2 be 4b 64 fb 3e
       -0.42670128 0.121105306 -0.31719172 0.49099955
0003a0 b9 2a 7e bd ce 81 f8 3e 35 b9 50 3f 15 e6 54 bd
       -0.062052462 0.48536533 0.81532604 -0.051977236
0003b0 56 c6 82 3e 1e 4a 41 bc a2 81 9b 3e 62 b6 02 bc
       0.25541943 -0.011797456 0.3037234 -0.007978054
0003c0 4b 86 17 be 34 a7 b8 3e 32 80 c8 3f 76 67 e0 3e
       -0.14797322 0.36065066 1.5664122 0.43828934
0003d0 fb d0 77 3e fa 6f b8 be 7b 43 73 bf 29 4f fe bd
       0.24200813 -0.3602293 -0.9502484 -0.12417442
0003e0 c5 9c de 3e 4e 39 93 3e ee 6f ec be 26 c1 48 be
       0.4347898 0.28754658 -0.46179146 -0.1960493
0003f0 60 6e f9 be a4 f1 02 3f 76 28 c1 bd 05 6a 21 bd
       -0.48717022 0.51149964 -0.094315454 -0.03940775

input_layer.bias f4 [64]
000000 fe e2 bd 3e 00 3c e3 3e 9d d7 85 3c 92 23 0b 3e
       0.37087244 0.44381714 0.016338164 0.13587788
000010 3d 2a a7 3e 36 b1 06 3e 9b 02 fe be 8f e0 04 bf
       0.32649413 0.13153538 -0.49611363 -0.5190515
000020 b1 5b 9d bb 5e bd ae 3e a3 72 40 be b2 b8 b8 be
       -0.0048021902 0.3412885 -0.1879373 -0.3607841
000030 e0 72 c9 3e 64 19 d7 3e 28 9b b9 3e f1 c7 94 3e
       0.39345455 0.4201156 0.36251187 0.29058793
000040 a2 18 2f be d4 4e 28 3c 29 53 95 bd e5 36 db 3e
       -0.1709924 0.0102727 -0.07291252 0.4281532
000050 fe da a9 bd ac 1f be be 42 46 ff 3d 6a f2 06 3e
       -0.082937226 -0.3713354 0.124645725 0.13178411
000060 04 4e 91 be 92 eb dc 3e 13 4f 88 3e d8 90 87 3e
       -0.28379834 0.43148476 0.2662283 0.26477695
000070 3d a7 6b be 01 93 a9 bd 72 ee ba 3d 06 55 fb 3e
       -0.23013015 -0.08279992 0.09127511 0.49088305
000080 00 f7 fa be c2 c4 03 be 05 18 ad 3e 42 9f 56 3e
       -0.4901657 -0.12868026 0.33807388 0.2095919
000090 8c 35 ac 3e ac 79 f4 3e 90 2c 9f 3e e6 78 b0 3e
       0.33634603 0.47749078 0.31088686 0.34467238
0000a0 84 2c 98 3d 0d 38 12 be 24 94 b7 be 29 fa d8 3e
       0.07430366 -0.14279194 -0.3585521 0.42378357
0000b0 be 76 ea 3e 47 57 e4 3e cd 52 be be c1 31 1a 3e
       0.45793718 0.44597837 -0.37172547 0.15058042
0000c0 5b 47 ea bd 39 2c 05 bf 6e b5 92 3e 37 fa 04 3f
       -0.11439391 -0.52020603 0.28654045 0.519443
0000d0 43 2c c5 3e e4 db de bd 33 ab b3 3d 98 91 40 bd
       0.38510332 -0.108817846 0.08772888 -0.04701385
0000e0 f8 85 15 3e 16 79 cb be 89 bb ef 3e 94 c2 e0 be
       0.14601886 -0.3974082 0.46822765 -0.4389845
0000f0 77 29 6b be 7b be 1c 3e 8c 28 cb 3d 13 f5 f7 be
       -0.22965036 0.15307038 0.09919843 -0.48429164

hidden_layer_1.weight f4 [64, 64]
000000 f0 a2 e6 3d 3f a9 11 be d0 0e 9e bc e4 1f bf 3c
       0.112615466 -0.14224719 -0.019294173 0.023330636
000010 4d 56 30 bd 54 64 2a 3d b7 81 77 3c 91 c7 76 bd
       -0.043051053 0.041599587 0.01510661 -0.060248915
000020 5e 02 b9 bd 21 96 de bd 78 17 04 bd bd fa e8 3c
       -0.09033655 -0.108684786 -0.032248944 0.028439874
000030 ca 09 72 3d 52 c3 19 be 68 fd 35 3d 6e 2c 51 bb
       0.059091367 -0.15015915 0.04443112 -0.0031917351
000040 88 06 05 be 9a 84 0f 3b a5 12 d9 3c 1d 43 93 bd
       -0.12990773 0.0021899105 0.026498148 -0.07190535
000050 92 14 ff bd c0 a8 15 3d 1e 6e 7e bc 8b b0 55 bc
       -0.12455095 0.036537886 -0.015529184 -0.013042579
000060 70 f8 04 bd cd 5a c8 bd 52 11 cd bd 1c c0 11 3d
       -0.03246349 -0.09782944 -0.10013069 0.0355836
000070 8d 31 81 3b b1 a4 b4 3c b3 73 71 bd 0c 1b e4 3b
       0.0039426745 0.022051187 -0.05894823 0.006961232
000080 80 ce 0d 3b 79 58 db 3c 96 57 be bc 2f 39 8f bd
       0.0021637976 0.026775585 -0.023235124 -0.06993329
000090 20 92 4e 3c 6e 13 5f bd f0 d3 7e bd 37 f8 21 bd
       0.012608081 -0.05446189 -0.062213838 -0.039543357
0000a0 4f 94 74 bc 80 98 66 3b 38 fc 92 3d d3 43 c9 bc
       -0.014927938 0.0035186112 0.07177013 -0.024568474
0000b0 9c a5 24 bd 85 85 b3 3d b8 13 8d bd c4 46 b0 bc
       -0.040197 0.08765701 -0.06888527 -0.021518119
0000c0 f8 10 5b 3d 92 32 9e bd 0a 9d d9 bc 5f 5c 09 be
       0.05348298 -0.07724489 -0.02656414 -0.13414143
0000d0 f2 31 55 3d 94 b7 21 bd 91 6a 34 3d 37 7e 0f 3d
       0.052049585 -0.039481714 0.044046942 0.035032477
0000e0 c4 f8 36 3d e8 88 03 3d 75 d8 0e 3d 68 cc 9a 3d
       0.044670835 0.032112986 0.0348744 0.07558519
0000f0 c7 a2 ed bd d8 0b f5 bd d0 11 8b bd 50 5d 48 3d
       -0.11603313 -0.1196515 -0.06790507 0.048917115
000100 0a 9c cd 3c 94 35 a2 3e cd b4 13 bf 06 7e 8e bd
       0.02509882 0.31681502 -0.57697755 -0.06957631
000110 de 76 66 3e 5e 25 21 3e d0 8f 74 bc 48 bb bc bd
       0.22506282 0.1573691 -0.014926866 -0.092154086
000120 6e c7 09 bf e8 0c a1 3c b1 c0 71 3d 18 42 a1 3d
       -0.5381993 0.019659474 0.059021655 0.078739345
000130 33 25 33 bd ce 62 86 3d 89 9b b0 3d 8c f6 25 3e
       -0.043736648 0.06561814 0.08623416 0.16207331
000140 34 79 b3 3d 01 e2 cd 3d d3 4e 1b 3e 52 5c 59 3e
       0.08763352 0.100528724 0.15166788 0.21226624
000150 01 64 7b be be 72 dc bd 5c da f3 3d b1 6a 9f 3d
       -0.24549867 -0.10764073 0.11906883 0.07784022
000160 c8 c2 93 bd d1 69 81 3d 3f a1 30 bc 57 a1 3b bd
       -0.07214886 0.06319011 -0.010780632 -0.045808163
000170 b1 bd d0 bd 2c 06 2e 3e 29 4f 51 bd bc d9 5b bd
       -0.10192431 0.16994542 -0.051100884 -0.053674445
000180 00 d2 b7 39 fa 06 83 3c 1b 82 6d 3e 7c dd 19 3e
       0.00035060942 0.015994538 0.23194163 0.15025896
000190 8f db 00 3e 3f 7b 4c bd d1 c1 f2 bd be ea bd 3d
       0.12583755 -0.049922224 -0.11853374 0.09273289
0001a0 e5 95 a5 be ba 0a 33 3c e0 ec f2 3b 77 bc d7 bd
       -0.32340923 0.01092785 0.0074134916 -0.10533994
0001b0 5c 5a 27 3e 16 d7 0e 3e cd 3c 9c 3d e6 2a 3d 3d
       0.16343063 0.13949236 0.07628784 0.04618349
0001c0 cf 36 21 3e bb 8a 97 3d f1 71 b6 bd f7 32 27 3e
       0.15743564 0.073995076 -0.08908451 0.16328035
0001d0 c2 9d 41 bd aa 2b ed bd d4 18 55 bd 78 83 bf 3d
       -0.04726959 -0.11580594 -0.05202563 0.093512475
0001e0 e6 62 2f bf f5 3e 5d 3c 85 ec 36 be b0 59 da bc
       -0.6851028 0.01350378 -0.17863663 -0.026654094
0001f0 8d 0f 01 be ff 93 95 bc 80 7e 9e bd 4e d3 d1 3c
       -0.12603588 -0.018259047 -0.07738972 0.025613453
000200 26 19 e0 3c ea 13 fc bc f0 9d c6 bc 24 b0 38 3d
       0.027355742 -0.030771215 -0.024245232 0.045089856
000210 8b 8b 94 3c 50 69 7d bd f4 d8 84 3d 88 ce fb bd
       0.018132946 -0.061868012 0.06486693 -0.12295252
000220 8d ef 51 bd 85 f6 10 be 00 5e 41 3d 20 e3 d3 bd
       -0.051253844 -0.1415654 0.047208786 -0.10346055
000230 1c 59 72 3d bc 9b 68 3d c4 0f d8 bd d5 d5 af bc
       0.059167013 0.056789145 -0.10549882 -0.021464268
000240 f0 1f 92 bd 00 5d 88 bd 11 c6 9c ba de 77 ea bb
       -0.07134998 -0.06658363 -0.0011960884 -0.0071554026
000250 40 d1 da bd d6 63 87 3d fa 71 ca 3d 16 7f cc bd
       -0.106844425 0.06610839 0.098850206 -0.09985177
000260 88 c3 d7 bc f0 6c e8 bd 78 bb 21 bd 64 96 a4 3d
       -0.026338354 -0.11348903 -0.039485425 0.08036497
000270 94 40 ae 3d fa 5a a0 3d 25 c4 a3 3c e2 db cf bd
       0.08508411 0.078298524 0.01999099 -0.10149361
000280 e8 df fc 3c f8 eb 80 bd 22 38 0e be 53 40 8d bb
       0.030868486 -0.062950075 -0.138886 -0.0043106466
000290 a8 23 b5 bd 46 34 9c 3d 07 6e 07 bd 80 da c5 3d
       -0.088446915 0.07627158 -0.033063915 0.09660816
0002a0 28 6b 15 3d 90 21 01 bc 50 5d 0d 3c e2 36 cb bd
       0.036479145 -0.007881537 0.008628204 -0.099225774
0002b0 b4 7b f7 3c 66 6a 4d 3c 2c 2b f5 bd cd 84 5b bd
       0.030210353 0.012537574 -0.11971125 -0.053593446
0002c0 e0 40 e9 3b 9e fc dd 3d 88 4a 8c bd ee 2d 3e 3b
       0.0071183294 0.108391985 -0.06850153 0.0029019075
0002d0 72 5f 05 3d 00 a5 e4 bb 20 a0 ff bd 27 4c ba bd
       0.032561727 -0.0069776773 -0.12481713 -0.09096556
0002e0 99 53 80 3d 52 6a a2 3d 74 3b ce bd b4 69 46 3d
       0.06265945 0.07930435 -0.100699335 0.04844065
0002f0 52 04 8a bd 7c 7e ad 3d 94 c9 ae bd b0 c3 a9 bd
       -0.06739105 0.084713906 -0.08534542 -0.082892776
000300 a6 6c 7b bd a5 33 01 3e ca a3 b6 3a 27 c5 03 be
       -0.061382912 0.12617357 0.0013934311 -0.12868176
000310 0f 44 10 bd e6 d5 be bd 82 2c 8a 3d 0e cb a9 bd
       -0.035221156 -0.09318142 0.067467704 -0.08290683
000320 b8 f3 0d 3e 56 19 20 3e be ec f8 3c 06 ea b7 be
       0.13862503 0.15634665 0.030386325 -0.35920733
000330 29 ee 2d 3e a6 cc af bb 64 6e 36 3e 02 f2 ba 3d
       0.16985382 -0.005364972 0.17815548 0.091281906
000340 16 1b 71 bd c4 8e 44 3d 94 9c f3 bc 03 af 36 3e
       -0.05886372 0.047987714 -0.029737748 0.17840199
000350 97 6c ca be 20 93 10 3c 86 f8 ac bb e8 ec 8a bb
       -0.39535972 0.00882414 -0.0052786497 -0.004239667
000360 40 81 1b bc 13 80 9f 3d 3f 1f 7a 3b 14 82 59 3d
       -0.009491265 0.077881 0.0038165597 0.053102568
000370 06 e4 a9 be 4b 83 48 bd 8a a7 1d bc b5 35 b3 3d
       -0.3318178 -0.048953336 -0.009622464 0.08750478
000380 3c b4 f0 bd 78 7b 42 3e 9a d0 29 3e 04 53 bd 3c
       -0.11753127 0.18992412 0.16583481 0.023110874
000390 6f 78 b1 bd 1f 94 12 bd 33 41 93 3d 97 7f 10 3e
       -0.08665549 -0.03578579 0.0719017 0.14111172
0003a0 dd 8a 6b be b3 40 15 3e 80 8e 15 3b 64 84 40 bb
       -0.23002191 0.14575462 0.0022820532 -0.0029375786
0003b0 11 fd 28 3e 75 44 19 3d 8a 51 76 3e 40 cc 53 3c
       0.16502787 0.0374188 0.24054542 0.012927115
0003c0 f0 52 cc 3d b9 b0 6a 3d ac 09 33 bd 74 b1 8a 3b
       0.099767566 0.057297442 -0.043710396 0.00423258
0003d0 80 fc 31 3e 7b 07 82 3d 7b da 80 be 8a 0a ba 3d
       0.17381477 0.06349083 -0.25166687 0.090840414
0003e0 b2 a1 92 3c 26 9a 8c 3e 9c e6 0f 3e 2b 35 10 be
       0.017899368 0.27461356 0.14052814 -0.14082782
0003f0 af 31 45 bf ae 8f eb bd d1 16 05 bd a8 a7 be 3d
       -0.77028936 -0.11502014 -0.032492463 0.09309322

hidden_layer_1.bias f4 [64]
000000 dd dc e5 bd d1 36 5b 3e bc b6 da bd d7 80 b7 3d
       -0.11223767 0.2140763 -0.10679385 0.08960121
000010 14 3c ce 3d 0c 83 32 3d 57 b2 b4 bd 0c 57 8f bd
       0.10070053 0.043582007 -0.08823078 -0.06999025
000020 c6 81 3c 3d 74 79 1f bc 57 9e 9e bd 90 58 ce bc
       0.0460222 -0.0097335465 -0.07745045 -0.025188714
000030 b1 7f 9d bd 2d 72 a9 bd b3 15 ba bd ca 36 24 3e
       -0.07690371 -0.082737304 -0.0908617 0.16036525
000040 b2 9b d3 3d e4 bd db bc f0 f2 05 bd d0 8f d2 3d
       0.10332431 -0.026823945 -0.032702386 0.10281336
000050 22 26 83 3d 16 83 91 3c 77 90 c9 3d e7 a1 3a bc
       0.06403758 0.017762702 0.098420076 -0.01139114
000060 d5 bc 8e bd f6 1e 17 bd 44 62 8c bd b0 0c 75 bd
       -0.069696106 -0.03689476 -0.0685468 -0.059826553
000070 24 58 e4 bd 20 63 9f 3c 2a c8 cc 3c 4d 20 9f 3b
       -0.11149624 0.019456446 0.02499779 0.0048561455
000080 37 80 ef 3d ee 1a ad 3d bb ea 45 3d ff 13 15 3d
       0.11694377 0.08452402 0.04831956 0.036396023
000090 b2 dc 82 bd 49 99 22 bd c5 95 9d 3c f7 4d bc bd
       -0.063897505 -0.039696965 0.019236455 -0.09194558
0000a0 97 eb 1a bd 79 51 10 3d 86 e1 17 3d 83 a0 13 3e
       -0.037822332 0.03523395 0.03708031 0.14416699
0000b0 0c eb 01 3e 95 38 72 3d dd de 0e bd fa 10 37 bd
       0.1268732 0.059135992 -0.034880508 -0.044693924
0000c0 6b 94 78 bd 03 da e9 3d 3e 77 56 3d b8 b7 88 bc
       -0.060688417 0.114185356 0.052359812 -0.016689166
0000d0 f1 ca 21 bd 0e fc 26 3e 64 45 0d 3e 2f 1b 09 3e
       -0.03950018 0.16307089 0.13796002 0.13389276
0000e0 93 0b 18 be 7a 26 ba 3d 53 2a 23 3e cf 48 f7 bc
       -0.14848165 0.0908937 0.15934114 -0.030186085
0000f0 06 d2 d1 bd 40 dc 12 3c 6b 00 39 bd b8 8a 62 3d
       -0.10245137 0.0089636445 -0.045166414 0.055308074

hidden_layer_2.weight f4 [64, 64]
000000 e0 9a 6e 3c 64 c4 02 3d 66 11 a6 bd d1 3f df bd
       0.014563292 0.031925574 -0.08108787 -0.10900844
000010 d0 a7 a9 bd a0 06 68 bd a5 d3 94 bd 7e 57 ba bd
       -0.08283961 -0.056646943 -0.072669305 -0.09098719
000020 93 67 21 3c cb 86 ab bb b1 fc 8d 3d 88 f5 c4 3d
       0.009851354 -0.0052345744 0.06932963 0.09617144
000030 d0 b0 79 bc a4 22 12 bd 85 98 e4 bd e5 5a 7c 3d
       -0.015239909 -0.035677567 -0.11161903 0.06161012
000040 34 3f 52 3c a7 72 c1 3d a7 e8 b8 bd f2 0e 7a 3d
       0.012832452 0.09445696 -0.0902875 0.06104941
000050 38 7f 24 bc 94 8a 09 bd 30 00 aa 3d c7 99 d1 bd
       -0.010040097 -0.033579424 0.08300817 -0.10234409
000060 80 63 e6 bc fe 37 00 be fb ba 6b bd a0 1f b6 3d
       -0.028123617 -0.1252136 -0.057551365 0.08892751
000070 0b 94 a4 bd 60 16 fc bd 8a a7 16 bc 98 5f b0 3c
       -0.080360495 -0.12308955 -0.009195218 0.021529958
000080 fa f4 ac 3d 2d 41 b1 bd a0 aa eb bd 23 ca 9f bc
       0.08445163 -0.086550094 -0.115071535 -0.019505566
000090 3d b8 05 be 3b 93 69 3d 06 c5 99 3d 6c 6e c1 bd
       -0.13058563 0.057025176 0.07508282 -0.094448894
0000a0 0a 34 51 bd e3 9c 7d bd 0d 7c 12 be 21 6c 83 bd
       -0.05107502 -0.061917197 -0.14305134 -0.06417108
0000b0 9b de 4c 3d 36 38 29 bc 23 c5 c4 3d 78 b5 8e bd
       0.05001698 -0.010328343 0.09607913 -0.06968206
0000c0 d0 95 c2 3c 04 a8 71 3b 36 64 c1 bd b0 7c eb bd
       0.023753077 0.0036873827 -0.09442942 -0.11498392
0000d0 0f ad 87 3d 61 ef f5 bd a8 1e 77 3d f4 b6 f7 3b
       0.06624805 -0.120085485 0.06033197 0.0075596515
0000e0 fe 43 85 bd be 44 7d 3d 05 26 b9 bd 01 8c 8e bd
       -0.06507109 0.061833136 -0.09040455 -0.069602974
0000f0 00 40 ce b8 59 7c f7 bb 48 3e 06 3e 7c 4e 77 bd
       -9.8347664e-05 -0.007552665 0.13109696 -0.060377583
000100 70 2c 99 bc 44 c1 d3 3d 84 9d 19 bd 3c 55 91 bd
       -0.018697947 0.10339597 -0.037503734 -0.07096335
000110 10 ac c4 bc f7 49 38 bd 7c fc 67 3d 7a a0 e3 bd
       -0.024007827 -0.044992413 0.056637272 -0.11114593
000120 20 8f 65 3c 62 2f 1a be d9 3f 1b bd ba 9c a5 3d
       0.014011174 -0.15057138 -0.037902687 0.08086534
000130 d0 d9 2c 3d 13 65 ea 3b 74 27 65 3d a5 94 f2 bd
       0.04219991 0.0071531623 0.05594583 -0.11844758
000140 9f 1f 5c 3d 5d f3 06 be 3a 16 18 3d 12 43 02 be
       0.053741094 -0.13178773 0.037130572 -0.12720898
000150 a8 d0 0f bd 7a b5 9f bd 84 27 9b bd c4 4e 87 3d
       -0.0351111 -0.07798286 -0.075758964 0.0660682
000160 20 5a 2e bc 45 44 5a bd 7c 30 78 3d 00 7d eb 3b
       -0.010641605 -0.053287763 0.060593113 0.007186532
000170 7e 63 a7 3d c4 1c 61 3d f8 c9 db 3c 38 79 03 3d
       0.081732735 0.054959074 0.026829705 0.032098025
000180 da f0 cf 3b 0f a6 ac 3d f8 9c ba bd ec 9a 73 3c
       0.0063458504 0.08430111 -0.09111971 0.014868479
000190 0f 58 95 3d 88 d2 c9 bc 2b 30 81 3d fa 41 ed bd
       0.072921865 -0.024636522 0.063080154 -0.1158485
0001a0 96 db ba bd 9d fd 8d 3d b7 c2 38 3c b6 ae ab 3b
       -0.09123914 0.069331385 0.011276892 0.005239333
0001b0 32 78 0c be d8 78 b0 ba 28 37 da 3d b6 56 99 bd
       -0.13717726 -0.0013463749 0.106550515 -0.07487242
0001c0 80 1a ee ba d7 ab b5 3d 00 6a 84 ba 70 38 ab 3c
       -0.0018165857 0.088706665 -0.0010102391 0.020900935
0001d0 29 d2 c3 3d ae cf e8 bd ce 65 d0 bc 67 71 1e 3d
       0.09561569 -0.11367737 -0.02543917 0.038682368
0001e0 10 d3 ad bc d1 76 02 3d 17 78 1a be d0 00 cf bd
       -0.021218807 0.031851593 -0.15084873 -0.10107577
0001f0 74 cc 97 bd c0 71 0e be 7c a1 e4 3d 44 1b 34 3d
       -0.07412043 -0.1391058 0.11163613 0.043971315
000200 89 c0 12 3e 45 9c e7 3d 2c 19 44 3d 50 2b 1a 3e
       0.14331259 0.11309103 0.04787557 0.15055585
000210 06 2b 8a bd d4 cf 69 bc bf df 24 be 4c ca 3a bd
       -0.06746487 -0.0142707415 -0.16100977 -0.04560308
000220 02 28 bb bd 41 00 9a bc 01 84 13 3d 00 fc 3e ba
       -0.0913849 -0.01879895 0.03601456 -0.0007285476
000230 6a ec ad 3d f1 52 0b be 96 1c 5f 3d ca 1a c3 3d
       0.08492358 -0.13605858 0.05447062 0.09526594
000240 d2 4f 2c be b4 9a 47 3e fc f0 fa bd 59 27 d6 3d
       -0.16827324 0.19492608 -0.12252995 0.10456724
000250 24 57 98 bc 45 bf 33 3e b4 53 5b bd c5 d6 82 bd
       -0.01859624 0.17553432 -0.053546622 -0.0638862
000260 f4 f7 3d 3d 8b 89 5f 3e f7 47 7d 3d d0 4c 69 3d
       0.046379045 0.21829812 0.06183621 0.05695802
000270 d2 f1 1e 3e 78 c7 a6 bc be 5e 3a 3d 2a 8b 1f bd
       0.15521935 -0.020358786 0.04550051 -0.038951077
000280 12 c6 8c bb 8c 3d 88 bd 90 f3 6c be 54 67 c1 bd
       -0.0042960728 -0.06652364 -0.23139787 -0.094435364
000290 ff 10 2d bd 78 91 41 b9 cc 90 0a 3d fc d8 ab bd
       -0.042252537 -0.00018460106 0.033829495 -0.08390996
0002a0 bd 0d d3 bd 79 10 ee bc 79 6b 16 3e ae 1a e0 3d
       -0.10305355 -0.02906059 0.14689435 0.10942589
0002b0 7a f1 b1 3d a6 97 15 bf 97 be c8 bc 79 34 00 3e
       0.08688636 -0.5843452 -0.024504943 0.12520017
0002c0 a9 99 ab bd 48 3c 9e bd 6c 99 2d 3b 10 63 4d 3d
       -0.08378918 -0.077263415 0.0026489152 0.0501433
0002d0 05 04 9c bc 18 47 9b bd 46 5f f2 3c fb 79 9d bf
       -0.019044885 -0.075819194 0.029586446 -1.230285
0002e0 21 20 4e be b1 34 80 3c 3e 05 00 bc c6 9c 0f 3e
       -0.20129444 0.015650125 -0.00781375 0.14024648
0002f0 de 17 6f bc d9 f7 86 3e 48 64 3a bd 98 8c 31 be
       -0.014593093 0.26360968 -0.045505792 -0.17338789
000300 d0 3e de 3d 18 67 62 3e 68 a3 4c 3d 7d 06 1f 3e
       0.10851824 0.2210964 0.049960524 0.15529819
000310 f0 58 99 3c cf dd 4d 3e d5 1a d1 3c 04 4f f9 bd
       0.018719167 0.20104145 0.02552549 -0.12173274
000320 42 42 8e 3d 8b 39 97 bd cf b9 09 3e c0 15 5b 3c
       0.069462314 -0.07384022 0.13449787 0.013371885
000330 fc b7 8c 3c 82 06 dc be b7 c4 11 3e da 39 1f 3e
       0.017177574 -0.42973715 0.14235197 0.15549412
000340 a8 ae 18 3d 46 02 1b 3e ff 61 2a be 3f 74 65 3d
       0.03727594 0.15137586 -0.16638945 0.056019064
000350 29 7f 75 3e b8 c6 1d 3e 1e d1 bd 3d 26 70 58 3e
       0.23974289 0.15407836 0.092684016 0.21136531
000360 17 7d c7 3d ab cd 17 3e c3 8c 1a bd c4 53 b5 bd
       0.09740656 0.1482455 -0.037731897 -0.08853868
000370 6b e3 a2 bd a4 39 c2 bd 2f c9 bc bd 9c 41 9f bd
       -0.07953533 -0.0948365 -0.0921806 -0.07776186
000380 f0 bb 2c bd b0 d9 c6 3d 8c e4 54 3d bc 91 84 3e
       -0.04217142 0.09709489 0.05197577 0.25892437
000390 4d 06 1f bc 1f e3 86 3d 74 f7 cd 3d ef 49 a4 3d
       -0.009706092 0.06586289 0.100569636 0.08021914
0003a0 c4 db 8c 3c c0 fe e0 3d 5c c2 92 3d 78 71 9c 3d
       0.017194636 0.1098609 0.07165977 0.0763883
0003b0 28 fe 99 3d 39 69 91 be 1c da 1d 3d 7f ce 6d be
       0.075191796 -0.2840059 0.038538083 -0.23223303
0003c0 53 64 93 b9 47 81 30 3d b9 6e 5d 3d 58 1e f1 3c
       -0.00028112772 0.04309204 0.05406067 0.029433414
0003d0 eb 98 4d 3e a9 04 ea 3d 29 18 c5 3d 05 ad 05 bf
       0.20077865 0.1142667 0.09623749 -0.5221713
0003e0 05 3c 8a be 2a bf b1 3d 4b 01 4d 3e ea f6 a5 3d
       -0.26998916 0.0867904 0.20020024 0.08103736
0003f0 b6 96 0d be 5a 55 e1 3d 68 0b f6 bd 7d cb 77 be
       -0.13827023 0.11002608 -0.12013894 -0.24198718

hidden_layer_2.bias f4 [64]
000000 68 1d cd bc 69 8c 16 be a8 c6 e2 bd a6 2b 84 3d
       -0.025038436 -0.14702 -0.11073047 0.06453638
000010 d1 2a 1d 3e bf e9 28 3e fe 11 34 3e 0c d6 1f be
       0.15348364 0.16495417 0.17584988 -0.15608996
000020 a1 c4 06 3e 2f 4b 3e bd 00 d1 55 3d e1 f5 cc 3d
       0.13160945 -0.04645842 0.05220127 0.10007835
000030 a6 e8 81 bd 0e 3f 05 3e a0 27 91 bd fd b7 80 bc
       -0.06343202 0.13012335 -0.07087636 -0.015712732
000040 63 91 8e bd 6c d5 0d 3d 38 96 d1 bd 14 6f 93 bd
       -0.06961324 0.034627363 -0.1023373 -0.07198921
000050 bf 4a 99 3d 0f 27 23 3e 26 40 a3 bd a2 ae bd 3d
       0.0748496 0.15932868 -0.0797122 0.09261824
000060 11 d0 18 3d 22 1d 89 3d a7 30 82 3d 37 89 a1 3d
       0.037307803 0.0669501 0.06356936 0.078875
000070 5f bc 04 3e aa 46 fb bd 77 20 b3 bd 78 b9 10 3c
       0.12962483 -0.122693375 -0.087464266 0.008833282
000080 20 01 c8 bd 41 e9 1e 3e 0c 39 e7 3d f6 cc d4 bd
       -0.097658396 0.15518667 0.11290178 -0.10390656
000090 8b bb 94 3d b7 2c 7b 3c 1c c3 b2 3d 19 27 fc 3d
       0.072623335 0.015330485 0.087286204 0.12312145
0000a0 25 27 06 be 7f cd 09 3e 92 cf 40 bd 78 bb 80 3d
       -0.1310087 0.13457297 -0.047072954 0.06285757
0000b0 98 fc 35 3e a4 e7 d0 3d 42 ec 01 be 37 96 ac bd
       0.17772138 0.10200432 -0.12687781 -0.08427089
0000c0 5b af 22 3e 5c 55 13 3d 7e cc 74 3a 8a 3a 04 be
       0.15887205 0.035970077 0.0009338333 -0.12912956
0000d0 25 5f 91 3d 92 d5 0c 3d c7 e3 33 3b 51 67 92 bd
       0.070982255 0.034383364 0.0027448998 -0.07148612
0000e0 6b 34 44 3d 34 15 b4 bd 41 c4 26 3e 9e 7e db bd
       0.047901552 -0.08793107 0.16285802 -0.1071751
0000f0 dc 6e 43 3d bd 9b 19 be c7 2d ab bd 25 7a 34 3e
       0.047713146 -0.15000816 -0.08358341 0.1762472

output_layer.weight f4 [2, 64]
000000 28 68 e3 bd 64 0e ef bd 8f d7 61 be 59 21 4d be
       -0.111038506 -0.11672667 -0.22054885 -0.20032252
000010 3b ae 85 be 46 29 5d be 6d 51 8e be 49 a0 1e 3e
       -0.2610949 -0.21597776 -0.27796498 0.15490831
000020 5d b4 1d 3e 34 b7 c5 bc 20 d2 17 bd bb 78 80 be
       0.15400834 -0.02413521 -0.037065625 -0.2509211
000030 78 89 79 bd a1 66 0c be fb 33 f8 3c 6c 79 07 be
       -0.060922116 -0.13711025 0.030298224 -0.13229913
000040 96 78 03 be 58 ab 49 3d 53 95 47 bb 99 87 08 3d
       -0.12838969 0.04923567 -0.0030453994 0.03333244
000050 54 9b c0 bc 77 b9 64 be 08 ec 7e bd 54 e8 87 bd
       -0.023511566 -0.22336374 -0.062236816 -0.0663611
000060 64 75 53 be 76 a1 68 be 15 9b f3 bd d7 d3 49 be
       -0.2065025 -0.22717842 -0.11894814 -0.19709717
000070 c3 9d 93 3c 35 ea 93 bd 43 b0 06 be 13 f7 80 be
       0.018019563 -0.07222406 -0.13153176 -0.25188503
000080 a8 8f 30 bd 41 7f 70 be 3e cf 5e be 98 04 c6 bd
       -0.04310575 -0.23486044 -0.21758744 -0.09668845
000090 bc 51 f9 3c f9 bb d4 be 81 da a2 bc 52 c9 11 be
       0.030434482 -0.41549662 -0.019879581 -0.14236954
0000a0 7e fa 3a bd 54 c8 71 be 3a 9b 5a be 21 7f 85 be
       -0.045649044 -0.23611575 -0.21348277 -0.26073554
0000b0 c8 af 93 be a0 dc d4 bc df 31 44 3d 16 7c 38 3d
       -0.28845048 -0.025984108 0.047899123 0.045040213
0000c0 f0 f7 a6 be 3c 70 94 bd de d6 63 be b4 32 2f 3d
       -0.32611036 -0.072479695 -0.22249934 0.042772964
0000d0 4f e7 99 be 77 4d 57 be c3 4c 44 bd bb e1 97 3d
       -0.30059287 -0.21025644 -0.04792477 0.074161015
0000e0 d3 65 05 3b 58 25 f9 bd 3e f8 98 be 06 b8 bc 3d
       0.0020354881 -0.12165326 -0.29876894 0.09214787
0000f0 bd 61 56 be ec 1e 1b bb 53 60 dc 3d 10 e6 61 be
       -0.20935722 -0.0023669554 0.1076056 -0.22060418
000100 8a 36 ab 3d c2 92 a5 3d 70 f0 f5 be e9 1c 6e be
       0.08360012 0.080846325 -0.48035002 -0.23253216
000110 e4 35 04 3e 9a 0c 76 3b 0d fa 72 be 0b 7a cc 3e
       0.12911183 0.0037544132 -0.237282 0.3993686
000120 99 2e 07 3f cd 4a 2b be 90 a0 ae bc c2 f4 81 be
       0.5280548 -0.16727753 -0.021316797 -0.25382048
000130 36 cd ce bd a6 5a e9 bd e2 45 6a 3e ce 61 9c bd
       -0.10097735 -0.11394243 0.2287822 -0.07635842
000140 83 3b 8c 3e c0 bf 13 3d 72 45 59 bd b7 cd 95 bd
       0.27389154 0.03607154 -0.053044744 -0.073146276
000150 51 c0 45 be 72 c6 66 be f8 48 c8 bd 35 76 d0 3d
       -0.19311644 -0.22536638 -0.09779543 0.10178796
000160 3e 4a 7b be 8a 2e e4 3c f2 71 63 bd 42 3c 13 3e
       -0.2454004 0.027854223 -0.05552859 0.14378455
000170 34 0d 05 be 4e 82 99 3d 73 03 1b be af 80 a2 bc
       -0.12993318 0.07495557 -0.15138035 -0.019836752
000180 7a c4 94 bc b6 c2 49 be fc 56 77 be 83 4b c5 bd
       -0.018160094 -0.19703183 -0.24154276 -0.09633543
000190 dc 80 6f 3d 11 28 78 3e 2b c7 ad 3d aa a9 c4 bd
       0.0584725 0.24234034 0.08485254 -0.09602673
0001a0 6e 1f 56 bc ed 80 7f be fb b9 5f be d9 4b 2f 3e
       -0.013069017 -0.24951525 -0.2184829 0.17118777
0001b0 f4 85 ea 3d 80 c1 79 bd 73 0c ba bd 92 e5 59 be
       0.11451331 -0.06097555 -0.09084406 -0.2127898
0001c0 e9 72 79 be 44 df 9f bd 10 27 0f be ba 6b e8 bc
       -0.24360241 -0.078062564 -0.13979745 -0.02837168
0001d0 07 71 8a bc 90 2d 59 bc 9a 12 3d be 88 5c 4b be
       -0.016899599 -0.013255492 -0.18464127 -0.19859517
0001e0 8f 76 53 be 58 5a 98 3c c2 51 5d be 7c 9d 54 3d
       -0.20650695 0.018597767 -0.2161322 0.051908
0001f0 ed be 75 be 92 24 f2 bd 6e 25 f0 bc 75 e4 67 3d
       -0.23998614 -0.118233815 -0.029314723 0.056614358

output_layer.bias f4 [2]
000000 0e ce 0f be e2 f9 e6 bd
       -0.14043447 -0.1127813
