DQN - CartPole/data/Apprentice 10.pt (torch, 38472 bytes, 8 tensors)

input_layer.weight f4 [64, 4]
000000 4c f8 26 be e4 0b 10 3b 05 7e 1a bf 16 66 d8 be
       -0.16305655 0.0021979744 -0.6034854 -0.42265385
000010 6e 7a e8 be 09 6f cd be 29 3e 45 3f 00 11 67 be
       -0.45405906 -0.40123776 0.77047974 -0.22565079
000020 59 b2 87 3e 5b ab 04 3e 5a 0d 42 3f fe 12 00 be
       0.26503256 0.12955992 0.7580162 -0.12507245
000030 96 81 0a bf c4 a6 aa 3e 21 8d 5b 3f 38 c6 99 be
       -0.5410398 0.33330357 0.8576222 -0.3003404
000040 3a 56 8f ba 7b 5a d0 bd d3 a2 ec 3e 49 99 d2 3c
       -0.0010935732 -0.10173508 0.46217975 0.025707858
000050 2c 71 0a bf d9 37 52 3e 01 61 bf 3c 64 a1 82 be
       -0.54078937 0.20529117 0.023361685 -0.25513756
000060 ce 03 39 bf fa 5a 03 bf 01 4b 86 be 7a e7 8f 3e
       -0.7227143 -0.51310694 -0.26229098 0.2810629
000070 c9 a6 bd bd 1f ab 93 bd 5a d1 39 3f d5 8b 7f 3e
       -0.09260327 -0.07210373 0.7258507 0.24955685
000080 d6 ff 4b bf ce d8 74 be d4 16 b3 3e 3c a9 e7 3e
       -0.7968725 -0.2391083 0.34978354 0.45246303
000090 cb a8 e2 bc cc ee 9e bc d3 25 dd 3e 20 aa 0f be
       -0.027668377 -0.019400977 0.4319292 -0.14029741
0000a0 1f 0e 8f 3c 73 cc 9f 3e ef b0 cf be ad a0 87 3e
       0.017462788 0.3121067 -0.40564677 0.26489773
0000b0 6f 5d 69 3e 97 fc e4 3d 12 3c 33 3f 5a ed a0 bd
       0.22789548 0.1118099 0.70013535 -0.07857771
0000c0 7a 18 c8 be 61 f3 93 3e 12 27 fa 3e b9 4b e2 3c
       -0.39081174 0.2889662 0.48857933 0.027623998
0000d0 86 d6 95 bd cb 25 56 3d ea 14 7e bf 12 07 f2 be
       -0.07316308 0.052282136 -0.9925066 -0.4727102
0000e0 73 8f cb be 03 11 97 3e 5b 6e 86 3f 79 b8 85 3e
       -0.3975788 0.29505166 1.0502428 0.26117304
0000f0 ad 67 eb 3e bd b6 be 3e 96 f5 60 3e ea d3 ce 3e
       0.45977536 0.37248793 0.21968684 0.40396053
000100 18 14 bc be 9c 97 59 3e 00 2e 0d 3d 34 e9 01 3e
       -0.3673408 0.2124924 0.034467697 0.12686616
000110 f3 66 b1 bd c7 34 d0 3d 08 48 cf 3e 0b 7e da be
       -0.08662214 0.101663165 0.40484643 -0.42674288
000120 a0 90 c3 3e ac f8 67 be 64 e6 42 3e 70 a2 b8 bd
       0.38196278 -0.22653455 0.190332 -0.090153575
000130 00 27 10 bf 77 21 ee 3d 6d 01 38 3f 4a 6f 81 be
       -0.5630951 0.11627477 0.71877176 -0.2528022
000140 ae bf 2f 3e 3f fe bb be 22 a7 5f 3f 47 06 bb 3e
       0.17162964 -0.36717412 0.873644 0.36528227
000150 de d1 0e be e9 08 da be 8d ee 91 be 2a 2d f1 3e
       -0.13947245 -0.42584923 -0.28502312 0.4710477
000160 52 1b 07 3e 2b 04 a4 be a6 a7 43 bf 3f bc b6 be
       0.13194016 -0.3203443 -0.76427686 -0.35690495
000170 b2 03 97 be 3a 34 d8 3e 81 c3 65 3e 53 83 ba 3d
       -0.29495007 0.42227346 0.2243786 0.09107079
000180 37 97 41 3e e6 eb 9a 3e fc 6c c7 be 54 19 3c be
       0.1890534 0.302581 -0.38950336 -0.18369037
000190 59 d3 33 be 31 50 d6 3e 93 aa 29 3f d2 05 ab be
       -0.17561091 0.41858056 0.662759 -0.33402878
0001a0 54 aa 98 bd 69 b5 96 be 41 a0 d9 be bf 91 07 bf
       -0.074543625 -0.2943528 -0.42505077 -0.52956766
0001b0 b4 a7 99 be 83 f7 c1 3e 90 c1 19 3f 96 d0 eb be
       -0.3001076 0.3788415 0.6006098 -0.46057576
0001c0 31 8b f9 be 8e ea 2b 3e cd cf 38 3f a0 22 e5 be
       -0.48739007 0.16788694 0.7219208 -0.4475298
0001d0 92 a3 cf be 2b fd fb 3e 2c b1 e1 3e 74 99 77 3e
       -0.40554482 0.4921659 0.44080484 0.24179631
0001e0 31 57 20 3f 1d fa b2 3d 39 99 11 be 36 ff 1e bd
       0.62633044 0.087391116 -0.14218606 -0.038817607
0001f0 2e 93 cc 3c 38 95 b8 3e e7 fd f9 bd af b2 e1 be
       0.024972524 0.36051345 -0.12206631 -0.44081637
000200 d0 2f b6 3e c8 3c 56 3d dd c5 49 3f be 54 99 bd
       0.35583353 0.05230406 0.7881754 -0.074868664
000210 82 96 0a bf 71 96 80 be 8b 42 4f 3f c4 f0 13 be
       -0.54135907 -0.25114778 0.8096091 -0.14447314
000220 f8 69 58 3e a5 90 e3 3e 6e ce ed 3e a2 47 90 3c
       0.21134174 0.44446293 0.46446556 0.017612282
000230 35 60 85 3e 73 91 48 bd 90 1c 5f bf 4d 17 28 be
       0.26049963 -0.048966836 -0.8715296 -0.16415139
000240 b4 51 b5 be 7d 31 90 3e 72 ea 1f bd ee b5 c6 3d
       -0.35413897 0.28162757 -0.039041944 0.09702669
000250 9d d0 92 3e 25 f6 eb 3d ac aa d8 3d 40 cd 66 3e
       0.28674784 0.11521558 0.10579428 0.22539234
000260 59 36 ce be 84 e7 35 3e 3d 56 80 3f c3 2a 07 3e
       -0.4027584 0.17764097 1.0026318 0.13199906
000270 08 4c a0 bc a4 05 7a 3c bf 76 88 3f 72 fb 0e be
       -0.019567505 0.015260134 1.0661238 -0.13963106
000280 1e 19 34 3f b5 8f 82 3e ac 03 1a bf 23 0c 17 be
       0.70350826 0.25500265 -0.6016185 -0.14750724
000290 44 ec 5c be bf 6c 98 3e 51 29 25 3e 80 79 a1 3e
       -0.21574503 0.29770467 0.16129042 0.3153801
0002a0 1c 15 3f 3e d0 4a 5e be 10 8c 07 bd 88 ae 38 be
       0.18660396 -0.21708226 -0.03309256 -0.18035328
0002b0 31 1c 04 3f d7 45 a8 3d f9 4b 34 3e 36 44 d2 be
       0.51605517 0.08216446 0.17607106 -0.41067666
0002c0 82 7a fc be 97 c9 c3 3e e7 a0 2e 3f 53 8a 02 3f
       -0.49312216 0.38239738 0.6821427 0.50992316
0002d0 c5 26 03 bf 51 71 9f be a7 96 81 3d 26 5b 7a 3e
       -0.5123103 -0.3114114 0.06327563 0.24448833
0002e0 ee fb 08 3f 7d 68 83 be 37 ec 01 bf ad 4e 01 bf
       0.53509414 -0.25665656 -0.5075106 -0.50510675
0002f0 49 18 c5 be 00 c1 de 3e c8 d0 29 3f 12 12 35 be
       -0.3849509 0.43506622 0.663342 -0.17682675
000300 ea df 11 be 26 f4 57 be 98 d8 70 bf 60 d9 7e 3e
       -0.14245573 -0.21089229 -0.94080496 0.2488761
000310 93 75 3a bd 9f fd 52 be 47 74 07 3f 23 ae d0 3e
       -0.045522284 -0.20604561 0.529118 0.40757856
000320 84 2c 28 bf 06 7e 95 be 4a 7a ae 3e 11 f0 92 bc
       -0.65692925 -0.2919771 0.34077674 -0.017936738
000330 18 05 39 3e 75 b9 41 3d 1a 24 3b 3f 73 5e ca 3e
       0.1806835 0.047296006 0.7310196 0.39525184
000340 50 63 94 3e 2a d9 ec be c1 cb c6 be e9 3b df be
       0.2898202 -0.46259433 -0.38827327 -0.43600395
000350 93 7b 58 be 5e cb 14 3f ad 63 51 3f 81 19 35 3e
       -0.2114089 0.58122814 0.8179272 0.1768551
000360 b4 ba 2f 3d e9 2e 96 be e7 10 79 3f b8 e6 9c bd
       0.042902663 -0.29332665 0.97291416 -0.076611936
000370 08 0d cd 3e 92 5b b2 be a4 89 c9 3e 65 c8 8b 3e
       0.40049005 -0.34835488 0.39362824 0.27301326
000380 6c 55 2f bf dd f7 b4 be 01 87 c2 be 42 f5 f3 3d
       -0.6848972 -0.35345355 -0.37993625 0.119120136
000390 36 69 b1 3e 6a 7f 9e be 84 54 7a 3e 90 cd 69 be
       0.34650582 -0.30956584 0.24446303 -0.22832322
0003a0 b5 7b d8 3e 89 23 4e be e8 66 8f bf 80 df db be
       0.4228188 -0.20130743 -1.120328 -0.42943954
0003b0 9b ee d0 3e 4a 10 91 3e 13 74 d5 be 4c fb 1e be
       0.40807042 0.2833274 -0.4169012 -0.1552555
0003c0 34 3b 0d 3b 10 cb 88 bd 61 74 aa 3d f6 bb cb bd
       0.002155018 -0.06679356 0.08322979 -0.0994796
0003d0 d6 2a 45 bf d4 11 f4 3d b8 be 31 3e 2f bf b3 be
       -0.7701849 0.11917463 0.1735791 -0.351068
0003e0 97 db 40 3f a2 93 c2 be e8 7c e5 be 99 d5 81 3e
       0.7533507 -0.3800326 -0.44821858 0.25358275
0003f0 87 db bf 3d 64 35 77 3e f4 ce 1a bf a1 0c 91 be
       0.093680434 0.2414146 -0.60472035 -0.28329948

input_layer.bias f4 [64]
000000 b8 8b 54 be 44 27 ed 3e 38 41 df 3e 64 27 ec 3e
       -0.20756423 0.4631902 0.43604445 0.46123803
000010 ec 7a 2c 3e dc 15 96 be f4 7d 96 be f9 83 8f 3e
       0.16843766 -0.29313552 -0.2939297 0.28030375
000020 10 ca a8 3e e4 0e 8d be 53 90 ac be c7 83 26 be
       0.3296666 -0.27550423 -0.3370386 -0.16261207
000030 05 02 8f 3d 2d db b1 be 42 52 cd 3e 8f 09 c4 be
       0.06982807 -0.3473753 0.4010182 -0.38288543
000040 ae 8e eb be 4e ad fe 3e 36 de e0 be 99 fc 1f 3e
       -0.46007293 0.49741596 -0.43919533 0.15623702
000050 26 6f ae 3e ef de 17 bf 01 45 9a 3e 7f 17 86 be
       0.34069175 -0.59324545 0.3013077 -0.261898
000060 d5 15 04 bf f1 8e e5 3e 3c ca e6 be be 73 a7 3e
       -0.51595813 0.44835618 -0.45076168 0.32705492
000070 1e 16 b3 bc b2 91 51 3e 13 b5 a7 be 65 55 fe 3e
       -0.021861132 0.20465735 -0.32755336 0.49674526
000080 e3 9b e4 3d a5 82 81 3e 99 87 9a 3d f4 8b cd 3d
       0.111625455 0.25294986 0.075453945 0.100364596
000090 98 bc 85 be 0a f6 f8 3e 31 52 a5 3e 25 35 5a 3e
       -0.26120448 0.48625213 0.3228927 0.21309336
0000a0 9d e4 b7 be f6 50 dd be 8e 4f ee be 6b 11 94 be
       -0.35916606 -0.4322583 -0.4654507 -0.2891954
0000b0 45 0c ed 3e 78 bb b4 bd 70 5d 2c bd ce 38 3b be
       0.46298423 -0.08824819 -0.042081296 -0.18283388
0000c0 57 a9 1e 3e f4 f7 18 bf 1b 2c a2 be d2 c1 bc 3e
       0.15494286 -0.59753346 -0.31674275 0.36866623
0000d0 eb b4 aa 3d 84 9c b4 bd dd 24 0d 3f 17 88 a0 bd
       0.083352886 -0.088189155 0.55134374 -0.07838457
0000e0 aa 1b ae bc b6 b1 8a be dd 1b a7 be 8f a8 c0 bd
       -0.021253426 -0.27088708 -0.32638445 -0.0940715
0000f0 83 32 0c 3f 05 b0 a6 3e ff 1d 4c 3d 70 d9 23 3e
       0.54764575 0.32556167 0.049833294 0.16000915

hidden_layer_1.weight f4 [64, 64]
000000 e1 c6 6a bd 51 f1 ef 3d 76 da 72 bd fd e3 5e bd
       -0.057318572 0.11715949 -0.05929037 -0.054416645
000010 bc f7 5b 3e 70 9e 42 be af a1 f5 bd 5d cf b9 3c
       0.21481222 -0.19005752 -0.11993729 0.022681886
000020 50 89 a5 3c 8c 80 12 3d b1 a1 43 3d 37 0b f7 3d
       0.020207077 0.035767123 0.047761623 0.12062686
000030 f6 8f da bc 15 96 dd bd 40 a8 28 3e b6 c9 d8 3c
       -0.026679974 -0.108196415 0.16470432 0.02646337
000040 c2 c9 d9 3d c9 99 69 3d 92 97 cf bd 44 b2 01 3e
       0.106341854 0.057031427 -0.101363316 0.12665659
000050 57 3b 2c 3e 32 3f cc be f1 5a ad bd e6 2a fd 3d
       0.16819511 -0.39891964 -0.08464611 0.12361698
000060 d5 19 59 be 27 68 91 3d fa 33 b2 be bf 80 ee 3d
       -0.2120126 0.070999436 -0.3480528 0.1164565
000070 df ec 7a bd e4 a8 5c 3e 4e fc 95 bd 5b 0c d8 3d
       -0.061261054 0.21548802 -0.07323514 0.105492316
000080 8b 00 b5 3e 26 b8 d7 3d 94 47 b1 bd 65 ab 91 bb
       0.35351977 0.105331704 -0.086562306 -0.0044454806
000090 b9 65 22 3d 65 5e 80 3c fd a5 9c 3e ab 12 77 3d
       0.03964779 0.01567001 0.3059539 0.060320538
0000a0 ae 6b 33 be db ab 1e be 72 96 b1 bd 2a 1f 40 3b
       -0.17521545 -0.15495245 -0.08671273 0.002931545
0000b0 cc 1d 3f 3e 39 fb 34 bd ba a5 e8 bd 96 4a b8 3d
       0.1866371 -0.044184897 -0.11359735 0.08998601
0000c0 33 17 07 3c a1 46 e1 be 54 69 96 be 99 53 3d ba
       0.008245277 -0.43999198 -0.29377234 -0.0007222235
0000d0 d8 8e 3b bd cc 7f 4b 3e 94 9d 90 3d 44 8d 41 be
       -0.045790523 0.1987297 0.07061306 -0.18901545
0000e0 98 5b c0 bd 9c 67 e3 bd 99 99 b3 be c4 a6 93 bd
       -0.0939247 -0.11103746 -0.35078123 -0.072095424
0000f0 67 ee 1e bd bd 0c be 3a 05 18 39 bd 73 2d ec bd
       -0.038801577 0.0014499646 -0.045188922 -0.11532106
000100 34 1a 1e bd 10 36 1e 3d 8e 78 f7 bd 5f e7 31 bd
       -0.038599208 0.038625777 -0.12083541 -0.043433543
000110 e5 cf e2 bd c8 58 b7 3d 45 1c ad 3d b9 2e 83 3d
       -0.11074809 0.089524806 0.084526576 0.06405396
000120 83 9f 05 be b6 a1 ed bd 28 72 a5 3d 9e 56 82 bd
       -0.1304913 -0.116031095 0.08078414 -0.06364177
000130 6e f9 02 be 94 f4 8f 3d 79 75 e6 bd e0 71 b6 bc
       -0.12790462 0.070290715 -0.11252875 -0.022271097
000140 4c 63 78 3d 5a 98 aa 3d 9c ad cd bd c7 ba 87 3c
       0.060641572 0.0832984 -0.10042879 0.016568555
000150 27 90 e9 3a 56 12 eb bd 5c d9 58 3d cc 83 e2 bd
       0.001781945 -0.11478107 0.052941665 -0.110602945
000160 48 21 7b 3d 6e c2 58 3d c0 43 21 bc c5 08 c5 3a
       0.061311036 0.052919798 -0.009842813 0.0015032521
000170 96 5d cb bd f2 de 03 3d ee fd c8 bd 30 fb e3 bd
       -0.099299595 0.03219504 -0.09814058 -0.111318946
000180 3e bb d0 3d 87 f7 c0 bd 3e 1e 8d 3c 8f 3d 6c bd
       0.101919636 -0.09422212 0.017226335 -0.057675894
000190 d0 06 82 bd e5 a0 2d bd c8 03 6e 3d c5 b0 d5 bd
       -0.06348956 -0.04238977 0.058109075 -0.10434107
0001a0 64 b2 7b 3d aa 79 c8 bd 34 6d b4 3d 54 e5 8c 3d
       0.061449423 -0.097888306 0.08809891 0.06879678
0001b0 7c 45 b0 bb f5 d7 82 bd 43 23 a9 3d 06 1a f7 3d
       -0.005379377 -0.06388847 0.08258679 0.120655105
0001c0 c2 cc cf 3d 8c 7d 7e bd 9a 9f 16 3b 7a bf 41 bd
       0.10146476 -0.06213145 0.0022983314 -0.047301747
0001d0 9c 44 bc bd 9c b1 97 3d 78 01 2f 3d a9 03 82 bd
       -0.09192774 0.07406923 0.04272601 -0.06348354
0001e0 bf 86 55 bc c4 f7 2c 3d 17 bb e6 bd f6 00 e5 bd
       -0.013032614 0.042228475 -0.11266153 -0.11181824
0001f0 9b 60 68 3c c3 3d 40 bd e3 bf 41 3d 80 9b eb bd
       0.014183189 -0.0469339 0.047302138 -0.11504269
000200 20 a8 01 3d 68 3a cd bd 00 0e 8d 3d fc d0 2f bd
       0.031654477 -0.10020906 0.06887436 -0.042923912
000210 a6 70 88 bd b0 b2 27 bd ec 8d 34 bd 7a 3d e8 3d
       -0.06662111 -0.040941894 -0.04408066 0.11339851
000220 80 17 a2 3c 08 85 98 bc 60 b3 4b 3c b4 c6 aa bd
       0.019786596 -0.018618122 0.012432903 -0.08338681
000230 14 d3 6d 3d 3e 63 aa bd 06 4f 99 bd ce 3e bb bd
       0.058062628 -0.0831971 -0.07485776 -0.091428384
000240 46 7b 90 3d 88 9c f4 3c 58 78 b2 3c e8 fd 2a 3d
       0.070547625 0.029859796 0.0217859 0.04174605
000250 9e 6f d0 bd 0e 16 fa 3d 88 4e a9 bc 2c cb fc bd
       -0.10177539 0.12211238 -0.02066733 -0.123434395
000260 12 ee b7 bd e0 a4 9d bc d4 aa 8b bd 2c 51 9c 3d
       -0.08980955 -0.019243658 -0.06819692 0.0763267
000270 30 2f 11 3c 6e 83 cf bd 98 bc f8 bc 98 ca ab bd
       0.008861348 -0.1013249 -0.030363366 -0.08388251
000280 a0 27 51 bd c8 2b a0 bd aa 33 cd 3d 52 1b 8c bd
       -0.05106318 -0.078208506 0.1001962 -0.068411484
000290 d8 0b 8e 3d 44 f6 38 3d c8 3a 48 bd ac 14 11 3d
       0.06935853 0.045156732 -0.048884183 0.035420105
0002a0 c0 bf 4a 3c 98 e0 e4 bd ee 23 d1 bd 6e 98 9e 3d
       0.012374818 -0.1117565 -0.10211931 0.077439174
0002b0 ea 52 e4 3d dc ea 41 bd f8 78 a9 3c f0 5b 9d bd
       0.11148627 -0.04734312 0.020687565 -0.07683551
0002c0 90 04 75 bc 20 d3 e3 3b 60 bc 9a 3c a8 6b d3 bc
       -0.014954701 0.0069526583 0.018888652 -0.02580817
0002d0 f0 c7 93 bd a0 64 f1 bd a0 e3 c8 3b ee e0 db bd
       -0.072158694 -0.11786771 0.0061306506 -0.10736261
0002e0 48 52 a5 3c b0 1b f5 bd dc 7c 09 3d 4a 99 a7 bd
       0.020180836 -0.119681716 0.03356634 -0.081835344
0002f0 30 31 a4 3d c8 75 c5 3c a0 24 50 bd 20 7b b4 bc
       0.08017194 0.024104014 -0.05081618 -0.022031367
000300 3f 6c 14 be 69 03 75 3d 5d 6c f2 bc 0b e7 88 bd
       -0.14494418 0.059817705 -0.029592687 -0.06684693
000310 9f f4 0e 3e 5b 42 1e 3e b2 91 4f be 98 59 8f 3c
       0.13960503 0.15455 -0.20270422 0.017498776
000320 a1 1d b1 bb c6 56 e9 bd 49 f1 58 bc cc 20 cb 3e
       -0.0054051434 -0.11393504 -0.013241121 0.3967346
000330 b9 76 31 3e 09 e0 08 be ae 06 38 3e af d1 43 3d
       0.17330445 -0.13366713 0.17971298 0.04780739
000340 96 24 da 3d 02 6d 4b bd 08 3c 8c 3c 21 e2 08 3d
       0.106515095 -0.049664505 0.017118469 0.03341878
000350 96 13 ae 3d af e6 e2 be d8 e7 15 bc c4 46 0c bd
       0.084998295 -0.44316623 -0.009149514 -0.034247175
000360 c2 93 29 3e 4b a4 cf 3d f2 d0 dc bd 8c 66 24 3e
       0.16560271 0.10138758 -0.10782041 0.16054744
000370 9a ab fc 3d 09 9b 65 3e 19 7b ea be b0 5b 08 bd
       0.12337418 0.22422422 -0.4579704 -0.033290565
000380 68 ad 5c 3e b8 65 ba 3d 4b c7 d4 3b 62 ee 38 be
       0.21550524 0.091014326 0.006493484 -0.18059686
000390 f6 ff e6 3d be f5 d7 3c d4 45 05 3e a4 82 d7 3c
       0.112792894 0.026362296 0.13014919 0.026307411
0003a0 a8 29 2b bd 30 53 ee 3c c6 35 92 3d c2 50 b2 bd
       -0.041787773 0.029092401 0.07139163 -0.087068096
0003b0 a2 52 5e 3e eb ab 14 bb 7e 22 98 be 7a 4d 0b 3c
       0.2171121 -0.002268548 -0.29713815 0.008502359
0003c0 7c 7d eb bd 90 3d 04 bf 84 e7 95 be fc 42 e9 3d
       -0.114985436 -0.51656437 -0.29278195 0.113897294
0003d0 41 f6 81 be b6 b3 8f 3e 49 96 72 3e 04 22 a9 bd
       -0.2538319 0.28066796 0.23690142 -0.08258441
0003e0 72 13 aa 3d a6 4f ef bd 28 f8 8c be 36 87 05 be
       0.0830449 -0.116851136 -0.27533078 -0.1303986
0003f0 a6 4f 24 3d 20 69 f0 3d dc d5 f5 bd 8a 79 f9 3b
       0.04011502 0.11738801 -0.12003681 0.0076133655

hidden_layer_1.bias f4 [64]
000000 63 fd da 3b b2 0a ea 3c a6 e2 a4 bd f0 8f 02 3e
       0.006683038 0.028569553 -0.08051042 0.1275022
000010 2e 0a 0d 3e dd 89 f3 bd a6 41 46 bc ae c4 5f 3c
       0.13773414 -0.1189153 -0.012100613 0.013657732
000020 86 4a 28 bd b2 e0 27 3c b0 6b 02 3e a5 c6 1d 3e
       -0.041086696 0.010246443 0.12736392 0.15407808
000030 63 69 fa bd 03 88 e0 3d 90 8f 7f bc fb df bf bd
       -0.12227132 0.10963442 -0.015598193 -0.09368893
000040 76 1a c8 3d 79 b2 de 3d f4 9a a8 bd 63 26 10 3c
       0.09770672 0.10873885 -0.0823268 0.008798215
000050 f1 62 ae 3b b7 1f be bd 9c 89 e2 bd 90 9b 7f 3d
       0.0053218533 -0.09283393 -0.11061403 0.062404215
000060 fd be 83 3d b7 35 10 3e 8b 1b 25 3e 62 94 a2 3c
       0.064329125 0.1408299 0.16123788 0.019846145
000070 72 92 4f 3c e5 f8 1b 3e b0 8d 21 bd d3 40 32 3b
       0.012669193 0.15231664 -0.039441764 0.0027199283
000080 7d e6 d3 bc 5e 10 9c 3d 88 88 c6 3d 0d 3d 1c 3e
       -0.025866741 0.07620309 0.0969401 0.15257664
000090 9b 7e db 3c 32 f1 ec bd d5 e1 20 3e 8d 77 c4 bc
       0.026793769 -0.11569442 0.15711148 -0.023982788
0000a0 2d 33 21 bd 16 98 f4 3d 13 0e d8 3d 35 49 b0 3b
       -0.039355446 0.119430706 0.105495594 0.0053798207
0000b0 73 f0 c2 3d a2 0f cc 3d 2a ae 3b bc 7a 50 a5 3d
       0.09518518 0.09963919 -0.011455098 0.0807199
0000c0 7d c1 42 3e 1d 20 39 3d f3 bf 94 bc b3 0e 9d 3d
       0.19019122 0.04519664 -0.018157935 0.07668819
0000d0 ff b2 fe 3d e0 d4 b7 3d cc 25 65 3c f6 68 95 bc
       0.124364845 0.089761496 0.013986062 -0.018238526
0000e0 98 79 c7 bd 3a 42 46 bb e9 c6 a0 3d 46 12 7c 3d
       -0.09739989 -0.0030251876 0.07850439 0.061540864
0000f0 9f 76 ea 3d 9a 22 05 3d f3 47 40 3e 4f ba da 3d
       0.114484064 0.0325037 0.18777446 0.10680067

hidden_layer_2.weight f4 [64, 64]
000000 80 67 05 3d 68 81 56 3d 4a ad 83 bd 9a 56 07 3e
       0.03256941 0.052369505 -0.06429537 0.1321663
000010 f7 c1 09 3e e8 b1 d7 bc 73 6b 9e 3d 4e 83 0e 3d
       0.13452898 -0.02632995 0.07735338 0.03479319
000020 b4 cc af 3a 87 7f 86 be 22 15 dd bc 6c 90 45 bd
       0.0013412447 -0.2626917 -0.026987616 -0.048233435
000030 29 76 ce bd 32 40 da 3d 72 b5 f7 bd f9 80 c7 bc
       -0.10081131 0.106567755 -0.12095155 -0.024353491
000040 74 fc ee 3d 03 38 f0 3d 10 eb a7 3d a3 db 9a bd
       0.11669245 0.117294334 0.081991315 -0.07561424
000050 40 ab 91 bd fb a7 ac bc a5 24 b7 bd 20 f7 8b bd
       -0.071127415 -0.021076193 -0.08942536 -0.06834245
000060 05 b8 55 3c 6d 10 40 3e c2 3d 45 3e c2 bf 5b 3d
       0.013044362 0.18756266 0.1926184 0.05364967
000070 58 4e e6 bc 81 05 19 3d 7a ac d0 bd 22 35 83 bc
       -0.02811353 0.037358765 -0.10189147 -0.016016547
000080 43 85 30 3e 63 98 a9 3d 16 36 c7 3d 20 f3 e3 3b
       0.17238335 0.082810186 0.09727113 0.006956473
000090 40 43 a2 3d 1f 35 a7 bd ed 63 15 bd 07 1d 16 3e
       0.07922983 -0.08164429 -0.03647225 0.1465951
0000a0 37 a2 f7 3b b6 c9 b9 3d 95 05 b9 bc b4 57 50 3c
       0.0075571793 0.090716764 -0.02258567 0.012716223
0000b0 e8 f7 d8 bc 3b 58 cd 3d 22 b8 28 3e e8 96 c3 bc
       -0.026485398 0.10026594 0.16476491 -0.023875669
0000c0 70 c2 f6 3d 53 e0 d0 bd 47 70 86 bd 23 a9 1a 3e
       0.12048805 -0.101990364 -0.06564384 0.15103583
0000d0 8f b2 9f 3d 66 f2 27 3e c3 62 0c 3d 40 34 d5 3d
       0.07797729 0.16401061 0.034273874 0.104103565
0000e0 5e e7 c1 3d 9c 49 21 3e 87 8a 70 3c f7 b2 1d 3e
       0.09467958 0.15750736 0.014681465 0.15400301
0000f0 8a 5e 49 bd 6c bb 13 bd dd 9e bc 3d a6 98 15 3d
       -0.049162425 -0.03606741 0.09209988 0.03652253
000100 10 b1 07 be f0 e2 86 3d b0 41 38 bc 18 e5 90 bd
       -0.13251138 0.06586254 -0.01124613 -0.07074946
000110 27 24 96 3d a0 de 9d 3d 34 4f 0b 3d 29 7f bc bd
       0.07331114 0.07708478 0.03401108 -0.092039414
000120 e4 2b 9c bd 40 bf ff bb f7 4f 35 bd 1a 9f 7f 3b
       -0.07625559 -0.007804781 -0.044265714 0.0039004744
000130 50 e2 9e bc 5d 2f 92 3d 1c 6c af 3d b3 d5 ee bd
       -0.019395024 0.0713794 0.08565542 -0.11661854
000140 7d 85 09 be 0c 5d c5 3b b8 d6 fd bd 4b af 8e 3d
       -0.13429828 0.006023055 -0.1239447 0.06967028
000150 f4 e1 ed bd 78 d9 3e 3c a2 57 c9 3d d2 0a c7 bc
       -0.11615363 0.011648528 0.09831168 -0.024297152
000160 40 b7 ed bd 47 1d 96 bd 39 ae 93 bd c1 a0 bd 3b
       -0.11607218 -0.07329803 -0.07210965 0.0057869856
000170 f0 41 67 3c 92 4c b2 3c 26 4c 89 3d 22 68 4b bd
       0.014114842 0.021765027 0.06703977 -0.049659856
000180 d2 b1 85 bd d4 1d 57 bd 10 d8 97 bd d6 47 fd bd
       -0.06528057 -0.05251868 -0.074142575 -0.12367217
000190 49 40 21 bd 80 d9 ff bd a9 28 3c 3c 22 31 93 bd
       -0.039367948 -0.12492657 0.0114843035 -0.07187106
0001a0 82 da 6a 3c 36 d5 b4 3d f6 d1 f9 bb f6 8f 82 3d
       0.014334323 0.08829729 -0.0076239062 0.063751146
0001b0 16 44 09 bc 15 c0 db 3d 29 8d 90 bd a4 df 87 3c
       -0.008378049 0.10729996 -0.07058174 0.016586132
0001c0 db 08 1e 3d e0 00 5d bd 7f 1b 9e 3d 02 7c 9e 3d
       0.038582664 -0.053955913 0.07720088 0.07738496
0001d0 90 db a9 3c 75 72 e8 bd d2 51 f4 3c e8 f4 c0 bd
       0.020734578 -0.11349956 0.029824171 -0.09421712
0001e0 20 6e be bc 8a 4e b7 3d 36 37 4a 3d 53 93 ba bc
       -0.023245871 0.08950527 0.04936906 -0.022775328
0001f0 de f3 aa bd e5 c1 d6 bc 6e 0a 62 3d 60 b6 49 3c
       -0.08347295 -0.026215503 0.055185728 0.012311548
000200 60 14 2a be fe a7 0c bd 0c 07 11 bd 9b b3 4c be
       -0.16609335 -0.034339897 -0.03540711 -0.19990389
000210 ad ae 51 be 40 88 5a bc 98 00 e7 3d 82 a2 b0 3d
       -0.2047679 -0.013338149 0.1127941 0.08624746
000220 04 59 07 3c af 21 6f 3e af a9 63 3c de 26 35 bd
       0.008260969 0.23352693 0.013895436 -0.04422652
000230 0f ad e0 bd 07 17 9d be 5a a0 ee 3d e3 0f 12 be
       -0.10970508 -0.3068163 0.116516784 -0.14263873
000240 d1 b2 83 bd 7a a2 91 bd f0 c5 c4 bd 2a 18 bf 3e
       -0.06430591 -0.07111068 -0.09608066 0.37323123
000250 19 17 74 3d 87 f1 40 3d 93 9f d9 bc f1 42 a0 bc
       0.05959234 0.04710534 -0.026565349 -0.01956317
000260 07 a4 ff 3d 98 e5 2d be db 69 7a 3e 29 bd 84 bc
       0.124824576 -0.16982114 0.24454443 -0.01620348
000270 b5 2b 85 bd f8 9b d1 bd b1 db d7 3e 46 7e 4f bd
       -0.06502477 -0.10234827 0.421598 -0.050657533
000280 83 26 7f 3c 24 7b 25 bd 7c a3 24 bf 8a e1 23 be
       0.015573147 -0.04040064 -0.6431196 -0.16004005
000290 d4 f2 e5 bd 79 49 9f 3d ce fc 12 3d ea 28 11 bf
       -0.112279564 0.07777686 0.035885625 -0.56703055
0002a0 a9 a0 54 be ca e1 01 be d3 b5 bd 3d d6 9b a8 3d
       -0.20764412 -0.12683788 0.09263196 0.08232848
0002b0 fb 7c b6 bc f6 7a ae be 93 28 31 bf a1 ce 07 be
       -0.022276392 -0.34078187 -0.69202536 -0.13262416
0002c0 ad 14 e8 3c 67 f1 b3 bd 3a ce a3 3d d4 33 3e bf
       0.028330171 -0.08786278 0.07998319 -0.74297833
0002d0 06 82 98 be e5 f3 e4 be 98 e3 af 3d c6 2a 82 be
       -0.297867 -0.44717327 0.08588332 -0.2542326
0002e0 f8 50 e4 bd b3 cf 66 bc 26 1c 20 be aa ed 94 3d
       -0.11148256 -0.014087605 -0.15635738 0.07271893
0002f0 c4 c0 6a 3e 9e 1a f5 bd 42 d4 38 3e db d0 2e 3e
       0.22925097 -0.119679675 0.1804972 0.1707186
000300 2d 0c cf bd fd 67 cf 3d 02 96 e2 bd 57 f3 02 be
       -0.10109744 0.10127256 -0.11063768 -0.1278814
000310 52 7f 8b 3b 80 43 92 bb 6e b6 e1 3d 8f b9 c4 3d
       0.004257121 -0.004463613 0.11021124 0.09605705
000320 c3 e9 98 bd cc d9 0e 3d e8 77 bf 3d b7 7e d9 bd
       -0.074664615 0.034875676 0.09349042 -0.10619872
000330 7c f8 b6 bd bd a2 74 3d 1c 9b 58 3d 32 49 36 3d
       -0.089341134 0.05972551 0.0528823 0.0445034
000340 17 8b 90 bd d1 41 0e 3d e8 9a 44 bd 92 8b b7 bd
       -0.07057779 0.034730736 -0.047999293 -0.08962168
000350 53 d5 87 bd f7 c2 d1 3d 4d a5 e1 bd 5f 6a 0d 3d
       -0.06632485 0.10242265 -0.11017857 0.03452527
000360 aa c0 b6 ba 92 7e be 3d 6e d0 cc 3d dc df b5 bd
       -0.0013942916 0.09301485 0.10000692 -0.088805884
000370 bd 97 e6 3c 20 6a ee bd 04 6a dd bd c9 b8 72 bc
       0.028148526 -0.116413355 -0.108112365 -0.014814564
000380 a6 06 cd 3d 65 54 0e bd 89 b8 f1 bc a6 87 cf 3d
       0.10011034 -0.034748454 -0.029506939 0.10133295
000390 0a 44 0d bc 63 7c fa bc 56 e4 cf bd 3f 6b bb 3d
       -0.008622179 -0.03057689 -0.101509735 0.09151315
0003a0 4f 98 64 bc 54 a0 77 3d 6e 5b e9 3b 20 dc 5d bd
       -0.013952329 0.060455635 0.007121495 -0.054165006
0003b0 08 95 b6 bd d2 d2 ac 3d ff 21 a7 3b a0 02 fa bc
       -0.08915144 0.08438648 0.005100488 -0.03051883
0003c0 08 a1 2a 3a 66 73 3f 3d 35 d8 69 bd a8 33 bd 3d
       0.0006508981 0.046740912 -0.057090957 0.09238368
0003d0 7e c0 f2 bd 46 f9 7b 3c f6 07 b6 bb 34 71 96 3c
       -0.11853121 0.015379256 -0.0055551482 0.018364526
0003e0 34 03 1e 3d 2a 0a c3 3b b6 73 5b 3d ef c2 05 be
       0.038577273 0.0059521394 0.053577147 -0.13062643
0003f0 6e 29 7f bd 10 87 62 bd d0 1a db ba 15 f6 77 3d
       -0.06229537 -0.055304587 -0.0016716365 0.060537416

hidden_layer_2.bias f4 [64]
000000 bf dc 37 3e ce 8f 5e 3d 87 f2 94 3d 77 0b 57 bd
       0.17955302 0.05433636 0.07272821 -0.052501168
000010 c0 c0 d0 bd ea a9 a0 bd c3 b2 43 3e b0 5d e4 bc
       -0.10193014 -0.078449085 0.19111161 -0.027876705
000020 f2 ed 51 3d e1 eb aa 3d c4 b8 86 bc c9 ea 99 3d
       0.051252313 0.083457716 -0.016445525 0.07515485
000030 57 a8 8c bd 2f 4b d6 3c 19 82 81 3d e1 fc e9 bd
       -0.06868046 0.026158897 0.06323642 -0.11425186
000040 53 d4 06 3d bd c7 1b 3e b2 df 31 3e 94 28 49 bd
       0.032917332 0.15212913 0.17370489 -0.049110964
000050 8d 3d 27 3d bd 93 21 3e e8 6c 21 bc 2d 62 c9 bc
       0.040830184 0.15779014 -0.009852625 -0.024582947
000060 64 ce 21 bd ac 62 b8 3c f9 54 2d 3e 91 85 0e be
       -0.03950347 0.022507988 0.16926946 -0.13918139
000070 b0 40 d7 3c a8 42 12 3d 4c da c8 3d 85 65 09 3e
       0.026275963 0.0357081 0.09807262 0.13417633
000080 ed 54 07 be 5b 71 04 be a1 b8 f7 bd 03 48 8b 3e
       -0.1321599 -0.12933867 -0.12095762 0.27203378
000090 32 85 24 be 5a 84 f1 bd 7d a7 8e bd aa dd 09 3e
       -0.16066435 -0.11792822 -0.069655396 0.13463464
0000a0 28 e0 0d 3e 1a 15 c4 bd 82 29 45 3e 96 68 35 3e
       0.1385504 -0.09574337 0.19254115 0.17715678
0000b0 10 e9 d8 bd d9 ed 1b 3e 6c dd c6 3d a2 f7 e0 bd
       -0.10591328 0.1522745 0.097102016 -0.10984732
0000c0 78 66 c4 3d 2b 98 51 bd a1 28 60 3e 30 ec 2b 3e
       0.09589857 -0.05117051 0.21890499 0.16789317
0000d0 fd dc 0c be 40 cf 25 3e 44 ff de 3d 50 1c 3c 3e
       -0.13756175 0.16192341 0.10888532 0.18370175
0000e0 f0 f3 13 3d 7e 04 e5 3d a9 68 b4 3d 76 c9 0d bd
       0.03612131 0.111824974 0.08809025 -0.034615956
0000f0 6e 73 be bd c3 df 09 3e f6 b7 a1 bd c3 5a 3d 3e
       -0.0929936 0.13464265 -0.07896416 0.18491654

output_layer.weight f4 [2, 64]
000000 e3 ba 2b 3e 6d 8b d9 bd 2b db 3d bf 82 9c 8b bd
       0.1677051 -0.106222965 -0.7416255 -0.06816961
000010 6b 0d 3a 3d 50 f5 e4 3c cb d1 d2 be 2c ca d1 3d
       0.045422953 0.027949005 -0.41175684 0.10243639
000020 dc 08 4d 3e 57 ff b8 b9 c0 fe 24 3e 71 e5 10 bd
       0.20022911 -0.00035285458 0.16112804 -0.035375062
000030 5b 50 c5 bd f2 a7 03 3d 4c 68 a3 bc 30 39 59 3d
       -0.09634467 0.032142587 -0.019947194 0.053033054
000040 dc d3 d7 3d 20 9a e0 3d b1 eb b3 3d 78 dc a3 3c
       0.10538456 0.10966897 0.08785189 0.020002589
000050 84 84 c8 bd 2d 33 bf 3d 67 2f 07 bf 2b 30 1d bf
       -0.097909 0.09335933 -0.52806705 -0.61401623
000060 42 36 5e 3e 79 d4 53 3e 3c c1 da 3d 6b 53 0a bd
       0.21700385 0.2068652 0.10681388 -0.03377096
000070 9d 61 54 3e 81 0c 2f bd c8 88 50 bd c5 37 d6 3d
       0.20740362 -0.042736534 -0.050911695 0.10459856
000080 0e 71 b2 be d1 6b 76 bd 9c fc 10 bd b7 14 27 3e
       -0.3485188 -0.060161415 -0.035397157 0.16316496
000090 b3 03 7b be 59 cf cc bd 40 61 1a bd fd ae 87 3d
       -0.2451313 -0.10000486 -0.0376904 0.06625173
0000a0 ce 47 3a 3e 93 db ae 3b 81 c9 f7 3d b8 b6 30 bf
       0.18191454 0.005336234 0.12098981 -0.69028807
0000b0 65 1a c4 3a 5e 25 fe 3d 7a 8e 4a 3e d5 44 ec be
       0.001496148 0.12409471 0.19780913 -0.46146265
0000c0 13 aa 4e 3e 71 27 2c 3d 45 d1 04 bf bb ee 82 3d
       0.20182066 0.0420298 -0.5188182 0.063931905
0000d0 f0 e3 50 3c 42 82 44 3c 8a 91 2c 3e 80 a7 83 3d
       0.012749657 0.0119939465 0.16852394 0.064284325
0000e0 14 88 ca bd b5 55 8e 3e fc 96 24 bf b2 77 eb bc
       -0.09889236 0.27799764 -0.64292884 -0.028743599
0000f0 d4 83 16 be 83 4a ce 3d 0a 8a 9d 3d ab 11 a6 bd
       -0.14698726 0.10072806 0.076923445 -0.08108839
000100 f3 bd 30 3e 6a 25 59 bd 7c ad 8d be b8 ba 8f 3c
       0.1725996 -0.053014196 -0.2767142 0.01754509
000110 70 6f 6d bd 40 50 06 bd 49 b3 45 bf 98 69 4a bd
       -0.057967603 -0.032791376 -0.7722669 -0.04941711
000120 4c 08 ec 3c 8b 50 4e 3e 8f a6 43 3e 31 3c 17 3b
       0.02881255 0.20147912 0.19106506 0.0023076648
000130 b4 ac ce bd 36 13 c0 bc 66 48 80 3d 7e 4d de 3d
       -0.10091534 -0.02344666 0.06263809 0.10854624
000140 3c be c5 bd 6b c3 d6 3d 8a f4 28 3e 54 01 97 bd
       -0.09655425 0.10486492 0.16499534 -0.073733
000150 0b 79 f7 bb 36 17 f3 3d dc e4 10 bd e4 71 54 be
       -0.0075522712 0.118696615 -0.035374507 -0.20746571
000160 77 ff 2a 3e 5c b7 02 3e a4 fd bd 3d c6 cc 9b bd
       0.16699015 0.12765259 0.09276894 -0.07607417
000170 4e b7 25 3c 9c 3f 5b 3d f3 91 d6 bb 14 bf 1e 3e
       0.010114504 0.05352746 -0.00654816 0.15502578
000180 0c e6 17 be 4b 2c af bb cc 7a b1 bc 82 af 01 bf
       -0.1483385 -0.0053458563 -0.021665 -0.5065843
000190 4a f3 16 3f 99 84 4c bd d2 40 2c 3d d4 cb fc 3d
       0.5896498 -0.049931142 0.042054005 0.12343565
0001a0 00 70 e2 3d 6f fa b6 3d 7d f7 29 3e e3 f7 f5 bd
       0.110565186 0.08934485 0.16598316 -0.12010171
0001b0 78 bc 04 bd 07 7d 26 3d 13 d7 13 3e 21 df 70 be
       -0.0324063 0.04064658 0.14437513 -0.23522617
0001c0 f8 6a b9 3d 91 22 0b 3e a8 15 c3 bd 18 53 36 3e
       0.09053606 0.13587405 -0.09525615 0.17805135
0001d0 af b1 a1 bc cc a5 4f 3e ac ae 66 3d 32 d7 f9 3d
       -0.019738046 0.2027809 0.056318924 0.121992484
0001e0 14 91 8e 3c 1a 8c 9f bd 98 d4 e0 3e e8 b9 a4 bd
       0.017403163 -0.07790394 0.43912196 -0.08043271
0001f0 0a c6 40 3d 54 8c c2 3d 74 4f 8a bc b8 51 49 3e
       0.047063865 0.09499422 -0.01688359 0.1966008

output_layer.bias f4 [2]
000000 3e ba 7e 3d 65 87 bb 3d
       0.062189333 0.09156684
