DQN - CartPole/data/Expert.pt (torch, 37940 bytes, 8 tensors)

input_layer.weight f4 [64, 4]
00000000: a448 01bf d678 9b3e 96ca 153f 5255 c3be
00000010: c0bc 813e 4ea9 09be 525a c83f 1dc1 a63c
00000020: 51fe eb3d ef5b 8cbe b289 593f 4830 d7bd
00000030: 871d 36be a80b 94be 238a a73e 9023 b9bd
00000040: 730e 4c3e 949e be3e 2331 3ebd 8216 c13e
00000050: 6add f93e 5dd6 d9be 24fa f8be 0bff 39be
00000060: c189 14bf 8ae0 873e 9514 acbd 2e12 ee3e
00000070: 8e90 f93e 77a9 0c3e db9c 0d3f 26c4 debd
00000080: 6029 2a3e 6d29 2cbe d71d 11bf 50af 9dbc
00000090: 5869 ddbe 6585 8e3e ad72 46bf 8db0 a8be
000000a0: f122 b1be f6e9 9b3e 2fb3 0140 ead3 fd3e
000000b0: d012 27bf b9ed a33d 4168 6f3f 1f68 3b3f
000000c0: 9354 f2be 3021 0e3f a822 2fbe 04c6 813e
000000d0: 7569 b63e d615 1c3e c261 10bf 8f0e 6fbe
000000e0: a620 613e 3083 b8be 0df7 463f 5044 28be
000000f0: 816d acbd eb75 c5bd 83f6 efbd eea1 973e
00000100: ae80 123d a22d c73e 7f33 91bf a87c 2f3e
00000110: 78d2 593e 9b76 e43d 1920 19be 3671 883e
00000120: d121 5dba b22b 79bd e5f3 e53f c1b8 f13d
00000130: eff1 df3e abaf d83c 0db0 afbf af50 83be
00000140: 059a e0be 0dd4 c6bd e04a 023f d24a 65bc
00000150: 90cf d43e 5bd2 ddbe 1a09 88bd 053d 82be
00000160: 676a 43be bf20 1f3d a484 b8bf 55c2 a0be
00000170: 251a a6bd f606 edbd 5111 83bf 6d32 9ebe
00000180: 38c9 2b3d 4b89 883d 4c71 fabf afab 0ebe
00000190: 1724 263e c516 df3d 98d2 fc3e cd15 823d
000001a0: 9d12 7d3e 8835 82be e2ab f73e 5bb2 a7be
000001b0: 16dd 86bd 5c6d f43e 1650 6a3f 1039 e73e
000001c0: 17f4 fdbd 6816 a63e 7def e0be fc7a 163c
000001d0: dfb3 c93c c38a 61bd 8e3b 443e 8edc c1be
000001e0: 4fff dbbd 715d 393e cef7 31bf d47d a93e
000001f0: 60f3 07bf 435e f13e de62 713f 6824 433e
00000200: f336 07be eb70 893d 6acb bb3e a102 ad3b
00000210: 7879 20bd 8af5 47be a0e4 9d3f 7b9f e1bd
00000220: 0bcd 5c3e b267 a93e 03c2 1a3f 428c 893e
00000230: b1bf 7b3e b90f 0d3e d79d 07bf 19c0 4dbe
00000240: 8192 933e 2936 81bd e70b a43e b46c 563e
00000250: 42f0 04be b84c fcbd 64e8 503f 4193 9ebd
00000260: 70fb 41be 04ce 4d3e 1e8c f53f 7c62 dd3e
00000270: b4b0 de3e a1a8 dfbe b71b ebbe 1a18 96be
00000280: a502 1ebf 2d1e adbd 25e7 ee3d cee7 a33d
00000290: b089 f43e 4f25 593e 2c0a 44be 60ea a83d
000002a0: 5d8b b3be 0541 893e e11c fa3c f629 8ebd
000002b0: 85ce fb3e fcc8 e0be ec90 77bf c15e be3d
000002c0: 37a8 c5be 7082 a03e ee6a b73f bbe4 b13e
000002d0: 1276 db3e ce8a 99be 1bf8 9fbf 795f fabe
000002e0: cb46 58be 54fe 8f3e 6c3c 113f 473c bc3c
000002f0: 95d6 97be 0906 1f3e 1414 d63d f456 c0bc
00000300: 3d01 823e 1a4a 96be 26a0 92bf 7c08 04bf
00000310: 1acf 13bf 214f e33e 7bad d5bd 1085 a43c
00000320: 1c54 973e e21b eebd 190e 7ebf 5486 803e
00000330: 45a6 60be c0d5 d63e 7328 483f b5f1 32bd
00000340: 376b 653e 42fe 25be c09c b43e 6529 3cbe
00000350: a852 313e a8eb 36be 8cdf 363e 5c49 8abe
00000360: b733 623e f0b7 86be 7143 7fbf 62d8 bf3e
00000370: 58d5 2b3d 47b8 9abe 9031 05bd 7a81 66be
00000380: a120 303e baa3 cd3e ddd2 a7bd 79ba af3e
00000390: e2a0 2c3e 7fcf a7be 6bd7 773e 0a9a c2be
000003a0: 52c5 943e 4e6a a9bc d3a0 2bbe 7b30 8fbe
000003b0: c48c 3abe 613b 15be 0145 3cbe e0f8 91be
000003c0: ffa5 04bd 67aa d6be 7ad6 003e 45ea 203e
000003d0: e7a9 1cbd 007c 633d f623 edbb f2dd 3a3e
000003e0: 3d5d aa3e 0b68 3d3d eace 12bf ac3d 733e
000003f0: 791d 123f 01b7 ecbe 2f0a 8bbf 42d0 64bd
-0.50501466 0.30365628 0.58512247 -0.38151032 0.25339317 -0.13443491 1.5652564 0.020355755
0.115231164 -0.2741389 0.8497573 -0.10507256 -0.17784701 -0.28915143 0.32722577 -0.09039986
0.19927387 0.3723036 -0.04643358 0.37712485 0.48801738 -0.4254636 -0.48628342 -0.18163697
-0.58022696 0.26538497 -0.08402363 0.46498245 0.487431 0.1373652 0.5531747 -0.10877256
0.16617346 -0.16812678 -0.56686157 -0.019248635 -0.43244433 0.27836147 -0.7751873 -0.32947198
-0.3459697 0.30451936 2.0265615 0.4957574 -0.6526308 0.080043264 0.93518454 0.7320575
-0.4733015 0.5551939 -0.17103064 0.25346386 0.35627332 0.15242705 -0.56399167 -0.23345397
0.2198511 -0.36037588 0.7772072 -0.16432309 -0.08419324 -0.09641632 -0.1171694 0.2961573
0.03576725 0.38902003 -1.134384 0.17137396 0.21271694 0.11155435 -0.1495365 0.26648873
-0.000843552 -0.060832687 1.7965056 0.11802817 0.43739268 0.026450953 -1.3725601 -0.25647494
-0.43867508 -0.09708414 0.508955 -0.013994889 0.41564608 -0.4332455 -0.06642361 -0.2543718
-0.19083558 0.03884959 -1.4415479 -0.31398264 -0.081104554 -0.11573593 -1.023966 -0.30897847
0.041939944 0.066668116 -1.9565825 -0.1393268 0.16224705 0.10893015 0.4937942 0.063518144
0.24714132 -0.25431466 0.48373324 -0.32753262 -0.065851375 0.47739685 0.9152845 0.45160723
-0.12400072 0.3243897 -0.43932715 0.009184595 0.024621902 -0.055063974 0.19163343 -0.37863582
-0.107420556 0.18102051 -0.69518745 0.33103812 -0.53105736 0.47142228 0.94291484 0.19056857
-0.13204555 0.067109905 0.3667863 0.0052798544 -0.03917834 -0.1952726 1.2335396 -0.110167466
0.21562593 0.33086926 0.6045229 0.2686482 0.24584843 0.13775529 -0.5297522 -0.2009281
0.2882271 -0.06309158 0.3204033 0.20939904 -0.12982276 -0.123193204 0.816046 -0.0774293
-0.18943572 0.2009812 1.9183385 0.432392 0.4349419 -0.4368334 -0.45919582 -0.29315263
-0.61722785 -0.08453021 0.11665181 0.080031976 0.47761297 0.21205638 -0.19144505 0.082478285
-0.35067263 0.26807418 0.030531349 -0.06941597 0.49181 -0.4390334 -0.9670551 0.092954166
-0.386049 0.31349516 1.4329507 0.3474482 0.42863518 -0.29988712 -1.2497591 -0.48900965
-0.21120755 0.28123724 0.5673282 0.022977961 -0.296559 0.15529646 0.10453048 -0.023478962
0.2539157 -0.2935341 -1.1455123 -0.51575446 -0.57737887 0.44396308 -0.104334794 0.02008298
0.29556358 -0.11626412 -0.9924026 0.25102484 -0.21938427 0.41959953 0.7818672 -0.04368754
0.2240418 -0.16210273 0.3527584 -0.18375166 0.17316687 -0.17863333 0.17858714 -0.27009094
0.2209004 -0.26312208 -0.9971228 0.37469774 0.041951507 -0.30218717 -0.03251797 -0.22510329
0.17199947 0.40163976 -0.08194516 0.34321955 0.16858247 -0.32775494 0.24203269 -0.38008147
0.29056793 -0.020680573 -0.16760568 -0.27966675 -0.1821776 -0.14573433 -0.18385698 -0.2851019
-0.03238487 -0.41926882 0.12581816 0.15714367 -0.03824797 0.055538177 -0.007236953 0.18248728
0.3327426 0.0462418 -0.57346976 0.23753995 0.5707622 -0.4623337 -1.0862483 -0.055862673

input_layer.bias f4 [64]
00000000: 6a3c 8abe 97af 46be e73d 8b3e 5688 c73e
00000010: 5ead 2dbf 2147 a13e 13e4 ca3e c644 3fbf
00000020: a4e5 a63e d16d a93b 767b c0be 28ba a9be
00000030: 7f21 bc3b 51e8 22bf 612c 833e 15d4 943e
00000040: 1786 29bf d073 d43e 9d52 77be 7464 a3be
00000050: bd6a 52bf 9f59 9e3e 5a48 a6be 4ea0 01bf
00000060: 962d b6be 8a06 10bf d687 f1be a5f8 c0bd
00000070: 1965 0b3f d0ae 7d3e d2a4 9a3e 68f9 f4bd
00000080: c813 78be f785 923e 7021 ba3e 58e6 bb3e
00000090: 28ec f53e 7132 343e e525 d3be 3676 9d3e
000000a0: 142d 29bf ae96 04bf 9cfb 0d3f ba20 e83d
000000b0: 3779 94be ba51 adbe b4ec 0f3f 97b5 ed3e
000000c0: 257c c3be 29ac 313f e2c6 efbd 1c2d 68be
000000d0: 36d9 86be 3473 e6be 6d1e 97bb 7529 99be
000000e0: be2d e53e 2e00 083f 1152 df3e 82b9 cf3e
000000f0: 87cf 1ebf 45f7 00bf 3d02 053f ef4c 85be
-0.26999217 -0.1940292 0.27195665 0.38971204 -0.6784266 0.3149958 0.39627132 -0.74714315
0.32597077 0.005170562 -0.37594193 -0.33149838 0.0057412977 -0.63635737 0.25619796 0.29068056
-0.6622023 0.41494608 -0.24152608 -0.31912577 -0.8219412 0.3092775 -0.32477075 -0.5063523
-0.35581654 -0.5625998 -0.47173947 -0.09422425 0.5445114 0.24773717 0.30203873 -0.11961633
-0.24226296 0.28617832 0.36353636 0.36699176 0.48031735 0.17597367 -0.4123985 0.3075425
-0.6608441 -0.5179242 0.5546205 0.11334367 -0.2899873 -0.33851415 0.56220555 0.46427605
-0.38180652 0.6940332 -0.11707856 -0.22673458 -0.26337594 -0.45009768 -0.0046117813 -0.29914442
0.4476146 0.53125274 0.436173 0.4057122 -0.6203541 -0.50377303 0.5195654 -0.26035258

hidden_layer_1.weight f4 [64, 64]
00000000: 343b 9ebc 77db 213d d8b2 173e 18a7 1e3d
00000010: 7dd8 9bbe a2c1 3f3d d5f9 2f3e 4059 85be
00000020: 7e13 d53d 0abf e8bb 63ff 473f fb5a 923d
00000030: 3bcd d7bd 94c2 ecbe d2f1 243e 5aa6 193e
00000040: 3e35 42be ac0d 553d cb5e 153f dcbf 7fbe
00000050: 93b4 2bbf 2c18 443e 0b9a 81be 9a3b b5be
00000060: 94fe a8bf acd0 e4be 2715 76bc 99d1 453d
00000070: fe5c 0f3c 9269 473c 7eb4 533e 7d92 b53d
00000080: 89d7 d43c f633 613e 5456 1e3d 2b8a a23d
00000090: 574d ab3d 922f 5b3d 8eeb 013f 43b9 1b3e
000000a0: 3ed2 f5bd 838a 0bbe f4b8 aa3d 52b0 093c
000000b0: 6fa7 133e 2ae0 b4be 61ad 223e a92a b83d
000000c0: bfed c1be a46d 123e 8791 273d 896d ebbd
000000d0: dbc9 98bd f0da 66bd b175 c53c b2ad ffbd
000000e0: c95a 403d e744 863e 4c84 d33d 4126 483d
000000f0: caec 10bd f0bc 4ebc 58b7 11bc ab09 453d
00000100: 214b 1b3d 7979 46be 18c8 b63c dc52 353e
00000110: 3b93 3ebe 01aa 1dbd 85d2 493e eee7 0dbe
00000120: af27 313e 0abf 863d 9e27 58bf 9898 46bd
00000130: 0298 bd3d ac0f 0ebe ae6f 3b3e 3913 abbc
00000140: 302d 3fbe 9f27 b73d 9156 88bf 74c5 8a3d
00000150: ec82 67bf cb26 233d ee8f 35be d372 0abf
00000160: 0975 d3be f28f 5cbf 901d d0bb 7121 04be
00000170: 5384 6a3d 31bf 6b3d 583a 543e 32dc b63d
00000180: c68e a9bd 39d2 023e d0b6 53bb b8ef 923d
00000190: 1bae 34bd aec7 79bc 26f9 54bf 4269 fc3c
000001a0: 099f 86be 3736 2dbd b36b 2d3e 8fd6 e63d
000001b0: 22ca c6bf 6c6c 043e ab97 4d3e c2a2 0b3e
000001c0: 0937 a83d fd7e 943d 227e d93c d9ab d53c
000001d0: bee1 803d 9499 0f3d 28f2 e3bd 480e b0bc
000001e0: d34b 243e b5b8 943d ae46 eb3d 7a09 813d
000001f0: 77b2 a2bd 6d93 e5bc fd24 7c3b c824 8dbe
00000200: 234c 7f3d d08c 303a e358 b4bc 93af e8bd
00000210: 6098 dbbb 1ee4 b33c ca44 e73d 2139 b1bd
00000220: 9d11 513d e55e e83c a899 05bd 5c14 2ebd
00000230: 31b5 943d cbb8 08bd 632f 4b3d ba90 04be
00000240: 0b14 353a 6491 343d 9aef d83d 0fb4 b03d
00000250: a036 efbc b23e c1bd c266 f7bd c445 a5bd
00000260: 5b04 93bc 2803 67bd 4037 c53d aaec e7bd
00000270: 7694 50bd 9d62 d2bd 508b ecbd 6e2f ebbd
00000280: 20a7 fa3c 0816 f5bd a3fd 5abc 0c53 57bc
00000290: 429d c83d a244 7c3d 48ad be3d f870 27bd
000002a0: 0628 afbd aea7 c73d e40d a2bb 61d1 f23b
000002b0: c8b7 f53d 631e 24bd 74f3 c2bd ebb2 513c
000002c0: 9bb6 fcbd 88d1 323d f57a 5bbd 1263 d03d
000002d0: 4c2b ad3d 0849 383d f43c e5bd 5083 0cbc
000002e0: 63aa d1bd 94f6 10bd 1b96 cd3d bd57 dd3d
000002f0: c036 a8bb 7002 c93d aca7 a13d 50e1 5ebc
00000300: 201c 613d 88fd f73b c690 b8bd 83e1 b0bd
00000310: a809 eebc cc91 23bd 1f73 fd3c 303c 90bc
00000320: bf99 9b3d 004c 8dbc 8499 8dbd 1401 d0bd
00000330: e0b0 eabb f0d2 623c 5416 953c 518a ef3c
00000340: 800a d8ba 85c7 91bd 015f edbc de1f ddbd
00000350: e310 e33d d838 a7bd 40bb e6bc c25a ed3d
00000360: 606b efbb ba58 6d3c 7c2d ebbd d904 e73c
00000370: 4c2a 533d 8898 81bc 6ba0 a73d 1203 a43d
00000380: 2615 89bd 1ca8 fbbd 31c7 473d 2804 c0bc
00000390: af36 fbbd 3d92 193d 54a5 c2bd 060f 9ebd
000003a0: 1483 4d3d c8bf cf3d 6e73 95bd a15c fcbb
000003b0: 18c7 4b3d 9c7a 06bd dc06 e4bd 49cb b73d
000003c0: 2028 963b 406f e8bc 6dda cc3d 706d b83c
000003d0: 80f9 ff3c 900e 88bc 3698 00be c0b7 4abd
000003e0: 2376 50bd 65a6 a43d 37d0 06be 5ebf babd
000003f0: 57b2 df3d bade 913d 131e 483d 90f2 bcbc
-0.01931534 0.03951594 0.14814317 0.03873357 -0.30438605 0.046815522 0.17185147 -0.26044655
0.104041085 -0.0071028518 0.78124064 0.071462594 -0.105371915 -0.462422 0.16107872 0.15004864
-0.18965623 0.05201499 0.5834777 -0.24975532 -0.6707241 0.19149846 -0.25312838 -0.35397035
-1.3202691 -0.44690454 -0.015019692 0.04829559 0.008750198 0.012171166 0.20674321 0.08865831
0.025981681 0.21992478 0.038656548 0.0793651 0.08364361 0.053512163 0.5075005 0.1520739
-0.12002991 -0.13627057 0.08336058 0.008403854 0.1441934 -0.35327274 0.15886451 0.08992512
-0.37876698 0.14299637 0.04091027 -0.114955015 -0.07460376 -0.05636114 0.024103971 -0.124843016
0.04696158 0.26224443 0.10327968 0.048864607 -0.03538207 -0.012618288 -0.00889381 0.048104923
0.037913445 -0.19382276 0.022312209 0.1770739 -0.18610851 -0.038492206 0.19709213 -0.13858005
0.17300294 0.065794066 -0.8443545 -0.04848537 0.09257509 -0.13873166 0.18304321 -0.02088319
-0.18669581 0.08943104 -1.0651418 0.067759424 -0.90434146 0.039831918 -0.17730686 -0.5408146
-0.41300228 -0.86157143 -0.0063511804 -0.12903382 0.0572551 0.05755538 0.20725381 0.08928718
-0.08279185 0.12775506 -0.003230501 0.07174629 -0.044111352 -0.015245361 -0.8319267 0.03081191
-0.2629321 -0.04228803 0.16935615 0.112713926 -1.5530436 0.12931985 0.20077388 0.13636306
0.08213622 0.072507836 0.026549403 0.02608292 0.06293057 0.035058573 -0.11130172 -0.021491185
0.1604455 0.072617926 0.114880905 0.06300636 -0.07944196 -0.0280244 0.0038474195 -0.27567124
0.06232847 0.000673485 -0.02201504 -0.11361613 -0.006701514 0.02195936 0.11292417 -0.086534746
0.051042188 0.028365562 -0.03261724 -0.042499885 0.07261122 -0.033379357 0.04960574 -0.12945834
0.00069075887 0.044083968 0.10592575 0.086280935 -0.029200852 -0.09435786 -0.12080146 -0.08069947
-0.017946413 -0.056399494 0.09629679 -0.11324437 -0.050922833 -0.10272715 -0.11550009 -0.11483656
0.03059727 -0.11967093 -0.013366136 -0.0131423585 0.097956195 0.06158889 0.093103945 -0.04087922
-0.08552556 0.09748779 -0.0049455035 0.007410214 0.11997944 -0.04006804 -0.09519091 0.012799005
-0.12339517 0.043656856 -0.053584058 0.10175146 0.08455524 0.044991523 -0.111932665 -0.008576229
-0.10237577 -0.035391405 0.10038396 0.108077504 -0.00513348 0.09814918 0.07893309 -0.013603523
0.054958463 0.007568065 -0.09011988 -0.08636763 -0.029057339 -0.039933965 0.030938683 -0.017606825
0.07597684 -0.017248154 -0.069140464 -0.10156456 -0.0071621984 0.013844237 0.018199123 0.02924076
-0.0016482621 -0.071181335 -0.028975965 -0.10797094 0.11087205 -0.08165139 -0.02816546 0.11589576
-0.0073065013 0.014486486 -0.11483285 0.028200554 0.05155401 -0.015819803 0.08184894 0.08008398
-0.06693487 -0.12287924 0.048773948 -0.023439482 -0.122662894 0.03749298 -0.0950419 -0.07717709
0.050173834 0.10144001 -0.07297407 -0.007701472 0.049750417 -0.032831773 -0.11134121 0.089743204
0.00458242 -0.02837336 0.10002599 0.022513121 0.0312469 -0.016608506 -0.12558064 -0.049491644
-0.050893914 0.0803955 -0.13165365 -0.09118532 0.109226875 0.0712256 0.048856806 -0.023064882

hidden_layer_1.bias f4 [64]
00000000: f9fa 8a3e 9287 863e 559a 95bd 9a2c 213c
00000010: f4f1 eb3d 5035 c3bd 5d4b 693d bb77 963e
00000020: c78d 4c3e 829e 8a3e c51b 803d cd3b cfbd
00000030: 3c8e abbd 5712 673e 4286 873d 4972 3b3e
00000040: cd00 9f3e 3554 2f3e 457e 11be 16fd 01bd
00000050: 56b4 bdbd 96bd 48be c6a0 cb3d f3ec 823b
00000060: 8267 5d3d 6009 ae3d a66b e4bd dd0f 233e
00000070: c0c5 b4bd 368b aa3d 176f fc3d 78f9 16be
00000080: 7f46 213d 94d4 d63d f667 003e 5e90 fbbc
00000090: 7b04 243e 62fa bd3d 3604 653e 3dee eb3d
000000a0: e8f2 c93d 4939 403c 4240 b7bd 0c2c 7c3d
000000b0: f000 773e ad8e a7bd ecb9 e4bd b001 243e
000000c0: 45ec a53e 3d97 40bc 03c7 5e3e 103a 953d
000000d0: b205 5a3e 5a93 b9bd 85cc e33d a65f f23d
000000e0: 3a21 f93d e822 3ebe d4bb 07be 7f3a 523e
000000f0: 9bb3 f63d 5d9b 523e 1b68 983e 0b02 51be
0.27144602 0.26275307 -0.07304827 0.009837294 0.11520758 -0.09531653 0.056956638 0.29388222
0.19975959 0.27074057 0.062552966 -0.10118828 -0.083767384 0.2256559 0.066174045 0.18305315
0.31055298 0.17121966 -0.14208324 -0.031735502 -0.09262912 -0.19603571 0.099427745 0.0039955317
0.05405379 0.08497882 -0.11153345 0.1592402 -0.0882678 0.08327334 0.12325876 -0.14743602
0.03937387 0.10489765 0.12539658 -0.030708488 0.16017334 0.09276272 0.22364888 0.1152005
0.09860784 0.011732408 -0.08947803 0.061565444 0.24121451 -0.0818151 -0.11168274 0.16016269
0.32406822 -0.011754808 0.21755604 0.07286465 0.21291235 -0.09061308 0.111229934 0.1183465
0.121645406 -0.18568003 -0.13255244 0.20530127 0.12045976 0.20567079 0.29766926 -0.20410936

hidden_layer_2.weight f4 [64, 64]
00000000: 243c 59bd 0c49 aa3d 6c13 e6bd 1e18 c6bd
00000010: 4803 89bd 008d 853d f8a4 f23d da90 b4bd
00000020: 44f5 d23c 301d c6bc 8646 a33d c0bd 24bb
00000030: 0082 7c3b b6fe 00be 5085 7abd 7f8d babd
00000040: d05d 6abd 4421 223d d040 70bd 78cb 5a3d
00000050: 709b eb3d 709c 883c 44ce e7bd 44d6 913d
00000060: 2863 ea3d 450f 2dbc 0ca5 943d 748f 53bd
00000070: 107e 2a3d afbf 163d 241b 36bd 181f e63c
00000080: 20ee 523d e056 b23d 9f54 09be d054 a7bd
00000090: 0500 cdbd 64cb 583d 2e9b e33d 2a00 acbd
000000a0: c204 8b3d 0071 873b 483d e5bd 68f5 02be
000000b0: d670 a9bd 72c2 c43d 8469 593d c0a8 58bb
000000c0: b82e f23c 948e 98bd 0a22 ca3d b492 303d
000000d0: 5c50 eebd 6886 efbc 059a 98bc 1b90 f63b
000000e0: 1897 e0bc f20b d9bd b081 1c3d b50f bcbd
000000f0: e505 b5bd 54aa d53c 09ed bb3d 1e89 1dbc
00000100: 6a4e 4cbd 19c7 05bd fe4d 833c 9e67 b73d
00000110: 5266 723c 562c d5bd bca3 8bbd df54 0cbe
00000120: b410 a33d fd36 d93d 757d a6bd a4f4 2abd
00000130: 10cd 57bc 9d6b a63d f4b2 e43d 04c7 45bd
00000140: ddf5 aabd 8fc9 d83d bca7 4e3d 7cf7 3d3d
00000150: 8044 e4bd 2c4b f2bd c675 bebd b841 d53d
00000160: c058 b3bc 90df b3bd 3c37 b73d 71e1 3abd
00000170: 34d2 d8bd c06a c2bb f2d6 04be ce57 8e3d
00000180: 83b1 cebb 1dbc 80bd e6ff 863d bea5 7a3d
00000190: 185b 0fbc ee51 76bd 743b 76bd 2035 38bd
000001a0: 3ab9 c63d 05eb 4ebc a0a0 0fbc 2d6c 75bd
000001b0: 19b9 ffbd b617 a4bd 7044 fcbd e0a3 b3bd
000001c0: 3516 95bd b10d 9f3d ab01 0abe d59c 69bd
000001d0: a124 bdbd 505d 9bbc 7c3d 5cbd 851a 14bd
000001e0: 672d a93c df22 523b e043 d53b d875 eebd
000001f0: 6290 85bd 9697 b73d b259 70bd 70b7 db3c
00000200: cbe4 74bc 200e 65bd c567 c53d 3ef0 8dbd
00000210: 8155 a63d c610 d03d d8b9 553d 5167 efbd
00000220: 5935 163d 27a5 4abc d2ee cd3c a8b9 1a3d
00000230: 48fd fb3d b07d 06be a811 b33d d593 be3d
00000240: aca0 5d3d e5e6 093d c20a cc3d 6c6b 4f3d
00000250: 30f4 ad3d eecf c83d 56e2 913d c070 f73b
00000260: cc19 1fbd c09a ae3d 54e8 7b3d 738d b93d
00000270: c049 28bb 0217 6b3d 99dd e1bc 5049 60bd
00000280: 03fa c73d 8d97 02b9 4e83 783d 7233 8fbd
00000290: 94db 01be 4e28 84bd ab99 da3c 4904 b1bc
000002a0: 36af bb3d 34b8 dbbd 907b 9fbd e856 8cbd
000002b0: 6149 683d 70e7 143c 6c20 453d e931 9a3c
000002c0: 8ab1 d23d 7024 ad3d 4403 053d f3b7 9b3b
000002d0: ff38 19be 0289 e13d cb5d 93bd 7d96 463d
000002e0: 5f10 adbd d767 ae3d 70b4 3c3c 699a 34bd
000002f0: e434 b5bd db20 883d bbf5 7fbd 101a 98bc
00000300: d5c7 a0bd a09d 723c 5abf 8ebd c40c d43d
00000310: 586d 17bd 34f2 113d 02ac b43d 1889 e53c
00000320: cee6 b53c 8e56 3e3d c6a3 c03d a6a2 e2bd
00000330: 1430 56bd 862e 3bbd 1ef3 bb3d e405 bbbd
00000340: b418 b1bd 483f f3bc 445f 823d f023 c43c
00000350: 2878 bfbc 7379 033d 3ae7 873d 9626 8cbd
00000360: fe5d b73d 08ca f2bc 382c ab3d 8ce9 babd
00000370: f892 f23d 90c3 1cbd 982f ccbd f0f4 2bbc
00000380: 36f5 92bd d4c0 17bd 4081 073b e000 fabd
00000390: f291 09be 70b7 0d3c 383f 3fbd 51ba 19bd
000003a0: 3c4c 77bd 1ea9 823c 7099 0b3c 94d0 8ebd
000003b0: 62ba e3bd 245b 543d 0448 60bd b4fe 77bd
000003c0: 15a6 a03d 2c25 613d 3adb 9c3d 6c48 ad3d
000003d0: d827 a2bc 809c 19bc 8086 94bb a0a5 3e3d
000003e0: 3de5 94bc 2259 d6bd c896 18bd 9854 aabd
000003f0: f270 eb3d fa5c b0bd 6ea2 03be 971d 83bd
-0.05303587 0.08314714 -0.11234173 -0.09672569 -0.06690079 0.06521034 0.118478715 -0.08816691
0.025751717 -0.02418384 0.07972436 -0.0025137514 0.0038529634 -0.12597165 -0.061162293 -0.091090195
-0.057218373 0.039582506 -0.05865556 0.0534167 0.11504257 0.016676158 -0.11318639 0.07120946
0.11444694 -0.010562723 0.07258043 -0.05165048 0.04162413 0.036803897 -0.044459477 0.028090999
0.051496625 0.08707976 -0.13411187 -0.081704736 -0.10009769 0.052928343 0.111135826 -0.08398469
0.06788017 0.0041333437 -0.11193329 -0.12788928 -0.08273475 0.096074 0.053079143 -0.0033059567
0.029563293 -0.074490696 0.09869774 0.043108657 -0.11636421 -0.029238895 -0.01862813 0.007524503
-0.027415797 -0.105979815 0.038209617 -0.091826834 -0.08839015 0.026082195 0.0917607 -0.009615211
-0.04987947 -0.032660577 0.0160284 0.0895531 0.014794903 -0.10408847 -0.06818339 -0.13704251
0.0796217 0.10606191 -0.08129398 -0.041737214 -0.013171449 0.08125994 0.11166945 -0.0482855
-0.08347676 0.10585319 0.050452933 0.046378598 -0.11145878 -0.11830744 -0.09299807 0.104129255
-0.021892905 -0.087828755 0.08946082 -0.045625154 -0.10586968 -0.0059331357 -0.1297262 0.06950341
-0.006307782 -0.0628588 0.065917775 0.06119322 -0.008749746 -0.060136728 -0.060115293 -0.04497254
0.09703298 -0.012629275 -0.008766323 -0.059917618 -0.124864765 -0.08012335 -0.12317741 -0.08771491
-0.07279626 0.07766283 -0.13477199 -0.057034332 -0.09235502 -0.018965393 -0.053769574 -0.036158103
0.020651532 0.0032064242 0.0065083355 -0.11643571 -0.065216795 0.089644596 -0.05867929 0.026820868
-0.014947127 -0.055921674 0.09638933 -0.06930588 0.08121777 0.10159449 0.052179188 -0.11689628
0.03667197 -0.012368477 0.025138292 0.03777471 0.12304169 -0.13133883 0.08743602 0.093055405
0.054108307 0.033667464 0.099629894 0.050639555 0.08493841 0.098052844 0.07123248 0.0075512826
-0.03884296 0.0852561 0.061500862 0.090601824 -0.0025678724 0.05739499 -0.027571486 -0.054757416
0.09764483 -0.00012454223 0.060672097 -0.06992234 -0.12681419 -0.06453 0.026684603 -0.021608489
0.09164278 -0.10728493 -0.077872396 -0.068525136 0.056710605 0.009088382 0.048126623 0.018822627
0.10287769 0.084542155 0.032473817 0.004752153 -0.14963149 0.1101246 -0.07195624 0.04848336
-0.08450388 0.085159 0.011517629 -0.04409257 -0.08847979 0.06646892 -0.062490206 -0.018567115
-0.07850615 0.014808089 -0.06970091 0.10353997 -0.036969513 0.035631374 0.088218704 0.028019473
0.022204783 0.046469264 0.09406237 -0.11066179 -0.052291945 -0.045698665 0.0917723 -0.09131983
-0.0864729 -0.02969326 0.06365827 0.023942918 -0.023372725 0.032098245 0.066359 -0.06843297
0.089534745 -0.029637352 0.083580434 -0.09126577 0.11844438 -0.03827244 -0.09970015 -0.010495409
-0.071756765 -0.03704913 0.0020676404 -0.12207198 -0.1343458 0.008649692 -0.04669115 -0.0375312
-0.060375437 0.015949782 0.008520469 -0.06973377 -0.11119534 0.05184473 -0.05475618 -0.06054564
0.07844178 0.05496709 0.07659002 0.08461079 -0.01979439 -0.009375691 -0.004532635 0.04654467
-0.018175716 -0.104662195 -0.03725317 -0.08316916 0.11496152 -0.08611484 -0.12854931 -0.06402128

hidden_layer_2.bias f4 [64]
00000000: b02a 81bd 528a 873d 683b 05bd b7b9 20bd
00000010: 7459 f7bd 550b a83e 7a66 9d3d b7ea da3d
00000020: d245 09be de53 af3d 0711 e5bd 2204 e9bb
00000030: 272f af3d 0eae b53e 443f 0dbe 0070 1a38
00000040: 1471 993e 9b44 663e 8090 413e 7a58 9d3d
00000050: 499d b03b 2cb6 0a3d 0a33 b23e 5342 c4bd
00000060: 73f2 19be 8d14 e43c 8585 273e f107 cfbd
00000070: dd4d 1f3e 80aa b3bb 4a9b 333e 9242 6e3e
00000080: a2a5 ac3e 7f21 8d3e 1ac4 383e b370 aebb
00000090: 1c98 dabd ebfa 7c3e 4399 91bd 2e91 6e3d
000000a0: a8d0 52bc 803a 193c 253f 603e b8c2 7e3e
000000b0: 607f 633e 5c3c 883e bbe2 a73d cd93 253e
000000c0: c111 cbbd ebf6 4d3e 4a5f 663e 99a3 283e
000000d0: 5252 193e e963 db3d 3d67 cebc d354 4f3e
000000e0: b463 2abd 1fa9 97bd b46e 9c3d 895c 2e3e
000000f0: 407b 98bb bf1a 973e eaf1 32bd 8198 8f3d
-0.0630697 0.066181794 -0.032527357 -0.03923961 -0.12077609 0.32821146 0.076855615 0.106892996
-0.1340554 0.08560918 -0.11184888 -0.0071110884 0.085539155 0.35484356 -0.13793665 3.682077e-05
0.29969084 0.22487108 0.18902779 0.07682891 0.0053898436 0.03386514 0.34804565 -0.09582963
-0.15033893 0.02784183 0.16359527 -0.101089366 0.15557046 -0.0054829717 0.17539707 0.23267582
0.33720118 0.27564618 0.18043557 -0.0053234934 -0.10673544 0.24705093 -0.071093105 0.058243923
-0.01286713 0.009352326 0.21899088 0.24878967 0.22216558 0.2660855 0.08197542 0.16169663
-0.09915496 0.20113723 0.22497287 0.16468658 0.14972809 0.10712416 -0.025195712 0.20247202
-0.04159899 -0.07405304 0.076383024 0.17027487 -0.0046533644 0.29512593 -0.04368774 0.0701151

output_layer.weight f4 [2, 64]
00000000: 3cf4 043d f40d 813d f393 c23d 7207 9bbc
00000010: 120b 67bd d3f0 353e cf7a b2bc 1863 0bbf
00000020: 10cc 3ebd 59dd 05bd 38be f9bd 1b27 86bd
00000030: 6c99 8cbd 00ae f43d e8ea 043d a837 c6bd
00000040: 0e14 303e ae79 453e 606e 7b3d b611 e4bf
00000050: 441d 2ebd f9f0 5cbf 6cab 713e 20a0 b2bc
00000060: bf59 703d 57c9 dbbc 58a8 7d3e 5593 0abd
00000070: 0834 843e d4b1 093d 3a05 993d 16c9 733d
00000080: 56aa 1f3e ab1b 613e abab 61bb fd56 0b3e
00000090: c4d9 13bd 77c2 303e ba63 61bd 46c9 d4bd
000000a0: aeb9 4abd 35fc bb3c 14d4 b7bf 9953 473e
000000b0: 2b4e 36be 41c8 dfbc 361c b0bd 5651 403e
000000c0: 5d0f b5bd ddc6 893e 7218 463d 7e90 993f
000000d0: de6e 39be 863a db3e 33d9 c8bd 7f57 bb3e
000000e0: 108e 8f3d ccda c8bd 9bb5 abbc c83a 7b3e
000000f0: c4ca 74bd 464a 783d 32f0 d5bb f843 a3bd
00000100: f4cc a53c 7368 ddbd c950 c5bd a8ca 043d
00000110: 1e49 8fbd 8752 773e 4855 aebc 4697 e43e
00000120: 7ad4 b339 48c1 9bbd ce15 cb3c 8877 66bc
00000130: c681 5d3c dc6d 223e b048 73bd 028b 8f3d
00000140: bbe3 f53d 3e4b 2d3e f6d0 583e e63b 033e
00000150: edb4 0d3b ccfa a23f 9b90 473e 9efe 90bd
00000160: b4ee c0bd 4bed 19bc 5d1e 553e 0861 a7bd
00000170: e227 fd3d 00b3 473d a2b9 443e 61ed 4f3e
00000180: cdc1 0d3e 1b07 633e 1635 7e3e 4dcc acbd
00000190: 40b4 763b fdab 593e 10e4 6a3c 4a58 61bc
000001a0: 12f3 8dbc 1ab3 51bd 6baf e6bf 8ef9 5b3e
000001b0: 0838 253f 35a2 6f3e f912 703d 4f26 693e
000001c0: 1a95 80bd 59b6 103e d621 873e 5e9a 42bf
000001d0: 705a e8bf cc11 28be 0b24 4ebc de84 b03d
000001e0: 7fe1 c3bd b0ea c0bd 7bb9 a6bd ff60 603e
000001f0: 647c 553d a160 873e 6649 a3bd 1a17 73bd
0.032459483 0.063014895 0.09500875 -0.018924449 -0.05640704 0.17767648 -0.021787075 -0.5444808
-0.046581328 -0.032681797 -0.121944845 -0.065504275 -0.068652004 0.1194725 0.032450587 -0.09678584
0.1719515 0.19284698 0.06138456 -1.7817905 -0.04250838 -0.86305195 0.23600549 -0.02180487
0.05867934 -0.026829405 0.2477125 -0.033831913 0.25820947 0.033616856 0.074717 0.059517942
0.15592322 0.2198321 -0.0034434597 0.13607402 -0.03609635 0.17261682 -0.055026747 -0.10389952
-0.049493484 0.02294741 -1.4361596 0.19465484 -0.17803256 -0.027317168 -0.08599131 0.18781027
-0.08840821 0.26909533 0.048363157 1.199722 -0.18108699 0.42818087 -0.098070525 0.36590192
0.07009518 -0.09807357 -0.02096062 0.24534142 -0.059763685 0.060617708 -0.0065288777 -0.079719484
0.02023933 -0.10810938 -0.09634549 0.03241983 -0.06996368 0.24152575 -0.0212809 0.44646662
0.00034299848 -0.07605225 0.02479067 -0.014066584 0.01351971 0.1586222 -0.059395492 0.070089355
0.12006327 0.16923234 0.21173462 0.12815818 0.0021622733 1.2732787 0.19488756 -0.070798144
-0.09420529 -0.009394954 0.20812364 -0.08172804 0.12361123 0.048754692 0.19211438 0.20305397
0.1384346 0.2217068 0.24824938 -0.08437405 0.0037644058 0.21257015 0.014336601 -0.01375396
-0.017327819 -0.051196195 -1.8022283 0.21481916 0.6453862 0.23401721 0.058611844 0.2276852
-0.06278439 0.1413206 0.26393002 -0.76016796 -1.8152599 -0.16413039 -0.0125818355 0.086190924
-0.09564494 -0.09419763 -0.08140846 0.21912001 0.05212058 0.2644091 -0.07972984 -0.059348203

output_layer.bias f4 [2]
00000000: c98a 333e 08cb 3e3e
0.17533411 0.18632138
