DQN - CartPole/data/Expert.pt (torch, 37940 bytes, 8 tensors)

input_layer.weight f4 [64, 4]
0	0x3f3f92e0	0.7483349
1	0x3f24ed20	0.64424324
2	0x3fca9b67	1.5828675
3	0x3ef77315	0.48329988
4	0xbe7350db	-0.23761313
5	0xbf2c4adb	-0.6730172
6	0xbf3b2f99	-0.73119503
7	0xbecb6112	-0.39722496
8	0x3f022591	0.5083857
9	0xbe0d5e5f	-0.13805531
10	0xbf847038	-1.0346746
11	0xbea2c368	-0.31789708
12	0xbeb1ec1a	-0.34750444
13	0xbef3c79e	-0.47613233
14	0x3e90e78a	0.2830165
15	0xbd745b23	-0.059657227
16	0x3f9ff7e0	1.249752
17	0x3f2a0083	0.6640703
18	0x40246517	2.56867
19	0x3f051dc8	0.5199857
20	0x3f72d9b8	0.9486346
21	0x3e869cec	0.26291597
22	0x3f322954	0.6959431
23	0x3e8ead10	0.2786641
24	0x3e88879e	0.26665968
25	0xbe8ec8b6	-0.27887505
26	0x3f1fb152	0.62379944
27	0x3e0bbce3	0.13646273
28	0xbe935d82	-0.28782278
29	0x3ea02325	0.31276813
30	0xbf122f2e	-0.5710324
31	0xbda1bf0b	-0.07897767
32	0xbd2053d0	-0.03914243
33	0xbf1e601d	-0.6186541
34	0xbf16d0fb	-0.5891263
35	0xbe943c8b	-0.2895244
36	0x3e126871	0.14297654
37	0x3f13f066	0.57788694
38	0x4024e284	2.5763254
39	0x3f1e6fc9	0.6188932
40	0xbf027d3f	-0.5097236
41	0xbedbe5b4	-0.42948687
42	0xbf27b050	-0.65503407
43	0xbeaa801e	-0.3330087
44	0x3ed9014c	0.42383802
45	0xbe1ad1fc	-0.15119165
46	0xc00bac53	-2.1823928
47	0xbf276b8f	-0.65398496
48	0xbe966ea3	-0.29381284
49	0x3e94746b	0.2899507
50	0x3d554fe2	0.052078135
51	0x3e9b5c8d	0.30344048
52	0xbdcd49f1	-0.10023869
53	0x3e03a824	0.1285711
54	0x3f03c8da	0.5147835
55	0x3e0dadd4	0.13835841
56	0xbda06d32	-0.07833327
57	0xbef91a6e	-0.48652977
58	0xbe79c292	-0.24390629
59	0xbea041a9	-0.31300095
60	0xbf1d2dbe	-0.6139792
61	0x3e49dc9b	0.1971306
62	0x3f57c8dd	0.8429087
63	0x3effcc5b	0.49960598
64	0x3f086e00	0.53292847
65	0x3eb01c29	0.34396484
66	0x3fa6fca9	1.3045856
67	0x3ebd04b8	0.36917663
68	0x3effc331	0.49953607
69	0x3e8568d3	0.26056537
70	0x3f85dd70	1.0458202
71	0x3e515e40	0.2044611
72	0xbcfcc46f	-0.030855386
73	0x3d63d006	0.05561831
74	0xbf9c05d3	-1.2189277
75	0xbe3f32b7	-0.1867169
76	0xbee94da7	-0.45567057
77	0xbeebbaeb	-0.46041045
78	0x3fa20786	1.2658546
79	0x3e273263	0.16327815
80	0xbf192c59	-0.59833294
81	0xbedffbf7	-0.4374692
82	0x3f652a21	0.8951741
83	0xbb614517	-0.0034373456
84	0xbf0c25b2	-0.5474502
85	0x3cd86c6d	0.026418889
86	0x3ee4821b	0.44630513
87	0x3da0bbf5	0.0784835
88	0xbef77399	-0.48330382
89	0x3d9b48fb	0.07582279
90	0xbffbcbc2	-1.9671557
91	0xbef6e51f	-0.4822168
92	0xbe80c346	-0.25148982
93	0xbebc0b42	-0.3672734
94	0xbfd1a6ae	-1.6378992
95	0xbee50e44	-0.44737446
96	0x3f69ba57	0.9129996
97	0x3e262fa6	0.16229114
98	0xbf5987a8	-0.8497262
99	0xbe2c746b	-0.16841285
100	0xbe97b09f	-0.2962694
101	0xbedb62d4	-0.42848837
102	0xbf8c64dc	-1.096828
103	0xbedffc85	-0.43747345
104	0x3b987a69	0.0046532643
105	0xbe9dce6b	-0.30821547
106	0x3ff0c976	1.8811481
107	0x3dc7265a	0.09724112
108	0x3e731146	0.23737058
109	0x3d905c5e	0.07048868
110	0x3f49de97	0.7885527
111	0xbc7e37a1	-0.015516193
112	0x3e49a3f4	0.1969145
113	0xbe040d40	-0.1289568
114	0x3e8a8799	0.27056578
115	0xbe287004	-0.1644898
116	0xbf18d0b3	-0.5969345
117	0x3e499f40	0.19689655
118	0x3fa9505d	1.322765
119	0x3ea192c9	0.315573
120	0xbe83aa3d	-0.2571582
121	0x3dc51367	0.09622841
122	0x3ee0b811	0.43890432
123	0xbd056a07	-0.03257182
124	0xbea5130e	-0.322411
125	0x3e14a7dd	0.1451716
126	0x3f857bd8	1.0428419
127	0x3e7c0521	0.24611332
128	0xbf4d0a5a	-0.8009392
129	0x3ef66899	0.48126677
130	0x3f47514c	0.77858424
131	0x3ec2d6cc	0.38054502
132	0xbea9a155	-0.331309
133	0xbf107af5	-0.5643762
134	0xbe8cc9e8	-0.27497792
135	0xbea2921f	-0.31752107
136	0x3f0b1ace	0.54337776
137	0x3ef97576	0.48722428
138	0xbe2dbf9e	-0.16967627
139	0x3e4315d8	0.19051301
140	0xbeeb2f4c	-0.45934522
141	0xbf0ee7a7	-0.55822223
142	0xbf5a6816	-0.8531507
143	0xbe84d5bb	-0.25944313
144	0x3ccb763f	0.024836658
145	0x3ec64fd7	0.38732788
146	0x3ffb417d	1.962936
147	0x3effbe0f	0.4994969
148	0x3daabf57	0.083372764
149	0xbd9a231f	-0.0752623
150	0xbf15e073	-0.5854561
151	0x3ea4accb	0.3216308
152	0xbf020460	-0.50787926
153	0xbf1fcaf8	-0.6241908
154	0xbf6defd0	-0.9294405
155	0xbf00904f	-0.502202
156	0x3e0bc11b	0.13647883
157	0xbceb37a2	-0.028713051
158	0x3e2a704e	0.16644403
159	0x3e65a434	0.2242592
160	0x3f28b9ce	0.65908515
161	0x3d29296f	0.04129928
162	0xbfa9c290	-1.3262501
163	0xbdae199d	-0.08500979
164	0x3d8a1d04	0.067438155
165	0x3f065708	0.5247655
166	0x3f1083e2	0.5645124
167	0x3eab3d1d	0.33445063
168	0x3e484330	0.1955688
169	0xbecbccb4	-0.39804614
170	0xbf0f1e40	-0.5590553
171	0xbdcb813e	-0.0993676
172	0x3e93bed1	0.2885652
173	0x3ef77757	0.48333237
174	0x3f1b9e04	0.6078799
175	0x3ead73bb	0.33877358
176	0x3dcae981	0.099078186
177	0xbe062e1b	-0.13103525
178	0xc0014639	-2.019911
179	0xbed4b981	-0.41547778
180	0x3e05150c	0.1299631
181	0xbe55300a	-0.20819107
182	0xbf5bb5de	-0.8582438
183	0xbefe42a7	-0.49660227
184	0xbe78cf55	-0.24297841
185	0xbf2330b4	-0.6374619
186	0xc01206d2	-2.2816663
187	0xbf202cee	-0.6256856
188	0xbeeb0376	-0.45901078
189	0x3de9de69	0.114193745
190	0x3f0b8f9b	0.54516
191	0x3e2cc50b	0.16872041
192	0xbd32f1a6	-0.043687485
193	0xbf2642fe	-0.6494597
194	0xbed2d4d2	-0.41177994
195	0xbec08c26	-0.37606925
196	0xbdc1ac88	-0.09456736
197	0xbf2b41f3	-0.66897506
198	0xc016926d	-2.3526871
199	0xbf3a42ec	-0.72758365
200	0xbda11a2a	-0.078663185
201	0xbeae0eda	-0.33995706
202	0x3fa74135	1.3066775
203	0x3e43b4d9	0.19111957
204	0x3f84fa81	1.0388948
205	0x3eceec32	0.40414578
206	0x3fbb66a3	1.4640697
207	0x3e8e2b51	0.27767423
208	0xbe20e65d	-0.15712877
209	0x3eb70e7f	0.35753247
210	0x3ea17038	0.3153093
211	0x3e847a99	0.25874785
212	0xbe171895	-0.14755471
213	0xbef2ce9e	-0.4742326
214	0x3fb12966	1.3840759
215	0x3eda2311	0.4260488
216	0xbe159389	-0.14607061
217	0x3e9e20d5	0.30884424
218	0xbe9483ae	-0.29006714
219	0x3ddbe827	0.10737639
220	0xbf5a6f25	-0.85325843
221	0xbf20526a	-0.62625754
222	0x3da11c8c	0.07866773
223	0xbe266f6b	-0.1625344
224	0xbdd71661	-0.10502315
225	0x3d839f96	0.06426923
226	0x3ddf6f06	0.10909848
227	0xbe9809f4	-0.29695094
228	0xbe5c7083	-0.21527295
229	0xbdac961a	-0.08427067
230	0x3e783fbb	0.24243061
231	0x3d45b6d8	0.048270077
232	0x3f5323ea	0.82476676
233	0x3f29ae82	0.662819
234	0x3febf930	1.8435421
235	0x3f023c39	0.5087314
236	0x3eb129c7	0.34602186
237	0xbe43c298	-0.191172
238	0x3ea574e1	0.32315734
239	0x3daeb8d4	0.08531347
240	0x3f2deaff	0.679367
241	0x3f0f6597	0.5601439
242	0x3fd5194f	1.6648349
243	0x3f139410	0.576478
244	0xbe4a351e	-0.19746825
245	0x3ec281a3	0.3798953
246	0x4005f256	2.092916
247	0x3f4271fc	0.75955176
248	0xbe9892ee	-0.29799598
249	0x3d26ec13	0.04075248
250	0x3edb9d76	0.4289357
251	0xbe265c6f	-0.16246198
252	0xbdb4b2b7	-0.0882315
253	0xbeffb1eb	-0.49940428
254	0xc017b1cc	-2.3702269
255	0xbf2d01a7	-0.67580646

input_layer.bias f4 [64]
0	0x3da67545	0.08127836
1	0x3df801ad	0.12109695
2	0x3f44b477	0.7683787
3	0x3f2c5e03	0.6733095
4	0x3d0ffe38	0.03515455
5	0x3f0f5180	0.55983734
6	0x3f2a5967	0.6654267
7	0x3f289526	0.6585258
8	0xbd2d0a2e	-0.042246036
9	0x3e9a6944	0.30158436
10	0x3d87d534	0.06632462
11	0xbf199d23	-0.60005397
12	0x3f444d18	0.76680136
13	0x3f00bbcc	0.50286555
14	0x3f01bf7d	0.5068281
15	0xbf0dddfe	-0.5541686
16	0x3ddd6436	0.10810129
17	0xbee02034	-0.4377457
18	0x3f1e80db	0.6191537
19	0xbe9ef3ca	-0.3104537
20	0x3d74a498	0.05972728
21	0x3d603a99	0.054743383
22	0xbf04823f	-0.5176124
23	0x3d217998	0.0394226
24	0xbe761020	-0.24029589
25	0x3e296e18	0.16545904
26	0xbef16d54	-0.47153723
27	0x3ea6d63a	0.32585317
28	0x3f07177f	0.5277023
29	0x3e8fcebc	0.28087413
30	0x3f2d0532	0.6758605
31	0x3eb8c074	0.3608433
32	0x3edb6364	0.42849267
33	0xbd8485fd	-0.06470869
34	0x3f101638	0.56283903
35	0xbc377c94	-0.011199135
36	0xbeebfe00	-0.46092224
37	0x3f1d1903	0.6136629
38	0xbe20a58c	-0.15688151
39	0x3f289f71	0.6586829
40	0xbedf2b96	-0.4358794
41	0x3efb11fb	0.49037156
42	0x3f339864	0.70154405
43	0x3ee97fe4	0.45605385
44	0xbee53e50	-0.44774103
45	0x3f4b6d8e	0.7946404
46	0x3eb9a619	0.36259535
47	0x3e5e7b5f	0.2172675
48	0x3d3d9d04	0.04629232
49	0xbf09c87d	-0.53821546
50	0xbee488cb	-0.44635615
51	0xbc6ac455	-0.014329036
52	0xbf043a64	-0.516516
53	0xbeb63ce4	-0.3559333
54	0x3ee66acf	0.45003363
55	0x3de1c269	0.11023409
56	0x3f031455	0.512029
57	0x3f297c94	0.66205716
58	0xbd12ba91	-0.035822455
59	0x3f115128	0.5676446
60	0xbf58abf4	-0.8463738
61	0xbf1c2fa3	-0.6101019
62	0x3f3bb133	0.7331726
63	0xbea26ecd	-0.3172516

hidden_layer_1.weight f4 [64, 64]
0	0x3d93ba13	0.07213225
1	0x3e0bcd4d	0.13652535
2	0x3e5a22aa	0.21302286
3	0x3e9aa32f	0.30202624
4	0xbe7b6de4	-0.24553639
5	0xbe034aca	-0.12821499
6	0x3e6264e5	0.221088
7	0x3e3527e7	0.17691003
8	0x3dcf894d	0.1013361
9	0xbef82b2c	-0.48470438
10	0xbedf9260	-0.43666363
11	0xbeae6404	-0.3406068
12	0x3e8dd174	0.27698863
13	0x3de805ce	0.11329232
14	0x3e8d12f1	0.27553514
15	0xbf0ec12a	-0.55763495
16	0xbf96fffc	-1.179687
17	0xbf582cd8	-0.84443426
18	0x3d891c45	0.06694845
19	0xbe8c4ba1	-0.2740145
20	0x3e82d75b	0.25554928
21	0x3e442547	0.19154845
22	0xbd844011	-0.06457532
23	0xbe83defe	-0.25756067
24	0xbe88354b	-0.2660316
25	0x3e8a381d	0.26995936
26	0xbf30a762	-0.69005406
27	0x3e56b6d1	0.20968176
28	0x3ea35005	0.31896988
29	0xbf8eef62	-1.1166804
30	0x3ea3cf8d	0.31994286
31	0x3ec6840d	0.38772622
32	0x3eaedc9f	0.34152696
33	0x3e2e1833	0.17001419
34	0x3d3a5f63	0.045501124
35	0xbeb5caaf	-0.35506198
36	0xbeea8db1	-0.45811227
37	0x3e4141b1	0.18872716
38	0xbfe019a2	-1.7507823
39	0x3e9b7cf2	0.30368763
40	0xbecf5cbc	-0.40500438
41	0x3e76fdac	0.24120206
42	0x3e23d803	0.1600037
43	0x3e276c10	0.16349816
44	0xbf5337df	-0.8250713
45	0x3d9e9901	0.07744027
46	0xbdd2f271	-0.10300148
47	0x3e319dff	0.17345427
48	0x3e8eae34	0.2786728
49	0xbf9c7103	-1.2221988
50	0xbf100d06	-0.5626987
51	0xbe94bc15	-0.29049745
52	0x3d731ec8	0.059355527
53	0xbdbcea0a	-0.09224327
54	0x3e6e1845	0.23251446
55	0xbea0f85a	-0.31439477
56	0x3e87a51a	0.2649315
57	0x3e16c28f	0.14722656
58	0xbfee897a	-1.8635705
59	0x3e6c9227	0.23102628
60	0xbfa4fdec	-1.2889991
61	0xbfaffe72	-1.3749526
62	0x3e4b1b48	0.19834626
63	0xbf4b6283	-0.7944719
64	0xbb00f89c	-0.0019679433
65	0x3cde5073	0.02713797
66	0x3d281ee3	0.04104508
67	0x3b9ea67a	0.004841623
68	0x3bb8dd1a	0.0056415917
69	0xbc5c2a16	-0.013437768
70	0xbce256e5	-0.027629325
71	0xbe06be13	-0.13158445
72	0x39e694a4	0.00043979764
73	0xbe1c841b	-0.15284769
74	0xbdf2141d	-0.118202426
75	0x3d20af4b	0.039229672
76	0xbe000d8c	-0.12505168
77	0x3d345146	0.04402282
78	0xbd63329f	-0.055468198
79	0x3d222eac	0.03959529
80	0xbdfdcca4	-0.12392548
81	0x3bd056a2	0.0063579837
82	0xbdcc19f6	-0.09965889
83	0x3d34cbe0	0.044139743
84	0x3cfa67fc	0.030567162
85	0xbdde53b6	-0.1085581
86	0xbd6aa2ac	-0.057284042
87	0x3d7d6304	0.061862007
88	0x3c77e361	0.015129895
89	0x3d3da4a9	0.04629961
90	0x3da1d0ec	0.07901177
91	0xbe04be1d	-0.12963147
92	0xbd0edff8	-0.034881562
93	0x3d63ed35	0.05564614
94	0xbd22e368	-0.039767653
95	0xbd006ea8	-0.03135553
96	0xbc8c5440	-0.017130017
97	0x3ceded9e	0.029043969
98	0x3c689e59	0.014197909
99	0x3d5db094	0.054123476
100	0x3d486e8e	0.04893356
101	0x3d129f1c	0.03579627
102	0xbdbb9dec	-0.091609806
103	0xbe111c4b	-0.14170949
104	0xbd509fac	-0.050933525
105	0x3d175e7b	0.036955338
106	0xbd2d702f	-0.042343315
107	0x3c939e81	0.018019916
108	0xbc36a120	-0.011146814
109	0xbdc184ed	-0.09449182
110	0x3c7af690	0.015317574
111	0xbddec9c1	-0.10878325
112	0xbd658e42	-0.05604387
113	0xbd6852a4	-0.056719437
114	0x3dcb6612	0.09931578
115	0xbe232ed2	-0.1593583
116	0x3db934aa	0.09043248
117	0x3db0c286	0.086308524
118	0xbdafa26c	-0.085759014
119	0xbd1c3b3f	-0.03814244
120	0xbe0c152f	-0.13679956
121	0xbdd957d9	-0.10612459
122	0x3cca0710	0.02466157
123	0xbdca8f04	-0.09890559
124	0x3d97cfe5	0.074126996
125	0xbb5f4c4a	-0.0034072571
126	0xbdd8cb02	-0.10585596
127	0xbde0be18	-0.109737575
128	0x3f248dbf	0.6427879
129	0x3e6315b9	0.22176255
130	0x3e82bb40	0.25533485
131	0x3e76e8d0	0.24112248
132	0x3eaf2d47	0.3421423
133	0x3e8c5189	0.27405956
134	0x3e783951	0.24240614
135	0x3eb7d015	0.35900941
136	0x3d951f1f	0.072813265
137	0x3dec9cdd	0.11553357
138	0x3da241fc	0.07922742
139	0x3fa2f25f	1.2730216
140	0x3ec8378d	0.39104882
141	0x3e2dfd43	0.16991143
142	0x3dba6234	0.09100762
143	0x3d9820de	0.07428144
144	0xbea3156b	-0.31852278
145	0x3ef8f9d8	0.48628116
146	0x3e3abc10	0.18235803
147	0x3d81d7bd	0.06339977
148	0xbd8a1ae2	-0.06743409
149	0xbe36ea22	-0.17862752
150	0x3ef325ce	0.4748978
151	0x3e1441ee	0.14478275
152	0x3f86e239	1.0537788
153	0xbdac2be9	-0.08406813
154	0xbe0a9717	-0.13534199
155	0x3ec3e4b0	0.38260412
156	0x3e82398b	0.25434527
157	0xbe26aafa	-0.1627616
158	0x3e85ec1c	0.261567
159	0x3e7df537	0.24800573
160	0x3e45f63d	0.19332214
161	0x3c11dc15	0.008902569
162	0x3e92f7f8	0.2870481
163	0x3d8a6093	0.06756701
164	0xbc895cd0	-0.01676789
165	0x3eb93d62	0.36179644
166	0xbe2021b8	-0.15637863
167	0x3e8bd635	0.27311864
168	0x3f8d3656	1.1032207
169	0x3ee7beb6	0.45262688
170	0x3dbda682	0.092602745
171	0x3eb0a312	0.34499413
172	0x3e3ec672	0.18630388
173	0x3eae8c19	0.3409126
174	0x3e0171a3	0.12641005
175	0x3e6ed320	0.23322725
176	0x3e7f51b5	0.24933513
177	0x3e07be01	0.13256074
178	0x3c9d2d89	0.019186752
179	0x3e9f5e7a	0.31126767
180	0x3cf50e1b	0.029913953
181	0x3d246ac5	0.040140886
182	0x3eb4d3ba	0.35317785
183	0x3de63146	0.11239867
184	0x3e72fd48	0.23729432
185	0x3ea7388b	0.32660326
186	0xbf40e775	-0.75353175
187	0x3e9b3986	0.30317324
188	0xbf1303ea	-0.5742785
189	0x3debdb88	0.11516482
190	0x3e835324	0.2564937
191	0x3eef88e8	0.4678414
192	0x3eb805aa	0.3594182
193	0x3e52b70d	0.20577641
194	0x3e415bd7	0.1888269
195	0x3e162013	0.14660673
196	0x3d5b6b71	0.05356926
197	0x3e0648d9	0.13113727
198	0x3e7833d5	0.24238522
199	0x3e22e167	0.15906297
200	0x3e4c3ff2	0.19946268
201	0x3d6bacd5	0.057537872
202	0xbdb8d27b	-0.09024521
203	0x3ec6a18d	0.38795128
204	0x3e4f583a	0.202485
205	0x3eb7662b	0.35820135
206	0x3db9fec8	0.09081799
207	0x3db9a7ac	0.09065184
208	0xbee7f1f6	-0.4530179
209	0x3e98a3fa	0.29812604
210	0x3dd866c8	0.10566479
211	0x3d01a209	0.03164867
212	0xbdd78086	-0.10522561
213	0xbeacd6f5	-0.3375775
214	0x3e8932f1	0.26796678
215	0xbd529691	-0.051413123
216	0x3e870246	0.26368922
217	0x3de42b99	0.11141128
218	0xbede007c	-0.43359745
219	0x3e778497	0.24171673
220	0x3e061900	0.13095474
221	0xbe7b0087	-0.2451192
222	0x3e9f50f0	0.31116438
223	0x3e2e4919	0.17020072
224	0x3e2bd2a0	0.16779566
225	0x3e020682	0.12697795
226	0x3e9100bb	0.2832087
227	0x3ccf5591	0.025309356
228	0xbe48f7f1	-0.19625832
229	0x3e4e8f5c	0.20171875
230	0xbd9e8220	-0.07739663
231	0x3ea894bd	0.32925978
232	0x3f247d13	0.6425335
233	0x3ebead76	0.37241715
234	0x3e17090b	0.14749543
235	0x3e17354c	0.14766425
236	0x3deecca2	0.11660124
237	0x3defb4d8	0.11704415
238	0x3e5b4b8a	0.21415535
239	0x3e02b642	0.12764838
240	0x3e51a3e8	0.20472682
241	0xbcedea81	-0.029042484
242	0xbe03eccd	-0.12883301
243	0x3e8c350f	0.2738423
244	0xbdb765ac	-0.08954939
245	0xbe6c6da3	-0.23088698
246	0x3e9cf805	0.30657974
247	0xbe0fa240	-0.14026737
248	0x3e4c9a98	0.19980848
249	0x3ea2dbbd	0.31808272
250	0xbf81299c	-1.0090823
251	0x3ea698ef	0.32538554
252	0xbf0ec329	-0.5576654
253	0xbe30da87	-0.17270862
254	0x3e293710	0.16524911
255	0x3e982478	0.29715323

hidden_layer_1.bias f4 [64]
0	0x3ebff96d	0.37494984
1	0xbe0311e2	-0.1279979
2	0x3ea1843e	0.31546205
3	0x3eb7c0d8	0.35889316
4	0x3ea8558b	0.32877764
5	0x3e7a8807	0.24465953
6	0x3eae31c2	0.34022337
7	0x3eb41fa5	0.35180393
8	0x3d99f0e8	0.07516652
9	0x3ebd7924	0.37006485
10	0x3bf62623	0.0075118705
11	0x3eab3b56	0.33443707
12	0x3ec3bc57	0.3822963
13	0x3e99b6ca	0.3002227
14	0xbd082758	-0.033240646
15	0x3ea7e299	0.32790068
16	0x3ea23010	0.31677294
17	0xbdfb1e1d	-0.12261603
18	0x3ed45728	0.41472745
19	0xbe69355c	-0.22774261
20	0xbcafe123	-0.021469658
21	0x3e18f60c	0.1493761
22	0x3e9e74a8	0.30948377
23	0x3ea6af64	0.32555687
24	0x3e263d98	0.16234434
25	0x3e668fb9	0.22515763
26	0xbcfb4b5d	-0.030675584
27	0x3ebacb3d	0.36483184
28	0x3e8cfb93	0.27535686
29	0x3ec46154	0.38355505
30	0xbd94124b	-0.072300516
31	0x3ec84741	0.39116862
32	0x3e1d0cf2	0.1533697
33	0x3e110379	0.14161481
34	0xbe1feaaa	-0.15616861
35	0x3d772d0d	0.0603457
36	0x3e54c306	0.2077752
37	0x3defb50d	0.117044546
38	0xbe1deccc	-0.15422362
39	0x3bb67ab6	0.0055688275
40	0x3e8bdbd9	0.27316168
41	0x3e9a1407	0.30093405
42	0x3d2d1839	0.04225943
43	0x3ea419dd	0.32050982
44	0x3e9172bd	0.2840785
45	0xbde370fd	-0.11105535
46	0x3eb7d592	0.3590513
47	0x3dc18a29	0.0945018
48	0x3ea8986a	0.32928783
49	0x3e8a5557	0.27018234
50	0xbdef41f9	-0.11682505
51	0xbc57558b	-0.013142954
52	0x3ea5a3fc	0.32351673
53	0x3e5309f0	0.2060926
54	0x3d933040	0.07186937
55	0x3d6a1f67	0.057158854
56	0x3eb311af	0.3497443
57	0x3ed0bb73	0.40768012
58	0x3e849ee1	0.25902465
59	0x3ea2de67	0.31810305
60	0x3e37524c	0.17902488
61	0x3ec3adf5	0.38218656
62	0xbb032053	-0.002000828
63	0xbcc2e9ae	-0.023793068

hidden_layer_2.weight f4 [64, 64]
0	0x3ec4ae55	0.38414255
1	0x3cc4dccd	0.024031067
2	0x3dc912d5	0.09818045
3	0x3e8f28a7	0.27960703
4	0x3eff05e3	0.4980918
5	0x3e171929	0.14755692
6	0x3e6f74c5	0.23384388
7	0x3ebacd39	0.36484697
8	0xbcb58c8f	-0.02216175
9	0x3e4f5810	0.20248437
10	0x3c8a234d	0.016862536
11	0x3d9781dc	0.073978156
12	0x3e3ca24c	0.18421286
13	0x3e9fa24f	0.3117852
14	0x3c69109f	0.014225154
15	0x3e828fd8	0.2550037
16	0x3f3970ee	0.7243794
17	0xc0438582	-3.0550237
18	0x3e7d268b	0.24721734
19	0xc03e7973	-2.9761627
20	0xbe0556ef	-0.13021444
21	0xbe09f356	-0.13471732
22	0x3f051ea2	0.51999867
23	0x3dfd26b9	0.123609014
24	0x3e61f8bc	0.22067541
25	0x3e09da46	0.13462171
26	0x3d61f36c	0.055163786
27	0x3e821cb0	0.25412512
28	0x3d96b2a0	0.07358289
29	0x3e8905c8	0.26762223
30	0xbde0336c	-0.10947308
31	0x3e73c78c	0.2380659
32	0x3e8e99ad	0.2785162
33	0x3e4e5882	0.2015095
34	0xbd9b8264	-0.075932294
35	0x3ee27f35	0.44237676
36	0x3e68f63a	0.22750178
37	0x3f66f669	0.9021974
38	0xbd0176ee	-0.03160756
39	0x3c73ed34	0.014888097
40	0x3ebdf17d	0.37098303
41	0x3d1ce54c	0.038304612
42	0x3dbc8621	0.092052706
43	0xbe391e73	-0.18078022
44	0x3eb2d17f	0.34925458
45	0xbee1a00d	-0.44067422
46	0x3eac4b01	0.33650973
47	0x3eb5f06d	0.35534993
48	0x3e02ebae	0.12785217
49	0x3d0c1ba8	0.034206063
50	0x3ed9491d	0.42438594
51	0x3db0b49c	0.086281985
52	0x3e994bc4	0.29940617
53	0x3c92f6a2	0.01793987
54	0xbf22d8dd	-0.6361216
55	0xbd48a2a5	-0.048983235
56	0x3e1ccfa8	0.1531359
57	0x3ebe7758	0.37200427
58	0x3d96d079	0.07363982
59	0x3dde34a2	0.10849883
60	0x3e59a05d	0.2125258
61	0x3e466b1c	0.19376796
62	0xbcfe2d3e	-0.031027433
63	0xbb034bc7	-0.002003418
64	0x3db4fb2f	0.08836972
65	0x3dced246	0.100987
66	0x3c9a359c	0.018824391
67	0xbdafaa04	-0.0857735
68	0xbd445960	-0.047936797
69	0x3c3dffe4	0.011596654
70	0xbd415e0c	-0.04720883
71	0xbdd602cf	-0.104497544
72	0x3d8ba96c	0.06819424
73	0xbc2f3ba1	-0.010695369
74	0x3dda08af	0.106461875
75	0xbdf583fc	-0.11988065
76	0x3d69222c	0.056917354
77	0x3d892291	0.06696046
78	0x3d9b21cd	0.07574806
79	0x3d4005df	0.0468806
80	0x3da08ae3	0.078389905
81	0xbe01469a	-0.12624589
82	0xbe0ed479	-0.1394824
83	0x3d4e858c	0.05042033
84	0xbda4286e	-0.08015524
85	0x3dc7b6d0	0.097516656
86	0x3ce92094	0.028457917
87	0xbdf4f6c4	-0.11961129
88	0x3d277ad4	0.040888622
89	0xb9e4e800	-0.00043660402
90	0x3d05de49	0.03268269
91	0xbde87dbd	-0.11352108
92	0x3b8fa5e9	0.0043837917
93	0xbdbd56e2	-0.09245087
94	0xbe06faa6	-0.13181552
95	0x3d653301	0.055956844
96	0x3bf8ec1b	0.0075965053
97	0x3c6dab5a	0.014506185
98	0xbc091aa0	-0.008368164
99	0x3d379a6c	0.044825003
100	0xbce1a939	-0.027546512
101	0xbcf36096	-0.029709142
102	0xbd8a0658	-0.06739491
103	0xbd94ff14	-0.07275215
104	0x3d53cb10	0.051707327
105	0x3bf003a0	0.007324651
106	0xbd76af42	-0.060225733
107	0x3d8ee015	0.06976334
108	0x3c84e991	0.016224654
109	0x3d4f5ed4	0.050627545
110	0x3d892ddf	0.06698202
111	0x3d5a3612	0.05327422
112	0xbdfe5bb7	-0.12419837
113	0x3c7b7b00	0.01534915
114	0xbd1304e8	-0.03589335
115	0x3df79a44	0.12089971
116	0xbaf9437e	-0.0019017307
117	0xbae62428	-0.0017558383
118	0x3d82a982	0.06379987
119	0x3ceb3547	0.028711928
120	0xbdb979eb	-0.09056457
121	0xbc969a82	-0.018384222
122	0xbd8b60e8	-0.06805593
123	0xbd9e8651	-0.077404626
124	0xbdc12669	-0.09431154
125	0x3dcc2faa	0.09970029
126	0xbdf025e7	-0.11725979
127	0xbaa56a00	-0.0012620091
128	0x3e8c0b9e	0.27352613
129	0x3dadf98d	0.08494864
130	0x3e883b74	0.2660786
131	0x3ec6b19e	0.38807386
132	0x3e016b56	0.12638602
133	0x3e245763	0.1604896
134	0x3e4c88cb	0.19974057
135	0x3f0688a1	0.5255223
136	0x3da4036a	0.08008464
137	0x3eb5996b	0.3546861
138	0xbd889752	-0.06669487
139	0x3e5506ff	0.2080345
140	0x3e66bf35	0.22533877
141	0x3e81cf75	0.2535359
142	0x3c983ff0	0.018585175
143	0x3e9f28c4	0.3108579
144	0x3f0ee45e	0.5581721
145	0x3c33429e	0.010941176
146	0x3eb7512e	0.35804123
147	0xbfae5ed8	-1.3622694
148	0xbddaa08c	-0.10675153
149	0x3e9ad526	0.30240744
150	0x3ee149da	0.44001657
151	0x3ed6afd0	0.4193101
152	0x3e248b16	0.16068682
153	0x3e84a311	0.2590566
154	0xbd896e24	-0.06710461
155	0x3e5fbce4	0.218494
156	0x3eba77e2	0.36419588
157	0x3e9fb587	0.31193182
158	0x3c672540	0.014108002
159	0x3e933d6b	0.28757796
160	0x3e7c1635	0.24617846
161	0x3d9fdf67	0.078062825
162	0x3e0e727b	0.13910858
163	0xbf2ea66c	-0.6822269
164	0x3ec25523	0.3795558
165	0x3e720032	0.23632887
166	0x3e03d96b	0.12875907
167	0x3d63d722	0.05562509
168	0x3e7f59ff	0.24936675
169	0x3e31a5fa	0.17348471
170	0xbdc995ad	-0.098430015
171	0x3ea1b2f9	0.31581858
172	0x3e81912e	0.25306076
173	0xbdf3a7d1	-0.11897243
174	0x3e969d65	0.29416957
175	0x3ee79ab7	0.45235226
176	0x3e8efb6e	0.279262
177	0xbea146d9	-0.31499365
178	0xbe04924c	-0.12946433
179	0x3d3d8e3f	0.046278235
180	0x3e701086	0.23443803
181	0x3ecf0063	0.40429983
182	0xbe07da18	-0.1326679
183	0x3d5d8696	0.05408343
184	0x3e8ff280	0.281147
185	0x3e4ca039	0.19982995
186	0x3ec0d483	0.37662134
187	0x3e9f346c	0.31094682
188	0x3dcbe739	0.099562116
189	0x3e80ba6f	0.25142238
190	0x3dba73fc	0.091041535
191	0x3b748ea8	0.0037316475
192	0x3ea9db4b	0.3317512
193	0xbb7152fd	-0.0036823147
194	0x3eb396fa	0.35076123
195	0x3e82789b	0.2548264
196	0x3e9f0434	0.31057894
197	0x3e570ca5	0.21000917
198	0x3e54bd49	0.20775332
199	0x3e946cf7	0.28989384
200	0x3daeaa5e	0.08528589
201	0x3eb8b9d8	0.36079288
202	0x3dc80831	0.097671874
203	0x3e80896f	0.25104854
204	0x3eb52f27	0.35387537
205	0x3e53899a	0.2065796
206	0x3d28cbf7	0.04121014
207	0x3e86d973	0.26337776
208	0x3f247750	0.64244556
209	0xbf37c0e3	-0.71778697
210	0x3e7a99a6	0.24472675
211	0xbfaa1648	-1.328805
212	0xbd77aa51	-0.06046516
213	0x3e0c84da	0.13722554
214	0x3f01c89e	0.5069674
215	0x3f003c6e	0.5009221
216	0x3e91f906	0.28510302
217	0x3e91d8cb	0.28485712
218	0xbd69aab7	-0.057047572
219	0x3eacb25b	0.33729824
220	0x3ea6916c	0.32532823
221	0x3ea376e1	0.31926635
222	0x3d436fc8	0.047714025
223	0x3db1668f	0.086621396
224	0x3ea78fc5	0.32726875
225	0x3cc8e302	0.024522308
226	0x3da0c0eb	0.07849296
227	0xbe41dde8	-0.18932307
228	0x3e8f0c2a	0.27938968
229	0x3ec56f3c	0.38561428
230	0xbd5a42b9	-0.053286288
231	0xbd6c2385	-0.05765106
232	0x3e40bd94	0.18822318
233	0x3e8fcbfb	0.28085312
234	0x3c4ce26a	0.012505153
235	0x3d231b14	0.039820746
236	0x3e60546e	0.21907207
237	0xbe6d5ded	-0.23180361
238	0x3e9fa6f2	0.31182057
239	0x3ef22cf0	0.4729991
240	0x3e9ca5e6	0.3059532
241	0xbe1bf9e8	-0.1523205
242	0xbd525c81	-0.05135775
243	0xbc2ac4d5	-0.010422905
244	0x3dd8d657	0.10587757
245	0x3ec1c580	0.37845993
246	0xbea6a20b	-0.32545504
247	0x3dcb2d04	0.099206954
248	0x3e56b752	0.20968369
249	0x3e7feee7	0.24993478
250	0x3eb24acd	0.34822693
251	0x3e1ae43a	0.15126124
252	0x3e98b781	0.29827502
253	0x3e89b2e8	0.26894307
254	0x3dae4906	0.08510022
255	0xbde4f644	-0.11179784

hidden_layer_2.bias f4 [64]
0	0x3ea9b8ea	0.3314889
1	0xbc1c4866	-0.0095387455
2	0x3eae4a90	0.34041262
3	0x3ebe50b5	0.3717095
4	0x3d3552a5	0.04426827
5	0x3ebc4fbd	0.36779585
6	0x3e8c416b	0.2739366
7	0xbe11f015	-0.1425174
8	0x3ce4301a	0.027854968
9	0x3e2fbf69	0.17162861
10	0xbc9021aa	-0.017594177
11	0x3d1f0c8c	0.038830325
12	0x3d5f0dcf	0.05445653
13	0x3e5535b5	0.20821269
14	0x3ec3d4a8	0.3824818
15	0x3e9100f4	0.2832104
16	0xbe162b49	-0.1466495
17	0x3e6d23c7	0.23158179
18	0xbdb33d6a	-0.08751948
19	0xbdf7d3bd	-0.12100933
20	0x3dac1d9c	0.08404085
21	0x3e1f2572	0.15541628
22	0x3ec216f5	0.3790814
23	0x3ea9ee4f	0.33189628
24	0xbca66968	-0.020313933
25	0xbcbeff45	-0.023315081
26	0xbe0de45e	-0.13856646
27	0x3e90e23a	0.28297597
28	0x3eac8fb3	0.33703384
29	0xbdd29500	-0.10282326
30	0xbd6268fa	-0.055275895
31	0xbd7d1270	-0.06178516
32	0xbc1fb7fd	-0.009748456
33	0x3ecfe1d8	0.40601993
34	0x3dbff7ee	0.09373461
35	0x3d23db04	0.04000379
36	0x3ec292e0	0.38002682
37	0x3ebcc03d	0.36865416
38	0x3d259b66	0.040431403
39	0xbc10edbc	-0.008845743
40	0x3e318807	0.17337047
41	0xbd76b654	-0.060232475
42	0xbe291be2	-0.16514543
43	0x3ecc5bb9	0.3991373
44	0x3de9ef1d	0.1142256
45	0xbdab718f	-0.08371269
46	0x3e9de5a1	0.30839255
47	0xbd903bef	-0.070426814
48	0x3ea9ac7e	0.33139414
49	0x3ecacb9e	0.39608473
50	0x3ecdcdf7	0.401962
51	0x3e014fe6	0.12628135
52	0x3d4cfe99	0.05004749
53	0x3e475128	0.19464552
54	0x3ec66474	0.38748515
55	0x3e09ed68	0.1346947
56	0x3dc5e2d0	0.09662402
57	0x3ea42db4	0.3206612
58	0xbdcf838c	-0.101325125
59	0x3eda17ab	0.42596182
60	0x3d9aac1e	0.0755236
61	0xbda02e32	-0.07821311
62	0xbe0b054b	-0.13576238
63	0xbce27332	-0.02764282

output_layer.weight f4 [2, 64]
0	0x3eebf725	0.46086994
1	0x3ceb3162	0.028710071
2	0x3ea0bfc7	0.31396315
3	0x3ea39fe7	0.31957933
4	0xbcf42425	-0.029802391
5	0x3eeeb8fc	0.46625507
6	0x3ea2ddd9	0.3180988
7	0x3c94733b	0.018121352
8	0x3c3fb844	0.011701647
9	0x3ee5cf38	0.44884658
10	0xbd4c8265	-0.04992904
11	0xbd937591	-0.072001584
12	0xbc375bcf	-0.0111913225
13	0x3eb10db4	0.34580767
14	0x3e00e040	0.12585545
15	0x3ed7975b	0.42107663
16	0xbd9022f4	-0.07037917
17	0x3eb3a3c3	0.35085878
18	0xbca5f29b	-0.020257285
19	0xbc986922	-0.018604819
20	0x3de74412	0.1129228
21	0xc00831f1	-2.1280482
22	0x3ec92f29	0.39293793
23	0x3e9a3fbf	0.3012676
24	0xbd7ea9bb	-0.062173586
25	0xbd8e2df0	-0.06942356
26	0xbccd0366	-0.025026035
27	0x3eb1a18c	0.34693563
28	0x3eca44cf	0.39505622
29	0xbfee0ffd	-1.8598629
30	0x3fd29c5e	1.645397
31	0x3deef09a	0.11666985
32	0x3ec2cfac	0.38049066
33	0x3e6f253d	0.23354049
34	0xbd9a62c7	-0.075383715
35	0xc00154ed	-2.0208085
36	0x3e80753b	0.2508944
37	0x3ebb192b	0.3654264
38	0xbf66b7af	-0.9012403
39	0xbdaf2973	-0.08552828
40	0x3ee072f8	0.43837714
41	0x3cddb85f	0.027065454
42	0xbd08cd08	-0.033398658
43	0x3eaad248	0.33363557
44	0x3ed7ad36	0.42124337
45	0xbdf1d190	-0.11807549
46	0x3e7695ce	0.24080583
47	0xbd258c0a	-0.040416755
48	0x3ead703c	0.3387469
49	0x3ebe5c77	0.3717992
50	0x3e73ab0e	0.23795721
51	0x3f842595	1.0323969
52	0x3b60d1f6	0.0034304834
53	0x3ebb722d	0.36610547
54	0x3e3cbf5f	0.18432377
55	0xbf9a5d3d	-1.2059704
56	0xbf510c2d	-0.81659204
57	0x3e9c9fc4	0.30590641
58	0xbd91c78d	-0.071181394
59	0x3e9855bb	0.29752907
60	0xbd96fae0	-0.07372069
61	0x3d391260	0.04518354
62	0x3d8d72d9	0.06906671
63	0xbf11a6a5	-0.56894904
64	0x3da60276	0.08105938
65	0xbd8d54f6	-0.06900971
66	0x3ecda013	0.4016119
67	0x3e8d9141	0.27649882
68	0xbda17624	-0.07883862
69	0x3e0c6164	0.13709027
70	0x3ec8d1cd	0.39222565
71	0x3c7a055d	0.015260068
72	0xbd863534	-0.065531164
73	0x3dbfad20	0.09359193
74	0x3cfdf2cc	0.030999564
75	0xbdecc387	-0.115607314
76	0xbd18c9c9	-0.037301812
77	0x3ee9aac6	0.45638102
78	0x3efeb4fe	0.4974746
79	0x3e7d9066	0.24762115
80	0x3c771bd4	0.015082318
81	0x3e91f5e6	0.28507918
82	0xbdc82c93	-0.09774127
83	0x3d6a33a8	0.05717817
84	0xbdaa9dde	-0.08330892
85	0x3fc4ac72	1.5365126
86	0x3ebaf1b8	0.36512542
87	0x3e9c9525	0.30582538
88	0x3d1b2ef4	0.037886575
89	0x3c8921e1	0.016739788
90	0xbb3d90a2	-0.002892532
91	0x3edd3c0e	0.4320988
92	0x3ec3e750	0.38262415
93	0xbebe3411	-0.371491
94	0xc0013826	-2.019052
95	0xbd62a2e8	-0.05533114
96	0xc0132e1d	-2.2996895
97	0x3eb2dce9	0.34934166
98	0xbdadab27	-0.0847991
99	0x3e864dcc	0.2623123
100	0x3eeb2a66	0.45930785
101	0x3ea130ba	0.31482488
102	0xbfc128ff	-1.5090636
103	0xbda6c072	-0.08142175
104	0xbde942e3	-0.11389711
105	0xbda58b30	-0.080831885
106	0xbbc87aa4	-0.0061181355
107	0x3eb78c3e	0.35849184
108	0xbe4be1ba	-0.19910327
109	0x3d0d32f9	0.03447244
110	0x3ec05e49	0.37571934
111	0x3cfa26e8	0.03053613
112	0x3eb3df70	0.35131407
113	0x3eb2184f	0.3478417
114	0x3ee12363	0.4397231
115	0xbfaae4b9	-1.3351051
116	0xbdd714c6	-0.10502009
117	0x3ec8b8bb	0.39203438
118	0x3eeb7497	0.45987388
119	0xbf7f096c	-0.9962375
120	0xbebcd1f3	-0.3687893
121	0x3eca2ca6	0.3948719
122	0x3d988ef9	0.07449145
123	0x3edddeca	0.43334037
124	0x3d261cf7	0.040554967
125	0xbd0a7264	-0.033800498
126	0xbdcd5b20	-0.10027146
127	0xbfce2acf	-1.6106814

output_layer.bias f4 [2]
0	0x3e915944	0.28388417
1	0x3e38bdff	0.18041228
